MLAgentDevProject/results/BreadCrumb8/MoveToGoal.onnx (onnx, 75061 bytes, 7 tensors)

network_body._body_endoder.seq_layers.0.weight f4 [128, 6]
-0.39985144 -0.85415584 -0.25610164 -0.15816621 -0.011375822 -0.17511971 0.00653379 0.34404004
-0.13826399 0.17399552 0.23682684 -0.0017697059 0.8839656 -0.38545194 0.4062928 -1.0030783
-0.22858699 -0.34140378 0.5423244 0.30613646 0.561616 -0.0039756866 -0.28161326 0.193663
-0.33390185 -0.6202789 -0.24423446 0.0034815033 -0.94158196 0.18714952 -0.45394483 -0.021107957
0.31123602 -0.27707618 0.40212476 0.010846833 0.4080731 -0.25442457 0.35223314 -0.78642315
-0.15202615 0.066827774 0.5813346 0.1331667 -0.12747063 -0.0072225067 0.10284752 0.0624488
-0.5401703 -0.38317752 0.19178762 0.44887167 0.21471015 0.11309022 0.43338493 0.08400729
-0.04881519 -0.24832805 0.0004289503 0.14367145 0.6236954 -0.685138 -0.60596347 -0.3151228
1.1416584 -0.18981342 0.048364077 -0.056095075 0.43997166 -0.59727263 -0.3512178 0.0066945273
-0.41921863 0.078231394 -0.07051246 -0.10748222 0.18504813 0.03251451 -0.38809073 -0.22764091
-0.13507357 -0.2475118 -0.08254637 -0.14712408 -0.19805889 -0.035029516 -0.5641056 0.064231254
0.32400963 0.009233062 -0.18246719 0.041299857 -0.108613685 0.34443662 0.017368088 0.36009458
-2.359303e-05 0.1348753 0.69633573 0.43829542 -0.1652541 0.4659983 -0.18765168 -0.5009292
0.8785454 0.5366067 -0.026242333 -0.24346973 0.20403506 -0.16771372 0.91804284 0.2564762
-0.1139408 -0.15021552 -0.5651262 -0.42548823 0.24695157 0.5723265 -0.15279067 -0.19455387
-0.18622763 -0.08169457 0.4767187 0.18091492 0.54031855 -0.52445304 0.79261786 1.1021284
-0.79761374 0.5321195 0.3420288 -0.08379447 0.10818029 -0.17040797 0.015813855 -0.9847575
0.18298124 -0.0870316 0.6879583 0.76559573 -0.27783194 0.64093465 -0.18397348 -0.37080154
-0.3123263 0.23795608 -0.5246706 -0.6761599 0.82604975 -0.30015874 -0.49794966 0.15863931
0.13115256 -0.07858845 0.41252452 0.112009384 0.18326026 -0.5191715 -0.11211785 0.14040095
0.5857225 -0.351193 -0.42548457 -0.23905155 0.6497537 0.0007749047 -0.5784603 0.08645241
0.27236184 -0.16384368 -0.06721264 0.16551295 0.1569711 -0.61274207 -0.5534179 0.0970955
0.44920862 -0.38176906 -0.013970368 -0.38569266 -0.042687826 -1.1609529 -0.48787218 -0.20756492
-0.29499328 -0.54553443 -0.18412937 0.40678763 0.32850906 -0.029731207 0.16620919 -0.18810192
-0.57192016 -1.1208158 0.2369205 0.72876084 -0.30966565 -0.20387603 -0.1870621 0.49623415
0.08783238 -0.63735217 -0.6685036 0.098915435 -0.12344149 0.27912393 -0.034556445 -0.633209
0.039659116 -0.30800462 0.12448355 -0.0827857 -0.079819545 0.5395907 -0.2960534 -0.21293905
-0.32630464 -0.44970155 0.0035713408 -0.02738677 0.48324916 0.45529413 0.3988728 0.26870587
0.33785427 0.85466224 -0.14949298 -0.2652302 -0.26819098 0.12515041 -0.3521069 -0.34142306
0.40757862 -0.014211499 0.097705 -0.5768323 -0.4229541 0.6389991 0.062533595 0.3706408
0.354743 0.7014856 -0.18544364 -0.8152464 0.24359398 -0.5465247 0.46829167 0.17834164
0.17132011 -0.20200007 -0.2290891 0.27185735 0.2589784 -0.4435809 -0.19681276 0.4676785
00000000: 54b9 ccbe f5a9 5abf c11f 83be 53f6 21be
00000010: a861 3abc 9552 33be 6719 d63b 0426 b03e
00000020: 1395 0dbe e22b 323e bc82 723e 7af5 e7ba
00000030: 924b 623f f559 c5be 9c05 d03e df64 80bf
00000040: b512 6abe 7acc aebe c6d5 0a3f ebbd 9c3e
00000050: 11c6 0f3f 7a46 82bb 9d2f 90be 984f 463e
00000060: 2ff5 aabe 99ca 1ebf 9918 7abe ef29 643b
00000070: 840b 71bf 20a4 3f3e 756b e8be 98ea acbc
00000080: 545a 9f3e eedc 8dbe 4ce3 cd3e eab6 313c
00000090: f5ee d03e f043 82be e757 b43e 0753 49bf
000000a0: beac 1bbe 00dd 883d 58d2 143f da5c 083e
000000b0: a987 02be c7aa ecbb b8a1 d23d 50ca 7f3d
000000c0: 9a48 0abf d82f c4be f963 443e 82d2 e53e
000000d0: fadc 5b3e d89b e73d a1e4 dd3e 040c ac3d
000000e0: 70f2 47bd b549 7ebe bce4 e039 9c1e 133e
000000f0: 80aa 1f3f 3465 2fbf 6c20 1bbf c757 a1be
00000100: dd21 923f 735e 42be 6919 463d f3c3 65bd
00000110: f743 e13e dce6 18bf d2d2 b3be c45d db3b
00000120: d3a3 d6be c837 a03d d668 90bd a31f dcbd
00000130: 427d 3d3e ef2d 053d d4b3 c6be b31a 69be
00000140: ba50 0abe bc73 7dbe 120e a9bd b2a7 16be
00000150: f3cf 4abe 1c7b 0fbd 3969 10bf ad8b 833d
00000160: 97e4 a53e 4546 173c aed8 3abe 0a2a 293d
00000170: da70 debd ff59 b03e 8547 8e3c 515e b83e
00000180: a5e9 c5b7 c01c 0a3e 0f43 323f 4268 e03e
00000190: 5f38 29be 5497 ee3e c327 40be e53c 00bf
000001a0: 5ae8 603f 0f5f 093f 29fa d6bc 2150 79be
000001b0: 91ee 503e 25bd 2bbe db04 6b3f d950 833e
000001c0: cb59 e9bd 19d2 19be 1cac 10bf 98d9 d9be
000001d0: dfe0 7c3e fd83 123f 2875 1cbe 2139 47be
000001e0: 75b2 3ebe 7c4f a7bd 7914 f43e c341 393e
000001f0: 5152 0a3f 8e42 06bf 01e9 4a3f 8b12 8d3f
00000200: 6a30 4cbf fc38 083f 661e af3e 6f9c abbd
00000210: a18d dd3d 6d7f 2ebe 0f8c 813c 1119 7cbf
00000220: 6f5f 3b3e a03d b2bd 091e 303f 15fe 433f
00000230: fd3f 8ebe 4b14 243f 8b63 3cbe b3d9 bdbe
00000240: 3ce9 9fbe c2aa 733e d050 06bf d118 2dbf
00000250: ff77 533f 68ae 99be 42f3 febe 5872 223e
00000260: db4c 063e fbf2 a0bd 6a36 d33e 2d65 e53d
00000270: 94a8 3b3e 6ce8 04bf 0b9e e5bd 44c5 0f3e
00000280: e9f1 153f 92cf b3be 1dd9 d9be eec9 74be
00000290: 4256 263f f922 4b3a f915 14bf f60d b13d
000002a0: 0373 8b3e a3c6 27be c8a6 89bd 3a7c 293e
000002b0: 08bd 203e aadc 1cbf ccac 0dbf 01da c63d
000002c0: acfe e53e 3c77 c3be f8e3 64bc 8279 c5be
000002d0: 6ed9 2ebd 1b9a 94bf 62ca f9be e68b 54be
000002e0: 5c09 97be 25a8 0bbf 698c 3cbe 7846 d03e
000002f0: 5732 a83e dc8e f3bc be32 2a3e ca9d 40be
00000300: 5c69 12bf e476 8fbf 4a9b 723e 1290 3a3f
00000310: 7f8c 9ebe e1c4 50be 358d 3fbe 6712 fe3e
00000320: 76e1 b33d 8329 23bf 0d23 2bbf 2d94 ca3d
00000330: e4ce fcbd 55e9 8e3e 0f8b 0dbd fc19 22bf
00000340: 9971 223d c8b2 9dbe 3bf1 fe3d 8d8b a9bd
00000350: 6e78 a3bd 9e22 0a3f 5094 97be b20c 5abe
00000360: 6711 a7be 483f e6be 280d 6a3b 385a e0bc
00000370: 6f6c f73e 501c e93e 0e39 cc3e d193 893e
00000380: 3cfb ac3e 25cb 5a3f b014 19be 41cc 87be
00000390: 5450 89be 6e27 003e 5b47 b4be 01cf aebe
000003a0: 25ae d03e 59d7 68bc 8f19 c83d 48ab 13bf
000003b0: 718d d8be 7295 233f 9d11 803d a2c4 bd3e
000003c0: e0a0 b53e 8f94 333f f0e4 3dbe fdb3 50bf
000003d0: b370 793e 0be9 0bbf edc3 ef3e 319f 363e
000003e0: 8a6e 2f3e 1bd9 4ebe 5596 6abe e330 8b3e
000003f0: d198 843e 091d e3be 4989 49be 8e73 ef3e

network_body._body_endoder.seq_layers.0.bias f4 [128]
0.012751087 -0.098150425 0.03151543 -0.102858566 -0.062807895 0.0690509 -0.038092773 -0.048192635
-0.038505312 -0.036846247 -0.028301524 -0.032709446 0.026142368 -0.06689672 0.042204414 -0.071227975
-0.0052400795 0.03774522 0.030988745 0.014238442 0.16599293 0.078184985 0.023496903 0.12975667
0.026503876 -0.1272307 0.059313353 0.02003366 0.10513679 0.026957108 -0.022528622 -0.0142221125
0.06323294 -0.038343273 -0.015566914 0.021937527 -0.08713973 -0.08928637 0.034958713 -0.0756585
0.016182397 -0.03145158 0.120402865 0.009133305 -0.014353844 -0.038165428 -0.081921 -0.039160155
-0.019090232 0.0041175643 -0.010148466 0.017440662 0.06891942 -0.037190937 0.16472879 -0.1170214
0.021330226 0.01486147 0.017213112 -0.0040285494 -0.021360701 -0.0514188 0.035153415 0.026717322
-0.020083262 -0.0075244983 0.024610193 -0.10103416 0.012109031 0.03842609 0.043578483 -0.013437366
0.034385137 0.10644867 0.059377592 -0.049286194 -0.024370234 -0.08325763 -0.05293195 0.051918123
-0.03551497 -0.024592927 -0.008230648 -0.027835323 0.012977611 0.046851065 -0.037694786 0.0428547
0.0064330017 -0.0057796803 -0.08895926 -0.09779871 0.070102096 -0.041484952 0.06719606 -0.069358
0.02844297 0.18674575 -0.021678532 0.06098213 0.02516085 -0.038663965 -3.020029e-05 -0.094808385
0.028205771 -0.024624888 0.0036213284 -0.067748986 0.041959696 -0.011318473 0.069127746 0.08799143
0.011226836 0.015553034 0.053519618 -0.076331116 0.1589116 0.056196224 -0.122303404 0.04032322
0.0088867545 -0.1361781 0.11608722 -0.030074889 0.0012655993 -0.07644559 -0.0054565067 -0.061811645
00000000: efe9 503c 1703 c9bd 5316 013d 83a7 d2bd
00000010: 6da1 80bd 8f6a 8d3d 2b07 1cbd a465 45bd
00000020: bfb7 1dbd 17ec 16bd 99d8 e7bc 57fa 05bd
00000030: 8528 d63c 2601 89bd 89de 2c3d f9df 91bd
00000040: f9b4 abbb bb9a 1a3d 1cdc fd3c 5b48 693c
00000050: 0dfa 293e 731f a03d 947c c03c efde 043e
00000060: a81e d93c c448 02be 8ff2 723d a11d a43c
00000070: f551 d73d 27d5 dc3c f28d b8bc dd03 69bc
00000080: 4680 813d d60d 1dbd 5f0c 7fbc 54b6 b33c
00000090: 5176 b2bd c6db b6bd de30 0f3d d8f2 9abd
000000a0: f290 843c 5fd3 00bd c795 f63d dca3 153c
000000b0: 632c 6bbc 5a53 1cbd 32c6 a7bd 6666 20bd
000000c0: 1e63 9cbc a2ec 863b c045 26bc b8df 8e3c
000000d0: a025 8d3d 8655 18bd aaae 283e eaa8 efbd
000000e0: babc ae3c 867d 733c 8302 8d3c ec01 84bb
000000f0: a3fc aebc 859c 52bd 07fd 0f3d 49de da3c
00000100: a785 a4bc 1190 f6bb 519b c93c ffea cebd
00000110: f564 463c ad64 1d3d 5a7f 323d 6628 5cbc
00000120: 6ed7 0c3d c301 da3d eb35 733d 52e0 49bd
00000130: 16a4 c7bc fa82 aabd 2ccf 58bd 19a8 543d
00000140: 2578 11bd 1b77 c9bc d7d9 06bc e706 e4bc
00000150: 0ca0 543c e7e6 3f3d d965 1abd 6988 2f3d
00000160: eecb d23b 7963 bdbb 4630 b6bd b14a c8bd
00000170: b091 8f3d 20ec 29bd 179e 893d 910b 8ebd
00000180: 3b01 e93c 473a 3f3e 2d97 b1bc 66c8 793d
00000190: 201e ce3c 1b5e 1ebd a156 fdb7 e62a c2bd
000001a0: ca0f e73c 22ba c9bc cf53 6d3b fbbf 8abd
000001b0: eedd 2b3d 1e71 39bc d992 8d3d da34 b43d
000001c0: c3f0 373c 27d2 7e3c 6337 5b3d 7d53 9cbd
000001d0: b9b9 223e 032e 663d 357a fabd f629 253d
000001e0: c099 113c 4672 0bbe 23bf ed3d 9d5f f6bc
000001f0: 77e2 a53a 818f 9cbd 7fcc b2bb 352e 7dbd

network_body._body_endoder.seq_layers.2.weight f4 [128, 128]
-0.039105326 0.026263071 0.19050108 -0.07130301 -0.09169958 -0.02662235 -0.012007584 -0.13395521
0.09218791 0.0059058997 -0.08791924 0.09334112 0.041773215 0.09168816 -0.07065666 -0.091432884
-0.11621522 -0.016349806 -0.06622059 0.077110596 -0.038812943 -0.1198648 -0.026948603 0.17208892
-0.10898584 -0.1540744 0.07704705 -0.027327782 -0.0082344655 0.091804445 -0.014994859 -0.032623705
0.034872897 -0.048151795 0.094581276 0.05268521 0.011182145 0.1166309 0.01553433 -0.009803852
0.07159783 0.19281682 0.13766718 -0.14414877 -0.07424355 0.04310534 -0.022732764 -0.028160458
0.08239507 -0.0043226867 0.0066412506 -0.05378341 -0.14885323 -0.14052214 0.03252351 -0.07137355
0.09022614 0.08431062 0.015738752 0.069187194 -0.13450131 -0.0657597 -0.11165151 0.13405034
0.04742613 -0.030784737 -0.06650777 0.09328488 0.03304167 -0.16762453 -0.0779935 0.06957768
-0.08963564 -0.18255314 -0.0847299 -0.12709768 -0.078694195 0.03584302 0.071199164 -0.06404822
-0.019340176 0.023343228 0.021172596 0.005439236 -0.086815566 -0.011720601 -0.2937713 0.12975912
0.04588826 0.013978428 -0.08865008 -0.14859627 0.006924393 -0.06889092 0.068354115 -0.077102326
-0.04688481 0.20274875 -0.019478338 -0.13180366 0.17831823 0.16873217 -0.024308154 -0.031276874
-0.16689903 0.008155152 -0.03570763 -0.009370421 0.28433996 0.07863402 -0.06824771 -0.07215123
-0.10575004 0.01688098 -0.014652124 -0.13802628 -0.14221242 0.04206129 -0.07851993 0.0025777365
-0.040784694 -0.12938368 0.07858399 -0.041219566 0.18458045 -0.12359959 -0.09969304 -0.062308002
-0.020430356 -0.01452754 -0.109610684 0.065230384 0.03194181 0.09206294 0.017323796 0.026310053
-0.106570095 0.1731506 -0.019376386 -0.0028984204 0.075125165 0.044648398 -0.1214507 0.01073715
0.15963028 -0.077501744 0.048830252 -0.08294553 -0.06496282 -0.20801957 0.013784988 0.09651565
0.09312428 0.038070623 0.0973366 0.17397207 -0.024786029 0.053132255 0.039154153 -0.034849517
0.0045445524 -0.0449939 0.0102752345 0.12808202 -0.0008912235 0.03520898 -0.25166637 -0.17468996
-0.025597654 -0.110484175 0.12539761 -0.068529 0.05927766 -0.23122245 -0.071433015 -0.11047051
0.11627187 0.017126588 0.06847441 0.13461043 0.19517156 -0.0082249865 -0.02644925 0.008649638
0.106901295 -0.05399509 0.03472535 0.08697971 0.07164444 -0.083668485 0.09608409 -0.057367366
-0.08023023 0.06645723 -0.038747735 0.06386913 0.007719735 0.0048738923 0.06788332 0.011553851
-0.042032443 0.11529064 0.029511444 -0.020957863 -0.1716221 -0.13538504 -0.0929074 0.113633156
0.19909535 -0.04777693 -0.056501538 -0.0034353295 0.0662701 0.06186617 -0.03996007 0.19386515
0.0065602404 -0.045093916 0.090047255 -0.05478123 -0.05102818 -0.046690226 0.17343168 -0.038725995
0.042640675 -0.14474252 -0.05178973 -0.047227636 0.016121825 0.0025825466 0.21372958 -0.20510522
-0.12366966 -0.096617356 -0.007064529 -0.11154677 0.063296214 0.18158942 0.025459986 0.06564599
0.027646918 -0.008148418 0.121939994 -0.24882431 -0.070154004 0.041198462 -0.048575405 0.043788556
-0.12926902 -0.16531783 0.13183634 -0.010466712 -0.037088607 -0.06271868 -0.023909098 0.23975857
00000000: e82c 20bd a725 d73c b712 433e 5007 92bd
00000010: fdcc bbbd 1d17 dabc 75bb 44bc 8e2b 09be
00000020: 04cd bc3d 4786 c13b 010f b4bd a129 bf3d
00000030: 641a 2b3d 01c7 bb3d 70b4 90bd 2a41 bbbd
00000040: 3f02 eebd 07f0 85bc a99e 87bd 29ec 9d3d
00000050: 52fa 1ebd ad7b f5bd 51c3 dcbc 1438 303e
00000060: f833 dfbd aec5 1dbe d8ca 9d3d 83de dfbc
00000070: dae9 06bc f803 bc3d ffac 75bc 6fa0 05bd
00000080: e2d6 0e3d d13a 45bd d4b3 c13d 72cc 573d
00000090: 5135 373c 2edc ee3d b483 7e3c 56a0 20bc
000000a0: e2a1 923d c671 453e a0f8 0c3e bc9b 13be
000000b0: 010d 98bd 3a8f 303d 103a babc c3b0 e6bc
000000c0: bfbe a83d 53a5 8dbb d99e d93b fe4b 5cbd
000000d0: fb6c 18be 09e5 0fbe 5f37 053d 4c2c 92bd
000000e0: 7cc8 b83d 0cab ac3d 8eee 803c 04b2 8d3d
000000f0: b6ba 09be 06ad 86bd 8ca9 e4bd 7e44 093e
00000100: e741 423d 4630 fcbc 3a35 88bd 250c bf3d
00000110: b456 073d c4a5 2bbe 0ebb 9fbd be7e 8e3d
00000120: e492 b7bd 36ef 3abe df86 adbd e525 02be
00000130: 6c2a a1bd 21d0 123d ded0 913d b72b 83bd
00000140: 4a6f 9ebc 4c3a bf3c 2772 ad3c 9e3b b23b
00000150: 5ccc b1bd c307 40bc 3169 96be 93df 043e
00000160: 54f5 3b3d c705 653c 2c8e b5bd 9f29 18be
00000170: 05e6 e23b af16 8dbd 3efd 8b3d d3e7 9dbd
00000180: 490a 40bd 5e9d 4f3e 0991 9fbc 8af7 06be
00000190: 0e99 363e 20c8 2c3e e521 c7bc 2e1c 00bd
000001a0: 94e7 2abe 309d 053c 2a42 12bd 6586 19bc
000001b0: 0295 913e e00a a13d 75c5 8bbd 06c4 93bd
000001c0: 7a93 d8bd fb49 8a3c 760f 70bc c356 0dbe
000001d0: 22a0 11be 7648 2c3d 0fcf a0bd 3eef 283b
000001e0: da0d 27bd 287d 04be a5f0 a03d d9d5 28bd
000001f0: a802 3d3e c821 fdbd dd2b ccbd ad36 7fbd
00000200: 905d a7bc eb04 6ebc 917b e0bd 8297 853d
00000210: 6ad5 023d 7f8b bc3d a2ea 8d3c 2e88 d73c
00000220: 6c41 dabd 644e 313e 3abb 9ebc 6df3 3dbb
00000230: 39db 993d 3de1 363d 25bb f8bd dfea 2f3c
00000240: 1f76 233e 3cb9 9ebd 3b02 483d 59df a9bd
00000250: 3a0b 85bd 1503 55be 6eda 613c ffa9 c53d
00000260: f1b7 be3d f1ef 1b3d 6958 c73d bc25 323e
00000270: 120c cbbc 35a1 593d 1b60 203d 5ebe 0ebd
00000280: 78ea 943b 864b 38bd 7559 283c ef27 033e
00000290: ffa0 69ba 4b37 103d 6ada 80be ede1 32be
000002a0: 2cb2 d1bc 8745 e2bd 3b68 003e ef58 8cbd
000002b0: 22cd 723d 94c5 6cbe 794b 92bd 5d3e e2bd
000002c0: f21f ee3d 0f4d 8c3c 503c 8c3d 51d7 093e
000002d0: 0edb 473e 18c2 06bc 19ac d8bc 36b7 0d3c
000002e0: 11ef da3d f529 5dbd 2b3c 0e3d 6b22 b23d
000002f0: 52ba 923d 625a abbd bcc7 c43d 0bfa 6abd
00000300: bf4f a4bd ba1a 883d f2b5 1ebd d2cd 823d
00000310: d5f5 fc3b 2cb5 9f3b 6906 8b3d 5d4c 3d3c
00000320: 362a 2cbd 801d ec3d fcc1 f13c d3af abbc
00000330: b4bd 2fbe 60a2 0abe 3c46 bebd 80b8 e83d
00000340: a7df 4b3e beb1 43bd 286e 67bd 4423 61bb
00000350: 9eb8 873d 6267 7d3d 2cad 23bd 9684 463e
00000360: 49f7 d63b 66b4 38bd b26a b83d 4862 60bd
00000370: ed02 51bd 403e 3fbd 1398 313e 269f 1ebd
00000380: fda7 2e3d 6237 14be 7821 54bd c471 41bd
00000390: eb11 843c f13f 293b eddb 5a3e 1a07 52be
000003a0: 8546 fdbd 52df c5bd 917d e7bb a272 e4bd
000003b0: 72a1 813d 94f2 393e 7691 d03c 6871 863d
000003c0: ca7b e23c f180 05bc adbb f93d cdcb 7ebe
000003d0: e7ac 8fbd b8bf 283d 01f7 46bd a15b 333d
000003e0: 195f 04be 1449 29be 1b00 073e 927c 2bbc
000003f0: 39ea 17bd a772 80bd 03dd c3bc 4583 753e

network_body._body_endoder.seq_layers.2.bias f4 [128]
-0.040539213 -0.040163703 0.016456842 -0.0119551495 -0.03962846 -0.007677904 0.0005583976 -0.022814263
-0.018765267 -0.043165922 -0.04893782 -0.0066706967 -0.027721295 0.0049919053 -0.03452716 -0.06474186
-0.056283746 -0.055422697 0.0061753136 -0.04701708 -0.02751421 -0.0077389367 0.00068300957 -0.046241
0.026654115 -0.03183068 -0.021600131 -0.05414222 -0.022127474 -0.046247683 -0.047923442 -0.05953292
0.03639562 -0.041375086 -0.03529529 -0.004588934 -0.053843156 -0.01190154 0.025054744 -0.00336258
-0.04680771 -0.010720504 0.008184434 -0.044296924 -0.046389643 -0.01952861 -0.021273388 -0.02749115
-0.05184581 -0.03501483 -0.008167149 -0.0120559875 -0.00762504 -0.04101446 -0.053843956 -0.015355572
-0.015410866 -0.022315169 -0.0012012742 -0.018481912 0.007992494 -0.03426011 0.013674136 -0.021453302
-0.009930841 -0.011549504 -0.012784961 -0.0077984757 -0.060053453 -0.03898528 -0.01299484 -0.018120972
-0.035097446 0.010397113 0.016610045 -0.043861013 -0.027164051 -0.035436526 -0.03336773 0.014497436
-0.03560825 0.0042902073 -0.052673504 -0.022128934 -0.026177999 -0.012057359 -0.043011934 -0.004246698
-0.018562406 0.013089981 -0.0039438237 -0.050467003 -0.04421739 -0.005659668 -0.025464144 0.006366889
-0.021173408 -0.012771877 0.006922449 -0.04751928 -0.03792317 0.005038719 -0.06213946 -0.027064893
-0.02026913 0.013263615 0.01457609 -0.033612624 -0.03183107 -0.03735812 -0.049487155 -0.03222579
-0.05470032 -0.04663428 0.0006079532 -0.012566305 0.0082033165 -0.04243297 -0.0021532685 -0.048996475
-0.034831397 -0.04749784 -0.004789605 0.0062724855 0.0011913048 -0.0044518653 0.028071934 -0.022179427
00000000: 720c 26bd b282 24bd 80d0 863c 88df 43bc
00000010: 7451 22bd ed96 fbbb 6e61 123a fae4 babc
00000020: 9eb9 99bc c0ce 30bd 0673 48bd dc95 dabb
00000030: c517 e3bc 2393 a33b 5a6c 0dbd 6197 84bd
00000040: c989 66bd e902 63bd 495a ca3b fb94 40bd
00000050: 7b65 e1bc e896 fdbb ff0b 333a 3467 3dbd
00000060: bb59 da3c e360 02bd c2f2 b0bc 3cc4 5dbd
00000070: ad44 b5bc 366e 3dbd 5f4b 44bd cbd8 73bd
00000080: 9313 153d ec78 29bd cb91 10bd c55e 96bb
00000090: a48a 5cbd adfe 42bc 9b3f cd3c bb5e 5cbb
000000a0: 71b9 3fbd 0ea5 2fbc 0118 063c b170 35bd
000000b0: 1103 3ebd 77fa 9fbc 8745 aebc 1f35 e1bc
000000c0: 465c 54bd b66b 0fbd 81cf 05bc 7a86 45bc
000000d0: 79db f9bb c7fe 27bd 7b8b 5cbd f095 7bbc
000000e0: db7d 7cbc 4dce b6bc 1374 9dba 6167 97bc
000000f0: f3f2 023c 5454 0cbd 7c09 603c d6be afbc
00000100: f7b4 22bc 213a 3dbc 0378 51bc 5b8a ffbb
00000110: 9cfa 75bd 07af 1fbd 4fe8 54bc 6f72 94bc
00000120: 57c2 0fbd a758 2a3c ca11 883c 9ba7 33bd
00000130: 2587 debc e425 11bd 9aac 08bd a786 6d3c
00000140: f5d9 11bd de94 8c3b 2cc0 57bd bd47 b5bc
00000150: 3e73 d6bc 3b8c 45bc 482d 30bd e327 8bbb
00000160: 3010 98bc 5c77 563c 313b 81bb 7db6 4ebd
00000170: 4b1d 35bd bc74 b9bb 2e9a d0bc 56a1 d03b
00000180: db73 adbc 2341 51bc b6d5 e23b 94a3 42bd
00000190: 5355 1bbd d71b a53b f285 7ebd 32b7 ddbc
000001a0: 720b a6bc a24f 593c 8dd0 6e3c 64ad 09bd
000001b0: 4c61 02bd d404 19bd 0bb3 4abd 31ff 03bd
000001c0: 710d 60bd 9603 3fbd 0c5f 1f3a e7e2 4dbc
000001d0: 3467 063c 32ce 2dbd da1d 0dbb 87b0 48bd
000001e0: 5eab 0ebd 188d 42bd 1ef2 9cbb 6c89 cd3b
000001f0: 8e25 9c3a f4e0 91bb 1df7 e53c a1b1 b5bc

action_model._continuous_distribution.log_sigma f4 [1, 2]
-0.1947528 -0.12359182
00000000: 476d 47be b51d fdbd

action_model._continuous_distribution.mu.weight f4 [2, 128]
0.0060538994 -0.0010316633 0.03103905 0.034358766 0.008834779 0.012512418 0.06834525 0.03301917
-0.0018794145 0.012437941 -0.005207766 0.005208304 0.011960661 0.016789548 0.025618123 -0.0028090167
0.02599444 0.0018936563 0.04464577 0.0038347736 0.026891157 0.0285726 0.04754868 0.0055044913
0.052715313 0.015193122 -0.03376994 -0.0028449732 0.038997844 -0.0035624558 -0.022697601 -0.019062035
-0.034028254 0.033016033 0.021661703 0.044197682 0.007280454 0.014250532 0.06988362 0.020930396
-0.0029844455 0.03213616 0.023414927 0.056448907 -0.012344246 0.010825567 0.09380862 0.0033598642
-0.038020022 0.007356493 0.028133592 -0.053122148 0.0054220287 -0.02309356 -0.00075477903 0.029444495
0.0066594603 0.014843772 -0.030260513 -0.047055434 0.017743003 0.017767461 0.074360214 -0.0457633
0.035723478 0.09282374 0.01370861 0.06233929 0.0052147694 0.019356536 0.013764981 -0.0057236627
0.0055083875 -0.0002048587 0.055686403 0.05084157 0.06313236 0.023805663 0.011154072 0.07840769
0.02808237 0.028529787 0.0042143557 0.03525383 -0.017141037 0.012842255 0.016221633 0.0738854
0.0024873235 0.010377154 -0.003471488 0.01137018 0.0037331237 -0.010542998 -0.010665651 0.0867895
0.076829664 0.040971015 0.041764904 -0.01096303 -0.00079591165 0.0076170675 0.018108724 -0.031217063
0.004796276 -0.012288736 0.052581716 -0.004096146 0.023491109 -0.023320574 -0.00082312996 0.0433883
-0.007429906 -0.014999038 -0.050052736 -0.053763945 0.004265735 -0.029861474 0.0222914 0.01590695
0.018118866 0.01545561 0.0061558643 0.015834827 0.055161577 -0.04439751 0.016116176 0.00789202
-0.024473215 0.028654352 0.05606896 -0.04256237 0.023510292 0.04969448 -0.05612745 0.00048774012
0.026277715 0.006894464 -0.04934544 -0.040565126 0.03580484 0.062453218 -0.0012571819 0.015281538
-0.007857654 0.017319707 -0.015614509 0.0026353092 0.04251167 0.05220019 -0.02184916 0.01134882
0.066381715 0.028439462 0.06384991 0.008172945 0.016163277 0.025307309 -0.008967055 0.010339593
-0.056651365 0.0464035 0.033850495 0.020954138 0.0099192215 0.05164052 0.07728402 0.063041516
0.0061600553 0.07644935 0.08047117 0.012693837 0.025134217 -0.030072358 -0.020312041 0.02981005
0.0052270913 0.011682466 0.045864794 0.007921333 0.05380637 0.01956672 0.019338109 0.053852335
0.04154786 -0.023544123 0.0006201856 -0.031539336 0.0603983 0.029177047 0.037154485 -0.0020583367
-0.005444335 -0.029687783 0.04911992 -0.011490639 0.021988375 -0.0038579577 0.03298277 0.036986824
-0.02020293 0.06830935 -0.029935643 0.023294015 0.016523018 -0.009534671 0.040034264 0.03851742
0.017317496 0.06440094 0.027092462 0.05208203 -0.014527038 0.0519589 -0.0047659907 -0.03277931
0.0165882 0.07830171 -0.038336456 0.015796294 0.00079064595 0.052007843 -0.0036965394 0.007280813
-0.027150441 0.021130016 0.013592758 0.0023474405 0.02741918 0.06877211 3.598284e-06 -0.038438976
0.06649332 0.07040634 0.032089155 0.033861324 0.017431447 -0.03257004 0.015949277 -0.0063143955
-0.0050450494 -0.009749707 -0.07852132 -0.014319853 -0.05665608 -0.0152099235 0.053484343 -0.024701776
0.0070031243 -0.013735304 0.054573037 -0.0036679925 0.0063420977 -0.011495549 0.05971575 0.040598087
00000000: ca5f c63b e038 87ba 9b45 fe3c c7bb 0c3d
00000010: c0bf 103c e300 4d3c 98f8 8b3d 1c3f 073d
00000020: b056 f6ba 81c8 4b3c e8a5 aabb 6caa aa3b
00000030: a6f6 433c 3c8a 893c 19dd d13c 7b17 38bb
00000040: 4bf2 d43c 9034 f83a 7cde 363d d350 7b3b
00000050: d84a dc3c 1611 ea3c 68c2 423d 055f b43b
00000060: 03ec 573d 93ec 783c 5952 0abd bb72 3abb
00000070: 34bc 1f3d 1778 69bb 52f0 b9bc fc27 9cbc
00000080: 3661 0bbd d23b 073d e273 b13c a108 353d
00000090: e090 ee3b 107b 693c 251f 8f3d 3976 ab3c
000000a0: b096 43bb 35a1 033d a9d0 bf3c f836 673d
000000b0: 853f 4abc b85d 313c bc1e c03d 2b31 5c3b
000000c0: e2ba 1bbd bc0e f13b 6b78 e63c 9c96 59bd
000000d0: 46ab b13b b52e bdbc 5ddc 45ba 9535 f13c
000000e0: 9a37 da3b 4b33 733c e5e4 f7bc 33bd 40bd
000000f0: c659 913c 118d 913c 2b4a 983d 4c72 3bbd
00000100: c852 123d 5f1a be3d 149a 603c 7c57 7f3d
00000110: a8e0 aa3b 9991 9e3c 8486 613c 908d bbbb
00000120: b47f b43b 57cf 56b9 6d17 643d 403f 503d
00000130: 8a4b 813d 1804 c33c 92bf 363c 3694 a03d
00000140: 000d e63c 4db7 e93c 9418 8a3b 5266 103d
00000150: 5c6b 8cbc 5268 523c 3be3 843c 3b51 973d
00000160: 5d02 233b f004 2a3c e781 63bb fe49 3a3c
00000170: 6ca7 743b 8abc 2cbc fcbe 2ebc b2be b13d
00000180: df58 9d3d 39d1 273d ad11 2b3d 489e 33bc
00000190: baa4 50ba 9898 f93b bf58 943c edba ffbc
000001a0: 142a 9d3b b256 49bc ed5f 573d f738 86bb
000001b0: 6d70 c03c ca0a bfbc 51c7 57ba eeb7 313d
000001c0: 9276 f3bb 86be 75bc 1904 4dbd 9537 5cbd
000001d0: 94c7 8b3b 0da0 f4bc 749c b63c 4b4f 823c
000001e0: 046e 943c 8739 7d3c 22b7 c93b 0ab8 813c
000001f0: 1bf1 613d 2ada 35bd 1206 843c 884d 013c
00000200: 0d7c c8bc 88bc ea3c 91a8 653d e155 2ebd
00000210: a898 c03c 708c 4b3d e6e5 65bd 5fb7 ff39
00000220: 5d44 d73c f5ea e13b 721e 4abd 9e27 26bd
00000230: 19a8 123d f2ce 7f3d 06c8 a4ba 6a5f 7a3c
00000240: 64bd 00bc 0fe2 8d3c ffd3 7fbc 27b5 2c3b
00000250: b820 2e3d decf 553d 02fd b2bc 67f0 393c
00000260: 23f3 873d e0f9 e83c bec3 823d d1e7 053c
00000270: d968 843c 4651 cf3c 8eea 12bc 6567 293c
00000280: 430b 68bd 9911 3e3d d1a6 0a3d 03a8 ab3c
00000290: 3b84 223c 0385 533d 1647 9e3d e91b 813d
000002a0: 4ada c93b 7a91 9c3d 12ce a43d d0f9 4f3c
000002b0: 46e6 cd3c 4e5a f6bc 7065 a6bc 3534 f43c
000002c0: 0548 ab3b d067 3f3c b9dc 3b3d 7bc8 013c
000002d0: 1164 5c3d 634a a03c f46a 9e3c 4494 5c3d
000002e0: 172e 2a3d 9bdf c0bc f393 223a 642f 01bd
000002f0: 3564 773d b404 ef3c 4d2f 183d 29e5 06bb
00000300: 6466 b2bb cb33 f3bc f831 493d 3c43 3cbc
00000310: f720 b43c cad5 7cbb f118 073d 7f7f 173d
00000320: 9d80 a5bc c6e5 8b3d 983b f5bc 17d3 be3c
00000330: 485b 873c 4f37 1cbc f8fa 233d 71c4 1d3d
00000340: 6cdd 8d3c a4e4 833d 03f1 dd3c f753 553d
00000350: d002 6ebc dbd2 543d 072c 9cbb 9943 06bd
00000360: fae3 873c a65c a03d b006 1dbd 3b67 813c
00000370: 5a43 4f3a 2d06 553d a441 72bb e393 ee3b
00000380: 9a6a debc db18 ad3c 29b4 5e3c 84d7 193b
00000390: 309e e03c 64d8 8c3d 0c7a 7136 3072 1dbd
000003a0: a62d 883d 3331 903d eb6f 033d 2cb2 0a3d
000003b0: 65cc 8e3c 2a68 05bd 0fa8 823c fde8 cebb
000003c0: f150 a5bb 3cbd 1fbc c9cf a0bd d19d 6abc
000003d0: 3510 68bd 0b33 79bc 6612 5b3d 615b cabc
000003e0: 777a e53b 0a0a 61bc fa87 5f3d b462 70bb
000003f0: 5fd1 cf3b d457 3cbc 8198 743d 2e4a 263d

action_model._continuous_distribution.mu.bias f4 [2]
-0.012369225 0.0060481275
00000000: 4aa8 4abc 5f2f c63b
