MLAgentDevProject/results/BreadCrumb10/MoveToGoal/MoveToGoal-121090.pt (torch, 441366 bytes, 36 tensors)

network_body._body_endoder.seq_layers.0.weight f4 [128, 6]
000000 a3 d2 43 3f 9d 1a 15 3f 5c cd f7 3e 71 84 be 3e
       0.7649328 0.58243734 0.48398864 0.3721042
000010 c7 36 a4 3e bb ff e6 be ba f2 bc 3e 42 97 b4 3e
       0.32073042 -0.45116982 0.36903936 0.3527165
000020 c6 50 b7 3e 70 03 0b 3f 92 d5 a6 3e 29 9f 89 3c
       0.35803813 0.5430212 0.32584816 0.016799526
000030 89 ea 88 be 60 d6 6f 3d ed 63 ef be 58 1c 19 3e
       -0.26741436 0.058554053 -0.46755925 0.14952219
000040 7a 9b 52 bd 10 84 46 3e d7 2f 6f be 7f 08 2e 3e
       -0.051417805 0.19386315 -0.23358093 0.16995429
000050 7f 32 8f be 95 01 47 3c 4c 32 db be 37 0c ea 3e
       -0.27968213 0.012146373 -0.4281181 0.45712444
000060 98 f6 02 bf ec 56 65 bf e1 af ba be 36 73 ad be
       -0.5115752 -0.8958576 -0.3646231 -0.3387696
000070 ca 04 e3 3e f3 36 28 be a8 62 95 be 40 24 67 3e
       0.4433959 -0.16427211 -0.2917683 0.22572422
000080 f9 17 ef be 6b d0 8e 3e c0 04 3b 3f 92 ab 02 bf
       -0.46697977 0.27893385 0.7305412 -0.51043046
000090 17 df 8d 3f 31 e2 fe 3e 12 19 bb bd 4e 68 cd bd
       1.1083707 0.49781945 -0.09135641 -0.1002966
0000a0 be bc 83 3d 4f a3 70 bd e2 5f aa bc b1 28 bf 3e
       0.06432484 -0.058749493 -0.020797674 0.37335733
0000b0 de 34 0e 3f f7 2e 09 3f e0 ff 26 bf c4 19 19 bf
       0.5554942 0.5358729 -0.65234184 -0.5980494
0000c0 66 4c c8 3e 37 29 01 3d 6d 40 0a 3e ae 12 0e be
       0.39120787 0.031533446 0.13501139 -0.13874313
0000d0 17 a7 04 be 92 a1 37 bf ae 43 8b 3e 4f 81 5d be
       -0.12954365 -0.7173091 0.27200073 -0.21631359
0000e0 1e 8e b6 3e 22 6e d6 be 1c 38 82 3e 72 b6 42 bf
       0.35655302 -0.418809 0.25433433 -0.7605964
0000f0 6f 1a bb 3e 6c b6 57 be 10 8c e5 3e 43 aa c1 bd
       0.36543605 -0.21065682 0.44833422 -0.09456303
000100 e1 17 08 bf b7 65 5d bd a4 4a 3d 3d 20 85 26 be
       -0.53161436 -0.05405208 0.04621376 -0.1626172
000110 eb 24 33 3f db f9 52 3e 46 f7 33 bf cf 14 c7 be
       0.6997821 0.20603125 -0.70299184 -0.38883063
000120 54 e8 11 bd 8a 13 b9 3e 57 91 12 be 96 6f 36 be
       -0.035621956 0.3614772 -0.14313255 -0.17816004
000130 c7 f5 9f 3e b4 ce 13 3f 7f d3 69 be da b3 9a be
       0.312422 0.5773728 -0.22834586 -0.3021534
000140 8c bf 86 be c0 67 d8 3d 2b 25 09 3f 43 34 8c 3d
       -0.26318014 0.10566664 0.5357234 0.06845906
000150 1a 75 bb be 50 a8 ce bd 35 47 8d 3e bc cf 76 3c
       -0.3661278 -0.10090697 0.2759339 0.015064176
000160 a2 04 1e 3c a6 ba 00 be f9 7e 20 bf 73 bd 53 3f
       0.009644659 -0.125712 -0.62693745 0.8271095
000170 0c 68 01 3e ec b7 8b be c1 4f 04 be 5f ab af 3d
       0.12637347 -0.2728876 -0.12921049 0.08577608
000180 7e dc a2 be 9b a1 36 be f9 9c 56 bd c9 71 f8 3e
       -0.31808847 -0.17835085 -0.052395795 0.4852431
000190 d5 6a e7 be 56 bf 0c 3f ff 2b 32 3f 74 8d 51 be
       -0.45198694 0.54979455 0.6959838 -0.20464116
0001a0 79 3d 1f bd 18 ed 01 bf 8f e5 5d be bd 92 4a 3e
       -0.038876984 -0.507524 -0.21669601 0.19782539
0001b0 da 05 c8 3e fd 19 13 3e 10 32 9d be af 24 8e 3f
       0.39066964 0.14365382 -0.30702257 1.1104945
0001c0 04 20 db be e2 20 3e 3d d0 6c ea be 38 c7 80 be
       -0.42797863 0.04641808 -0.45786142 -0.25151992
0001d0 36 ef fa 3d 31 a1 8b 3e 30 90 5d be 88 59 03 be
       0.12252657 0.27271417 -0.21637034 -0.12827122
0001e0 a6 9c 06 3f 2e 90 fa be 54 77 8c 3e 45 de 0c be
       0.52582777 -0.48938125 0.2743479 -0.13756664
0001f0 41 2d ff be 7a ad 37 3e e9 a8 d8 bd 86 36 33 3d
       -0.49839213 0.1793727 -0.10579092 0.04375317
000200 a5 de 67 be af 3f 9e 3e 3e 41 6b 3e e6 06 9d 3e
       -0.22643526 0.30907962 0.22974107 0.30669326
000210 27 82 10 3e c7 83 7c 3e 92 fa 3a 3f fe 0a 4b 3f
       0.14112149 0.24659644 0.7303859 0.7931365
000220 7c 86 7b 3e d9 63 db bd 40 e7 97 3e 80 9c 90 3d
       0.2456302 -0.10712404 0.29668617 0.070611
000230 72 4c 2f 3e 88 64 ce be 89 7d 7d 3f fc e1 64 bf
       0.17119005 -0.40311074 0.99019676 -0.89407325
000240 37 fa 2d bf 4a 69 94 3e 83 11 1c bf ba b6 a2 3f
       -0.6795992 0.2898658 -0.6096422 1.2712014
000250 6d 99 32 3f f5 c9 d8 3e 1d e1 80 bf 7d 67 16 3f
       0.6976536 0.4234158 -1.0068699 0.5875166
000260 bf 28 1d 3e 1b 56 d1 be cc 5c 42 3f 95 63 d3 3e
       0.15347575 -0.40886006 0.75922847 0.41286913
000270 5f 1b ae be 9c 71 5a 3e d6 a1 dd bd d7 93 1e 3c
       -0.34005257 0.21332401 -0.108218834 0.009678802
000280 29 39 00 3c 59 c7 f9 be 73 07 53 3e 12 93 06 bd
       0.007826128 -0.48784903 0.2060831 -0.0328551
000290 cb d6 14 3f aa b2 02 be be b1 5d 3f 2a 46 88 3e
       0.5814025 -0.12763467 0.8659934 0.2661603
0002a0 8a 52 66 3e e3 5d b1 be 2b 73 06 3f 71 a6 48 be
       0.22492424 -0.34641942 0.5251948 -0.19594742
0002b0 cb 5e 86 be f8 30 00 bd a2 53 bd bd ce d0 29 bd
       -0.26244196 -0.0312967 -0.09244467 -0.041458897
0002c0 48 cf 30 be b4 c2 f2 3d c5 f2 1f bf 3d 99 46 3e
       -0.17266572 0.11853543 -0.6247981 0.19394393
0002d0 6c 27 79 3f 6e 41 ed be 44 6e ee 3e cb 6e 3b 3e
       0.9732578 -0.4633898 0.465685 0.18303983
0002e0 4e 19 00 bf 7c 8a 95 be a1 d0 3d 3f e1 08 43 3f
       -0.5003861 -0.29207218 0.7414647 0.76185423
0002f0 5a bd 8a bd 19 fb 8c 3e 38 9b ce 3d cf ef 90 3e
       -0.06774397 0.27535322 0.100881994 0.2830796
000300 01 f7 e9 be 2d 55 32 3f ad 0d 38 bf 52 8e c8 bd
       -0.45696262 0.6966122 -0.7189587 -0.097927704
000310 a3 ad 96 bc 8c a6 17 3e 63 dc d2 be b0 da 1e 3f
       -0.018393343 0.14809626 -0.41183767 0.6205244
000320 90 11 22 be f4 15 f9 be 22 41 4a 3d 06 49 48 bf
       -0.15827012 -0.4864956 0.04937852 -0.78236425
000330 f2 c5 1d be 54 55 8d 3e ce cb d1 be 82 9e e7 be
       -0.15407541 0.27604163 -0.40975803 -0.4523812
000340 50 3e c6 3d c4 58 fb be ce dc b1 bc ab c2 60 be
       0.09679854 -0.4909116 -0.021711733 -0.2194926
000350 aa e4 25 3f c1 45 58 bf b9 7d 14 3e 95 c6 7e 3e
       0.6480204 -0.84481436 0.14501084 0.2488044
000360 38 71 e4 be 43 f3 49 3e db 90 ec 3e 00 4c 04 3f
       -0.4461763 0.19721703 0.46204266 0.51678467
000370 35 ed 5d bf 09 67 e5 3e 5f f6 f8 be 5f 1a d6 3b
       -0.86690074 0.44805172 -0.48625466 0.0065339054
000380 cb 0a 84 3e 7e a6 0d 3f cd 2e c4 be 21 5c ee 3e
       0.25789484 0.5533217 -0.38316956 0.46554664
000390 30 09 ed 3e 65 6f 93 3e 74 b2 34 3d 35 fa 00 bc
       0.46296072 0.28795925 0.0441155 -0.007872154
0003a0 5f ee 4f bf cc 08 3b 3d 23 e1 71 be 57 0f cb be
       -0.812231 0.045662686 -0.23621039 -0.3966014
0003b0 b6 7e 2e bf 4a 85 ab 3e e3 60 e7 3e 90 7d 12 3f
       -0.68162096 0.3350013 0.45191106 0.57222843
0003c0 bd 98 58 be 46 f1 03 3f a3 f1 0c be 5f dd f2 be
       -0.21152015 0.5154003 -0.13764052 -0.47434518
0003d0 d5 b9 18 bf 35 74 bb bd cd 57 80 3f 53 de b9 3e
       -0.5965856 -0.09153024 1.0026795 0.36302432
0003e0 21 28 0d 3e fa 33 14 3f 78 64 5a be 98 1a 1d 3f
       0.13784839 0.5789181 -0.21327388 0.61368704
0003f0 f6 da a5 be aa 7a 79 3f 1a 01 de 3d 4b 3d 05 3f
       -0.32393616 0.97452796 0.10840054 0.5204665

network_body._body_endoder.seq_layers.0.bias f4 [128]
000000 48 c2 6c 3d 84 40 d9 3c 3e be f9 bc 06 92 6a bd
       0.05780247 0.026520021 -0.030486222 -0.057268165
000010 f0 17 3c 39 fa ff 5c 3d d5 67 62 3d 03 bf 5a bd
       0.00017937995 0.053955056 0.055274803 -0.05340482
000020 e6 bc 37 bd d7 55 32 bd 6e 07 49 3d 66 36 2b 3d
       -0.044857882 -0.043538895 0.04907935 0.041799925
000030 b1 0c b3 bd 22 98 04 3c c3 30 41 3c 22 70 ac bc
       -0.08742655 0.008092912 0.011791411 -0.021049563
000040 7d 5c 20 be ca e4 96 bb 61 10 de bc 91 97 89 bc
       -0.15660281 -0.0046049105 -0.02710742 -0.016795905
000050 7e c5 ba bc 0b 02 b8 bd 69 66 81 3d 1b 84 83 3c
       -0.02279925 -0.08984765 0.06318361 0.016054204
000060 8f 49 a4 bc b0 c1 cc bc 95 ea 62 bb 98 51 09 bd
       -0.020054607 -0.024994701 -0.0034624685 -0.03352508
000070 4e 31 aa 3b 6f e2 51 bd 13 1e e0 3d df 24 b0 bc
       0.005193866 -0.051241335 0.10943236 -0.021501957
000080 81 f0 9a 3d ea 4f e4 bc 36 02 7c bd 53 76 88 bd
       0.07565404 -0.027870137 -0.061525546 -0.066631936
000090 ce 89 e5 bb d1 c7 30 bd c4 d2 48 3d bc 82 6c bd
       -0.007004953 -0.04315931 0.049029127 -0.057741866
0000a0 2e 22 d7 3b e1 b1 69 bd 6d 1e 2d 3c 07 35 00 bd
       0.006565354 -0.057054404 0.010566336 -0.03130057
0000b0 19 34 4b bc cd 02 ef 3d 65 ee a4 bd 48 10 be bc
       -0.012402558 0.11670456 -0.08053283 -0.023201123
0000c0 ee cf 85 bd c2 15 9d bd 45 2d 99 3d 08 b0 d3 bc
       -0.065338 -0.076701656 0.074793376 -0.025840774
0000d0 de fc 9e bd 25 09 a8 ba e4 e8 94 3d a9 b9 eb 3c
       -0.07763074 -0.0012820108 0.07270983 0.028775053
0000e0 4e 27 50 bd 12 3d 64 bc 4a a7 fe 3c f2 8d 1a bd
       -0.050818734 -0.013930576 0.031085629 -0.037733026
0000f0 4f 33 9a bd 31 1c ee 3d 3f 8d 27 3d d8 1d 23 3d
       -0.075293176 0.11626471 0.040906187 0.039823383
000100 63 9b c6 bc ca 84 36 bd cc 5b 87 bc 41 18 11 be
       -0.024244016 -0.04456023 -0.016523264 -0.14169408
000110 c7 40 16 3e ef e1 a0 bb ce 71 da bc cc 69 d2 bc
       0.14673148 -0.004909746 -0.026665594 -0.025685214
000120 bf e0 60 3d 77 48 98 bd 82 55 d1 3c 64 49 e1 bd
       0.054901835 -0.074356966 0.025553469 -0.11000326
000130 a4 72 80 bc 64 df 91 3d df 75 1c bd d5 0f 07 bd
       -0.015679665 0.071226865 -0.038198348 -0.032974083
000140 5e 04 9a 3d c0 6d c8 bd 84 76 bc bc 80 21 32 bd
       0.07520364 -0.09786558 -0.023005731 -0.04348898
000150 25 af 9c 3d 63 6e 92 bd 0b 62 31 bb 1f b6 6d bd
       0.07650594 -0.07149961 -0.0027066495 -0.058035012
000160 5d 2f 1a bc c3 3a bb 3d b7 c9 86 3d 92 de f8 bb
       -0.009410706 0.09142067 0.06581443 -0.007594892
000170 ef e4 b7 3d 0f ff 70 bc 91 ab fb bc b0 51 a8 3d
       0.089792125 -0.014709248 -0.030721458 0.08218706
000180 67 05 e3 bb 08 a6 63 bc d9 06 40 3b 29 c4 0e bc
       -0.0069281342 -0.013894565 0.0029300957 -0.00871376
000190 e1 5f 47 3d 35 a3 db 3c f8 cd ca 3c a5 63 0b bd
       0.04867542 0.026811222 0.024756417 -0.034030575
0001a0 00 a3 fa 3a e9 cf 1a bd 70 c8 a7 bc 94 74 3b bb
       0.0019122064 -0.037795935 -0.020481318 -0.0028603422
0001b0 68 6e 8b 3d 94 e3 15 bd 1c a0 9d bc 89 a3 dd bd
       0.06808168 -0.03659399 -0.019241385 -0.108222075
0001c0 ef 0e 8f 3c b0 4b 85 bd af 3e 77 b8 4a cd ae bd
       0.017463176 -0.06508577 -5.8947768e-05 -0.085352495
0001d0 7e 35 59 bc 3f cc 9b bd 3a 6a 13 bd 5e 7f 8b ba
       -0.013257382 -0.07607316 -0.035989977 -0.0010642817
0001e0 94 60 68 3d b6 bf 79 3c e0 00 f5 bc 61 6b 90 3d
       0.05673273 0.015243461 -0.029907644 0.07051731
0001f0 ce 2d 7f bc 11 36 97 3b 73 12 2b 3d 53 d7 c8 bc
       -0.0155748855 0.0046145995 0.04176564 -0.024516737

network_body._body_endoder.seq_layers.2.weight f4 [128, 128]
000000 74 8d 9f 3c a9 6d 66 3d 22 31 80 bd 82 d7 c3 3d
       0.01947663 0.056256924 -0.06259371 0.09562589
000010 1f ba 85 bd fc 22 a1 3c f8 2a d6 3c e5 db 21 bd
       -0.065296404 0.019670002 0.026143536 -0.03951635
000020 ce 17 3c 3e b2 6d e3 bc aa fe fc bd e4 d7 ba 3c
       0.18368456 -0.027762268 -0.12353261 0.022808023
000030 61 ef 9f ba 0d 86 15 3e 98 0d f8 3b 57 97 da bd
       -0.0012202078 0.14601918 0.00756998 -0.10673397
000040 6b 8c a1 bd 37 6f 4a 3d b6 4f 49 be 19 05 da 3d
       -0.07888111 0.04942247 -0.19659314 0.106455036
000050 0e 5b dd bd 02 ac 16 bc 42 85 00 3d 6b 21 d9 3d
       -0.10808383 -0.009196283 0.031377085 0.10602077
000060 7a e2 5e 3d ce 6c 87 bd 92 ce 3d 3d 2d c6 02 bd
       0.054415204 -0.0661255 0.04633958 -0.031927276
000070 01 27 ab bd e9 13 fb bc 73 d7 81 3d c8 a2 2f bd
       -0.08357049 -0.030649142 0.06339922 -0.04287985
000080 a2 a1 f3 bd 87 b2 81 bd 2f 45 00 3d 2a 89 84 3d
       -0.118960634 -0.063328795 0.03131598 0.064714745
000090 2c 22 44 3d 57 f8 9b bd 62 b9 2c bc 60 a6 d0 bd
       0.04788415 -0.076157264 -0.010542246 -0.101879835
0000a0 cd 81 97 bd e5 b0 a2 3c 4f c5 fd 3c 8f cb 07 3d
       -0.073978044 0.01985974 0.030977873 0.033153113
0000b0 da 2e 75 3d ad fd 39 3d 29 3f 5b bc 02 06 98 3d
       0.059859134 0.04540794 -0.013381758 0.07423021
0000c0 03 bc 31 be d2 97 20 3d 49 05 2e be 2c 86 03 3e
       -0.17356877 0.039207287 -0.16994204 0.12844151
0000d0 8b ce 28 3a 33 f8 01 be 1a ab 1f 3d 59 a5 9a 3c
       0.00064394687 -0.12692337 0.038981535 0.018877672
0000e0 dc b5 87 3d d4 23 7a 3c b8 7e cc bc 94 ed 9a bd
       0.06626484 0.015267331 -0.024962768 -0.07564846
0000f0 84 37 99 bc 78 1f f7 3a 06 9b 19 3d dd af f5 bd
       -0.01870323 0.0018853983 0.037501357 -0.11996434
000100 28 10 39 bd 88 5d 27 be fd 5e 9f bd 72 d2 ae 3d
       -0.045181423 -0.16344273 -0.077817895 0.08536233
000110 07 e8 1e 3e 4b de 6a 3d e4 07 46 bd 20 41 8e 3d
       0.15518199 0.0573409 -0.04834737 0.06946015
000120 33 05 20 be 65 99 13 be 1c eb 04 3e 12 9f 4d be
       -0.15626983 -0.14413984 0.12980312 -0.20080212
000130 10 59 d1 3c 44 3e 35 be 14 d0 c7 bd ec 92 2e bd
       0.025555164 -0.17699534 -0.09756485 -0.042620584
000140 d6 94 d7 bc a5 2b 01 3e f2 31 9f bd ca 3d b7 3d
       -0.026316088 0.12614305 -0.07773198 0.08947332
000150 e2 f9 03 3e 53 d5 08 be d9 0b 87 bd c3 f7 b0 bd
       0.12888291 -0.13362627 -0.06594057 -0.08641007
000160 ce 71 0a bc 88 ca 7e 3e 1f 7b ad be 2c d9 12 3e
       -0.008449985 0.24881947 -0.33882996 0.14340657
000170 65 cd 00 bd e7 7e 89 3d d4 90 0d 3e 21 3d 02 be
       -0.03144588 0.06713658 0.13824779 -0.12718631
000180 1c 70 47 3d 1c 8d 27 bc 5b c3 03 be 4a 33 98 bd
       0.0486909 -0.010226514 -0.12867491 -0.074316576
000190 a6 bb 01 3c 53 66 4d be f7 66 4e 3e f9 a5 1b 3d
       0.007918274 -0.20058565 0.20156465 0.03800008
0001a0 89 0a 53 bd 03 6f 25 3d e8 71 c8 bd 49 24 0f 3c
       -0.05152372 0.040389072 -0.09787351 0.008736678
0001b0 f7 97 3b be c5 a5 f0 bb 65 b4 a3 bd 2f ab ce bb
       -0.18319689 -0.00734398 -0.07993392 -0.006307028
0001c0 39 b2 ca 3d 7c f3 95 bd 1b 02 bf 3c fa 93 16 bc
       0.098972745 -0.073218316 0.023316434 -0.009190554
0001d0 3c 8a 0b bd 80 0f 78 bd a2 ae 7c 3c 87 fe 80 3d
       -0.034067377 -0.060561657 0.015422495 0.06298547
0001e0 77 01 b2 bd fc 2b 1b bc 49 15 a5 be 80 37 0c bd
       -0.08691686 -0.009470936 -0.32242802 -0.034232616
0001f0 cf 0b 34 3d 0a be d1 3d e0 d3 ae bc 06 5d 90 bd
       0.043956574 0.10241325 -0.021341264 -0.07048993
000200 a9 af 39 3e e6 14 e0 3c 74 3e a9 bd 9e b5 1f bd
       0.18133415 0.027353715 -0.08263865 -0.038991563
000210 80 61 92 3d 6e d6 2d 3e b0 90 24 3c 3d 79 29 3d
       0.07147503 0.1697633 0.010044262 0.041375387
000220 db 53 09 be ab 9f 3b 3d c9 58 4a be a6 7b ae 3d
       -0.13410895 0.045806568 -0.19760431 0.08519678
000230 dd e2 c0 3d 52 81 55 be c9 47 81 3d b9 10 ef bc
       0.09418271 -0.20850113 0.0631252 -0.029182779
000240 9f f3 a1 bd 94 25 9b bd bb 63 ca bd ad 0b 19 be
       -0.07907795 -0.07575527 -0.09882303 -0.1494586
000250 49 8b c1 bd 0c d0 25 be 7d b4 8f bd 9f 47 18 3e
       -0.09450395 -0.16192645 -0.07016847 0.14871071
000260 73 54 98 bd 6e 5d bb 3d c3 72 fc 3d 8b 5c 41 bd
       -0.074379824 0.0914868 0.123265766 -0.047207396
000270 ec 4f 37 bd 2b 48 a9 3d 90 50 32 3d e4 e0 80 bd
       -0.044753954 0.08265718 0.04353386 -0.062928945
000280 63 d5 e2 bd aa 4e ae bc 0e 50 be 39 66 b1 c2 bc
       -0.110758565 -0.021277744 0.0003629927 -0.02376623
000290 d8 bf 02 3c e4 13 13 3e 15 f4 36 bd 09 67 20 3c
       0.007980309 0.14363056 -0.04466637 0.0097901905
0002a0 c7 27 45 bd b4 85 bd bd 19 0e 9c 3c 13 7a 84 3d
       -0.048133638 -0.092540175 0.019049691 0.06468596
0002b0 2f 57 29 3c d4 b9 09 be 8f ea a6 bb e4 d6 bd bd
       0.010335728 -0.13449794 -0.0050938795 -0.09269503
0002c0 14 8a 48 3d 78 f0 22 3d bd cc 4b be cf 2b 0f be
       0.048959807 0.03978011 -0.1990232 -0.13981555
0002d0 c9 6e 28 bd f6 d6 27 3e c8 c7 f9 3c df 5e 53 bd
       -0.041121278 0.16390595 0.030490771 -0.051604148
0002e0 5d 77 6b be a2 98 cf bc ee c0 09 be 1b ed 7f bd
       -0.22994752 -0.025341336 -0.13452503 -0.06248198
0002f0 a1 b0 9c bc 3f 21 2e be ce 62 3f 3d 2d 7b 15 3e
       -0.019127192 -0.1700487 0.046725087 0.14597769
000300 e7 3c 79 bb af 64 fd bc 08 6a b6 bd 23 4b 28 3c
       -0.0038030685 -0.030931799 -0.089069426 0.01027182
000310 a1 f5 01 be c4 e7 72 bc 42 3f 92 3d ff 1e 90 bc
       -0.12691356 -0.014825765 0.07140972 -0.017592905
000320 9f 4e 06 bd f9 80 09 3e 05 3b 72 bd ef 72 af bd
       -0.032789823 0.13428105 -0.059138317 -0.08566844
000330 bd fb c2 bd d9 c5 b9 3d f5 19 00 3e b7 59 04 be
       -0.095206715 0.090709396 0.12509902 -0.12924848
000340 97 c8 d1 3d 98 50 57 bd 92 c7 6e 3d 6d 32 45 3e
       0.102433376 -0.052567095 0.058295794 0.19257517
000350 e3 4b 53 bd 07 d0 22 be ca 06 4f bd 48 7b 10 bd
       -0.051586043 -0.15899669 -0.050543584 -0.03527382
000360 83 16 f3 bc 01 97 94 bc 8c 14 0b bc aa 7d f1 bd
       -0.02967382 -0.01813841 -0.0084887855 -0.11791547
000370 f4 5b 9f bc 46 5e ee bd a8 8f 6e be 6d 11 84 3d
       -0.019453026 -0.11639075 -0.23296988 0.06448636
000380 d5 1b 3f bd d3 58 6e bd 7e 0d 2f bd f4 da f6 3c
       -0.046657402 -0.058190178 -0.042737477 0.030133702
000390 4e 1d 12 be d2 ea 98 bd 91 0d 02 3e 88 ed c7 bd
       -0.14268991 -0.074666634 0.12700488 -0.09762102
0003a0 ba 34 17 3e f8 84 d0 bd 54 30 64 bd 58 96 17 3e
       0.14766207 -0.10181612 -0.05571015 0.14803445
0003b0 d5 d0 92 bc 19 9c 59 3d 30 7e c5 bd fa 0d e5 3d
       -0.017921844 0.053127382 -0.09643209 0.111843064
0003c0 48 68 1a 3e 37 5d c1 bd ce f4 86 3d b9 00 9d 3d
       0.15078843 -0.094416074 0.065896615 0.076661535
0003d0 18 e3 11 3e ce 71 52 3d 2a ab 61 3d 4a 5b a3 bd
       0.14246786 0.051378064 0.055094875 -0.079763964
0003e0 d3 1a 5e 3d 70 96 95 bd a9 ad 65 bd 21 d6 32 be
       0.0542248 -0.07304084 -0.05607382 -0.17464496
0003f0 e2 e2 02 3e 63 ca d3 3d 7b 31 3e 3d 4e ef 7d bd
       0.12781861 0.103413366 0.046433907 -0.061995797

network_body._body_endoder.seq_layers.2.bias f4 [128]
000000 46 36 01 bd 12 9c aa bc 1b 87 0c bd 19 9d 80 bc
       -0.0315459 -0.020826373 -0.034308534 -0.01569991
000010 f8 61 27 bd 15 b5 ef bc 8c 87 66 bd 70 17 2a bd
       -0.040864915 -0.029261151 -0.05628161 -0.041526258
000020 fb 51 9d 3b 13 fa ce bc 00 2c 21 bd c2 20 df 3b
       0.0048010326 -0.025265729 -0.039348602 0.006809325
000030 05 b8 3b bc c6 99 4d bd 67 c8 06 bd 42 5a 03 bd
       -0.011457448 -0.050195478 -0.032905962 -0.0320685
000040 bc a2 f0 bc 7c 3f e5 bc 7b cf d8 3c 7c b6 e4 bc
       -0.029374473 -0.027984373 0.026466122 -0.027919047
000050 a4 61 2a bd 0a 60 c4 bc d8 af 32 3c 87 5e ce bc
       -0.041597024 -0.023971576 0.010906182 -0.025191559
000060 c8 ef 0c bd 42 4a bd bc 9d 4a b0 bc 9f 48 41 bc
       -0.03440836 -0.023106698 -0.021519953 -0.011797099
000070 e5 13 9f bc 04 e4 d9 38 4d 8d 15 bd 60 53 09 bd
       -0.019418666 0.000103898376 -0.036511708 -0.03352678
000080 88 15 3a bd 28 80 45 3b ba 10 c2 bc e0 4e df 3b
       -0.04543069 0.0030136202 -0.023689616 0.0068148226
000090 51 26 fd bb c1 06 f2 bc 7a 46 1d bc 3a d9 45 3a
       -0.007725515 -0.029544236 -0.009599322 0.0007547323
0000a0 0e de 9b 39 9d 60 26 bc 6f 01 c0 bc f4 79 fe bb
       0.00029729347 -0.01015487 -0.023438184 -0.007766003
0000b0 9d a7 20 bd 85 87 13 bd e9 bc 10 bc 49 de 9c bc
       -0.03922235 -0.036017913 -0.008834102 -0.019148963
0000c0 ee 71 37 bd e9 58 11 bd 4c cb f3 bb 89 5d 6c ba
       -0.044786386 -0.035485182 -0.0074400064 -0.00090166234
0000d0 3c 28 06 3c 8f 0f c8 bc 51 86 1a bd 8d a9 5b bc
       0.008188304 -0.024421481 -0.03772575 -0.013407123
0000e0 a4 47 93 bc 44 a0 ab 3c c0 2d 26 ba b1 dc e8 bc
       -0.017978497 0.020950444 -0.0006339215 -0.028425546
0000f0 ea 52 82 bc 74 74 65 bd ca bb 02 bd 07 e7 9b 3b
       -0.015908677 -0.05601926 -0.03191737 0.004757765
000100 10 dd cc bb 4c 22 a0 bc 32 f6 13 bd b3 be a8 bc
       -0.0062519386 -0.019547604 -0.036123462 -0.020598745
000110 78 4c 42 bd b2 df ae 3b e1 73 dd bc be 51 04 bd
       -0.047436208 0.005336725 -0.027032794 -0.032304518
000120 b2 93 0b bd 9a ee 90 bc 45 3c 2c bd 24 f5 31 bd
       -0.0340764 -0.0176919 -0.042049665 -0.043446675
000130 9c ff 95 bc 3f f4 fc bc 43 8a be bb 58 37 87 3c
       -0.01831036 -0.030878184 -0.005814822 0.016505882
000140 05 0b d0 3c 49 6a 88 bc 42 c2 d4 bb 3e 59 02 bd
       0.02539588 -0.016652243 -0.006492884 -0.03182339
000150 5e ee 50 bc 4e 4e 2e bd 4b 60 8a bc 4a 84 e0 bc
       -0.012752144 -0.042555146 -0.01689162 -0.02740683
000160 f9 86 51 3c cf 13 45 bc 08 ec e4 bc 86 6d f1 bc
       0.012788528 -0.0120286485 -0.02794458 -0.02947117
000170 d8 eb 12 bd fa 0f ec bc a3 ad 09 bd ab 7f 1d bd
       -0.03586945 -0.028816212 -0.03361286 -0.03845183
000180 ca bb ff bc df 43 30 bd a8 91 06 bd 12 f5 9e 3c
       -0.031217474 -0.043033477 -0.032853752 0.019403968
000190 d0 62 3f 3c f1 ab 8e bb 2e 92 03 bd df 48 02 bd
       0.011681274 -0.004353993 -0.03212183 -0.031807777
0001a0 b1 0a 12 bd 9d 80 9d bc 04 1f 3e bd ce f3 84 bc
       -0.035654727 -0.019226367 -0.046416298 -0.016229536
0001b0 30 a4 a3 bc 42 b1 42 bd f3 30 05 bd 82 fc 2d bd
       -0.019975752 -0.047532327 -0.032517385 -0.04247714
0001c0 38 b2 43 bc 6f 77 ba bc 04 1a a7 bc 99 33 51 bc
       -0.011944346 -0.022762029 -0.020398147 -0.0127686495
0001d0 23 c8 16 bd 15 2d e1 bc ff f1 0c bd b0 79 0a bd
       -0.03681196 -0.027487317 -0.034410473 -0.033807456
0001e0 21 99 f9 bc 5e 8e 25 bd 3c ba c5 bc 06 5a 05 bd
       -0.030468525 -0.040418975 -0.024136655 -0.032556556
0001f0 91 1a e7 ba 99 b4 1c bd f7 b3 0b bd cc 1b 1e bd
       -0.0017631819 -0.03825817 -0.034107175 -0.038600728

action_model._continuous_distribution.log_sigma f4 [1, 2]
000000 5a 35 b3 bc 69 30 ce bd
       -0.021876026 -0.10067827

action_model._continuous_distribution.mu.weight f4 [2, 128]
000000 36 91 50 bc 67 1b 53 bc ec b6 b9 bc a9 40 a1 3c
       -0.0127299335 -0.012884951 -0.022670232 0.019684153
000010 41 b6 ce bc 7c c6 03 bd bb b5 0f bc f4 38 34 bb
       -0.02523339 -0.03217171 -0.008771355 -0.0027499767
000020 6a 8e b6 bc ab d3 cf bc 2d 7f bb 3b ca 4d c5 bc
       -0.022284705 -0.025369486 0.0057219476 -0.024084944
000030 6e 4f 81 3d 7c 11 f8 3b 94 27 54 bb 2b b0 46 bb
       0.06313978 0.0075704437 -0.0032372223 -0.0030317407
000040 dc 88 93 3b ee 3b 02 bc 8a 59 8c 3a 64 5f d2 bc
       0.004502399 -0.007948859 0.0010707837 -0.025680251
000050 07 ae c1 bb 19 46 83 3d 37 2f ee 3d 9a a0 c4 3a
       -0.0059106383 0.064098544 0.11630099 0.0015001476
000060 aa df 91 3c 3f 60 91 bc fc b5 f1 bc 1b 3d 22 3d
       0.017806847 -0.017746089 -0.029505722 0.039609056
000070 91 4b 4c bd b2 78 89 bc 39 ca 3d bc bd a1 04 bb
       -0.049876753 -0.016781185 -0.011583858 -0.0020238005
000080 6c 51 22 bc 40 6b 1e bd 8c 20 12 bd 51 24 2e bd
       -0.009907108 -0.0386765 -0.03567557 -0.042515103
000090 bd 8d 21 3d 47 45 98 bc a6 8a f4 bc cc 20 9b 3d
       0.039441813 -0.018587722 -0.029851269 0.07574615
0000a0 70 b1 73 3d 0c c9 00 bd b7 ae 28 3c 24 99 91 3d
       0.05949539 -0.031441733 0.0102955615 0.071092874
0000b0 0a 9e ad bb a9 bc 80 3c ac 18 44 3d e5 05 54 bb
       -0.0052983807 0.01571496 0.04787509 -0.0032352146
0000c0 6a cd b8 3b a4 bc ed 3c 95 f5 ad bc a5 10 73 bd
       0.0056397216 0.029020615 -0.021235267 -0.059342045
0000d0 d7 fc fd bc 52 ee f8 bc 8a ea 7b 3a 60 dd 13 bd
       -0.031004352 -0.030387077 0.0009609839 -0.03609979
0000e0 14 99 bc bc 83 71 91 bc dc 3a 94 bc 9c 65 13 3b
       -0.023022212 -0.017754322 -0.018094473 0.0022490984
0000f0 22 f6 b4 3c 05 e1 60 3b 7e 50 84 ba 85 35 a9 bc
       0.022090022 0.003431381 -0.0010094789 -0.020655403
000100 2c b3 e7 3c f0 fc 05 3c 15 31 c3 bc e7 ae 0b 3d
       0.028283678 0.008177981 -0.023827115 0.034102347
000110 d8 b0 09 3b 49 7b 00 3d f5 83 d4 bc b2 bb 41 3c
       0.0021009948 0.031367574 -0.025941828 0.011824535
000120 f4 ca fd 3b 8e 5f 32 bc 03 8f 5e bc c2 bb d0 bb
       0.007745141 -0.01088704 -0.013583901 -0.0063700387
000130 62 1c 0f bd b4 25 41 bd cf 1f 61 3c 15 a2 b0 bb
       -0.034939177 -0.047155097 0.013740494 -0.0053904154
000140 c5 0f 2f bc e1 5e 66 bc 1b 49 28 3b 73 3e 85 3b
       -0.010684912 -0.014060707 0.002567834 0.0040662824
000150 03 b1 11 bd 84 40 86 bb 0d cf ff bb 72 d0 64 bc
       -0.035569202 -0.0040970463 -0.007806665 -0.013965713
000160 7d 7e 53 3d bc 35 51 bd 7e e1 9a 3c 87 89 fc 3a
       0.0516343 -0.051076636 0.018906351 0.001926706
000170 e6 ce a9 3b 95 c2 d0 3b 43 68 65 bb 72 2a 75 3a
       0.005182135 0.0063708522 -0.0035004772 0.0009352333
000180 57 c5 0f bc 46 05 c7 b9 0a 7d 18 3c fa 8c a1 bd
       -0.008775077 -0.00037960167 0.009307155 -0.07888217
000190 ae ca 96 3d 32 8c 4b bc eb 8e de 3c cd c4 3f bc
       0.07362877 -0.012423562 0.027167758 -0.011704636
0001a0 1f 6e a9 bc 18 54 06 3c c8 30 7d 3b de 33 ba bc
       -0.020682393 0.00819876 0.0038633812 -0.02272981
0001b0 f2 70 00 bd ed b1 61 bc 3e e9 a1 3c 62 7b b7 bb
       -0.031357713 -0.013775331 0.019764539 -0.005599425
0001c0 af 41 ba bc 02 ad b0 bc 6a dc 09 3d a9 e5 e7 bc
       -0.022736399 -0.021566872 0.03365747 -0.028307753
0001d0 58 8f 91 3c 73 a8 b9 bc fb fd 01 3c e5 05 93 3a
       0.017768547 -0.02266333 0.007934089 0.0011216967
0001e0 e6 ba 9c bc e5 52 14 3b 82 ec e8 bc 3c 94 88 bc
       -0.019132089 0.0022632417 -0.028433088 -0.016672246
0001f0 19 27 a8 3d 07 c1 4d bc 47 c8 54 bb 02 0d cc bc
       0.08210582 -0.012558228 -0.0032468007 -0.024908546
000200 0e 7f 8f bc 7f 05 0f bc cb 30 2e 3b 92 c3 a2 3c
       -0.01751664 -0.008729338 0.0026579376 0.019868646
000210 e2 08 c6 bc d2 cb a0 bc ea 3d 8d bc 4f 41 df b9
       -0.024174158 -0.01962844 -0.017241437 -0.00042582533
000220 6c f6 2b bc 23 90 07 bd 57 b1 09 bc b8 33 31 bd
       -0.010495763 -0.033096444 -0.0084040975 -0.043262213
000230 50 12 ae 3c 2b 30 f7 3b 5e 1e 42 3b 32 cd 38 bc
       0.021248966 0.007543584 0.002962015 -0.011279391
000240 cd 32 65 bb 39 36 ba bc 11 08 67 3d c6 65 bf bb
       -0.0034972907 -0.022730934 0.056404177 -0.0058409898
000250 ef 65 44 bd 26 20 41 bd 42 2f 10 3d ad 8b ed bb
       -0.047948774 -0.0471498 0.03520132 -0.0072493167
000260 07 92 d8 bb 89 dc c0 bc b5 6e c6 3c 68 00 7c bc
       -0.0066092047 -0.02354266 0.024222711 -0.015380956
000270 58 f2 f0 3c 1c 10 42 bd a4 04 9b 3a b1 01 95 bb
       0.029412434 -0.047378644 0.0011826945 -0.004547321
000280 92 a5 63 bc 91 5b 15 3c 22 7d 94 bc 1d 0b 43 3d
       -0.0138944555 0.009116069 -0.018126074 0.04761802
000290 5c 1d c3 bc 64 46 09 bb 56 32 e9 bc bd 5e 38 3d
       -0.02381771 -0.0020946497 -0.028466385 0.045012224
0002a0 86 88 f8 3c 85 8d fe bc 5b ee 86 3a 58 2f dd bc
       0.030338537 -0.031073341 0.0010294424 -0.027000114
0002b0 48 b9 72 bc b3 06 c1 bb b2 27 bb 3c bb df c2 3c
       -0.014814682 -0.005890691 0.022846077 0.023788324
0002c0 d0 de f8 bb 34 43 a7 3b 10 b2 f2 3b 5b 60 12 bd
       -0.0075949207 0.005104447 0.0074064806 -0.035736423
0002d0 ef 72 4c bd 61 27 4d bc 89 2f 25 bc 07 c9 86 3a
       -0.049914297 -0.012521596 -0.010082134 0.00102833
0002e0 93 8e aa bb de 8d 15 3d d2 3f ab 3c 41 f3 77 bb
       -0.0052049845 0.03651225 0.020904455 -0.00378342
0002f0 5a eb 32 bd f4 31 e8 bb 92 8b a9 bc 2b 4a 00 3d
       -0.04368148 -0.007086033 -0.020696435 0.031320732
000300 09 81 d0 ba a8 f2 e0 bc 53 0a 37 bc 18 2e 58 bc
       -0.0015907596 -0.027459458 -0.011171895 -0.013194583
000310 85 51 b5 3b 72 9a 97 bd 2d d4 eb bc 92 89 b6 bc
       0.0055333995 -0.07402505 -0.028787697 -0.022282396
000320 3a e8 77 bc 5a 1a 93 3b b6 38 5f bc a9 dc 32 bc
       -0.015131051 0.0044892253 -0.013624361 -0.010916867
000330 af ab aa bc cc c3 a9 bc 0d c5 fa 3b 0c d3 31 3d
       -0.020833818 -0.020723246 0.007652885 0.04341416
000340 dd 2b 20 3d a0 06 6f 3d 33 df 2a bd 84 12 14 bc
       0.03910433 0.058355927 -0.041716766 -0.009037618
000350 f6 16 42 3d 75 c0 4e bc 90 f6 88 bc a0 6e f4 bc
       0.04738518 -0.0126191275 -0.016719133 -0.029837906
000360 22 8d 59 3d 0e 7c f5 3c 12 7d 36 bd 7f 79 c6 bb
       0.05311311 0.02996638 -0.04455287 -0.006056964
000370 96 b1 f1 bb a7 de ae bc fd 6b 6b bc a3 86 7d bc
       -0.007375906 -0.021346403 -0.014369008 -0.015473994
000380 19 cf 23 39 ea bd 55 bc 0a 3d a2 bb 03 9c 11 3d
       0.00015622041 -0.013045767 -0.004951124 0.035549175
000390 51 98 7f 3c 85 32 05 3d 15 47 0d 3c 1e 78 3e bc
       0.01560028 0.032518882 0.008622904 -0.011625318
0003a0 cc e2 c3 bc 4b 55 83 bd ef 75 14 bb 15 b7 12 bd
       -0.023911856 -0.06412753 -0.0022653302 -0.035819132
0003b0 01 45 fc bb a7 c4 2d bc da 15 c0 bb de 27 94 bb
       -0.0076986556 -0.010605968 -0.00586198 -0.004521354
0003c0 4d 1d ca bd 39 0f c9 bc e7 84 c5 ba 01 5f 97 bc
       -0.0986887 -0.024543392 -0.0015069515 -0.018477919
0003d0 93 9e 0e bc 44 60 bc bc b5 37 05 bd d0 40 60 bc
       -0.008704799 -0.022995122 -0.03252383 -0.0136873275
0003e0 ef 58 65 bc d6 fd 5b bc cd 79 df bc aa 4d 79 bc
       -0.013998254 -0.013427218 -0.027279759 -0.01521627
0003f0 98 80 4d 3c 19 c5 66 bc 1e b7 c9 3b 16 d3 3b bc
       0.012542866 -0.014085078 0.0061558625 -0.011463901

action_model._continuous_distribution.mu.bias f4 [2]
000000 11 ec 96 ba b5 46 81 3d
       -0.0011514445 0.063123144

exp_avg f4 [128, 6]
000000 a4 f1 33 37 00 00 00 00 30 b1 74 b8 d2 d8 12 b8
       1.0725493e-05 0.0 -5.8339152e-05 -3.5011042e-05
000010 00 00 00 00 70 c0 6b b9 38 0c 9e 3a 00 00 00 00
       0.0 -0.00022483035 0.0012058085 0.0
000020 09 f5 dd bb b3 11 4b bb 00 00 00 00 cb 64 e9 bc
       -0.006773595 -0.0030985891 0.0 -0.028490445
000030 57 e2 86 b9 00 00 00 00 91 25 38 3a 4c 0a d3 39
       -0.00025727108 0.0 0.0007024641 0.00040252728
000040 00 00 00 00 e4 11 c8 3b 4b 77 f9 39 00 00 00 00
       0.0 0.0061056484 0.0004758186 0.0
000050 04 15 3d bb 00 3c 1f b7 00 00 00 00 a8 8e 89 bc
       -0.0028851638 -9.491108e-06 0.0 -0.016791657
000060 90 16 17 b9 00 00 00 00 4e cd 9a b8 d0 77 9f b6
       -0.00014408887 0.0 -7.381533e-05 -4.7525173e-06
000070 00 00 00 00 85 7e 1c 3a 6f 0f b1 33 00 00 00 00
       0.0 0.00059697806 8.245012e-08 0.0
000080 3c e8 b7 b3 d4 c2 f0 33 00 00 00 00 e1 0b 30 b5
       -8.563845e-08 1.121131e-07 0.0 -6.5582395e-07
000090 2b cf 03 39 00 00 00 00 da ad 54 ba 44 c6 24 b9
       0.0001257031 0.0 -0.0008113064 -0.00015714118
0000a0 00 00 00 00 03 9b 86 bb d3 f5 a5 35 00 00 00 00
       0.0 -0.0041078343 1.2365002e-06 0.0
0000b0 c2 46 b8 b6 4d 92 e0 b5 00 00 00 00 fc b3 ce b6
       -5.4918646e-06 -1.673188e-06 0.0 -6.1602314e-06
0000c0 00 8c c3 2f 00 00 00 00 71 21 3e b2 69 07 81 32
       3.556977e-10 0.0 -1.1067059e-08 1.5020946e-08
0000d0 00 00 00 00 74 fe a7 b3 59 25 1b b3 00 00 00 00
       0.0 -7.822828e-08 -3.6122717e-08 0.0
0000e0 75 6d 38 34 15 24 f2 b3 00 00 00 00 65 d2 2b 35
       1.7176156e-07 -1.12755664e-07 0.0 6.400863e-07
0000f0 84 f6 dd 39 00 00 00 00 fe aa 09 bb 80 42 1f ba
       0.00042336073 0.0 -0.002100646 -0.0006075278
000100 00 00 00 00 4e c9 1d bc a4 38 35 b9 00 00 00 00
       0.0 -0.009630514 -0.00017282605 0.0
000110 2d 30 20 3a 0c a5 35 39 00 00 00 00 54 9e 2a 3a
       0.00061106944 0.0001732299 0.0 0.0006508578
000120 d9 62 f5 39 00 00 00 00 c6 16 28 bb 0f 3b 81 3a
       0.0004680369 0.0 -0.002564834 0.000985952
000130 00 00 00 00 0e 5b 73 bc 18 55 31 ba 00 00 00 00
       0.0 -0.014853252 -0.0006764694 0.0
000140 78 da 76 3b 3e 63 b4 3a 00 00 00 00 7e 08 ad 3c
       0.0037666839 0.0013762487 0.0 0.021122213
000150 ac c6 8f 39 00 00 00 00 41 99 c0 ba db 0b cb b8
       0.00027423108 0.0 -0.0014694111 -9.6820026e-05
000160 00 00 00 00 68 5a 1d bb 6e c2 ed ba 00 00 00 00
       0.0 -0.0024010185 -0.001813961 0.0
000170 22 e4 18 3c cc 60 3d 3b 00 00 00 00 b7 f5 39 3d
       0.009331735 0.0028896807 0.0 0.045400348
000180 f9 c5 56 39 00 00 00 00 96 6d b7 ba 16 b4 99 39
       0.00020482381 0.0 -0.0013994451 0.0002931661
000190 00 00 00 00 3b 35 9b bb 61 ad 6a 3a 00 00 00 00
       0.0 -0.00473657 0.0008952227 0.0
0001a0 60 72 8b bb f7 2e 90 ba 00 00 00 00 54 54 b2 bc
       -0.004255578 -0.0011000325 0.0 -0.021768726
0001b0 d1 96 98 39 00 00 00 00 99 5f ae ba 1a 08 96 ba
       0.00029104066 0.0 -0.0013303637 -0.0011446506
0001c0 00 00 00 00 8e c8 dc bb b1 02 37 39 00 00 00 00
       0.0 -0.006737775 0.00017453243 0.0
0001d0 3b cd 7a ba cf 52 4c b9 00 00 00 00 d8 93 7c ba
       -0.0009567325 -0.00019485805 0.0 -0.00096350675
0001e0 a8 2a 09 3a 00 00 00 00 ba 49 15 bb 80 78 53 b9
       0.00052324915 0.0 -0.002277954 -0.00020167418
0001f0 00 00 00 00 42 6b 5d bc 5e 67 ad 36 00 00 00 00
       0.0 -0.013514342 5.1678353e-06 0.0
000200 80 b3 77 b8 6e 1c d1 39 00 00 00 00 ba 37 fd ba
       -5.905656e-05 0.00039884768 0.0 -0.0019318976
000210 60 96 ac 39 00 00 00 00 fa 41 28 bb 6e 0f 0e bb
       0.00032918435 0.0 -0.002567409 -0.0021676677
000220 00 00 00 00 c7 aa 54 bc a1 d7 6e 30 00 00 00 00
       0.0 -0.01298017 8.689032e-10 0.0
000230 78 4d b7 b1 f6 ae 98 31 00 00 00 00 47 f0 dc b2
       -5.334808e-09 4.443673e-09 0.0 -2.5720636e-08
000240 78 3d 37 b7 00 00 00 00 fa 92 e9 39 10 d9 a4 b8
       -1.0921962e-05 0.0 0.0004455073 -7.8605604e-05
000250 00 00 00 00 10 ad cc 3b 14 92 c7 ba 00 00 00 00
       0.0 0.0062462166 -0.001522603 0.0
000260 09 ea 0d 3c 28 d7 8c 3a 00 00 00 00 24 8e 23 3d
       0.008661755 0.0010745274 0.0 0.039930478
000270 b0 3b ca 33 00 00 00 00 b7 20 11 b5 24 d3 96 34
       9.417215e-08 0.0 -5.4064316e-07 2.8093302e-07
000280 00 00 00 00 e8 0d 73 b6 96 d1 3a 3a 00 00 00 00
       0.0 -3.6217916e-06 0.00071265677 0.0
000290 56 c8 80 bb dc 74 96 39 00 00 00 00 e8 66 a1 bc
       -0.003930132 0.00028697297 0.0 -0.01970239
0002a0 27 b1 df 39 00 00 00 00 d6 30 b7 ba 80 85 27 39
       0.00042665863 0.0 -0.0013976346 0.00015976094
0002b0 00 00 00 00 8a 92 43 bc ea 90 bd 39 00 00 00 00
       0.0 -0.011936793 0.0003615686 0.0
0002c0 45 05 f6 ba bc c1 5a 39 00 00 00 00 e3 40 19 bc
       -0.0018769881 0.00020862272 0.0 -0.009353849
0002d0 de a8 91 38 00 00 00 00 32 4d 02 ba c7 cc 25 b9
       6.945593e-05 0.0 -0.00049706094 -0.00015811912
0002e0 00 00 00 00 56 8a bb ba 81 5c dd 3a 00 00 00 00
       0.0 -0.0014308195 0.001688853 0.0
0002f0 f3 14 19 bc 38 e7 24 ba 00 00 00 00 dc ab 3d bd
       -0.009343374 -0.0006290558 0.0 -0.046306476
000300 a4 b1 52 ba 00 00 00 00 db 0c 3f 3b 80 58 8b b8
       -0.0008037335 0.0 0.002915195 -6.644521e-05
000310 00 00 00 00 0d 67 d3 3c 4c 83 ee b1 00 00 00 00
       0.0 0.025805974 -6.9416384e-09 0.0
000320 d4 a5 fa 32 28 53 19 b3 00 00 00 00 f2 ce 57 34
       2.917924e-08 -3.569872e-08 0.0 2.0098722e-07
000330 46 86 89 34 00 00 00 00 b7 63 5b b5 89 ad a8 35
       2.5615935e-07 0.0 -8.172896e-07 1.2567481e-06
000340 00 00 00 00 62 2b dc b6 14 f4 25 39 00 00 00 00
       0.0 -6.5615613e-06 0.00015826552 0.0
000350 7c c3 a0 ba 3a e4 17 ba 00 00 00 00 8b 0c aa bb
       -0.001226529 -0.0005794201 0.0 -0.0051894835
000360 94 a6 2d ba 00 00 00 00 1a dd 58 3b 6d 9a bc 3a
       -0.00066242483 0.0 0.0033090771 0.0014389284
000370 00 00 00 00 20 6b 50 3c d2 23 0e ba 00 00 00 00
       0.0 0.012720853 -0.0005422208 0.0
000380 f6 3f 30 3b 18 22 33 39 00 00 00 00 fe b7 85 3c
       0.0026893592 0.00017083471 0.0 0.016323086
000390 1f dc 03 3b 00 00 00 00 53 00 33 bc 44 16 c0 ba
       0.0020120216 0.0 -0.01092537 -0.0014655073
0003a0 00 00 00 00 88 3b 72 bd 58 fa a1 39 00 00 00 00
       0.0 -0.059138805 0.00030894834 0.0
0003b0 5c 69 35 bb 60 c3 82 3a 00 00 00 00 82 40 45 bc
       -0.0027681207 0.0009976439 0.0 -0.012039306
0003c0 e6 e0 10 38 00 00 00 00 bc 0f 6c b7 00 c8 1a b4
       3.454173e-05 0.0 -1.407036e-05 -1.4415127e-07
0003d0 00 00 00 00 ab cf e7 b9 ad 91 7d 3a 00 00 00 00
       0.0 -0.00044214478 0.00096728915 0.0
0003e0 2c 02 b7 bb 20 89 fc 38 00 00 00 00 f0 e5 e7 bc
       -0.0055849757 0.00012041838 0.0 -0.028307885
0003f0 b9 30 43 b7 00 00 00 00 da 37 82 38 0e 81 87 38
       -1.163425e-05 0.0 6.209286e-05 6.46134e-05

exp_avg_sq f4 [128, 6]
000000 4c 57 67 31 00 00 00 00 1a 7b a4 33 cc 63 a0 32
       3.3664547e-09 0.0 7.659237e-08 1.8671834e-08
000010 00 00 00 00 6b 2a 87 35 a0 c6 bc 37 00 00 00 00
       0.0 1.0070629e-06 2.2503838e-05 0.0
000020 62 9a cf 39 ae ef 13 39 00 00 00 00 95 7e 59 3c
       0.0003959714 0.000141083 0.0 0.013274808
000030 29 bc 3e 37 00 00 00 00 59 37 3c 39 fe 83 b6 38
       1.1368692e-05 0.0 0.00017949696 8.703022e-05
000040 00 00 00 00 7e ed fe 3b 41 66 ea 36 00 00 00 00
       0.0 0.007779776 6.9856474e-06 0.0
000050 37 38 07 39 37 a4 7f 38 00 00 00 00 eb b8 9c 3b
       0.00012895545 6.0949675e-05 0.0 0.004782786
000060 76 40 ba 34 00 00 00 00 81 03 2e 36 c8 63 e7 35
       3.46921e-07 0.0 2.593006e-06 1.7239881e-06
000070 00 00 00 00 e3 2f f5 38 e6 37 f6 2c 00 00 00 00
       0.0 0.0001169143 6.9979465e-12 0.0
000080 b9 ba 8e 2d 4b 53 aa 2d 00 00 00 00 cb cb 88 30
       1.6226452e-11 1.9363752e-11 0.0 9.953224e-10
000090 46 fa 36 37 00 00 00 00 3d 6d 47 37 aa 52 a7 37
       1.0906317e-05 0.0 1.1886758e-05 1.9946445e-05
0000a0 00 00 00 00 69 35 8e 3a 49 45 85 30 00 00 00 00
       0.0 0.0010849658 9.696716e-10 0.0
0000b0 6e 60 a5 32 ea 30 47 30 00 00 00 00 78 02 2f 33
       1.925238e-08 7.246529e-10 0.0 4.0747608e-08
0000c0 c0 f0 08 27 00 00 00 00 f0 8f 35 29 f5 3c 1e 28
       1.9004302e-15 0.0 4.031492e-14 8.78398e-15
0000d0 00 00 00 00 97 2b 53 2b b3 e4 5b 29 00 00 00 00
       0.0 7.502275e-13 4.8826133e-14 0.0
0000e0 d3 9e 18 2c 1e d0 42 2a 00 00 00 00 57 41 22 2d
       2.1688664e-12 1.7302866e-13 0.0 9.223142e-12
0000f0 c6 82 87 36 00 00 00 00 e2 a3 e5 38 41 e4 30 38
       4.0385376e-06 0.0 0.000109500965 4.2174248e-05
000100 00 00 00 00 b4 ea 4e 3b 57 6c 79 35 00 00 00 00
       0.0 0.0031573 9.2917384e-07 0.0
000110 fb 7d bf 37 d4 c5 87 35 00 00 00 00 0b b2 6b 38
       2.2827639e-05 1.0115859e-06 0.0 5.619418e-05
000120 40 b9 80 36 00 00 00 00 ad 8f 79 38 18 3a 03 38
       3.836263e-06 0.0 5.9500035e-05 3.1286938e-05
000130 00 00 00 00 6b 0e 0e 3b 51 21 22 37 00 00 00 00
       0.0 0.0021676074 9.6637095e-06 0.0
000140 54 27 14 39 bd 64 a9 38 00 00 00 00 de 0f cf 3b
       0.00014129031 8.077312e-05 0.0 0.00631903
000150 3b 55 cf 35 00 00 00 00 95 48 0e 38 60 22 1c 36
       1.5447507e-06 0.0 3.3923036e-05 2.326582e-06
000160 00 00 00 00 52 07 39 39 ec 6b 9a 38 00 00 00 00
       0.0 0.00017645702 7.363394e-05 0.0
000170 1e 40 c2 3a 3f 66 37 3a 00 00 00 00 63 c2 6d 3d
       0.0014820134 0.0006996132 0.0 0.05804671
000180 6c b6 a0 35 00 00 00 00 31 f2 a1 37 45 9d f3 36
       1.1974021e-06 0.0 1.9305475e-05 7.260273e-06
000190 00 00 00 00 a8 fa 1e 3a 01 61 a4 37 00 00 00 00
       0.0 0.00060645724 1.9595494e-05 0.0
0001a0 97 b6 9a 39 eb 02 18 39 00 00 00 00 cb 88 4e 3c
       0.0002950921 0.00014496937 0.0 0.012605856
0001b0 f8 90 a5 36 00 00 00 00 d5 5e 7c 38 fa e4 10 38
       4.93426e-06 0.0 6.01698e-05 3.4545526e-05
0001c0 00 00 00 00 97 13 2f 3b b2 18 fb 35 00 00 00 00
       0.0 0.0026714557 1.8708145e-06 0.0
0001d0 4e be 0f 38 39 2c 5c 36 00 00 00 00 9a e8 2f 39
       3.4271092e-05 3.2808296e-06 0.0 0.00016775951
0001e0 b1 d4 c8 36 00 00 00 00 91 04 9c 38 f4 5a 27 38
       5.985225e-06 0.0 7.43951e-05 3.990061e-05
0001f0 00 00 00 00 49 c0 48 3b 47 8b c7 35 00 00 00 00
       0.0 0.003063219 1.486719e-06 0.0
000200 84 9e cf 37 23 b6 3a 37 00 00 00 00 c4 fc 56 3a
       2.4750138e-05 1.1128871e-05 0.0 0.0008201117
000210 df 18 b5 36 00 00 00 00 58 1f b1 38 6f 7d 68 38
       5.3971157e-06 0.0 8.445856e-05 5.542993e-05
000220 00 00 00 00 44 8b 43 3b 32 49 b7 24 00 00 00 00
       0.0 0.0029837647 7.94876e-17 0.0
000230 e6 7e 26 27 c2 61 53 26 00 00 00 00 fb 0c 3b 29
       2.310592e-15 7.3337817e-16 0.0 4.15336e-14
000240 ed 6b 31 37 00 00 00 00 fa c8 31 39 42 1b a7 38
       1.0575151e-05 0.0 0.00016954905 7.968258e-05
000250 00 00 00 00 61 f1 e0 3b b5 ae 40 38 00 00 00 00
       0.0 0.006864712 4.5939076e-05 0.0
000260 c8 dd 4e 3a dc 20 c6 39 00 00 00 00 97 11 f2 3c
       0.00078913243 0.00037789985 0.0 0.029549403
000270 6b eb bc 2c 00 00 00 00 6c c1 3f 2e 1b b8 fa 2d
       5.369418e-12 0.0 4.3600165e-11 2.8503469e-11
000280 00 00 00 00 09 c0 f7 30 ec 45 ad 36 00 00 00 00
       0.0 1.8026195e-09 5.1639418e-06 0.0
000290 f8 42 af 38 aa fb 23 38 00 00 00 00 75 9f 43 3b
       8.357124e-05 3.909661e-05 0.0 0.0029849682
0002a0 60 d4 00 37 00 00 00 00 62 75 26 39 15 26 85 38
       7.678842e-06 0.0 0.00015874722 6.3490275e-05
0002b0 00 00 00 00 49 e9 c0 3b bf f9 84 36 00 00 00 00
       0.0 0.0058871848 3.962981e-06 0.0
0002c0 a1 17 90 38 a8 04 fd 37 00 00 00 00 cb 76 10 3b
       6.870856e-05 3.0162118e-05 0.0 0.0022043462
0002d0 d6 67 bd 33 00 00 00 00 c7 6f 11 36 b5 c2 51 35
       8.819886e-08 0.0 2.1671747e-06 7.8141903e-07
0002e0 00 00 00 00 02 b8 61 38 ef 39 21 38 00 00 00 00
       0.0 5.381555e-05 3.8439346e-05 0.0
0002f0 74 fc 34 3a 0a 44 aa 39 00 00 00 00 77 25 d0 3c
       0.00069040735 0.0003247562 0.0 0.02540849
000300 97 1a 95 38 00 00 00 00 06 58 60 3a f4 8c 0d 3a
       7.1098264e-05 0.0 0.00085580384 0.0005399727
000310 00 00 00 00 62 e7 37 3d 8a 03 64 26 00 00 00 00
       0.0 0.0448984 7.9108187e-16 0.0
000320 3f a6 0d 28 25 b1 bc 27 00 00 00 00 f2 24 af 2a
       7.863121e-15 5.2372543e-15 0.0 3.111188e-13
000330 9f 37 67 2c 00 00 00 00 df 54 22 2d 18 2c 2f 2d
       3.285795e-12 0.0 9.227479e-12 9.957389e-12
000340 00 00 00 00 5d 93 11 30 d0 11 ca 36 00 00 00 00
       0.0 5.296011e-10 6.0221428e-06 0.0
000350 38 11 e0 38 53 4e 5e 38 00 00 00 00 9b 6b 82 3b
       0.000106843596 5.300187e-05 0.0 0.0039801127
000360 8c 18 a9 37 00 00 00 00 3c ba 97 39 53 fe 09 39
       2.01578e-05 0.0 0.0002893972 0.00013160081
000370 00 00 00 00 3a e9 2d 3c c3 fd c2 36 00 00 00 00
       0.0 0.010614688 5.8111923e-06 0.0
000380 8b c4 dc 38 20 9d 4a 38 00 00 00 00 9a 37 7a 3b
       0.000105270265 4.8306887e-05 0.0 0.0038180114
000390 78 46 00 39 00 00 00 00 d2 9d 08 3b 91 4b 8e 3a
       0.00012233283 0.0 0.0020846021 0.0010856261
0003a0 00 00 00 00 7c d8 b2 3d aa 9e 6f 37 00 00 00 00
       0.0 0.08732697 1.4282452e-05 0.0
0003b0 09 ef 5f 39 0b f1 ea 38 00 00 00 00 6f 62 14 3c
       0.00021355985 0.00011202887 0.0 0.0090566715
0003c0 55 16 80 33 00 00 00 00 49 df 05 35 26 92 b1 34
       5.964527e-08 0.0 4.9871284e-07 3.3075156e-07
0003d0 00 00 00 00 66 01 a8 37 ea 80 ed 37 00 00 00 00
       0.0 2.0027812e-05 2.8312632e-05 0.0
0003e0 01 59 da 39 fb d9 68 39 00 00 00 00 67 79 86 3c
       0.00041646513 0.00022206448 0.0 0.016415311
0003f0 2a 6a 18 34 00 00 00 00 68 96 29 36 2d ed 9c 34
       1.4194725e-07 0.0 2.527051e-06 2.9229832e-07

exp_avg f4 [128]
000000 97 0d 33 b7 47 e1 b2 ba 8f 1e 8d 39 c6 97 57 ba
       -1.0672396e-05 -0.001364746 0.00026916384 -0.0008224215
000010 b1 76 be 37 30 f7 18 b3 3f 7f 52 b9 0d 19 94 b4
       2.2705035e-05 -3.5615074e-08 -0.00020074564 -2.7585375e-07
000020 3b 00 90 b1 c6 41 10 33 94 4e ef b9 ac fe 01 38
       -4.190978e-09 3.3587433e-08 -0.00045644178 3.099318e-05
000030 14 a5 43 ba 7c 4f 85 3a 82 a1 f6 b8 39 b4 0d 3b
       -0.0007463258 0.0010170783 -0.00011760277 0.0021622314
000040 27 4b 7f b9 36 d8 88 ba 8c fa a6 b9 0c c5 46 b8
       -0.00024346691 -0.0010440412 -0.0003184866 -4.7390393e-05
000050 9b 07 2d ba 54 88 e0 b8 12 75 21 ba c9 4c b8 b0
       -0.00066005596 -0.000107065454 -0.00061591074 -1.3409586e-09
000060 6d c3 99 39 cc 5f fd 3a bb 01 51 b4 7e 9d 81 ba
       0.00029328038 0.0019330918 -1.9465271e-07 -0.0009888855
000070 81 e4 15 ba 74 99 fa b9 03 03 8f b8 66 0d 15 bb
       -0.00057179487 -0.00047798047 -6.819332e-05 -0.0022743582
000080 d9 65 9f 3a e6 c0 33 32 59 9c bc b4 75 b6 7c b9
       0.001216109 1.0463031e-08 -3.5131487e-07 -0.00024100563
000090 20 e5 19 3a 0d c3 53 3a 80 7d 3b bb 30 8b 27 ba
       0.0005870629 0.0008078076 -0.002860874 -0.0006391285
0000a0 f0 9b ad b7 1c 9e b4 ba 35 42 f5 36 58 9f 86 ba
       -2.0695821e-05 -0.001378003 7.3092765e-06 -0.0010270877
0000b0 61 0c 94 ba b6 1d ab b5 92 eb cd 39 7c 66 98 ba
       -0.0011295193 -1.274914e-06 0.0003927616 -0.0011627222
0000c0 ae 3e 86 3a 96 53 9a b5 46 8c ae 37 96 20 34 b9
       0.0010242069 -1.1498221e-06 2.0807736e-05 -0.00017178277
0000d0 a0 06 ff 35 2e 92 83 39 16 0b a5 b7 ce af 01 bb
       1.9000909e-06 0.0002509518 -1.9674695e-05 -0.0019788626
0000e0 60 7a 4b 38 8c 55 87 ba 92 40 8a ba 2c 34 7f ba
       4.8512942e-05 -0.0010325178 -0.0010547808 -0.0009735252
0000f0 4c 47 ec b9 a0 75 17 bb 6e a7 ab 32 d5 a8 02 3b
       -0.00045066548 -0.0023110881 1.9983158e-08 0.0019937058
000100 33 29 ca 39 81 00 3c 38 f3 f5 f0 ba e8 88 a1 b8
       0.00038559138 4.4823162e-05 -0.0018383845 -7.702579e-05
000110 89 31 6d bb 9a 80 16 b6 d2 62 fc ba 63 dd 28 3a
       -0.0036192855 -2.2426598e-06 -0.0019255525 0.00064416806
000120 34 9d 0f bb 72 f7 98 39 46 4d f5 38 12 92 e4 b9
       -0.0021913769 0.0002917606 0.00011696904 -0.0004359638
000130 c1 4c c0 b9 dc 87 c8 37 d6 84 00 ba 54 f5 8d b9
       -0.0003667828 2.3905122e-05 -0.00049026066 -0.000270764
000140 91 8d 67 3b f2 93 f9 39 ba bb 32 3a 07 dd f0 ba
       0.0035332183 0.0004760321 0.00068181346 -0.0018376418
000150 75 a3 c3 b8 34 98 3b 37 91 01 39 b1 82 a8 a7 38
       -9.328771e-05 1.1181506e-05 -2.6921934e-09 7.9945676e-05
000160 cb 6c 4a 37 04 c4 7a b9 90 ed 48 bb c1 97 86 3a
       1.2065469e-05 -0.0002391488 -0.0030659176 0.0010268615
000170 eb 37 0a bb 0b 48 f1 b5 94 b0 de 34 c1 f4 60 34
       -0.0021090459 -1.7976867e-06 4.14792e-07 2.0950667e-07
000180 48 c8 0d b6 26 5e e5 b9 e3 7b 05 bb ce e7 fe 3a
       -2.1127216e-06 -0.0004374843 -0.0020368032 0.0019447745
000190 63 a5 39 39 bd cc 3c 38 d0 3a af b5 7e 05 8e b9
       0.00017704586 4.501337e-05 -1.3055633e-06 -0.00027088443
0001a0 94 70 69 af 00 0b 90 b5 7c 10 54 33 74 98 3d 37
       -2.1231222e-10 -1.0732037e-06 4.937509e-08 1.1300774e-05
0001b0 fd 18 1f bb 3a e3 e6 39 3c 5a 13 ba d0 2d 33 b7
       -0.0024276369 0.00044038316 -0.0005621051 -1.0679898e-05
0001c0 9b 7a 1a 35 4d a1 d9 b9 4c 81 80 b9 9e 82 91 38
       5.7547885e-07 -0.00041509644 -0.00024510396 6.938468e-05
0001d0 60 ed ca ba 9e 76 b5 ba 2d 98 04 39 71 5b 17 3a
       -0.001548212 -0.0013844555 0.00012645191 0.00057738187
0001e0 64 8e 5a b9 29 b3 0f b8 4d bc ab b7 21 70 eb 39
       -0.00020843145 -3.4260713e-05 -2.0472473e-05 0.00044906235
0001f0 69 da 3f 31 37 91 a8 38 b9 31 bb ba 8e 05 8e ba
       2.791831e-09 8.0379126e-05 -0.0014281786 -0.0010835396

exp_avg_sq f4 [128]
000000 43 f0 4c 31 d9 06 07 38 61 ed 9c 37 8d a6 44 37
       2.982248e-09 3.2192886e-05 1.8707187e-05 1.17212885e-05
000010 36 f1 a1 34 1a 55 54 2c c9 0d 24 36 0e a4 06 2f
       3.016409e-07 3.0174253e-12 2.4445928e-06 1.2245513e-10
000020 98 b9 29 27 88 eb 02 29 92 85 03 37 a9 5b 2a 34
       2.3554072e-15 2.907009e-14 7.839308e-06 1.586583e-07
000030 e3 00 af 36 5c af 80 37 78 f3 ef 34 c5 6e 14 39
       5.2155096e-06 1.5340447e-05 4.4694366e-07 0.00014155645
000040 6f 73 c0 35 a1 a2 ff 37 ba c5 d8 36 31 80 ed 34
       1.433871e-06 3.0474099e-05 6.46032e-06 4.4237962e-07
000050 af 66 f7 36 16 77 05 36 83 fd f7 36 73 84 1b 25
       7.3731276e-06 1.9887862e-06 7.3906863e-06 1.3488982e-16
000060 2b 87 8b 37 58 8c 96 38 85 6f c0 2c fc 9c ee 36
       1.6633034e-05 7.1786984e-05 5.4693494e-12 7.111228e-06
000070 04 b6 6e 37 e8 c4 b2 36 dd 64 21 34 e0 26 81 38
       1.4228284e-05 5.3277363e-06 1.5030987e-07 6.1584404e-05
000080 f5 58 df 38 f1 b0 8a 26 38 23 e2 2b 13 7b 24 37
       0.00010650038 9.623634e-16 1.6068041e-12 9.803817e-06
000090 ef d7 d7 37 46 66 1a 37 7f e2 5a 39 87 f1 b3 37
       2.573055e-05 9.202928e-06 0.00020874476 2.1450933e-05
0000a0 50 4f 53 33 e8 b7 27 38 39 29 84 33 d7 86 93 37
       4.91994e-08 3.998718e-05 6.154227e-08 1.7586555e-05
0000b0 77 8e b4 37 31 41 8a 2e 9f a3 9f 36 a2 ae 4d 37
       2.1524012e-05 6.287094e-11 4.7576173e-06 1.2259612e-05
0000c0 2c d8 b7 37 62 b7 09 2e 1f 67 4a 32 d8 7f e8 36
       2.1915963e-05 3.131307e-11 1.17813945e-08 6.9290218e-06
0000d0 fb 0d 5e 2f 94 cd 26 37 f6 6b 92 32 4d 44 aa 38
       2.0195749e-10 9.942236e-06 1.7045732e-08 8.118954e-05
0000e0 c9 5a 80 33 60 56 26 37 35 96 20 38 b9 c2 da 36
       5.976978e-08 9.914482e-06 3.8286864e-05 6.519575e-06
0000f0 38 29 91 36 f8 07 3e 39 99 2d d6 29 10 94 2b 39
       4.3261352e-06 0.0001812278 9.511419e-14 0.00016362988
000100 c9 e7 7f 36 56 84 0a 34 2e 13 27 38 08 de ce 35
       3.8132878e-06 1.2900395e-07 3.9833765e-05 1.5412816e-06
000110 91 95 ea 39 9c 14 af 2f 47 98 24 38 4d cd a9 36
       0.00044743394 3.1846958e-10 3.9242466e-05 5.0604926e-06
000120 44 45 83 38 88 e2 95 36 df 7c 08 35 a7 5c b1 36
       6.2594685e-05 4.4669177e-06 5.084566e-07 5.285797e-06
000130 3e b8 16 38 8f ca a0 35 f2 5b 8e 36 b1 ff 90 36
       3.5934376e-05 1.1979881e-06 4.2426336e-06 4.321301e-06
000140 6f db 7c 39 6d d0 25 36 ce d6 07 38 c1 72 60 38
       0.00024114338 2.4708236e-06 3.238656e-05 5.3512635e-05
000150 6b 6e ab 33 11 8f 46 35 a4 16 ab 25 2a e5 62 36
       7.982893e-08 7.3968937e-07 2.9679113e-16 3.3810015e-06
000160 b7 49 c7 32 4a 59 93 35 39 16 9b 39 4b 51 44 38
       2.320017e-08 1.097834e-06 0.0002958046 4.680575e-05
000170 61 5b 11 39 3c ad b5 2e 2f c4 ad 2e 10 13 4c 2c
       0.00013862319 8.2617e-11 7.9019784e-11 2.9000725e-12
000180 bd 1c 1d 2f 9a 89 76 37 4c f9 0e 39 9f ce 6d 38
       1.4289277e-10 1.46947805e-05 0.00013635046 5.6697634e-05
000190 a7 dc 9d 35 6c 54 a4 36 60 68 1e 2e b0 ff 27 37
       1.176163e-06 4.897409e-06 3.6017744e-11 1.0013508e-05
0001a0 7b 8e 94 25 7c 76 92 37 43 25 18 2e e9 90 e0 32
       2.5770456e-16 1.745973e-05 3.4593894e-11 2.614293e-08
0001b0 7d 2f 1d 39 3c d8 2c 37 18 56 66 38 73 c6 04 35
       0.00014990378 1.0302345e-05 5.4916454e-05 4.9462614e-07
0001c0 a9 cf 5e 2f 83 13 30 36 a1 59 6f 35 14 bd cd 33
       2.0264558e-10 2.62374e-06 8.9164865e-07 9.5804495e-08
0001d0 ee eb 45 38 5f dc dc 37 eb 64 5c 37 20 bd bb 36
       4.7188187e-05 2.6328662e-05 1.3136519e-05 5.5950513e-06
0001e0 18 dd a9 35 39 ea 36 33 f5 e2 36 37 5e 86 16 37
       1.2655828e-06 4.25882e-08 1.0900888e-05 8.9719815e-06
0001f0 57 be 03 2c ea 35 f8 33 e2 94 60 38 05 4d 10 38
       1.872188e-12 1.1558207e-07 5.354442e-05 3.4404005e-05
