MLAgentDevProject/results/MoveToGoal/MoveToGoal/checkpoint.pt (torch, 440939 bytes, 36 tensors)

network_body._body_endoder.seq_layers.0.weight f4 [128, 6]
0	0xbdce247e	-0.10065554
1	0xbe373bce	-0.17893907
2	0x3f33b5a7	0.70199054
3	0xbec5c0b6	-0.3862359
4	0x3ed1c36a	0.40969402
5	0xbda07b4c	-0.07836017
6	0xbeea8041	-0.45800975
7	0xbeb6c2e4	-0.35695565
8	0xbf1ffa32	-0.6249114
9	0xbd1be7c5	-0.03806283
10	0xbd9ff398	-0.07810134
11	0x3db8bd65	0.09020499
12	0x3ef58478	0.47952628
13	0xbed51ca3	-0.4162341
14	0x3d290be0	0.04127109
15	0x3e2d7830	0.16940379
16	0xbf0c3a8e	-0.5477685
17	0x3d6f2faa	0.058395065
18	0x3eec9152	0.4620462
19	0xbe62bb1e	-0.22141692
20	0xbe913ad9	-0.2836521
21	0xbebf88bb	-0.37409005
22	0xbe362903	-0.17789082
23	0x3f07cb24	0.53044343
24	0xbf1646ab	-0.5870158
25	0x3e389dd0	0.1802895
26	0x3eee5c90	0.46554995
27	0xbd0f87d7	-0.035041656
28	0x3e88c9f7	0.26716587
29	0x3e89a078	0.2688024
30	0x3ec90503	0.39261636
31	0xbe820eaa	-0.25401813
32	0x3edd6a1f	0.43245026
33	0x3f0f454e	0.55965126
34	0xbea95adf	-0.33077142
35	0xbf06fc92	-0.5272914
36	0xbdf129d2	-0.11775555
37	0x3ed9b055	0.42517343
38	0xbe9c5133	-0.305307
39	0x3d86a263	0.065739416
40	0x3e64833f	0.22315691
41	0xbe6277a8	-0.22115958
42	0x3d3a5ee9	0.04550067
43	0x3e0a1200	0.13483429
44	0xbe175cf6	-0.14781556
45	0xbdf79bd7	-0.12090271
46	0xbe650143	-0.22363763
47	0x3e988ced	0.29795018
48	0x3f0ad0ac	0.5422466
49	0xbf1d8938	-0.61537504
50	0xbf29bcb9	-0.6630359
51	0xbdf9c795	-0.121962704
52	0xbd29a745	-0.041419286
53	0x3e37fbce	0.1796715
54	0x3eda0813	0.42584285
55	0x3ec24578	0.37943625
56	0x3f2c3e56	0.6728262
57	0x3f357595	0.7088254
58	0xbe292959	-0.16519679
59	0xbe8f4472	-0.27981907
60	0x3e3bee24	0.18352562
61	0x3e41a18f	0.18909286
62	0x3e88af22	0.26696116
63	0x3e93c400	0.28860474
64	0x3d8f9141	0.07010127
65	0x3dc9a44f	0.098457925
66	0xbe7fb802	-0.24972537
67	0xbf14fa9c	-0.581949
68	0xbf10edf6	-0.566131
69	0x3f84add8	1.0365553
70	0x3ecce9c4	0.400221
71	0x3e0d3724	0.13790566
72	0x3eb6b86f	0.35687587
73	0xbf599e16	-0.85006845
74	0xbe80eee6	-0.25182265
75	0x3db04322	0.086065546
76	0xbcf304e7	-0.029665424
77	0x3e6e609e	0.23279044
78	0x3dea46c0	0.11439276
79	0x3f1c1906	0.6097568
80	0x3e7b243d	0.24525543
81	0x3f0d32c5	0.55155593
82	0xbe311876	-0.17294487
83	0xbeb70dc5	-0.35752693
84	0xbeb72c68	-0.35776067
85	0xbf02b5fc	-0.51058936
86	0x3a971262	0.0011525864
87	0x3ea539ac	0.32270563
88	0x3f24ebe1	0.6442242
89	0xbe86b5c9	-0.26310566
90	0xbf8a670f	-1.0812701
91	0xbf55a279	-0.8345104
92	0xbe9a8f9b	-0.30187687
93	0xbf35621d	-0.70852834
94	0xbe45d8f1	-0.19321038
95	0xbd8cb831	-0.06871069
96	0x3dac9c01	0.08428193
97	0x3ebc91d5	0.3683001
98	0xbebbd927	-0.36689112
99	0xbefcd4b7	-0.4938104
100	0xbd94d285	-0.07266716
101	0xbdf456bc	-0.11930606
102	0xbeb20e9f	-0.3477678
103	0x3f0ee64c	0.55820155
104	0xbe3d233b	-0.1847047
105	0x3e9d63ba	0.30740148
106	0x3f004713	0.5010845
107	0xbedc1b93	-0.42989787
108	0x3c8fb000	0.017539978
109	0x3ed68c6d	0.4190401
110	0x3e329ff5	0.17443831
111	0x3f0febde	0.5621928
112	0xbe9945b8	-0.29936004
113	0x3cc44b96	0.023961823
114	0xbe8073b2	-0.2508827
115	0x3e445d10	0.19176126
116	0xbe20b46e	-0.15693828
117	0x3e6f9a56	0.23398718
118	0x3ace8288	0.0015755454
119	0xbf18966b	-0.5960452
120	0x3eb94be5	0.36190715
121	0x3f113fd4	0.5673802
122	0x3f27e5b0	0.6558485
123	0xbe72c272	-0.23706988
124	0x3e40c18d	0.18823834
125	0xbdf3d92f	-0.11906659
126	0xbd995c25	-0.07488278
127	0x3fa685ea	1.3009617
128	0x3ecfa2e9	0.40553978
129	0xbe5245c0	-0.2053442
130	0x3ebfbe56	0.37449902
131	0xbe1e7fb2	-0.154784
132	0x3f082157	0.5317587
133	0xbe87afaf	-0.26501223
134	0x3df364e1	0.118844755
135	0xbf3ec56a	-0.7451998
136	0x3e7fb56e	0.24971554
137	0x3f03c4d9	0.5147224
138	0x3dd6154e	0.10453282
139	0xbf37bee5	-0.71775657
140	0xbdb843b1	-0.08997286
141	0xbeebe1f1	-0.46070817
142	0xbd000ad1	-0.031260315
143	0xbf27c4ee	-0.65534866
144	0xbec7d153	-0.3902689
145	0x3e1e724e	0.15473291
146	0x3e9be1cb	0.30445704
147	0xbe9faad5	-0.31185022
148	0x3e270256	0.16309485
149	0x3ec55f4c	0.38549268
150	0x3e60e8a3	0.21963744
151	0xbe3df04e	-0.185487
152	0xbe1d8ebb	-0.15386479
153	0x3d127170	0.035752714
154	0x3e9bb9d6	0.3041522
155	0xbec1cbd2	-0.37850815
156	0xbe78d26b	-0.24299018
157	0x3e7e535d	0.24836488
158	0x3f2eee4d	0.6833237
159	0xbe8a23d7	-0.2698047
160	0xbd349e8b	-0.04409651
161	0x3f401325	0.7502921
162	0x3c7b946a	0.015355209
163	0xbed2f202	-0.41200262
164	0xbe9085c7	-0.28227064
165	0xbeeb46bf	-0.45952412
166	0xbd00960a	-0.03139309
167	0x3e899831	0.26873925
168	0xbdb8fe69	-0.090329
169	0x3f067674	0.52524495
170	0xbd4038cd	-0.04692917
171	0xbeacc796	-0.33746022
172	0xbe9e05e9	-0.30863884
173	0xbe7d7bf6	-0.24754319
174	0xbe090f0d	-0.13384648
175	0xbe2793a4	-0.16364914
176	0xbe09825d	-0.13428636
177	0xbe393e12	-0.18090084
178	0xbf4ced9c	-0.80050063
179	0x3e90bdc9	0.28269795
180	0xbedb104f	-0.4278588
181	0x3dcbba3a	0.09947629
182	0x3e7d96d7	0.24764572
183	0xbe991544	-0.29899037
184	0xbe74ce81	-0.239069
185	0x3ef71ee1	0.48265746
186	0xbf5e491a	-0.86830294
187	0x3f14470e	0.5792092
188	0x3ede9d67	0.43479463
189	0xbe4f1aeb	-0.20225112
190	0xbd9eb5da	-0.07749529
191	0x3ec3c986	0.38239688
192	0x3dc97c6e	0.09838186
193	0x3ea66a3a	0.3250292
194	0x3ed8d3a7	0.42348978
195	0x3d3a539e	0.0454899
196	0x3c38d936	0.011282256
197	0x3d280c0e	0.04102712
198	0xbe539357	-0.20661674
199	0x3f20f20f	0.6286935
200	0x3f12ca4c	0.5733993
201	0x3ed65b4e	0.41866535
202	0x3e9cd4d7	0.30631134
203	0x3ddfa699	0.10920448
204	0xbea8b102	-0.32947546
205	0xbf084408	-0.5322881
206	0xbe446ca7	-0.19182073
207	0x3e752d6f	0.23943113
208	0x3eca9fc7	0.39575025
209	0xbd1cde79	-0.038298104
210	0xbf11ce89	-0.5695577
211	0x3d055c3a	0.032558657
212	0x3f00f458	0.5037284
213	0x3d2e39c5	0.042535562
214	0x3e796dfd	0.24358363
215	0xbeb2aa45	-0.3489553
216	0xbf3353dd	-0.7004984
217	0x3d99595a	0.074877456
218	0xbee4dd76	-0.4470021
219	0x3f5886e0	0.845808
220	0xbe7ae9c0	-0.24503231
221	0x3ea7d67b	0.32780823
222	0x3d1abc88	0.037777454
223	0xbe2a6338	-0.16639411
224	0x3e3c3ab1	0.18381764
225	0x3c829a42	0.015942696
226	0xbee6dac9	-0.45088795
227	0x3e3c541b	0.18391459
228	0xbdc8f2e5	-0.098119535
229	0xbd68304f	-0.056686696
230	0x3e8b5ece	0.27220768
231	0xbf4f9d5b	-0.8109948
232	0x3e37f084	0.17962843
233	0xbf7707bc	-0.96496177
234	0x3eff0381	0.4980736
235	0x3e708c88	0.23491108
236	0x3ed4d2dd	0.41567126
237	0x3da7c85c	0.081925124
238	0xbd405251	-0.046953503
239	0xbd38c919	-0.045113657
240	0x3eb7dace	0.35909122
241	0x3ecae093	0.39624462
242	0x3ed9ef21	0.42565253
243	0x3f1f7492	0.6228725
244	0x3e43f24a	0.19135395
245	0x3d02e0b5	0.03195258
246	0xbd59293b	-0.053017836
247	0x3e7358cf	0.23764347
248	0xbf507a6e	-0.8143681
249	0xbeb2c592	-0.3491636
250	0x3e74e59c	0.23915714
251	0xbdeda103	-0.11602976
252	0x3f69c56e	0.9131688
253	0x3f143b98	0.5790343
254	0x3f052ffb	0.5202634
255	0x3d69db06	0.057093643

network_body._body_endoder.seq_layers.0.bias f4 [128]
0	0x3ba0694a	0.004895364
1	0xbc810e0e	-0.015753772
2	0x3cab7ae7	0.020932628
3	0xbc5af64e	-0.013364388
4	0x3c29fed0	0.010375693
5	0x3cd8b936	0.026455503
6	0x3c14706a	0.009060005
7	0xbc2e8c41	-0.010653556
8	0x3c528d3c	0.012851056
9	0xbb8b7e9b	-0.004257036
10	0x3c847be9	0.016172366
11	0xbb82bc9a	-0.003989768
12	0x3c9b6230	0.018967718
13	0x3c870f9f	0.01648694
14	0x3c5628bf	0.013071238
15	0x3cbb6384	0.022874601
16	0x3d0a179b	0.03371392
17	0x3ca04cd6	0.019567888
18	0x3cce9d4c	0.02522149
19	0x3bf70bb5	0.0075392374
20	0x3c5f2305	0.013619189
21	0xbc98aed2	-0.018638048
22	0x3c666ce7	0.01406405
23	0xbcf51517	-0.029917283
24	0x3b361cfb	0.002778827
25	0x39846c2f	0.00025257605
26	0xbcd5be03	-0.026091581
27	0x3c0183ad	0.007904929
28	0x3bb768a0	0.005597189
29	0x3a081493	0.0005191054
30	0x3d043017	0.032272425
31	0x3cb5aeed	0.022178138
32	0xba436e60	-0.0007455107
33	0x3ca9e2e0	0.020738065
34	0x3c07e8c9	0.008295246
35	0x3cc616b9	0.024180757
36	0x3c3505df	0.011048763
37	0xbc946410	-0.01811412
38	0x3b8d858a	0.0043188976
39	0x3aaa70cd	0.0013003588
40	0x3d000dd5	0.03126319
41	0x3c60f368	0.013729908
42	0xbbdffd58	-0.006835621
43	0x3c9eb9be	0.019375678
44	0x3c409f6a	0.011756757
45	0x3bb7e0f7	0.0056115347
46	0xbc106bff	-0.008814811
47	0x3caa6056	0.02079789
48	0xbc26a777	-0.010171763
49	0x3c7fba7c	0.015608426
50	0xbb19fbc2	-0.0023496007
51	0xbc26d683	-0.0101829795
52	0x3d112014	0.035430983
53	0x3cc29813	0.023754155
54	0x3c060f4e	0.00818236
55	0xbbfc3d7c	-0.007697759
56	0x3bf83d11	0.007575639
57	0xbbcd727c	-0.006269751
58	0x3c6e4683	0.0145431785
59	0xbc0b4f7d	-0.008502838
60	0x3c9087b2	0.01764283
61	0x3c78e67a	0.015191669
62	0x3c80ce8f	0.015723495
63	0xbc352c06	-0.011057859
64	0x3c455bf6	0.012045851
65	0x3c48a98b	0.012247453
66	0x3a9be4d4	0.0011893758
67	0x3d19ddf7	0.037565198
68	0x3c77ac44	0.015116755
69	0xbc56c1bc	-0.013107713
70	0x3b925541	0.0044657295
71	0x3bcac7c2	0.006188364
72	0x3c825c80	0.015913248
73	0xbaa1e35e	-0.0012351086
74	0x3bb4c60f	0.0055167745
75	0x3b04ad0d	0.0020244748
76	0x3d0645e0	0.03278148
77	0x3c90b5b8	0.017664775
78	0x3ae3e7d4	0.0017387816
79	0x3c846e31	0.016165825
80	0x3bfb9021	0.0076770936
81	0x3c8aa1e0	0.016922891
82	0x3c214b7d	0.009844658
83	0x3ba8881f	0.00514318
84	0x3a02fdf2	0.0004996947
85	0x3cb3f32b	0.021966537
86	0xbbc5acd4	-0.0060325656
87	0x3c3a45dc	0.011369195
88	0x3c012acf	0.0078837415
89	0x3bfc5a9e	0.007701232
90	0x3c3174a0	0.010831028
91	0x39a31c47	0.0003111085
92	0xbccefc83	-0.025266891
93	0x3c310131	0.010803507
94	0x3c9e6f78	0.019340262
95	0xbc9e47ea	-0.0193214
96	0xbb3892ef	-0.002816375
97	0x3b9ef5c0	0.004851073
98	0x3d120493	0.035648894
99	0x3b16aafc	0.0022990098
100	0x3aa495f5	0.0012556898
101	0x3ce9e819	0.028553056
102	0x3baeee45	0.0053384625
103	0x3c235462	0.009968849
104	0x3ce8e712	0.028430495
105	0xbbf2ba6f	-0.0074074785
106	0x3c2c79b2	0.010527061
107	0xbc6d1a9c	-0.014471676
108	0x3ca7dc59	0.020490812
109	0x3cc9e176	0.024643641
110	0x3c713894	0.014722962
111	0x3aa0afae	0.0012259388
112	0x3bfc43b7	0.007698502
113	0xbce54b55	-0.027990023
114	0xbc9d5377	-0.019204838
115	0x3d2f2fcd	0.042770196
116	0x3a822243	0.0009928424
117	0x3cac36b8	0.021022186
118	0xbd068690	-0.032843173
119	0xb86490b2	-5.4494194e-05
120	0x3c30f0d0	0.010799602
121	0x3c3439af	0.011000081
122	0x3c82f24c	0.015984677
123	0x3c81116d	0.01575538
124	0x3a271cd0	0.0006374838
125	0x3c730e36	0.014834931
126	0xbc3df4a6	-0.011593973
127	0x3c656f45	0.0140035795

network_body._body_endoder.seq_layers.2.weight f4 [128, 128]
0	0x3d8a8488	0.067635596
1	0xbdbfdb74	-0.09368029
2	0x3d6886a9	0.056769047
3	0x3c675be1	0.014121027
4	0x3d166de4	0.036725894
5	0xbd74b2ff	-0.059741016
6	0x3d23fe04	0.04003717
7	0xbbd6b11a	-0.006551874
8	0x3e271e84	0.16320235
9	0xbcb37104	-0.021904476
10	0x3deb6335	0.114935316
11	0xbcc97b50	-0.024594933
12	0x3ccc9e50	0.024977833
13	0xbc94e28b	-0.01817443
14	0x3e09738a	0.13422981
15	0xbe8d69b0	-0.27619696
16	0xbe059b59	-0.13047542
17	0xbd63eb67	-0.05564442
18	0xbae03293	-0.0017104916
19	0xbc7a51ed	-0.015278322
20	0xbda94d1a	-0.08266659
21	0xbe3c2646	-0.18373975
22	0x3c262c25	0.010142361
23	0x3dd67bfe	0.104728684
24	0xbe409994	-0.18808585
25	0xbd0bccdf	-0.034130927
26	0xbd8da092	-0.06915392
27	0xbccc386d	-0.02492925
28	0xbddad9a9	-0.10686047
29	0xbe076a03	-0.13224034
30	0xbc8e8920	-0.01739937
31	0xbd3270f1	-0.04356474
32	0xbde5561c	-0.11198065
33	0xbd6002eb	-0.054690283
34	0x3d618c42	0.0550654
35	0xbdb2a3d0	-0.08722651
36	0x3c8825ef	0.01661965
37	0x3d783e32	0.06060619
38	0xbd289287	-0.041155364
39	0xbe0df0f1	-0.13861443
40	0xbd85510d	-0.065096
41	0xbd63e72d	-0.05564039
42	0xbe0afbef	-0.13572668
43	0x3d924586	0.07142167
44	0x3d60842a	0.05481354
45	0xbb1cfa3f	-0.002395287
46	0xbd7c351f	-0.061574098
47	0x3c5a1b45	0.013312166
48	0x3d273cc5	0.04082944
49	0x3e4b8aa6	0.19877109
50	0x3cdeef24	0.02721364
51	0x3d9e528b	0.077305876
52	0x3cf4d03c	0.02988445
53	0xbe3a8771	-0.1821573
54	0xbe098e6e	-0.13433239
55	0x3de0387d	0.10948274
56	0xbd1f4d13	-0.038891863
57	0xbd90abeb	-0.07064041
58	0x3e0092ab	0.1255595
59	0xbe3ea3a4	-0.18617111
60	0x3e51fc05	0.20506294
61	0x3d81fc55	0.06346957
62	0x3c949ae0	0.018140256
63	0xbdcfdd17	-0.101495914
64	0x3d75ed2c	0.060040638
65	0xbdd1fbac	-0.10253081
66	0xbd60a57e	-0.054845326
67	0xbb795ded	-0.003805037
68	0xbc4f995c	-0.012670841
69	0xbcea7689	-0.028620975
70	0xba387ae1	-0.00070373534
71	0x3da5974e	0.080855
72	0xbd2f646b	-0.042820375
73	0x3e2d4213	0.16919737
74	0x3b90621b	0.0044062263
75	0x3d2f3800	0.042778015
76	0x3db16510	0.08661854
77	0xbdd14d05	-0.102197684
78	0x3cc89ff9	0.024490343
79	0x3dded78f	0.10880958
80	0xbda636a9	-0.08115894
81	0xbaf6324d	-0.0018783301
82	0xbdeb9536	-0.11503069
83	0xbd342d86	-0.043988727
84	0xbdda0a1a	-0.10646458
85	0xbe0ae1a4	-0.13562638
86	0xbcd17610	-0.025568992
87	0x3d849754	0.06474176
88	0x3cd8cdd4	0.026465334
89	0xbe62e9c9	-0.22159494
90	0xbb87e768	-0.004147459
91	0x3e3d741f	0.18501328
92	0xbe85163b	-0.25993523
93	0xbe08e954	-0.13370258
94	0x3c62e8ae	0.0138494205
95	0xbe5941f6	-0.21216568
96	0xbdae7d06	-0.0851994
97	0x3d565d59	0.052335117
98	0x3e1e558c	0.15462321
99	0x3c8e4fe9	0.017372089
100	0x3dc0e6a7	0.094189934
101	0xbd44dbca	-0.04806117
102	0x3b1989a8	0.0023427997
103	0x3d9c9901	0.07646371
104	0x3d508c91	0.050915305
105	0xbe5b7d6a	-0.2143456
106	0x3a4286bb	0.0007420589
107	0xbd33b28b	-0.043871444
108	0x3de4e0a0	0.11175656
109	0xbde6058b	-0.11231526
110	0xbd51d7cb	-0.051231187
111	0xbe8bb7ef	-0.27288768
112	0xbd5162a3	-0.051119458
113	0x3d6f0d50	0.058362305
114	0xbe063863	-0.13107447
115	0xbdb40c8b	-0.08791455
116	0xbd53a576	-0.051671468
117	0x3cf5fd40	0.030027986
118	0xbcd45fff	-0.02592468
119	0xbd908dc7	-0.07058292
120	0xbd41e9b4	-0.047342017
121	0x3d07ff95	0.033202726
122	0x3d887fc9	0.06664998
123	0x3ded578c	0.11588964
124	0x3c253fe1	0.010086031
125	0xbcd25915	-0.025677243
126	0x3d973c8c	0.07384595
127	0x3decc36f	0.115607135
128	0x3d1385b6	0.03601619
129	0x3b0e796f	0.002173986
130	0x3e1c9983	0.15292935
131	0xbc2c2fa8	-0.010509409
132	0x3e276234	0.16346055
133	0xbdcd5b40	-0.1002717
134	0x3c860157	0.01635806
135	0xbd17f6d4	-0.037100628
136	0xbe4d2e53	-0.20037203
137	0x3aab8eaf	0.0013088788
138	0xbd499835	-0.04921742
139	0xbd8dcadf	-0.0692346
140	0x3d41a9f5	0.047281224
141	0x3de087a9	0.10963375
142	0x3e476561	0.19472267
143	0xbdc1510f	-0.09439289
144	0xbe015fce	-0.12634203
145	0x3d0918d4	0.033470944
146	0x3b64579e	0.0034842263
147	0x3e1088ab	0.14114635
148	0xbe29f658	-0.16597879
149	0xbd807394	-0.06272045
150	0x3d1d2688	0.038366824
151	0xbd85d308	-0.06534392
152	0xbc3e2ad3	-0.01160689
153	0xbc88c7da	-0.01669686
154	0x3d58d817	0.052940454
155	0xbd8266e7	-0.06367283
156	0xbcfe83b6	-0.031068664
157	0xbe04f87b	-0.12985413
158	0xbd5d5ee4	-0.054045573
159	0x3db82894	0.08992115
160	0x3d878906	0.06617932
161	0x3da2058e	0.07911216
162	0x3c3374ab	0.010953109
163	0x3df87e99	0.121335216
164	0x3d11f2ae	0.035631828
165	0x3cedf6b0	0.029048294
166	0xbd84433c	-0.064581364
167	0x3e1e870d	0.15481205
168	0x3e6de192	0.2323058
169	0x3d55f538	0.052235812
170	0x3e54485f	0.20730732
171	0x3a8a04db	0.0010530011
172	0x3d8f5b52	0.0699984
173	0x3d044508	0.032292396
174	0xbd31de7e	-0.043425076
175	0x3d5f30c2	0.05448986
176	0xbca72979	-0.020405518
177	0x3d9a3e87	0.075314574
178	0xbd895bc0	-0.06706953
179	0xbe19b58e	-0.15010664
180	0x3df5a0b1	0.1199354
181	0x3c85f71f	0.016353188
182	0x3d40ba35	0.04705258
183	0x3d841da5	0.06450967
184	0x3d7bbc7d	0.061459053
185	0x3d953019	0.072845645
186	0xbcb29e3c	-0.021803968
187	0x3dc1a6d7	0.0945565
188	0xbdcc2c1d	-0.099693514
189	0xbdff0872	-0.12452783
190	0x3dd413c3	0.10355332
191	0x3e0cf95e	0.13767001
192	0xbe0eca50	-0.13944364
193	0xbd7df9a1	-0.062005643
194	0x3def3bf3	0.11681356
195	0xbd1d78e3	-0.038445365
196	0xbe33f89b	-0.17575304
197	0xbe1cc181	-0.15308191
198	0xbd4b00a3	-0.049561154
199	0x3d7044e8	0.058659464
200	0x3c55819f	0.013031392
201	0xbdeb78fa	-0.11497684
202	0xbd95e7d2	-0.07319607
203	0xbe0656b3	-0.1311901
204	0x3e1dfa60	0.15427542
205	0xbd8725b1	-0.06598986
206	0xbd83a0bd	-0.06427143
207	0x3d0a41c1	0.033754114
208	0x3e11a989	0.14224829
209	0xbda8cb35	-0.08241884
210	0x3dd32edf	0.10311674
211	0xbdb5d49c	-0.08878443
212	0x3e17fa10	0.14841485
213	0x3c74dbd7	0.014944992
214	0x3c2f7940	0.010710061
215	0x3d2d9f77	0.042388406
216	0xbd846ced	-0.064660884
217	0x3e158e92	0.14605168
218	0xbe39c6d6	-0.18142256
219	0x3d732ce7	0.059368994
220	0xbe08b09d	-0.13348623
221	0xbc8eb300	-0.017419338
222	0x3c22a1a7	0.009926236
223	0xbddd685e	-0.10810922
224	0x3ccc83e1	0.024965229
225	0x3df8be36	0.12145655
226	0x3cb19f21	0.021682324
227	0x3dc7eaf3	0.0976161
228	0xbb9dfb08	-0.004821185
229	0xbbbb3f5a	-0.005714339
230	0xbdf4a952	-0.11946358
231	0xbd93c95a	-0.07216139
232	0x3d97c0ab	0.074097954
233	0xbe644fbb	-0.2229604
234	0x3da1f6f7	0.07908433
235	0xbd6d02b2	-0.0578639
236	0xbdba6478	-0.09101194
237	0x3d9ba799	0.07600326
238	0xbde2a38e	-0.11066352
239	0x3cd2f526	0.025751662
240	0x3e3b3780	0.1828289
241	0x3dae39b6	0.08507101
242	0xbcb05db0	-0.021529049
243	0xbc28dec4	-0.010307018
244	0xbbd120fb	-0.0063821054
245	0xbdf21cdd	-0.118219115
246	0xbd229235	-0.039690215
247	0xbd8b9bbb	-0.068168126
248	0xbc179b01	-0.009253264
249	0x3e0f285f	0.13980244
250	0x3d926efe	0.07150076
251	0x3d3c44e5	0.04596414
252	0x3d231ac8	0.039820462
253	0x3d552328	0.05203548
254	0x3cf01e56	0.02931134
255	0x3d80d57b	0.06290718

network_body._body_endoder.seq_layers.2.bias f4 [128]
0	0x3ccaa080	0.024734735
1	0x3bac7dc9	0.005264018
2	0x3cfa16e5	0.030528495
3	0xbbcf0778	-0.006318029
4	0xbc16f748	-0.00921423
5	0xbb6a64a2	-0.0035765548
6	0x3c947bf1	0.018125506
7	0x3ce86e68	0.028372958
8	0xbc08315f	-0.008312552
9	0x3cc039cc	0.02346506
10	0x3d11162a	0.035421528
11	0x3c303f45	0.010757272
12	0x3ab12bf2	0.0013517125
13	0xbb7b1e38	-0.0038317572
14	0x3c2a4ec1	0.010394753
15	0x3c277862	0.010221573
16	0x3c784fb2	0.01515572
17	0xb83cb995	-4.499553e-05
18	0xbc49f6cc	-0.012326907
19	0x3bdc77b8	0.006728139
20	0x3c2ce75b	0.010553206
21	0x3b65d028	0.0035066698
22	0xbc0583d3	-0.008149105
23	0x3c0ed3da	0.008717502
24	0x3c27f054	0.01025017
25	0x39bffdc0	0.00036619417
26	0x3c77386f	0.015089138
27	0xbc84f856	-0.016231697
28	0x3cb9ec7e	0.022695776
29	0xbc122e84	-0.008922223
30	0x3addc21a	0.0016918809
31	0xbc7355d9	-0.014852011
32	0xbc236d4d	-0.00997479
33	0xbbf6acb6	-0.007527913
34	0x3c2d63bd	0.0105828615
35	0x3c363d31	0.011122988
36	0xbc24a15e	-0.010048239
37	0x3b97f7e7	0.0046377066
38	0x3c8abae7	0.016934825
39	0x3bcdf841	0.0062856977
40	0xbb3d9e3a	-0.0028933422
41	0xbafdfbfa	-0.0019377463
42	0x3cad0a7e	0.021123167
43	0xbc2980f0	-0.0103456825
44	0x3bf7c892	0.0075617516
45	0x3ca101e9	0.019654231
46	0x3a27e1ef	0.0006404211
47	0x3a132594	0.00056132046
48	0xbbf3ffc1	-0.0074462597
49	0xbc2b2322	-0.010445388
50	0x3c2bb781	0.010480762
51	0x3bbde1f3	0.0057947575
52	0xbc19f8cf	-0.0093976995
53	0x3c198f09	0.009372481
54	0x3b310dcd	0.0027016283
55	0x3c53f928	0.012937821
56	0x3b198b58	0.0023429003
57	0x3cecdeea	0.028914887
58	0x3b882a2d	0.0041554184
59	0xbc04e6cd	-0.008111668
60	0x3c887e93	0.016661918
61	0x3ce0a6ef	0.02742335
62	0xbc0447d7	-0.008073769
63	0x3c98e6bb	0.018664708
64	0x3c60f23a	0.013729626
65	0xbbcad124	-0.0061894823
66	0xbc537808	-0.012907036
67	0x3bf2f761	0.007414744
68	0xbc815cb6	-0.015791278
69	0x3cb49137	0.0220419
70	0x3cb47596	0.022028726
71	0x3c37fdaf	0.0112299165
72	0x3b9e77e4	0.0048360694
73	0xbac2a6b1	-0.0014850703
74	0x3caa7ea0	0.020812333
75	0xbbfcb99f	-0.0077125574
76	0x3c3b5ed9	0.011436188
77	0x3a3a69a8	0.0007111081
78	0xbc97f484	-0.018549211
79	0xbbda121c	-0.006654991
80	0x3c20b1fc	0.00980806
81	0x3c854057	0.016266031
82	0x3cc516ed	0.024058783
83	0xbb5536c1	-0.0032533857
84	0x3c3f754e	0.011685682
85	0x3be0f8b1	0.006865584
86	0xbae9f7cc	-0.0017850338
87	0x39bf5af5	0.00036498127
88	0xbbf77f16	-0.0075529916
89	0x3cb7a91e	0.022419509
90	0x3c8f2a48	0.017476216
91	0x3c2964b5	0.010338952
92	0x3c982a6e	0.01857492
93	0x3bb7c04a	0.0056076394
94	0x3aa2eaee	0.0012429634
95	0x3bfc6613	0.007702598
96	0xbb17ad8b	-0.002314421
97	0xbc1a823f	-0.009430467
98	0xbb0b8549	-0.002128916
99	0x3c4e0df3	0.012576568
100	0x3cbeb6c4	0.023280509
101	0x3bccff46	0.006256017
102	0xbc18ba7e	-0.009321807
103	0x3c76e1f2	0.015068518
104	0xbbebb415	-0.0071930983
105	0x3bb868ad	0.0056277127
106	0xbbe99655	-0.0071285167
107	0x3b9fa9de	0.0048725447
108	0x3cb52fb3	0.022117471
109	0x3c59fb5a	0.013304556
110	0xbc0369b3	-0.008020806
111	0xba8b9f8a	-0.0010652405
112	0x3ce9b454	0.02852837
113	0xbc743983	-0.01490629
114	0x3c8ed446	0.017435204
115	0xbc127e7e	-0.008941291
116	0xbb15bf04	-0.002284945
117	0xba33ac12	-0.00068539486
118	0xbae7ada5	-0.0017675651
119	0x3cc38bb7	0.023870332
120	0x3a64575e	0.00087105285
121	0x3c2950a6	0.0103341695
122	0x3b5ff642	0.003417388
123	0x3c1ce977	0.009577147
124	0x3c576d63	0.013148638
125	0x3c0f3f25	0.008743082
126	0xbb765540	-0.0037587434
127	0xbbb8a6c3	-0.005635114

action_model._continuous_distribution.log_sigma f4 [1, 2]
0	0xbcda5a58	-0.026654407
1	0xbce1be94	-0.027556695

action_model._continuous_distribution.mu.weight f4 [2, 128]
0	0xbd132f9f	-0.035934087
1	0xbbb4201d	-0.0054969923
2	0x3c701d79	0.014655464
3	0xbd03b402	-0.03215409
4	0xbc96900c	-0.018379234
5	0x3b98dcfe	0.004665016
6	0x3bc4dd45	0.0060078227
7	0xbc9504fa	-0.01819085
8	0xbc600744	-0.013673607
9	0xbd54bad8	-0.051936
10	0xbd593ac9	-0.053034578
11	0x3c05518a	0.008137116
12	0x3ca52661	0.020159902
13	0x3cdcadce	0.026938345
14	0x3d059a59	0.0326179
15	0xbb528db3	-0.0032127916
16	0x3d169eb7	0.036772456
17	0x3c76c091	0.01506056
18	0x3d55f014	0.05223091
19	0x3d611c30	0.054958522
20	0xbd006fd4	-0.031356648
21	0x3d265c50	0.04061538
22	0x3cf07e32	0.02935705
23	0x3b4f1fcb	0.0031604643
24	0x3c17fc37	0.009276441
25	0xbc64b4ed	-0.013959152
26	0xbcd73bce	-0.026273634
27	0x3c056dad	0.0081438245
28	0x3cc5ef5b	0.024161985
29	0x3c4bedaa	0.0124468
30	0xbcd51602	-0.02601147
31	0x3cccf38f	0.025018482
32	0xbbace007	-0.0052757296
33	0xbb9f091d	-0.0048533813
34	0xbd82b733	-0.06382599
35	0xbae75437	-0.0017648999
36	0x3c7f8dcf	0.015597775
37	0x3d2eaa76	0.042643033
38	0xbd039e1e	-0.032133214
39	0xbc101d6d	-0.008796078
40	0xbc786ad9	-0.015162193
41	0x3d1ecbd5	0.038768608
42	0x3cc3694b	0.023853919
43	0x3c980257	0.018555803
44	0x3d107288	0.035265476
45	0x3c129827	0.008947409
46	0x3ca6bcbb	0.020353666
47	0x3c8d9b13	0.01728586
48	0x3c879e96	0.016555112
49	0x3b149188	0.0022669751
50	0x3be12961	0.006871388
51	0x3d31aed7	0.04337963
52	0xbbacd7bb	-0.0052747405
53	0xbd5328a7	-0.05155244
54	0xbccbc1e9	-0.024872737
55	0x3c861b6a	0.016370494
56	0xbd2ea5e4	-0.042638674
57	0xbd78c375	-0.060733277
58	0xbc9f83b8	-0.019471988
59	0xbb672b90	-0.0035273768
60	0xbc2f0041	-0.010681213
61	0xbcdd11a8	-0.026985958
62	0xbc8ba4ae	-0.017046299
63	0xbd07375a	-0.03301177
64	0xbb8d0bbd	-0.004304378
65	0xbaeafd44	-0.0017928262
66	0x3b89b0b8	0.0042019747
67	0xbc6efeb5	-0.014587094
68	0x3cb982c3	0.02264536
69	0xbd2a5ee9	-0.04159442
70	0xbcf7acdb	-0.030233791
71	0x3bb4b80e	0.005515105
72	0x3cc46733	0.02397499
73	0x3d36f8e6	0.04467096
74	0xbd08c2db	-0.033388954
75	0x3cd109af	0.025517313
76	0x3c88438c	0.016633771
77	0x3d154a3d	0.036447752
78	0x3d7b5edf	0.061369773
79	0x3c7aab9b	0.015299703
80	0xbc56af51	-0.013103322
81	0xbb87a301	-0.0041393046
82	0xbd657cf0	-0.056027353
83	0x3ca75660	0.020426929
84	0x3d1da818	0.038490385
85	0x3bb35565	0.0054728263
86	0xbcab9f06	-0.020949852
87	0x3d1b9644	0.0379851
88	0x3c45fa42	0.012083592
89	0xbcd6fd96	-0.026243966
90	0xbd504125	-0.050843377
91	0xbc96d44e	-0.018411782
92	0x3c859e17	0.016310735
93	0x3be2b9e4	0.0069191325
94	0x3cd14640	0.025546193
95	0xbd1f3092	-0.03886468
96	0x3d0081db	0.03137384
97	0xbafe2823	-0.0019390624
98	0x3b90cba1	0.0044188057
99	0x3c32cb8c	0.010912787
100	0xbd6180b1	-0.05505437
101	0x3c565c99	0.0130836
102	0x3b2496d8	0.0025114324
103	0xbc958a86	-0.01825453
104	0xbb96f437	-0.0046067494
105	0xbceaae73	-0.028647637
106	0xbb87b304	-0.0041412134
107	0xbd0ff751	-0.03514797
108	0xbc098a10	-0.008394733
109	0xbd541da6	-0.051786087
110	0x3d3c19c2	0.045923002
111	0x3c64aa43	0.013956609
112	0xbd3e45b1	-0.04645318
113	0x3cef6357	0.029222174
114	0xbb9f9cb2	-0.0048709745
115	0x3b5ad911	0.0033393542
116	0xbbfaab58	-0.0076498203
117	0x3d480fc3	0.048843157
118	0x3cc7ea20	0.024403632
119	0x3d0ab3f9	0.03386304
120	0x3cbf50bb	0.023353925
121	0x3d11251a	0.035435773
122	0xbcc38710	-0.023868114
123	0xbd60a478	-0.05484435
124	0xbd12caf4	-0.035838082
125	0x3c0c6677	0.008569351
126	0x3ce8cb00	0.02841711
127	0xbc11f398	-0.008908175
128	0xbc6f51f3	-0.014606941
129	0xbc9328a4	-0.017963715
130	0xbd4f7d18	-0.050656408
131	0x3cfede12	0.03111175
132	0x3c3b59ba	0.011434967
133	0xbc2a5b78	-0.010397784
134	0xbd1c799e	-0.03820192
135	0xbb5ee20d	-0.0034009248
136	0x3c71f761	0.014768452
137	0x3c852c33	0.016256427
138	0xbcf32f70	-0.029685706
139	0xbc93c2a9	-0.018037157
140	0x3d8e1365	0.06937293
141	0x3c517f3f	0.0127866855
142	0xbc857a00	-0.016293526
143	0xbcdc7682	-0.026911978
144	0x3a1d0f86	0.0005991388
145	0x3a884087	0.0010395207
146	0x3d06a094	0.032867983
147	0x3c1e014a	0.009643862
148	0xbc5d3445	-0.013501232
149	0x3cf41451	0.029794844
150	0x3c15417f	0.009109854
151	0xbcf818ed	-0.030285323
152	0xbc563ff1	-0.013076768
153	0xbb76473e	-0.0037579085
154	0x3d0c25c2	0.034215696
155	0x3c83291b	0.016010812
156	0xbcda9bd3	-0.02668563
157	0x3ca775d7	0.020441933
158	0x3bb85214	0.005625019
159	0x3cd8eca3	0.026480025
160	0x3cc52bb0	0.024068683
161	0x3d3ce974	0.046121076
162	0x3cfe7824	0.031063147
163	0xbcc6456c	-0.024203025
164	0x3c963272	0.018334601
165	0x3ca54db1	0.020178648
166	0xbc9614ce	-0.018320467
167	0xbc481596	-0.012212178
168	0x3d12a4f3	0.03580184
169	0x3cfe8443	0.031068927
170	0xbd21d7b6	-0.03951236
171	0x3c23279c	0.009958174
172	0xb99dbeea	-0.00030087616
173	0xbd2a56c8	-0.041586667
174	0x3c5ef92c	0.013609212
175	0xbc826148	-0.015915528
176	0x3c2af4e4	0.010434363
177	0x3c925982	0.017864946
178	0xbc85a0ce	-0.01631203
179	0xbc2472f3	-0.010037172
180	0x3c94fb9c	0.018186383
181	0x3c82a3f1	0.015947314
182	0x3cebdb9e	0.028791245
183	0x3cd9bff9	0.026580798
184	0x3ce12217	0.027482076
185	0xbc962eec	-0.018332921
186	0x3c1be8e8	0.009515978
187	0x3c4d36c0	0.01252526
188	0xbd1fe7a1	-0.039039258
189	0xbca965ed	-0.020678485
190	0x3c1382db	0.009003366
191	0xbcf8359e	-0.030299004
192	0xbce33a46	-0.027737748
193	0x3ceb90cb	0.028755566
194	0xbc64b118	-0.013958238
195	0xbbad0549	-0.005280171
196	0x3cc05b4d	0.023481036
197	0xbcfe9e38	-0.031081304
198	0xbcf76cdd	-0.030203277
199	0xbcb0329e	-0.021508511
200	0x3b968f4d	0.0045947195
201	0xbb9425c6	-0.0045211045
202	0xbb850622	-0.004059569
203	0xbadbd9ce	-0.0016773285
204	0xbc9eee1c	-0.019400649
205	0x3c30f818	0.010801338
206	0x3c342398	0.010994814
207	0xbc19d28a	-0.009388575
208	0xbc71a4f9	-0.014748805
209	0xbcb22ecb	-0.021750828
210	0x3c98c90e	0.018650558
211	0x3d26672d	0.04062574
212	0xbc14d96c	-0.009085041
213	0xbc336ceb	-0.010951261
214	0x3cff1bd6	0.031141203
215	0x3c99ba0d	0.018765474
216	0x3c607f61	0.0137022445
217	0xb9927f5c	-0.0002794218
218	0xbc361713	-0.0111139
219	0xbd6b7094	-0.05748041
220	0xbd192659	-0.037390087
221	0x3d05f629	0.03270546
222	0xbb6545cd	-0.0034984231
223	0x3c371477	0.011174313
224	0x3cd42c2f	0.025899975
225	0xbcc4e73d	-0.024036044
226	0x3ce7e947	0.028309477
227	0xbcc919d9	-0.024548458
228	0xbc960da0	-0.018317044
229	0x3d0ac4f1	0.033879224
230	0x3bb1690c	0.005414134
231	0xbd025632	-0.031820484
232	0x3cbfd05c	0.023414783
233	0x3ba71704	0.005099179
234	0x3d0c3f6d	0.034240175
235	0x3d16dc14	0.036830977
236	0xbd35afb8	-0.04435703
237	0x3ca315bd	0.019907827
238	0x3bcc6963	0.006238149
239	0x3ce7daed	0.028302634
240	0xbd214342	-0.039370783
241	0x3ccdf010	0.025138885
242	0xbcad0e20	-0.0211249
243	0x3bbdc878	0.00579172
244	0x3cf77cdb	0.030210903
245	0xbc61be91	-0.013778345
246	0x3ce82670	0.02833864
247	0xbd4928c1	-0.04911113
248	0x3d4154ce	0.047200017
249	0xbc618a04	-0.013765816
250	0x3bb9ff87	0.005676213
251	0xbce5e5e8	-0.02806373
252	0x3c9457d5	0.018108288
253	0xbbd8151d	-0.006594314
254	0x3a44707a	0.0007493567
255	0x3b92f899	0.0044852016

action_model._continuous_distribution.mu.bias f4 [2]
0	0xbbc8593c	-0.006114153
1	0xbc29ce01	-0.010364057

exp_avg f4 [128, 6]
0	0xb7186990	-9.084484e-06
1	0x00000000	0.0
2	0xb76a3aa0	-1.3961137e-05
3	0x355a3ec0	8.130264e-07
4	0x00000000	0.0
5	0x00000000	0.0
6	0x38eb74d0	0.00011227431
7	0x00000000	0.0
8	0x395e27d8	0.00021186413
9	0xb8980770	-7.24931e-05
10	0x00000000	0.0
11	0x00000000	0.0
12	0xb7b37ef8	-2.1397587e-05
13	0x00000000	0.0
14	0xb6db9ca0	-6.544942e-06
15	0xb8659fb8	-5.4746604e-05
16	0x00000000	0.0
17	0x00000000	0.0
18	0x378b68d4	1.6618906e-05
19	0x00000000	0.0
20	0x38198dce	3.661011e-05
21	0xb7618c78	-1.34437505e-05
22	0x00000000	0.0
23	0x00000000	0.0
24	0x38922822	6.969298e-05
25	0x00000000	0.0
26	0x3879ac3a	5.9526625e-05
27	0xb883444c	-6.259288e-05
28	0x00000000	0.0
29	0x00000000	0.0
30	0xb80cd128	-3.3573393e-05
31	0x00000000	0.0
32	0x374308a0	1.1624914e-05
33	0xb8ac1420	-8.205348e-05
34	0x00000000	0.0
35	0x00000000	0.0
36	0x3755ebf8	1.275073e-05
37	0x00000000	0.0
38	0x37006e08	7.655013e-06
39	0xb70ae970	-8.279792e-06
40	0x00000000	0.0
41	0x00000000	0.0
42	0x37da4890	2.6021415e-05
43	0x00000000	0.0
44	0x38927dd4	6.98526e-05
45	0xb7cfd890	-2.4777168e-05
46	0x00000000	0.0
47	0x00000000	0.0
48	0xb7b721c8	-2.183103e-05
49	0x00000000	0.0
50	0x396886db	0.00022175482
51	0xb9319416	-0.00016935202
52	0x00000000	0.0
53	0x00000000	0.0
54	0xb7920f20	-1.74116e-05
55	0x00000000	0.0
56	0xb6618ee0	-3.3610777e-06
57	0xb677c5c8	-3.6920992e-06
58	0x00000000	0.0
59	0x00000000	0.0
60	0xb7a2aba6	-1.9391835e-05
61	0x00000000	0.0
62	0x37865704	1.6014565e-05
63	0xb83642ef	-4.3454518e-05
64	0x00000000	0.0
65	0x00000000	0.0
66	0xb8933bc8	-7.020641e-05
67	0x00000000	0.0
68	0xb814a6f0	-3.5441422e-05
69	0x36f1f6c0	7.211085e-06
70	0x00000000	0.0
71	0x00000000	0.0
72	0xb900669c	-0.00012245256
73	0x00000000	0.0
74	0x38969e38	7.182028e-05
75	0xb8f42fdc	-0.00011643741
76	0x00000000	0.0
77	0x00000000	0.0
78	0xb8ba98c0	-8.897623e-05
79	0x00000000	0.0
80	0xb921e024	-0.00015437655
81	0x373ad340	1.1135649e-05
82	0x00000000	0.0
83	0x00000000	0.0
84	0xb71ff0cf	-9.533206e-06
85	0x00000000	0.0
86	0x37e241d2	2.697195e-05
87	0xb8347517	-4.3024393e-05
88	0x00000000	0.0
89	0x00000000	0.0
90	0x39cebe1e	0.0003943303
91	0x00000000	0.0
92	0x39c2050c	0.00037006324
93	0xb9d47220	-0.0004052082
94	0x00000000	0.0
95	0x00000000	0.0
96	0x37543a20	1.2649718e-05
97	0x00000000	0.0
98	0x383f188c	4.556081e-05
99	0xb80e60e7	-3.3945686e-05
100	0x00000000	0.0
101	0x00000000	0.0
102	0x378271a8	1.5550133e-05
103	0x00000000	0.0
104	0x37274b80	9.971554e-06
105	0xb7d59da8	-2.5464993e-05
106	0x00000000	0.0
107	0x00000000	0.0
108	0xb891fdcc	-6.961412e-05
109	0x00000000	0.0
110	0xb88d3524	-6.733302e-05
111	0xb850b410	-4.975876e-05
112	0x00000000	0.0
113	0x00000000	0.0
114	0x38d43b12	0.000101199505
115	0x00000000	0.0
116	0xb77f5040	-1.5217869e-05
117	0x36804980	3.823254e-06
118	0x00000000	0.0
119	0x00000000	0.0
120	0xb6b87e58	-5.4983357e-06
121	0x00000000	0.0
122	0xb7989d98	-1.8193197e-05
123	0x37392ff8	1.1038028e-05
124	0x00000000	0.0
125	0x00000000	0.0
126	0xb6b4a850	-5.384012e-06
127	0x00000000	0.0
128	0xb777df58	-1.47743485e-05
129	0x37d0e17e	2.4900535e-05
130	0x00000000	0.0
131	0x00000000	0.0
132	0xb766504c	-1.3727764e-05
133	0x00000000	0.0
134	0x36b4e728	5.391328e-06
135	0xb70db09c	-8.445375e-06
136	0x00000000	0.0
137	0x00000000	0.0
138	0x34ce7b3c	3.8460155e-07
139	0x00000000	0.0
140	0xb5b0f2c2	-1.3183674e-06
141	0x360d01f1	2.1011767e-06
142	0x00000000	0.0
143	0x00000000	0.0
144	0x38047f06	3.1589552e-05
145	0x00000000	0.0
146	0x38096f0e	3.2766773e-05
147	0xb7d8df9c	-2.5853333e-05
148	0x00000000	0.0
149	0x00000000	0.0
150	0xb8745ce4	-5.8260644e-05
151	0x00000000	0.0
152	0x38ff009e	0.000121594625
153	0xb8d478d3	-0.00010131453
154	0x00000000	0.0
155	0x00000000	0.0
156	0xb7374b9c	-1.0925254e-05
157	0x00000000	0.0
158	0xb7c88006	-2.3901473e-05
159	0x37898a16	1.6395974e-05
160	0x00000000	0.0
161	0x00000000	0.0
162	0x37faf718	2.9917384e-05
163	0x00000000	0.0
164	0x3882703c	6.219788e-05
165	0xb8249374	-3.9237973e-05
166	0x00000000	0.0
167	0x00000000	0.0
168	0x37a1a078	1.926742e-05
169	0x00000000	0.0
170	0x36cf98e0	6.1868777e-06
171	0xb6458340	-2.9431685e-06
172	0x00000000	0.0
173	0x00000000	0.0
174	0x3900cc66	0.00012283176
175	0x00000000	0.0
176	0x386ec560	5.692744e-05
177	0xb7ff0520	-3.0400755e-05
178	0x00000000	0.0
179	0x00000000	0.0
180	0x3880ad72	6.135822e-05
181	0x00000000	0.0
182	0x387355b0	5.8015517e-05
183	0xb87424dc	-5.820846e-05
184	0x00000000	0.0
185	0x00000000	0.0
186	0x39866924	0.00025636808
187	0x00000000	0.0
188	0x398a9dff	0.00026439127
189	0xb98ff3ae	-0.0002745664
190	0x00000000	0.0
191	0x00000000	0.0
192	0x3703d14d	7.85694e-06
193	0x00000000	0.0
194	0xb5a5b3fc	-1.234584e-06
195	0x37724316	1.4439944e-05
196	0x00000000	0.0
197	0x00000000	0.0
198	0x38bedc08	9.10089e-05
199	0x00000000	0.0
200	0x3757a5a0	1.2853561e-05
201	0xb8887578	-6.5068656e-05
202	0x00000000	0.0
203	0x00000000	0.0
204	0xb9371d62	-0.00017463186
205	0x00000000	0.0
206	0xb8c847e8	-9.550137e-05
207	0x36d27300	6.2718755e-06
208	0x00000000	0.0
209	0x00000000	0.0
210	0x38deb8f0	0.00010620232
211	0x00000000	0.0
212	0x38befacb	9.10662e-05
213	0xb8b97d0d	-8.84478e-05
214	0x00000000	0.0
215	0x00000000	0.0
216	0x389fc752	7.618837e-05
217	0x00000000	0.0
218	0xb8350ca3	-4.316553e-05
219	0x37d1140c	2.4924077e-05
220	0x00000000	0.0
221	0x00000000	0.0
222	0x36390d60	2.7574933e-06
223	0x00000000	0.0
224	0x34a3f6c0	3.054065e-07
225	0x37adb660	2.0708132e-05
226	0x00000000	0.0
227	0x00000000	0.0
228	0xb6ba09fc	-5.5443943e-06
229	0x00000000	0.0
230	0xb70beb48	-8.339826e-06
231	0x36846468	3.9455954e-06
232	0x00000000	0.0
233	0x00000000	0.0
234	0xb6a589ce	-4.9334258e-06
235	0x00000000	0.0
236	0xb719779c	-9.147359e-06
237	0x365be348	3.2765838e-06
238	0x00000000	0.0
239	0x00000000	0.0
240	0xb7c0ebc8	-2.2997978e-05
241	0x00000000	0.0
242	0xb4df1000	-4.1548628e-07
243	0xb8b8076c	-8.775186e-05
244	0x00000000	0.0
245	0x00000000	0.0
246	0x38ee0818	0.00011350232
247	0x00000000	0.0
248	0x39a43728	0.00031321612
249	0xb9581f08	-0.00020610925
250	0x00000000	0.0
251	0x00000000	0.0
252	0xb7497ca0	-1.200955e-05
253	0x00000000	0.0
254	0xb7b99f6a	-2.2127952e-05
255	0x3889e16f	6.574659e-05

exp_avg_sq f4 [128, 6]
0	0x31769aae	3.5885637e-09
1	0x00000000	0.0
2	0x321bc6c2	9.06738e-09
3	0x32360431	1.0594747e-08
4	0x00000000	0.0
5	0x00000000	0.0
6	0x3587893f	1.0098228e-06
7	0x00000000	0.0
8	0x36263e9f	2.4772378e-06
9	0x36221a68	2.4155252e-06
10	0x00000000	0.0
11	0x00000000	0.0
12	0x3337415b	4.266745e-08
13	0x00000000	0.0
14	0x33f51f59	1.14144036e-07
15	0x34426ce9	1.8107279e-07
16	0x00000000	0.0
17	0x00000000	0.0
18	0x32214c4b	9.38878e-09
19	0x00000000	0.0
20	0x330efcee	3.329199e-08
21	0x3316ce3a	3.511216e-08
22	0x00000000	0.0
23	0x00000000	0.0
24	0x333920b1	4.31034e-08
25	0x00000000	0.0
26	0x334562fe	4.595767e-08
27	0x33716537	5.620424e-08
28	0x00000000	0.0
29	0x00000000	0.0
30	0x33a03be0	7.461472e-08
31	0x00000000	0.0
32	0x34400360	1.7882621e-07
33	0x348cdb0f	2.6236418e-07
34	0x00000000	0.0
35	0x00000000	0.0
36	0x33a6d569	7.7687965e-08
37	0x00000000	0.0
38	0x33edba75	1.1070089e-07
39	0x33a19786	7.524709e-08
40	0x00000000	0.0
41	0x00000000	0.0
42	0x338ed435	6.6509905e-08
43	0x00000000	0.0
44	0x3434bf48	1.6833394e-07
45	0x342f884f	1.6347734e-07
46	0x00000000	0.0
47	0x00000000	0.0
48	0x34af84cd	3.2692915e-07
49	0x00000000	0.0
50	0x357150b9	8.9896963e-07
51	0x355fdf97	8.339934e-07
52	0x00000000	0.0
53	0x00000000	0.0
54	0x320a4e1a	8.0504154e-09
55	0x00000000	0.0
56	0x32322b82	1.0370856e-08
57	0x3336d664	4.2570164e-08
58	0x00000000	0.0
59	0x00000000	0.0
60	0x3289a56d	1.6024126e-08
61	0x00000000	0.0
62	0x332a509c	3.9654523e-08
63	0x335e3a90	5.1741665e-08
64	0x00000000	0.0
65	0x00000000	0.0
66	0x339da899	7.34155e-08
67	0x00000000	0.0
68	0x342d830a	1.6159552e-07
69	0x346aff74	2.1885882e-07
70	0x00000000	0.0
71	0x00000000	0.0
72	0x35334777	6.678669e-07
73	0x00000000	0.0
74	0x35e0d4b6	1.6751208e-06
75	0x35d23c68	1.56638e-06
76	0x00000000	0.0
77	0x00000000	0.0
78	0x352b04e9	6.370961e-07
79	0x00000000	0.0
80	0x35c5151a	1.4683785e-06
81	0x3602f8d8	1.9516356e-06
82	0x00000000	0.0
83	0x00000000	0.0
84	0x3424a9fb	1.5335529e-07
85	0x00000000	0.0
86	0x345e83d1	2.0723316e-07
87	0x343de54a	1.7685412e-07
88	0x00000000	0.0
89	0x00000000	0.0
90	0x36131d37	2.1921712e-06
91	0x00000000	0.0
92	0x369c049f	4.6497003e-06
93	0x368e0ac4	4.233183e-06
94	0x00000000	0.0
95	0x00000000	0.0
96	0x319bfac2	4.5396016e-09
97	0x00000000	0.0
98	0x3274dc73	1.4252794e-08
99	0x324420ad	1.1416131e-08
100	0x00000000	0.0
101	0x00000000	0.0
102	0x32f6e075	2.874024e-08
103	0x00000000	0.0
104	0x335c4270	5.1283166e-08
105	0x338b7f41	6.495839e-08
106	0x00000000	0.0
107	0x00000000	0.0
108	0x346ce0a5	2.2060938e-07
109	0x00000000	0.0
110	0x35082d7b	5.073013e-07
111	0x35400e3b	7.154628e-07
112	0x00000000	0.0
113	0x00000000	0.0
114	0x34cbe34d	3.797708e-07
115	0x00000000	0.0
116	0x354782b2	7.4323464e-07
117	0x3542e018	7.259673e-07
118	0x00000000	0.0
119	0x00000000	0.0
120	0x31644634	3.3218273e-09
121	0x00000000	0.0
122	0x3204ba57	7.72578e-09
123	0x323a97c9	1.0861137e-08
124	0x00000000	0.0
125	0x00000000	0.0
126	0x3139cd01	2.7037574e-09
127	0x00000000	0.0
128	0x31a9d158	4.942347e-09
129	0x32d23985	2.4473374e-08
130	0x00000000	0.0
131	0x00000000	0.0
132	0x31e90f80	6.7829546e-09
133	0x00000000	0.0
134	0x32889032	1.5898056e-08
135	0x3285ec55	1.559071e-08
136	0x00000000	0.0
137	0x00000000	0.0
138	0x2e176452	3.4422527e-11
139	0x00000000	0.0
140	0x2ee33b60	1.0333312e-10
141	0x2ef5700f	1.1161216e-10
142	0x00000000	0.0
143	0x00000000	0.0
144	0x33457088	4.5969983e-08
145	0x00000000	0.0
146	0x331b5e34	3.6174427e-08
147	0x33568385	4.9945374e-08
148	0x00000000	0.0
149	0x00000000	0.0
150	0x347a1f83	2.3294528e-07
151	0x00000000	0.0
152	0x3520c979	5.9897826e-07
153	0x351e0651	5.886878e-07
154	0x00000000	0.0
155	0x00000000	0.0
156	0x317dea1c	3.6949421e-09
157	0x00000000	0.0
158	0x31e0852e	6.534399e-09
159	0x3205e37e	7.793345e-09
160	0x00000000	0.0
161	0x00000000	0.0
162	0x3330202a	4.1007446e-08
163	0x00000000	0.0
164	0x33e66499	1.0728508e-07
165	0x33c2b378	9.066474e-08
166	0x00000000	0.0
167	0x00000000	0.0
168	0x32844eaa	1.5402595e-08
169	0x00000000	0.0
170	0x33023ccf	3.032329e-08
171	0x32e71841	2.6902969e-08
172	0x00000000	0.0
173	0x00000000	0.0
174	0x350dff5d	5.2898196e-07
175	0x00000000	0.0
176	0x3590de37	1.0793509e-06
177	0x358090dc	9.578903e-07
178	0x00000000	0.0
179	0x00000000	0.0
180	0x336c2779	5.4983932e-08
181	0x00000000	0.0
182	0x33840aac	6.14867e-08
183	0x33887a93	6.3552896e-08
184	0x00000000	0.0
185	0x00000000	0.0
186	0x357418e1	9.0933287e-07
187	0x00000000	0.0
188	0x35a25303	1.20941e-06
189	0x3597e122	1.1315899e-06
190	0x00000000	0.0
191	0x00000000	0.0
192	0x310ac816	2.0195379e-09
193	0x00000000	0.0
194	0x3119aef5	2.2363882e-09
195	0x32930d2d	1.7119044e-08
196	0x00000000	0.0
197	0x00000000	0.0
198	0x34458f27	1.8399133e-07
199	0x00000000	0.0
200	0x34c095f5	3.5871895e-07
201	0x351327c8	5.4819657e-07
202	0x00000000	0.0
203	0x00000000	0.0
204	0x35c00003	1.4305118e-06
205	0x00000000	0.0
206	0x3630c574	2.6340977e-06
207	0x36205f4c	2.3897328e-06
208	0x00000000	0.0
209	0x00000000	0.0
210	0x338c7204	6.539997e-08
211	0x00000000	0.0
212	0x33fe43b7	1.1840114e-07
213	0x340a2b37	1.2867973e-07
214	0x00000000	0.0
215	0x00000000	0.0
216	0x34c91445	3.7453916e-07
217	0x00000000	0.0
218	0x35401b2a	7.15651e-07
219	0x35448b46	7.321836e-07
220	0x00000000	0.0
221	0x00000000	0.0
222	0x316b545d	3.4244956e-09
223	0x00000000	0.0
224	0x31be938a	5.546501e-09
225	0x33306b13	4.1075577e-08
226	0x00000000	0.0
227	0x00000000	0.0
228	0x3116fce1	2.1971618e-09
229	0x00000000	0.0
230	0x3179f3cf	3.6372858e-09
231	0x317c4bd9	3.671394e-09
232	0x00000000	0.0
233	0x00000000	0.0
234	0x31525e85	3.061275e-09
235	0x00000000	0.0
236	0x3199cf34	4.4764423e-09
237	0x32b26358	2.0767104e-08
238	0x00000000	0.0
239	0x00000000	0.0
240	0x33a6b35c	7.762603e-08
241	0x00000000	0.0
242	0x34433232	1.8179051e-07
243	0x34e01260	4.173662e-07
244	0x00000000	0.0
245	0x00000000	0.0
246	0x35724af5	9.02611e-07
247	0x00000000	0.0
248	0x361d3215	2.3423975e-06
249	0x3609711a	2.0480425e-06
250	0x00000000	0.0
251	0x00000000	0.0
252	0x320a9b8a	8.068023e-09
253	0x00000000	0.0
254	0x32552e47	1.2408754e-08
255	0x3396c080	7.019935e-08

exp_avg f4 [128]
0	0x34ae9900	3.2521348e-07
1	0xb7f33ed0	-2.8997107e-05
2	0xb7b7b304	-2.189866e-05
3	0xb6b47048	-5.3774893e-06
4	0xb7d206e3	-2.5037158e-05
5	0xb809a9b4	-3.2821394e-05
6	0xb65e4240	-3.311914e-06
7	0xb72646f0	-9.9108875e-06
8	0xb88e1015	-6.774083e-05
9	0xb5c63816	-1.4768473e-06
10	0xb791cf2a	-1.7381815e-05
11	0x36419200	2.8844224e-06
12	0xb8435970	-4.6574918e-05
13	0x36957580	4.454225e-06
14	0xb7905dab	-1.7209755e-05
15	0xb929f4da	-0.0001620831
16	0xb763ce38	-1.3578268e-05
17	0xb72ae484	-1.0185995e-05
18	0xb7a6f698	-1.9903571e-05
19	0x35cd4220	1.5292935e-06
20	0x36942668	4.415215e-06
21	0x37271aca	9.960213e-06
22	0xb662b42c	-3.3781498e-06
23	0x35619cc1	8.404714e-07
24	0xb72d7fc4	-1.0341351e-05
25	0xb829fa45	-4.052582e-05
26	0x36dc1024	6.55839e-06
27	0xb783a92c	-1.5695194e-05
28	0xb59e02e0	-1.1772754e-06
29	0xb74c0450	-1.2160352e-05
30	0xb7c350ae	-2.328338e-05
31	0xb8e652ae	-0.00010982655
32	0x36c1cf46	5.775978e-06
33	0xb7da5594	-2.6027476e-05
34	0x36285b80	2.508721e-06
35	0xb814640b	-3.5379122e-05
36	0x37274357	9.9696545e-06
37	0x370af84e	8.283254e-06
38	0x35d3d3d8	1.578238e-06
39	0x35afe90c	1.3106342e-06
40	0xb813391a	-3.510071e-05
41	0xb8ace58c	-8.2443556e-05
42	0x37dc9bea	2.6298647e-05
43	0xb830bd60	-4.213804e-05
44	0xb82cda18	-4.121111e-05
45	0x370ced10	8.399846e-06
46	0xb6bd1a80	-5.635724e-06
47	0xb4ee0100	-4.4331682e-07
48	0xb804ad08	-3.16324e-05
49	0xb6f3f0e4	-7.2700077e-06
50	0x374ce5d0	1.2212855e-05
51	0xb8016dd4	-3.0858282e-05
52	0xb7c8d16c	-2.3939378e-05
53	0xb8170546	-3.6006117e-05
54	0x37410e40	1.1507014e-05
55	0xb6534a94	-3.148486e-06
56	0xb7c1058b	-2.3009974e-05
57	0xb7ffb1a0	-3.0481082e-05
58	0xb86ae07c	-5.5999015e-05
59	0x36b6eda0	5.451686e-06
60	0xb8c85b33	-9.55373e-05
61	0xb6897ac0	-4.097208e-06
62	0xb7cc9bba	-2.439121e-05
63	0x361c9a90	2.3335779e-06
64	0xb85fd686	-5.3367134e-05
65	0xb50e35f0	-5.297761e-07
66	0xb7ac4c78	-2.0539606e-05
67	0xb80f9e0b	-3.4241046e-05
68	0xb6b050c3	-5.2546106e-06
69	0x37804e80	1.5295343e-05
70	0xb64e2a40	-3.0720985e-06
71	0xb6e69ab0	-6.872542e-06
72	0x3642ffe8	2.905721e-06
73	0xb7536718	-1.2600583e-05
74	0x36f5a760	7.321054e-06
75	0xb7a22150	-1.9327417e-05
76	0xb7ac6aea	-2.0553784e-05
77	0xb8068828	-3.2074895e-05
78	0x37cc4408	2.4350375e-05
79	0xb881a84a	-6.1825456e-05
80	0xb6096e7c	-2.0478901e-06
81	0xb7ebda99	-2.8115976e-05
82	0xb8a5069c	-7.869044e-05
83	0x36001f20	1.9091603e-06
84	0x37a26f1c	1.9363644e-05
85	0xb6a00ac0	-4.769623e-06
86	0xb5bbb568	-1.3985382e-06
87	0xb58c4fe0	-1.045406e-06
88	0xb7582f70	-1.2885648e-05
89	0x35f965c0	1.8581559e-06
90	0xb83042e0	-4.2023952e-05
91	0xb84634e2	-4.725613e-05
92	0x33da8080	1.017479e-07
93	0x371b6da0	9.264244e-06
94	0xb85b1818	-5.2236108e-05
95	0xb71f0010	-9.477153e-06
96	0xb67d89c0	-3.778012e-06
97	0xb71b9738	-9.273928e-06
98	0xb819b0c6	-3.6642676e-05
99	0xb73c9ab0	-1.1241689e-05
100	0xb8246270	-3.9192324e-05
101	0xb770a3a4	-1.4343215e-05
102	0xb87eea58	-6.077657e-05
103	0x36972720	4.5047054e-06
104	0xb708a740	-8.145173e-06
105	0xb6c39dd0	-5.8298247e-06
106	0x37ddb4d0	2.642945e-05
107	0x36d2c04e	6.280875e-06
108	0xb7585968	-1.289542e-05
109	0xb6de2328	-6.6202083e-06
110	0x37706fc0	1.4331134e-05
111	0x353abe00	6.9566886e-07
112	0xb5ce08cc	-1.5350756e-06
113	0x377f0503	1.5200351e-05
114	0x37754528	1.461924e-05
115	0xb75bbe43	-1.3097716e-05
116	0xb697d5f0	-4.5250563e-06
117	0xb639e86c	-2.7702436e-06
118	0xb605b240	-1.99223e-06
119	0x36b3fde4	5.3641725e-06
120	0xb84d18ed	-4.8899023e-05
121	0xb8414092	-4.607492e-05
122	0xb75e2c96	-1.3242612e-05
123	0xb781d81c	-1.5478632e-05
124	0xb7da8720	-2.6050548e-05
125	0xb605f080	-1.9958534e-06
126	0xb7ac415e	-2.0534437e-05
127	0xb816987e	-3.5904806e-05

exp_avg_sq f4 [128]
0	0x30e8fb1a	1.6951589e-09
1	0x34cf7dfc	3.864842e-07
2	0x32f8dd54	2.8971648e-08
3	0x31c107f6	5.6179443e-09
4	0x321a7e38	8.992679e-09
5	0x33344ba0	4.1978296e-08
6	0x324ed667	1.2039528e-08
7	0x32e0ae73	2.6156362e-08
8	0x340f476d	1.3343897e-07
9	0x31ea082f	6.8112267e-09
10	0x320e39f5	8.278666e-09
11	0x3316660a	3.50174e-08
12	0x34868d12	2.5062087e-07
13	0x34a7a4ea	3.1226165e-07
14	0x32f310f8	2.829664e-08
15	0x3535d057	6.773093e-07
16	0x30fb0b15	1.8265803e-09
17	0x32328e6e	1.0393348e-08
18	0x33f5d4c9	1.1447407e-07
19	0x33f970bf	1.16154744e-07
20	0x30eed6ca	1.7377826e-09
21	0x31868b39	3.915741e-09
22	0x312b6bf4	2.494514e-09
23	0x2d9d1486	1.7857948e-11
24	0x320949ee	7.991259e-09
25	0x33ca4588	9.419006e-08
26	0x30ab60a4	1.2469354e-09
27	0x3279379b	1.4506351e-08
28	0x3193e68f	4.3044746e-09
29	0x34249074	1.5326242e-07
30	0x322eb162	1.0168465e-08
31	0x344267d8	1.8105436e-07
32	0x313c39cb	2.7390452e-09
33	0x33bc5be2	8.7711456e-08
34	0x34cd46c1	3.8235706e-07
35	0x32b0db26	2.0588754e-08
36	0x33fb9395	1.1714943e-07
37	0x31e1d0be	6.572093e-09
38	0x30217835	5.8742283e-10
39	0x31645640	3.3227394e-09
40	0x338f67ed	6.6778604e-08
41	0x34afecef	3.2768682e-07
42	0x3240f66a	1.1231899e-08
43	0x338d7a32	6.588051e-08
44	0x33cd3d31	9.557187e-08
45	0x33ca0a20	9.4082e-08
46	0x331bd7f1	3.6285147e-08
47	0x33e51eb3	1.06692276e-07
48	0x34b6fe12	3.4085002e-07
49	0x33b5ad0b	8.4599456e-08
50	0x336370fa	5.2955308e-08
51	0x33c1d432	9.025861e-08
52	0x331059c2	3.3609247e-08
53	0x3256f724	1.2512633e-08
54	0x33c026eb	8.947776e-08
55	0x31eaccc4	6.8335755e-09
56	0x31c209d1	5.647259e-09
57	0x34f347d7	4.5314547e-07
58	0x35067b00	5.009788e-07
59	0x30e1e291	1.6435299e-09
60	0x34db3162	4.082786e-07
61	0x33ba95a4	8.6885194e-08
62	0x3309bcf5	3.2069654e-08
63	0x308e43d4	1.0351138e-09
64	0x33cd06cd	9.5472934e-08
65	0x301cff9a	5.71157e-10
66	0x331c18c2	3.6344098e-08
67	0x31c401dd	5.7045626e-09
68	0x30bed021	1.3883473e-09
69	0x35040628	4.918279e-07
70	0x34e7abd8	4.3152136e-07
71	0x3385277e	6.200479e-08
72	0x31026072	1.8972313e-09
73	0x331574de	3.4798056e-08
74	0x3374a353	5.695922e-08
75	0x340caa51	1.3100477e-07
76	0x31c55d31	5.7440492e-09
77	0x33822812	6.0608855e-08
78	0x3410e5d8	1.3494662e-07
79	0x34919e2d	2.7123443e-07
80	0x30d09ef8	1.5179173e-09
81	0x328b1069	1.6189192e-08
82	0x34b4202b	3.3551018e-07
83	0x305fc597	8.140772e-10
84	0x332dcd4d	4.046642e-08
85	0x3258f8d3	1.2629431e-08
86	0x2f8e4890	2.5881208e-10
87	0x31b3c670	5.2321454e-09
88	0x334194dc	4.50717e-08
89	0x3292f4cf	1.7107963e-08
90	0x344a809e	1.8859507e-07
91	0x335c6c66	5.132133e-08
92	0x2f79a2cb	2.2704254e-10
93	0x345015a8	1.9379388e-07
94	0x344c5fd3	1.9033841e-07
95	0x336175e0	5.24941e-08
96	0x3393218d	6.851324e-08
97	0x3130e478	2.574124e-09
98	0x33987c4a	7.1006596e-08
99	0x3410fb7b	1.3502533e-07
100	0x333437f8	4.196042e-08
101	0x333482d5	4.2028507e-08
102	0x3497f4c8	2.8304044e-07
103	0x32c47f9c	2.2875433e-08
104	0x3303713a	3.0603793e-08
105	0x328aa134	1.6138621e-08
106	0x3505b6f5	4.98126e-07
107	0x2fc56fe8	3.5913605e-10
108	0x3209eaaf	8.02781e-09
109	0x339a290a	7.178649e-08
110	0x348d7663	2.6349434e-07
111	0x2fc5c829	3.5976314e-10
112	0x31c23f44	5.6533356e-09
113	0x315fb2f6	3.2552498e-09
114	0x31149d78	2.1626345e-09
115	0x30c4b962	1.4313566e-09
116	0x31354349	2.6377214e-09
117	0x2fae8c91	3.1750294e-10
118	0x32704bba	1.3987057e-08
119	0x31145679	2.1585989e-09
120	0x341f74e2	1.485055e-07
121	0x333a17e9	4.3328246e-08
122	0x3190a11e	4.2092685e-09
123	0x33c43af6	9.137686e-08
124	0x34333c26	1.6692556e-07
125	0x3422c99e	1.5160774e-07
126	0x3228bb0d	9.8214175e-09
127	0x3363bb53	5.3022926e-08
