MLAgentDevProject/results/BreadCrumb6/MoveToGoal/MoveToGoal-324435.pt (torch, 441366 bytes, 36 tensors)

network_body._body_endoder.seq_layers.0.weight f4 [128, 6]
00000000: 0f7b 1c3e e51a 6bbe 9b2b fa3c 4c40 fbbe
00000010: ab9e d03b b57a 95be 13bf 193e caa4 0cbf
00000020: 41dc 373f 2b76 7abe 9f65 de3e 15bc a3be
00000030: 7933 243f 91e2 2f3e ade8 513e aeff 983e
00000040: 2951 1b3e 0964 333f 0c06 cc3d 5c48 113f
00000050: eee8 04bc d101 cebe 0edf 1d3f d4fa c63e
00000060: 74bf c93e 944b 89be 2448 9bbe 02c5 7f3e
00000070: de23 0a3e b44a a5be b652 193d d20b 6d3e
00000080: 9189 943f f92b 28bf 722d 6abf 05e5 a33e
00000090: 72e5 20be f7f7 053f e432 fa3e ebd2 3a3f
000000a0: ee41 113f 5f52 71bf 3b26 9abe 6168 293d
000000b0: e1ad 4e3e 9d30 cdbe 6ce2 293f f1ca a03e
000000c0: c0bd 1f3e 201a 683e d86b 53bf 4ec1 e4be
000000d0: 992d 09be 449c 7cbe 0c91 073f 62ad 26bf
000000e0: cbe3 de3e ce78 15be e878 eb3d 7c32 883d
000000f0: a0bc 903e 632b d0bc 91ee da3d ab57 a7be
00000100: 9b15 57bc d994 ad3e 8d98 8cbf 69ff bbbe
00000110: d362 05bf 2263 b1bd a2a4 2a3d 7b89 d9be
00000120: 9194 1b3f 09ed 0cbf 94e1 fc3e 0c5b 2e3e
00000130: bdd1 68be 4eb5 48be 3a8b ae3e c729 e8bd
00000140: 30f0 3bbe abfa 613f c2e5 9fbc 832b 993e
00000150: fabc 03bf 2fc7 f0be d7c2 06bf 5aa9 9f3e
00000160: d96e fdbe c0ba c7bd 5d7b 4a3e cda7 f0bc
00000170: 91b1 ad3d a43a 83be 8168 c2be b273 c7be
00000180: 4e57 77be 351c 79bc 201e ddbe 834f 49be
00000190: 4c46 453f 8d56 413d f1af fbbe 3fd4 0dbd
000001a0: f32b 78bc 08dc 693e 1578 c0bd 8a38 d5be
000001b0: 29a6 d83e e334 e23d d84a 2ebf c3b0 8d3e
000001c0: cc9f 803e 7ece 05bf a74a 77bf 6106 813e
000001d0: 959c 1cbd 0013 303d be7a e43e 0eaf 7cbe
000001e0: 4fda 17bf e32d 8ebc 94cd 033f 7edf 1dbd
000001f0: e04d b3be 2643 91be 05ac 3cbe df07 60be
00000200: cbdb b3bd e464 2abf 652f 67be 923d c8be
00000210: 73b7 43bf 7a6c 8fbd 78c6 3fbd 4fa8 5cbe
00000220: ae5c 17bf c091 c4be afa0 a63e 3b1d 1f3f
00000230: eaea 3dbf 8ac8 e83e 1443 603c 3526 353e
00000240: 7674 223f daee dabe c274 1d3f 7200 39bf
00000250: 5b44 79bc 472a f3bc 212c 6ebe 9603 64be
00000260: 5319 52bf 6b56 10bf 2180 653f 7844 6d3d
00000270: 6d8d c53e 2e59 5c3e 9213 143f a28d 353d
00000280: 303f 5cbe 94e5 93be b7e1 353e 61c2 afbe
00000290: d4f6 073f 0d39 a4be 1be1 6b3f 3f91 863d
000002a0: 87f7 013f 76aa 973d b1d9 093f 0684 08bf
000002b0: b1fd d0be b78a aa3e 2b34 5bbe 0b20 3c3f
000002c0: 639b ac3e e65a 8bbe a27c c4be 5911 8b3d
000002d0: 4a17 c63e f8f3 b43e 1c40 84be 3a68 87bd
000002e0: c67a b73d a78d a2be cb89 1dbe bcef d53e
000002f0: 637e 1b3f 8aab 15be 33ed 03bf c1b9 63bf
00000300: af7e 6cbe 8be3 8cbd 6c72 5ebe ba68 453e
00000310: 5411 26be 908b f3be 6926 93bd f228 33bd
00000320: e1b9 15bf f8d8 d5be 8ab1 26bf 4950 463a
00000330: 7fb4 493e e116 8bbd b175 05bf d5f0 ae3e
00000340: 2522 673d a3bc e4bd 94a3 5f3f aed5 143f
00000350: 6cff fe3d b207 db3c 2418 803d 605d 81bd
00000360: 8d0c 053e eb90 673d 9d93 acbc cc21 6d3d
00000370: cf60 e5bd d65e b8be 46df 25bf 5fbd 063f
00000380: 926c 793e 234d 0fbf bd1f 7abe 42dc 253e
00000390: 4ca1 f4be 4046 40be 83f2 ffbe 6cff d03c
000003a0: 3ce5 d53e a004 a13d 1c9a 28bf 8423 43bf
000003b0: 901a b03d 2add d23e ca8c 1b3e 4a8a 7e3d
000003c0: b87a 813c c09f fe3e 03c5 f3bd 4a6d da3e
000003d0: 61c2 18bf b101 6e3e 6cb1 d13c b746 af3e
000003e0: 8077 27bd f4f8 86bf 176d 123f 51c0 8d3d
000003f0: bf78 d23d 3e21 883e 2d92 c13e 88eb b73e
0.15281318 -0.22959478 0.03053837 -0.49072492 0.006366571 -0.2919518 0.15014295 -0.5493895
0.71820456 -0.2445914 0.43436906 -0.31979433 0.6414104 0.17176272 0.20498915 0.29882568
0.15167679 0.70074517 0.09962091 0.56751037 -0.008112175 -0.4023576 0.6166848 0.38863242
0.3940388 -0.26815474 -0.30328476 0.24977496 0.13490245 -0.32283556 0.037432395 0.2314904
1.1604482 -0.65692097 -0.91475594 0.32010666 -0.15712526 0.5233149 0.4886695 0.72978085
0.56741226 -0.94266313 -0.30107293 0.04135931 0.20183517 -0.40076151 0.6636112 0.31404832
0.15599728 0.22666216 -0.8258643 -0.4467873 -0.133963 -0.24668986 0.529557 -0.6510831
0.43533167 -0.14596865 0.114976704 0.06650254 0.2826891 -0.025411313 0.10690034 -0.32684073
-0.01312771 0.33902624 -1.0984055 -0.367183 -0.5210392 -0.08661486 0.041660912 -0.42487702
0.6077357 -0.55049187 0.49390852 0.17026919 -0.22736259 -0.19600412 0.34090596 -0.113360934
-0.18353343 0.88273114 -0.019518737 0.2991601 -0.5146023 -0.47026965 -0.5264105 0.31183892
-0.49498633 -0.097524166 0.19773622 -0.029376889 0.08481134 -0.25630677 -0.37970355 -0.38955456
-0.24154398 -0.015204479 -0.43187046 -0.19659238 0.7706039 0.047201682 -0.4915767 -0.03462624
-0.015147197 0.22837842 -0.09397904 -0.41644698 0.4231427 0.110452436 -0.6808295 0.2767392
0.25121915 -0.5226821 -0.96598285 0.2520018 -0.038235266 0.04298687 0.44624895 -0.24676153
-0.5931749 -0.017355865 0.5148556 -0.038543217 -0.3502035 -0.28371543 -0.18424995 -0.21878003
-0.087821566 -0.66560197 -0.22576673 -0.39109474 -0.76451796 -0.07003112 -0.046820134 -0.2154858
-0.5912579 -0.38392448 0.32544467 0.6215398 -0.74186575 0.454655 0.013687868 0.17690356
0.63458955 -0.42760354 0.61506283 -0.72266304 -0.015214051 -0.029683245 -0.23259021 -0.22266993
-0.8206989 -0.56381863 0.89648634 0.057926625 0.38584462 0.21518394 0.5784236 0.044324525
-0.21508479 -0.28886092 0.17761885 -0.34327987 0.53111005 -0.32074776 0.9214036 0.06570672
0.5076832 0.0740556 0.53847796 -0.5332645 -0.4081855 0.33308956 -0.21406619 0.73486394
0.337123 -0.27217788 -0.38376337 0.06790418 0.38689643 0.35342383 -0.25830162 -0.066116765
0.08958964 -0.31748697 -0.15384595 0.41784465 0.60739726 -0.14616218 -0.5153381 -0.8895531
-0.23095201 -0.06879338 -0.21723336 0.19278231 -0.16217548 -0.47567415 -0.071850605 -0.04374022
-0.58486754 -0.41767097 -0.65114653 0.0007565064 0.1969776 -0.06791473 -0.5213271 0.34168115
0.056429047 -0.11168792 0.87358975 0.5813855 0.124510616 0.026737068 0.062546045 -0.06316638
0.12993069 0.05653469 -0.021066481 0.05789356 -0.112001054 -0.36009854 -0.64793813 0.5263271
0.24357823 -0.55977076 -0.2442617 0.16197303 -0.4777931 -0.18776798 -0.4998971 0.02551242
0.41776454 0.0786221 -0.6586015 -0.7622607 0.085988164 0.4118436 0.15190426 0.0621436
0.015805587 0.49731255 -0.119028114 0.42661506 -0.596716 0.23242833 0.025597297 0.3423364
-0.04088545 -1.0544724 0.5719771 0.06921447 0.10276937 0.26587862 0.37806836 0.35921884

network_body._body_endoder.seq_layers.0.bias f4 [128]
00000000: 019d 2bbd f7d5 04bd 14b8 d4bd 1047 66be
00000010: 5881 193e fc7d 0abe b279 ce3a 0522 8bbd
00000020: 1b81 ff3d a63f 113d eb99 b2bd c6cc 53bc
00000030: b998 243d 398d 28be 63a4 03bd 920f d43d
00000040: edd9 0b3c eb85 72bd caac ab3a 80f3 b7bc
00000050: 6fdc 71bd aa88 8bbc 9db8 01bd 9857 18bd
00000060: ec60 433d bcd6 383d 8fbb 17be 7698 173c
00000070: 6fbd 71bd 3e8d 623c ecbc 0c3e 1bf1 583d
00000080: f572 e23d 9b2b f13b 55e1 c2bd 0497 3d3d
00000090: ded1 3e3c b254 84bb 18d4 293d 2b67 823b
000000a0: 139a 56bd 516c e23b 3cb9 f3bc b442 e9bd
000000b0: f367 5abe e2f1 fc3d d9ec 26bc 9912 7dbd
000000c0: 727e d6bc 087c c5bc 500b 5abd aa82 f03b
000000d0: 12a6 00be 2ace 46bd e361 873d 48ba 013e
000000e0: cbae 81bd 1e84 b5bc 89d2 fc3c 5d48 f5bc
000000f0: c2a7 40be 4b04 68bd 9285 91bd a5a5 a43d
00000100: 5a64 5abc 6f0d 603d 22e5 f23c bb42 8bbd
00000110: 2a38 afbd 24fb 3c3d 4924 143e 798e e9bc
00000120: 2a62 93bc 828a 813c 2054 603d 2685 1b3e
00000130: 0156 6cbe 269c 363b ac58 b8bc 2539 7dbc
00000140: 7e91 fcbd 5fc9 623b e3ad 5e3c 0b05 81bb
00000150: 905e e73d 2556 b63d 0328 66bc be64 f4bd
00000160: e1f9 b8bd 1ce4 8e3c f96e b23d 15d3 2bbd
00000170: c628 ca3c 05bc 20bc e39c f6bd 108b 173e
00000180: 41c3 47bc dbea 55bd 0c04 c2bd 704f f03c
00000190: 5d19 2fbc 0dd0 f23c 65b1 40bd 1655 aebd
000001a0: 04c0 7f3d b36d 05bd 9b78 3a3c 40df 843d
000001b0: 6b3d 11bd fb71 dfbd 2e01 cebd b396 4fbd
000001c0: 0172 e93b d97e c2bb fbbc ebbd 81d5 e9ba
000001d0: 93f9 bcbc 9d5d 71bd f916 6d3e 03d9 283e
000001e0: f880 f43d 4483 a83d 109d 343c fe26 9f3d
000001f0: a56b 633c 0468 293d 01bc 0a3d 9a5b 70bd
-0.041897777 -0.032430615 -0.103866726 -0.22488046 0.14990747 -0.13524622 0.0015752821 -0.06793598
0.12475797 0.03546109 -0.08720764 -0.01292724 0.04018471 -0.16460122 -0.032139193 0.10354532
0.008535844 -0.059209745 0.001309776 -0.022454977 -0.059048112 -0.01703294 -0.0316702 -0.03719291
0.047699854 0.04512666 -0.14817642 0.009252658 -0.05901855 0.01382762 0.13743943 0.05296431
0.110570826 0.0073599345 -0.09515635 0.046286598 0.011646716 -0.004038417 0.041462034 0.0039795837
-0.05239303 0.006909885 -0.029751413 -0.11389676 -0.21328716 0.12350823 -0.010188305 -0.061785314
-0.02618334 -0.024106994 -0.053233445 0.007339795 -0.12563351 -0.048536457 0.06610467 0.12668717
-0.06332167 -0.022157725 0.03086211 -0.029941732 -0.18813995 -0.05664472 -0.07105555 0.08039407
-0.01332959 0.05470031 0.029650275 -0.06799837 -0.08555634 0.046137944 0.14466967 -0.02851032
-0.017991144 0.015813116 0.054767728 0.15187511 -0.23079683 0.0027864068 -0.02250322 -0.015455519
-0.12332438 0.003460489 0.0135912625 -0.0039373687 0.11297333 0.089031495 -0.0140476255 -0.119332775
-0.090320356 0.017442755 0.087125726 -0.04194935 0.024677645 -0.009810452 -0.120416425 0.14799142
-0.012192548 -0.05222593 -0.09473428 0.029334754 -0.010687199 0.029640222 -0.047044177 -0.085123226
0.06243898 -0.03257532 0.011381294 0.06487894 -0.035458963 -0.10910412 -0.10058819 -0.050680827
0.007124186 -0.0059355316 -0.115106545 -0.0017840118 -0.023068225 -0.058927167 0.23153295 0.16489033
0.11938661 0.08228162 0.011023775 0.07771109 0.013880645 0.041358963 0.0338707 -0.058681108

network_body._body_endoder.seq_layers.2.weight f4 [128, 128]
00000000: b5d3 11be 1e65 1bbb 2f3c bcbd 9ae4 4f3d
00000010: f193 63be 375e 50be 008f ebbd fe0e 0f3d
00000020: a028 08be 5bc6 c93d fc6c 34bd 64b4 61bd
00000030: d503 09be c00b 8ebe f775 55bd 1ea6 443d
00000040: 1709 0abe 493a 15be 807b 913c d15e 4f3c
00000050: 920b cdbd d6fa 843c 5cb3 4ebe 2eb9 e13a
00000060: 1f3d fdbd c7ea b5bd c039 263d 16d1 07bd
00000070: 52e6 25bc b32d e7bd ee00 6f3c 79b4 44bd
00000080: e698 873c 8fe4 ebbd 9839 12be c5eb 66bc
00000090: e3d6 8dba 6dd5 9fbe e036 e8bd 7826 9f3c
000000a0: 5dac b6bc 1f07 81bd 7366 a63d 10d0 09bd
000000b0: aae2 fc3d b3d8 90bc 5308 1d3e 6675 3e3b
000000c0: 0619 333c 9128 a53c dc0b aabd d421 ad3d
000000d0: d387 22bd 502e debd 5571 e53d 145d 7dbe
000000e0: a727 74bc 1a13 ad3d ab2c f0bd d583 65be
000000f0: 0833 c43b 2d8b cc3d fa8a 1c3b 34ca 0cbe
00000100: 5969 5fbe 2c00 b8bc c981 cebc ce11 ea3a
00000110: 6567 9bbd 6249 89bd 9b81 cdbd 50d8 89bc
00000120: ec9a a53b 6c89 a4bd 9c26 79bd d9f7 ef3c
00000130: 5328 99bb dd0d babc a177 fe3c 2499 b4bd
00000140: 4dd7 3d3e 0bec d0bc fcf7 a2bd 86c5 dd3c
00000150: d6ff 6bbd 7fa3 733d 3c66 7b3d 2b8f 35be
00000160: 3b1d fa3d c592 0ebe db75 523e df24 603e
00000170: 4da5 bb3d 5fa1 d9bd 36d2 08bb f572 1dbc
00000180: 3af5 42be e4f1 433d b1aa 3bbd d6c1 b83c
00000190: f719 a6bc 714e 9b3d 39a6 a7bc 33f6 92bd
000001a0: 8e60 e2bd 616a 44bd 7f72 14bd 9ed6 bd3b
000001b0: 7ab7 10bd a1a3 ddbc ba13 6bbd 3406 083d
000001c0: e862 65bd d62c 79bb c91a 19bd f10a ecbb
000001d0: da78 153e 2e75 5cbd b8d2 b23d 1db4 91bd
000001e0: 6331 0cbe cd76 21be 1cf1 fd3d ad42 25be
000001f0: 7784 2cbe a23e a9be 2475 0cbe fc67 ca3d
00000200: 63f3 debd 6f82 a9bd ad6e 11bd b197 d4bd
00000210: aabb 3abe 2bca cebc fa57 753d bebc c5bd
00000220: eb23 29be 8dd4 02bd 23ab 89bd d433 3bbc
00000230: 3de7 b1bd 29e2 fbbc 1296 79bd 4e85 44bc
00000240: 9fca a4bd bf6c bebd 5a0d dd3d cc0a 3a3c
00000250: 26cb debd 0125 25bb 2212 95bd 8aef 8cbd
00000260: fcef 4a3b 871a 8f3d 650f 4d3e 4ea1 d73d
00000270: a0e7 8e3c dc65 9c3d a1ed 49be 1aed b03c
00000280: b2e7 8bbd 1426 753d 8683 59bc 210a b2bd
00000290: a153 bcbd 2ccd 893d c7ec bb3c 8fb4 e03d
000002a0: f85a f2bd 3847 1fbe c760 a5bd d5b8 733c
000002b0: a84b acbd 4b9e 793e 47ba 313b 5655 69bd
000002c0: a531 56be 3ada 84bd ab9c eebd 19d7 fcbd
000002d0: 4e79 88bc 64ce f5bd 813a 383c 5437 8b3d
000002e0: 3c01 e1bd 0e98 e53c eed0 3dbd cf64 9a3d
000002f0: 6bfb 923d a87f 2c3d 48ca 4abd 2d05 473e
00000300: b32b ce3d dcd6 f3ba 54c8 53be 481c 9abd
00000310: 9a07 f5bb 7918 0d3d dee1 32bd ad50 77be
00000320: 2c04 193e 1933 02bd 80c3 223c 36d1 9dbd
00000330: 5b62 27be 5902 72bd acbb 153d 2112 66bd
00000340: c0cb d4bc 7378 fd3c dae8 4e3e c6da 9f3d
00000350: d26e d9ba 4023 203c 969a c1bd 7987 9dbd
00000360: f26e 183d 18b7 81bd 5a62 0ebd 4436 38bd
00000370: f46a 19be 3293 a1bd d919 623d 1018 15be
00000380: 5675 c73d c11c 95bd bb34 57be ec0f da3c
00000390: ddf4 503b f5b9 b53c 4109 6dba 6462 993d
000003a0: baed f9bd 0b85 18be 436a 03be 1e37 29bd
000003b0: 2704 3abd bdae 053e 66da dfbd fe3c 21be
000003c0: b29c 3e3d 1ab9 08be 5546 b53c 8dcd 4b3d
000003d0: 4beb a0bd 6bfa a6bc 73b9 703d affc 90bd
000003e0: 0cdd c93c dca1 4bbd 00a4 2abc b184 813d
000003f0: 7070 04bd 0ffe 8abd d1a8 efbd 51f0 0b3e
-0.14240916 -0.0023711394 -0.091911666 0.05075512 -0.22224404 -0.2034844 -0.115018845 0.034926407
-0.13296747 0.098522864 -0.044049248 -0.055103675 -0.13380368 -0.2774334 -0.052114453 0.048009984
-0.1348003 -0.14573015 0.017759085 0.012656883 -0.100119725 0.01623289 -0.20185608 0.0017221326
-0.123651735 -0.08882671 0.04058242 -0.033158384 -0.010125713 -0.11288013 0.014587624 -0.048023675
0.0165524 -0.115182035 -0.14279783 -0.014094298 -0.0010821488 -0.31217518 -0.113385916 0.019427523
-0.022298986 -0.06300186 0.081250094 -0.03364569 0.1234792 -0.017681455 0.15335207 0.0029061674
0.010931259 0.020160945 -0.08303043 0.08453718 -0.039680313 -0.10848677 0.11203257 -0.24742538
-0.014902032 0.08450909 -0.1172727 -0.22413571 0.0059875287 0.09987483 0.0023886547 -0.1374901
-0.2181753 -0.02246102 -0.02520837 0.0017858089 -0.0758808 -0.0670345 -0.10034486 -0.016826779
0.0050538685 -0.08034024 -0.060827836 0.029292988 -0.0046739965 -0.022711689 0.031062903 -0.08818272
0.18539162 -0.025503179 -0.079574555 0.027071726 -0.05761703 0.059482094 0.061376795 -0.17730395
0.122126065 -0.13923176 0.20552771 0.21889065 0.09162388 -0.10626482 -0.0020877249 -0.009609927
-0.19038859 0.047838107 -0.04581708 0.022553366 -0.020276053 0.07583321 -0.020465003 -0.07175865
-0.110535726 -0.047953013 -0.036242004 0.0057934066 -0.035331227 -0.027055563 -0.05739186 0.03320904
-0.056002527 -0.003802111 -0.03737906 -0.0072034528 0.14596882 -0.05382269 0.08731598 -0.07114432
-0.13690715 -0.15767975 0.123995036 -0.16138716 -0.16847406 -0.33055598 -0.1371656 0.09883115
-0.10886266 -0.08276831 -0.03550594 -0.10380495 -0.1823565 -0.025242886 0.059898354 -0.0965514
-0.16517608 -0.031940985 -0.06722095 -0.011425931 -0.08686683 -0.03074749 -0.060934134 -0.011994673
-0.080464594 -0.092980854 0.10793562 0.011355113 -0.10878591 -0.0025199058 -0.07278849 -0.06881626
0.0030965796 0.069874816 0.20025404 0.10528813 0.017444432 0.07636616 -0.19719554 0.021597434
-0.06831302 0.059850767 -0.013275987 -0.08693338 -0.091956384 0.067285866 0.022940053 0.10971939
-0.11833757 -0.15554512 -0.080750994 0.01487561 -0.08412868 0.2437679 0.0027119087 -0.05696615
-0.20917375 -0.06486936 -0.11650976 -0.12345714 -0.016659405 -0.120022565 0.011244417 0.067976624
-0.109865636 0.028026607 -0.04634183 0.07538759 0.071768604 0.04211393 -0.049509317 0.19435568
0.10066929 -0.0018603462 -0.20681888 -0.075249255 -0.007477713 0.034447167 -0.043672435 -0.24151869
0.14942998 -0.03178701 0.009934306 -0.077059194 -0.16346113 -0.05908427 0.03655593 -0.056169633
-0.025976062 0.030941224 0.20206013 0.078053996 -0.0016588813 0.009774029 -0.09453313 -0.07691855
0.03721518 -0.063337505 -0.034761764 -0.044973627 -0.14982206 -0.078894034 0.05520043 -0.1455996
0.09739177 -0.07280875 -0.21016209 0.02661892 0.003188423 0.022183398 -0.00090422115 0.0748947
-0.12203546 -0.14894502 -0.12833504 -0.04131233 -0.045414116 0.13054939 -0.10930328 -0.15745923
0.046536155 -0.1335186 0.022128263 0.049756575 -0.078573786 -0.02038308 0.05877061 -0.070794456
0.024641536 -0.049714908 -0.010415077 0.06324137 -0.03233379 -0.06786739 -0.11702121 0.13665892

network_body._body_endoder.seq_layers.2.bias f4 [128]
00000000: 276d e03b c961 42bc 7d75 793c f3a1 e039
00000010: 816f 933b c692 843c 8997 56bd 496b e9bc
00000020: 966e 40bc a581 543b c755 54bc 4efb a83a
00000030: 805c 22bd 1898 b5bc 2e52 2bbc 6aed 9c3b
00000040: 45d6 a33b 39de 63bc 0059 dbbc 0926 c2bc
00000050: 266f 953c c79d f93a d854 b1bc 278a 913c
00000060: 635b 3fbd e394 80bd b8bb e13c e614 babc
00000070: 5839 24bc 7c63 a63b 4e37 2cbd d8ef 153c
00000080: 5853 6abd 0e38 5abd 3733 59bd 6c1a 9e3c
00000090: 6f66 88bc 1172 eaba c342 eaba 2d0f 41bd
000000a0: 4914 a9bb e464 0ebb 94f5 98bb 1a63 58bc
000000b0: 249c 9aba 3112 173c 16d2 16bd ecfa eebb
000000c0: 4357 68bc 7cc5 71bc 5657 2dba 3aaf 5abc
000000d0: 1215 873c e866 bcbc 6486 b13c a784 6a3c
000000e0: 8f58 2dbb 9669 303c 07fb 643c a52f 66bd
000000f0: a290 89bb 2279 dcbc 9f49 68bc 5e68 a23b
00000100: 494a 913c d945 03ba 36e5 b9bc c804 7abb
00000110: da10 7bbd dd9b 5fbc 9767 b8bb 2488 eabc
00000120: c5db 63bb 5823 6cbd 533c 55bc 92b7 76bc
00000130: 5c3a d43b 72ad d0bc ff3a f83b c068 b8bd
00000140: a604 16bd 2ebf 84bd e39e 39bd 50a8 003d
00000150: 30bf a1bc 7179 1abd 0f7a 97bc 0202 32bc
00000160: ccf0 94bb dfbb b43c ff48 a63c c6c6 b83c
00000170: cab6 80bd a247 703c f5ba b3bb ca73 d43b
00000180: 401a 5dbb 2a89 d2bb 7216 c23c 9c13 93bd
00000190: c77b 40bc 9ad0 9d3c 3bbe 1839 e808 363d
000001a0: 5d69 e1bc 6c17 6cbd d6c1 a8bc c330 e8bc
000001b0: 0cec 36bd a448 18bd 7736 8db9 0cf3 c0bb
000001c0: 558e 973c 45c8 81bc d716 72bc 9608 bcbc
000001d0: 6281 6cbc 1412 5f3c 438c 58bc 2834 243c
000001e0: 4d4f 1bbc 21ba a6ba 4aeb 20bd 8ab0 9ebc
000001f0: 0774 c0bb 3f4e bebc 74e3 ff3b cc78 103c
0.0068489495 -0.011864134 0.015225765 0.0004284527 0.0044993763 0.016183268 -0.05239061 -0.02849354
-0.011745116 0.0032425907 -0.012959904 0.0012892277 -0.039638996 -0.02216725 -0.010456605 0.004789044
0.004999908 -0.0139079625 -0.026775837 -0.023699777 0.018241476 0.0019044214 -0.021646902 0.017766071
-0.046718013 -0.06278398 0.027555332 -0.022715043 -0.010023437 0.0050777774 -0.04204493 0.0091514215
-0.05720839 -0.053276114 -0.053027358 0.019299708 -0.016650407 -0.0017886778 -0.001787268 -0.047133613
-0.005159889 -0.0021727616 -0.004667947 -0.013207221 -0.0011795801 0.009220646 -0.036821447 -0.007293096
-0.014180961 -0.014756557 -0.00066124403 -0.013347441 0.01648954 -0.022998288 0.021670528 0.014313853
-0.002645049 0.010767361 0.013975865 -0.05619778 -0.00419815 -0.02691323 -0.014177709 0.004956289
0.017735617 -0.00050076615 -0.022692304 -0.0038149823 -0.061295368 -0.013648001 -0.0056275832 -0.02862937
-0.0034768444 -0.057650894 -0.013014871 -0.015058415 0.0064766835 -0.02547333 0.0075753923 -0.090043545
-0.036625527 -0.06481777 -0.04531754 0.031410515 -0.019744486 -0.03771347 -0.01849082 -0.0108647365
-0.004545307 0.02206224 0.02029848 0.02255572 -0.06284864 0.014665516 -0.0054849335 0.0064835297
-0.003373757 -0.0064250426 0.023692343 -0.071814746 -0.011748261 0.019264508 0.00014566716 0.044442087
-0.027516061 -0.057639524 -0.02060024 -0.028343564 -0.044658706 -0.03717865 -0.00026934195 -0.0058883484
0.018500486 -0.015842566 -0.014775953 -0.022953313 -0.014435144 0.01361515 -0.013217035 0.010022201
-0.009479356 -0.0012720266 -0.03928689 -0.01937129 -0.0058732065 -0.02323067 0.007809097 0.008817863

action_model._continuous_distribution.log_sigma f4 [1, 2]
00000000: e903 19bf e761 d8be
-0.5977159 -0.42262194

action_model._continuous_distribution.mu.weight f4 [2, 128]
00000000: 6221 8f3d 3347 283d e416 3b3d 1305 c63c
00000010: a003 3e3d 8015 a03d 9fcd 563d e2cc 6e3d
00000020: e995 de3c 97c6 3a3d d4b3 0a3d 0edb ea3c
00000030: 33c2 5d3c 3461 173d e1d1 a1bc c659 903d
00000040: 4015 633d 8526 073d 2eb7 2dbc a87f 783d
00000050: 982f 6f3d 27bf d43d 9898 143d 463c 923d
00000060: faff ee3c 7712 0d3d b365 0cbd d032 e43b
00000070: 9f43 563d 187f 803d 20fe 8c3c 36d2 343d
00000080: 3691 b63c 7fd2 0f3d 4b3a 093d b824 643d
00000090: 4ccc 4c3d c022 ff3c ec99 743d 9944 553c
000000a0: e9dd 8a3d 4be0 543d 3a89 c63c 181c 8a3d
000000b0: 5c78 4b3d 1527 f63c 4c48 423d e10f 4a3d
000000c0: ff9b 963d b369 163d 28e2 05bd f746 753d
000000d0: 533a 6e3d dc4c 403d 8a78 453d a52d fa3a
000000e0: 7b78 5c3a 3588 803d 0ae5 583d 2f96 103d
000000f0: 17c1 573d 676b 343d a03b 733a faf9 083d
00000100: a7b7 4d3d 3764 a63d d22c 753d e691 483d
00000110: add2 3fbd f910 703d a9cc 913d d6f4 4f3d
00000120: 2637 8b3d 4be6 a03c 90f4 2f3d 3175 4a3d
00000130: bb50 853d 8352 b43d 3858 9b3d 1ecf 48ba
00000140: e03f 9b3c 6430 cf3c d6b0 20bc 1f25 abbc
00000150: 5519 fa3c 4dac 3f3d 5eab f23c cfd7 483c
00000160: 3e85 983d b8f6 343d 576f 933d 3d87 923d
00000170: 1f9a f0bc 0a29 883d a463 6d3d e6fe 773d
00000180: d0b5 593d 8334 703d af7e c13d 4331 873c
00000190: 001d 5e3d d0b0 543d 9532 913d 619a 513d
000001a0: 4bd3 4d3d 73c4 803c 7708 823d 63fd 443d
000001b0: 6b2f 0d3b c856 5b3d c4f0 783d 3718 f43c
000001c0: 380c a13d 16a1 f03c afa6 ecbc d202 303d
000001d0: 130b 893d 0c50 c43d 7d92 603d cebf 8a3d
000001e0: 777d 213d dd1f 7c3d e763 7e3b 1cdf 1d3d
000001f0: a08d 3e3d b51e 383d e654 793d 9c2e af3d
00000200: bec5 6dbd 1cc0 08bb 352b 7bbd 1c23 853d
00000210: 3ec1 8d3c 54a2 d13c 0c15 30bd 3914 b73c
00000220: 4b2c df3c 4233 b9bd 9857 57bd 8822 1bbd
00000230: 020a 19bd fddc 66bd 9095 0ebd 23de 0ebd
00000240: b3de 82bd 79e2 56bd 5516 48bd 03a3 37bd
00000250: 7b42 0a3d c56a 9d3b ad4c 5bbd 890d 46bd
00000260: 4b20 973c d63a bbbc 5170 933c f534 803d
00000270: db86 4ebd 3484 eabc a554 6dbc 0b1e 0a3d
00000280: 6c39 fabc e5e8 25bc 2cdd 03bd 6290 693d
00000290: 27fc 47bd a325 8cbd dedd 4ebd 4839 85bd
000002a0: 615e 60bc a9fd 5dbd 6c87 7fbd 1694 eebc
000002b0: f57e 5ebd 645b 75bd 68ef 3a3c 68bd 78bd
000002c0: b289 493d b9d1 e83d bf9f b5bd cf8a 99bc
000002d0: 0c5e 79bd 9f1b 8dbb 8f61 4abd 0421 043d
000002e0: c543 7bbd 0bde 40bd 7448 dfbc 050b a3bc
000002f0: b418 7ebd 93bc 623b c33c 6ebd 127a 8bbd
00000300: ee78 073d 40ae a2bc ff91 c4bc 00fb 893c
00000310: 790c 1b3d 6370 4bbd 135d b2bb 2397 35bd
00000320: 7293 fbbc 5413 c43c 3972 4ebd 1459 e93c
00000330: 2968 5bbd 373b 9ebd 6fb3 76bb ac9e 90bc
00000340: d4ec e53c 716e e3bc c04f 1bbd 3789 d2bd
00000350: fc8c 4b3d 82f2 a8bc 2324 a53a 7886 77bd
00000360: 2de3 30bd 3b68 5a3d a308 53bd 1c24 65bd
00000370: 9d59 0d3b e4e1 63bd d837 01bd 9bf6 7cbd
00000380: d4a4 60bd d853 1abb 32f5 95bb df4c e2bc
00000390: 4e93 49bd cca3 d03d 4104 d63c 5ca4 dfbd
000003a0: c0c5 1bbc 6eb7 1cbd 466f dfbc 93b2 63bd
000003b0: aa37 1e3a 9d3d 34bd 93e1 60bd 71ce 34bc
000003c0: bcb5 15bd 5ebc 4c3d 7e30 53bd 5eeb 46bd
000003d0: a6c7 01bd ec52 bdbc 1b76 1dbd 32ca eabc
000003e0: 1601 85bd 902f 303b e601 55bd 159d d53c
000003f0: 5a13 7bbd ed67 4bbc cace 7ebd 05fb 3ebc
0.06988789 0.041083526 0.045676127 0.024172341 0.046390176 0.07816601 0.05244219 0.05830086
0.027171092 0.045599546 0.033862904 0.028668907 0.01353507 0.036957934 -0.019753398 0.07048373
0.055440187 0.03299572 -0.0106027555 0.060668617 0.058395 0.10388022 0.036278337 0.071404025
0.029174794 0.034441438 -0.034276675 0.006964065 0.052310582 0.06274241 0.01721102 0.044145785
0.022286039 0.035112854 0.033502858 0.05569908 0.04999952 0.0311445 0.059717104 0.013016843
0.06780607 0.051971715 0.024235357 0.0674364 0.04967533 0.030047933 0.04743223 0.04933155
0.07353973 0.036721896 -0.032686383 0.05988213 0.05816109 0.0469483 0.048210658 0.001908709
0.0008410287 0.062759794 0.052952804 0.035299476 0.05267438 0.04404774 0.0009278599 0.03344152
0.050223973 0.08124583 0.059857197 0.048967265 -0.046831775 0.058609936 0.07119114 0.050770603
0.06797628 0.019641062 0.042957842 0.04942817 0.06509539 0.088048 0.07585186 -0.00076602574
0.018951356 0.02529163 -0.009807786 -0.020891724 0.030529657 0.04679518 0.02962273 0.012258484
0.07447289 0.0441806 0.07198971 0.07154701 -0.029370366 0.066484526 0.057956353 0.060545824
0.053151906 0.05864383 0.09447991 0.016502982 0.054226875 0.051926434 0.07089726 0.051172618
0.050250333 0.015718674 0.06349271 0.04809321 0.0021543156 0.053549558 0.060776487 0.029796703
0.07863659 0.029373687 -0.028888075 0.04297144 0.06691565 0.0958558 0.054827202 0.06774865
0.039426293 0.061553825 0.003881687 0.03854285 0.046521783 0.04495116 0.06087198 0.08553812
-0.05804991 -0.002086646 -0.061320502 0.06500837 0.01730406 0.0255901 -0.042988822 0.02234851
0.0272428 -0.0904298 -0.05257377 -0.03787473 -0.03736306 -0.056363095 -0.034810603 -0.034879815
-0.06390133 -0.052462075 -0.048849422 -0.044833194 0.033754807 0.0048039877 -0.05353992 -0.048352752
0.018448016 -0.022855204 0.017997893 0.06260101 -0.050421577 -0.028627492 -0.014485513 0.033720057
-0.030544959 -0.010126327 -0.032193348 0.05702246 -0.048824456 -0.06843116 -0.050504558 -0.06505066
-0.013694377 -0.054196987 -0.062385008 -0.029123347 -0.054320294 -0.05990161 0.011409618 -0.060727507
0.049203582 0.113681264 -0.0886836 -0.018742947 -0.060880706 -0.004306271 -0.049409445 0.03225805
-0.061343927 -0.047086757 -0.027256228 -0.019902715 -0.062035277 0.0034597262 -0.058163416 -0.068103924
0.033074312 -0.01985848 -0.023995398 0.016843319 0.03785369 -0.049667727 -0.005443224 -0.04433359
-0.030709956 0.023934998 -0.0504019 0.028484859 -0.05356613 -0.07726138 -0.0037643572 -0.017653786
0.02806703 -0.027762624 -0.037917852 -0.10280078 0.049695 -0.02062345 0.001259927 -0.060430974
-0.0431854 0.05332206 -0.05152191 -0.05594264 0.0021568306 -0.055635348 -0.031547397 -0.06175862
-0.054844692 -0.002354851 -0.0045763487 -0.027624546 -0.049212746 0.10187492 0.026125075 -0.10920021
-0.0095075965 -0.03826087 -0.027274739 -0.055590224 0.0006035516 -0.04400407 -0.054902624 -0.011035548
-0.03655027 0.04998433 -0.051559918 -0.048564307 -0.03168454 -0.02311083 -0.038442712 -0.028660867
-0.06494348 0.0026883818 -0.052003764 0.02607588 -0.061297752 -0.012414915 -0.06220893 -0.011656527

action_model._continuous_distribution.mu.bias f4 [2]
00000000: b57c 9cbc 4027 073b
-0.019102434 0.002062276

exp_avg f4 [128, 6]
00000000: d7b1 b0b6 0000 0000 87fa 8936 5ff9 d2b6
00000010: 0000 0000 78a3 04b8 9766 4c37 0000 0000
00000020: edda 6cb6 8c37 8b35 0000 0000 f230 d638
00000030: ce8c bc3a 0000 0000 20b5 2eba a23b f039
00000040: 0000 0000 c822 283c 2131 06ba 0000 0000
00000050: 24e0 0db8 7822 173a 0000 0000 1daa a7bb
00000060: 7ded a8b8 0000 0000 113d 5438 072a 87b8
00000070: 0000 0000 bec3 01ba 4595 383b 0000 0000
00000080: d812 83ba 5c31 8739 0000 0000 2503 b43c
00000090: ff8b ee2b 0000 0000 2c15 d2ab b516 1a2c
000000a0: 0000 0000 117a fd2d 92a0 9fb9 0000 0000
000000b0: 2c1c 0eb8 d05a 043a 0000 0000 aa09 8cbb
000000c0: 6c05 1db9 0000 0000 f44c 6e38 5311 39b8
000000d0: 0000 0000 001b 8bba 54ad ab3b 0000 0000
000000e0: 4413 a4ba 21bf a3ba 0000 0000 6930 3f3d
000000f0: 9597 4a3b 0000 0000 3aa1 87ba d9e5 24b9
00000100: 0000 0000 8cfd d23c ac25 19b4 0000 0000
00000110: 1201 b133 ba91 dfb3 0000 0000 c796 cdb5
00000120: 83eb a739 0000 0000 d796 68b8 c73c e4b8
00000130: 0000 0000 bce3 473b 1245 8d39 0000 0000
00000140: 70dd 8737 d8f8 e7b9 0000 0000 a975 803b
00000150: fe8b ecb8 0000 0000 1d86 6f38 e471 90b8
00000160: 0000 0000 48ba 21ba 68b7 4b35 0000 0000
00000170: 7218 9034 50fa 9fb5 0000 0000 fa99 0d37
00000180: 3fe6 cdbb 0000 0000 9480 fe3a 68f1 123a
00000190: 0000 0000 25b1 58bd 0efd d3b4 0000 0000
000001a0: cd6a 0035 d23f 01b5 0000 0000 ceb2 9eb6
000001b0: 40eb 65b6 0000 0000 646a 1936 5cba 44b6
000001c0: 0000 0000 cdbd b8b7 f325 c9b6 0000 0000
000001d0: a1cb 6635 000d 1334 0000 0000 d06a 34b8
000001e0: ac76 2934 0000 0000 604f c734 3874 d9b3
000001f0: 0000 0000 1064 82b4 9339 78b5 0000 0000
00000200: cbbc 8534 80af b0b2 0000 0000 5931 e3b6
00000210: 1c8a 34b5 0000 0000 932a ad34 c1f8 87b4
00000220: 0000 0000 77f8 d5b6 05f2 15bb 0000 0000
00000230: 9529 813a a1f8 3eba 0000 0000 bbe8 88bc
00000240: b3ed 873b 0000 0000 aba5 d2ba 5467 6e39
00000250: 0000 0000 073d 063d 4241 09bc 0000 0000
00000260: 31be 353b 08cd ac39 0000 0000 92e3 8abd
00000270: 0f87 ed37 0000 0000 bc32 e0b6 900d 90b5
00000280: 0000 0000 bbd4 8239 d417 c73a 0000 0000
00000290: c8be e7b9 8236 0eb8 0000 0000 5163 4c3c
000002a0: 24c9 62ba 0000 0000 412a 8939 c6a6 48b9
000002b0: 0000 0000 9172 c2bb 8d06 d1ba 0000 0000
000002c0: f404 203a 48a8 48b8 0000 0000 d410 53bc
000002d0: fee6 d2b7 0000 0000 b875 c237 bdf7 25b8
000002e0: 0000 0000 2c71 bdb8 8aad db2d 0000 0000
000002f0: 43c3 eb2d a0af 802b 0000 0000 8476 bf2e
00000300: ad67 09b5 0000 0000 a71b f434 7427 30b5
00000310: 0000 0000 dac3 b3b6 e6a0 5abb 0000 0000
00000320: f8a0 953a aca2 5238 0000 0000 92e6 dabc
00000330: 0e00 e639 0000 0000 d8b3 87b9 2f85 a539
00000340: 0000 0000 d523 363b 1a04 a13b 0000 0000
00000350: 4485 c0ba 989b dcb9 0000 0000 dfee 2a3d
00000360: 09af 70b6 0000 0000 c207 1b36 87cf 35b6
00000370: 0000 0000 3065 c5b7 4654 92bb 0000 0000
00000380: 704a de3a a4fd 78b8 0000 0000 590b 16bd
00000390: 3a32 2abc 0000 0000 487a 373b a063 f63a
000003a0: 0000 0000 12d3 b8bd f02e 13ba 0000 0000
000003b0: c4dc 49b8 8e6b b739 0000 0000 4c48 a4bb
000003c0: d9b9 24bb 0000 0000 8a55 223a 7618 003a
000003d0: 0000 0000 fd0d b5bc 2339 b1bb 0000 0000
000003e0: 6c9a 003b 264d 69b9 0000 0000 88aa 2bbd
000003f0: 1acc a43a 0000 0000 8af0 11ba 6734 e639
-5.265912e-06 0.0 4.1120834e-06 -6.2875183e-06 0.0 -3.1623495e-05 1.2183234e-05 0.0
-3.5294172e-06 1.0372473e-06 0.0 0.00010213432 0.0014385225 0.0 -0.0006664563 0.00045820797
0.0 0.010262199 -0.0005119015 0.0 -3.3825767e-05 0.0005765329 0.0 -0.0051167146
-8.0551e-05 0.0 5.060161e-05 -6.44513e-05 0.0 -0.00049501273 0.0028165143 0.0
-0.0010000123 0.00025785982 0.0 0.021974156 1.6949774e-12 0.0 -1.4927274e-12 2.1897321e-12
0.0 2.8816978e-11 -0.00030446477 0.0 -3.3881675e-05 0.00050489325 0.0 -0.004273613
-0.00014974707 0.0 5.681529e-05 -4.412357e-05 0.0 -0.0010612905 0.005239168 0.0
-0.0012517949 -0.0012492874 0.0 0.046677027 0.0030913104 0.0 -0.0010347732 -0.00015725884
0.0 0.025755666 -1.426294e-07 0.0 8.2423995e-08 -1.0410754e-07 0.0 -1.5317572e-06
0.00032028192 0.0 -5.545359e-05 -0.00010883208 0.0 0.003050073 0.00026945077 0.0
1.6196369e-05 -0.00044245156 0.0 0.003920276 -0.000112794325 0.0 5.7106943e-05 -6.887669e-05
0.0 -0.00061694207 7.5890284e-07 0.0 2.6839876e-07 -1.1919274e-06 0.0 8.440105e-06
-0.006283551 0.0 0.0019416981 0.00056054303 0.0 -0.052903313 -3.9485934e-07 0.0
4.783913e-07 -4.8149116e-07 0.0 -4.7295825e-06 -3.4260593e-06 0.0 2.2860704e-06 -2.9314751e-06
0.0 -2.2022892e-05 -5.9946847e-06 0.0 8.5977996e-07 1.3695171e-07 0.0 -4.301482e-05
1.5782524e-07 0.0 3.712439e-07 -1.012599e-07 0.0 -2.4287192e-07 -9.247098e-07 0.0
2.4910545e-07 -2.0568905e-08 0.0 -6.770872e-06 -6.72562e-07 0.0 3.2254738e-07 -2.5326702e-07
0.0 -6.37682e-06 -0.002287985 0.0 0.0009854311 -0.00072849734 0.0 -0.016712537
0.004148209 0.0 -0.0016071101 0.00022735941 0.0 0.032773044 -0.008377375 0.0
0.002773177 0.00032959157 0.0 -0.06781687 2.8315493e-05 0.0 -6.6816265e-06 -1.0732783e-06
0.0 0.0002495403 0.0015189596 0.0 -0.00044201897 -3.3906203e-05 0.0 0.012474851
-0.0008651188 0.0 0.00026162158 -0.00019135614 0.0 -0.0059340675 -0.0015947387 0.0
0.00061042537 -4.784044e-05 0.0 -0.01288243 -2.5141515e-05 0.0 2.318142e-05 -3.956979e-05
0.0 -9.033302e-05 2.4974484e-11 0.0 2.680312e-11 9.143693e-13 0.0 8.706727e-11
-5.1187345e-07 0.0 4.546866e-07 -6.562252e-07 0.0 -5.357416e-06 -0.0033360063 0.0
0.001141577 5.02194e-05 0.0 -0.026721273 0.0004386906 0.0 -0.000258832 0.00031570482
0.0 0.0027792354 0.004913819 0.0 -0.0014688154 -0.00042077596 0.0 0.04173171
-3.586467e-06 0.0 2.3101315e-06 -2.7091899e-06 0.0 -2.353135e-05 -0.0044656126 0.0
0.001695944 -5.936403e-05 0.0 -0.036631916 -0.0103879515 0.0 0.002799647 0.0018798001
0.0 -0.090246335 -0.0005614599 0.0 -4.812774e-05 0.00034984614 0.0 -0.0050135013
-0.0025135188 0.0 0.0006192556 0.00048864575 0.0 -0.022101397 -0.0054084226 0.0
0.0019623293 -0.00022249352 0.0 -0.04191068 0.0012573034 0.0 -0.0005567154 0.0004390806

exp_avg_sq f4 [128, 6]
00000000: 687d 9233 0000 0000 79ef e732 79d2 ed33
00000010: 0000 0000 5de5 8b36 1eaa 4f32 0000 0000
00000020: 960d 8331 1b65 ad32 0000 0000 3e3c 7335
00000030: 2638 9738 0000 0000 c62d 9f37 8b35 9f38
00000040: 0000 0000 913f a93b 5764 6738 0000 0000
00000050: 62ce ce37 0e02 8a38 0000 0000 d8e9 933b
00000060: 9877 a834 0000 0000 bc8c c833 a038 ac34
00000070: 0000 0000 cd13 9d37 403b 0c39 0000 0000
00000080: 4406 0438 19bd f638 0000 0000 3766 1d3c
00000090: 90c0 1023 0000 0000 435a 5422 4d87 4924
000000a0: 0000 0000 b906 d626 c577 2e38 0000 0000
000000b0: 443f 6d37 94d8 1838 0000 0000 ff52 2e3b
000000c0: 06ca 4136 0000 0000 30da d335 fbc8 9f36
000000d0: 0000 0000 fbf3 2c39 48f1 e439 0000 0000
000000e0: adcf d938 46bd 9c39 0000 0000 cbcd e63c
000000f0: 0fc1 d038 0000 0000 f64e ef37 15f0 a238
00000100: 0000 0000 42d9 e83b 7b12 ea2f 0000 0000
00000110: 7f2a c52f 65f6 c52f 0000 0000 89d3 2333
00000120: 6084 5d36 0000 0000 67a4 5135 9c87 2236
00000130: 0000 0000 a2f6 5639 2cdd ff37 0000 0000
00000140: ec35 6437 b74f 0338 0000 0000 0370 003b
00000150: bbd9 a935 0000 0000 4789 1035 7313 8335
00000160: 0000 0000 8647 b638 4ea3 9831 0000 0000
00000170: 097a ef30 3cdb f731 0000 0000 ab31 8a34
00000180: 16c6 ed39 0000 0000 0584 ec38 1f95 9d39
00000190: 0000 0000 1204 e03c ccfe dd2e 0000 0000
000001a0: 95ef c92d 38a9 c12f 0000 0000 15bc 9532
000001b0: d9ba b52f 0000 0000 0131 022f 2984 c72f
000001c0: 0000 0000 7b9d 9232 2f65 1733 0000 0000
000001d0: 7ce3 e432 737b 2133 0000 0000 129f 7136
000001e0: 5929 4331 0000 0000 dbd9 2e30 65b9 e631
000001f0: 0000 0000 cc6f 9234 e31a 5630 0000 0000
00000200: 67df 0530 ba8f e730 0000 0000 5d98 5033
00000210: 6d96 ef2e 0000 0000 ea87 e82d 2be5 562f
00000220: 0000 0000 5bc1 3832 eefe 6d39 0000 0000
00000230: 3666 9638 4c6e 7d39 0000 0000 b9b3 843c
00000240: e4d2 8e39 0000 0000 2612 ad38 0fd4 ad39
00000250: 0000 0000 c5ae 753c 07e0 163a 0000 0000
00000260: 1100 0c39 71d6 4b39 0000 0000 574d 093d
00000270: e713 a432 0000 0000 8ae1 6f31 598a e332
00000280: 0000 0000 c250 f735 be9a eb38 0000 0000
00000290: f5fb 1738 537c 2239 0000 0000 4d28 d03b
000002a0: 3bbb 2538 0000 0000 915b 6637 b639 0738
000002b0: 0000 0000 eca4 1f3b 86ab 7238 0000 0000
000002c0: 5948 aa37 4002 9e38 0000 0000 c875 733b
000002d0: c0b1 3834 0000 0000 4026 8033 87a9 5c34
000002e0: 0000 0000 919b 2237 d8da b822 0000 0000
000002f0: 793d 2122 c3f4 9d23 0000 0000 d09f 8926
00000300: c2da 232e 0000 0000 7261 352d 7d84 b02e
00000310: 0000 0000 e8bf 9131 1a7a b138 0000 0000
00000320: ee6d c437 ae33 de37 0000 0000 2c75 a53b
00000330: 448a 0c37 0000 0000 5c07 4636 fdc0 f536
00000340: 0000 0000 517c be39 be13 b239 0000 0000
00000350: 43f4 a738 dda4 4939 0000 0000 9e28 9f3c
00000360: 82fa b130 0000 0000 e15a c32f 7ec6 ec30
00000370: 0000 0000 5a5f 0334 2437 5539 0000 0000
00000380: 2c43 6a38 df37 4a39 0000 0000 d06c 593c
00000390: ee48 cc3a 0000 0000 c1a1 c639 19f3 883a
000003a0: 0000 0000 b920 d13d 2bd5 de37 0000 0000
000003b0: c922 f836 424d 1138 0000 0000 24df 2b3b
000003c0: 6a9c fa38 0000 0000 93ec ff37 6f6a c838
000003d0: 0000 0000 8572 f63b e24e 3139 0000 0000
000003e0: 443e 0438 78c5 2238 0000 0000 17be 293c
000003f0: d481 da38 0000 0000 4823 e337 1cfd de38
6.821466e-08 0.0 2.7000839e-08 1.1074457e-07 0.0 4.169224e-06 1.2087666e-08 0.0
3.8141463e-09 2.0185828e-08 0.0 9.061222e-07 7.2106996e-05 0.0 1.8975592e-05 7.591684e-05
0.0 0.0051650484 5.516814e-05 0.0 2.4653218e-05 6.5807355e-05 0.0 0.0045139603
3.1379454e-07 0.0 9.338825e-08 3.2078697e-07 0.0 1.8725079e-05 0.00013373513 0.0
3.1477088e-05 0.00011765416 0.0 0.009606889 7.847032e-18 0.0 2.8779142e-18 4.369953e-17
0.0 1.4851055e-15 4.1596377e-05 0.0 1.4141031e-05 3.6441328e-05 0.0 0.0026599762
2.8876834e-06 0.0 1.5784226e-06 4.7619665e-06 0.0 0.00016494088 0.00043667317 0.0
0.00010386049 0.00029895658 0.0 0.028174302 9.954173e-05 0.0 2.852779e-05 7.769481e-05
0.0 0.0071059773 4.2577483e-10 0.0 3.5864287e-10 3.6009165e-10 0.0 3.8143785e-08
3.3008619e-06 0.0 7.8097804e-07 2.4218816e-06 0.0 0.00020500508 3.050136e-05 0.0
1.3602414e-05 3.1307074e-05 0.0 0.0019598014 1.2654849e-06 0.0 5.3843945e-07 9.765921e-07
0.0 8.6917586e-05 4.442348e-09 0.0 1.7424223e-09 7.21357e-09 0.0 2.574064e-07
0.00045351748 0.0 0.000112779475 0.00030056477 0.0 0.02734569 1.00951775e-10 0.0
2.295745e-11 3.5226733e-10 0.0 1.7431413e-08 3.3056471e-10 0.0 1.1840841e-10 3.6291795e-10
0.0 1.706825e-08 3.5249453e-08 0.0 2.6646141e-08 3.759801e-08 0.0 3.600439e-06
2.8399738e-09 0.0 6.361042e-10 6.714958e-09 0.0 2.7275962e-07 7.7890955e-10 0.0
4.870259e-10 1.6848312e-09 0.0 4.8567347e-08 1.0895183e-10 0.0 2.6435704e-11 1.9544603e-10
0.0 1.07541736e-08 0.0002269705 0.0 7.171596e-05 0.00024169049 0.0 0.01619898
0.00027241476 0.0 8.252663e-05 0.00033155127 0.0 0.014995282 0.00057554286 0.0
0.00013351465 0.00019439474 0.0 0.033521023 1.9101163e-08 0.0 3.4907282e-09 2.6489191e-08
0.0 1.8426438e-06 0.00011234496 0.0 3.623586e-05 0.00015495838 0.0 0.0063524605
3.9513438e-05 0.0 1.3730388e-05 3.2240256e-05 0.0 0.0024359776 5.785704e-05 0.0
2.0299269e-05 7.534446e-05 0.0 0.003714906 1.7201e-07 0.0 5.967422e-08 2.055077e-07
0.0 9.692173e-06 5.010501e-18 0.0 2.1852112e-18 1.7125635e-17 0.0 9.549602e-16
3.7256205e-11 0.0 1.0310296e-11 8.027088e-11 0.0 4.2418726e-09 8.462761e-05 0.0
2.341621e-05 2.6488528e-05 0.0 0.0050493684 8.376843e-06 0.0 2.9508583e-06 7.324036e-06
0.0 0.00036332247 0.00033965515 0.0 8.008678e-05 0.0001923027 0.0 0.019428547
1.2949644e-09 0.0 3.5534867e-10 1.7227675e-09 0.0 1.2235014e-07 0.00020333804 0.0
5.5852506e-05 0.00019285035 0.0 0.013270572 0.00155857 0.0 0.0003788602 0.0010448425
0.0 0.102113195 2.6563726e-05 0.0 7.3950255e-06 3.4642646e-05 0.0 0.0026225531
0.00011950063 0.0 3.0508532e-05 9.556568e-05 0.0 0.007520976 0.00016909422 0.0
3.1529242e-05 3.8807717e-05 0.0 0.010360262 0.000104192324 0.0 2.7076938e-05 0.0001063293

exp_avg f4 [128]
00000000: 80a7 dab5 78df 9336 0a2c e939 cbf9 48b9
00000010: 7b4e bcb7 c82e 753a eb34 d22b 5652 2eb9
00000020: 6301 42b8 fa95 fe3a 1c8d 8d3a 8027 9eb3
00000030: 182d 0639 78db 2339 700d e5b7 7d3e a334
00000040: 5c38 11bb 156f 7ab4 d7fa 85b5 9b93 f1b5
00000050: 300e 99b2 a436 98b4 e411 9cb4 2419 40ba
00000060: 48cc b33a 5d88 39bb 624c 3437 09c9 093a
00000070: ad1e 86b9 2df6 0cba f2e0 9cb6 a4ef 882c
00000080: 4961 8fb4 834e 92ba 7cba 0039 2689 e63a
00000090: 7624 91b5 6bc5 c7ba f98d 76bb 1d0f 52b9
000000a0: f9b1 72ba 7cbf e5ba 98ea c339 e273 98b4
000000b0: 8dd8 a539 7847 1bbb 5c5e 7c3a 81a3 9db8
000000c0: 9894 e33a a2a2 32bb e315 3f3a 9233 6fba
000000d0: d199 a238 d4ca 2d36 5f66 e1b5 c0e0 b2b5
000000e0: 6c40 833a f466 a238 e46f 4f3a acc3 96ba
000000f0: 8eb2 c839 068d 07b9 cc76 24ba 6838 4431
00000100: 449a 42b9 aa3f 1534 7cbb dfba 3a9a 5639
00000110: 9dc8 8eb9 e155 f1ba d4e0 85b8 20c0 0739
00000120: 6d16 95ba c441 7739 dc3d 3c3a 9669 65b5
00000130: 7680 d1b7 fd78 9db8 63a2 3bba cc11 373a
00000140: c23d 61b9 cf34 b2b9 0e3d 36bb 1849 582c
00000150: 9802 79b6 3406 0bba 28d0 5f34 4224 cb37
00000160: d7dd 1cba 4aae 05bb 9ea1 c3b8 9885 023a
00000170: 0ab4 843a 4239 b4b7 fafd 9739 f706 70b7
00000180: d5c3 36bb d91e 8039 3616 8339 8bb1 10b7
00000190: c290 b3b4 20ad eeb8 4a77 4c3a fa4e 73ba
000001a0: 82f4 0534 7f8f 35ba 2366 dab4 c2a4 c0b8
000001b0: 6f34 aeb9 316d 963a 0003 d239 ee6e 33ba
000001c0: 4b90 dbae 92ab 252c 1492 1b3a cd32 9237
000001d0: 4a1a b739 be8e 2339 662c 0933 b34a c1b5
000001e0: a2fe 46b7 c85a 3233 30eb adb7 f445 ef39
000001f0: 77e5 2bbb 9ed4 1a38 ac13 d2b2 30f9 83ba
-1.6291015e-06 4.4069566e-06 0.00044474035 -0.00019166541 -2.2447892e-05 0.0009352979 1.4936085e-12 -0.00016624606
-4.6254496e-05 0.0019423359 0.00107995 -7.364633e-08 0.00012796035 0.0001562665 -2.7305185e-05 3.0406582e-07
-0.0022158837 -2.3323476e-07 -9.982276e-07 -1.7998858e-06 -1.7817996e-08 -2.8351963e-07 -2.9070281e-07 -0.0007327965
0.0013717497 -0.0028310039 1.074662e-05 0.0005256092 -0.00025581327 -0.0005377259 -4.6753494e-06 3.891958e-12
-2.670661e-07 -0.0011162314 0.00012276502 0.0017588481 -1.0813953e-06 -0.001524133 -0.0037621243 -0.00020032791
-0.00092580874 -0.001752838 0.00037368084 -2.8396522e-07 0.00031632595 -0.0023693722 0.0009627098 -7.516798e-05
0.001736301 -0.0027257581 0.0007289333 -0.0009124811 7.7534125e-05 2.589707e-06 -1.67936e-06 -1.3327444e-06
0.0010013706 7.7439385e-05 0.00079130963 -0.0011502407 0.00038280006 -0.00012927139 -0.00062738056 2.8553817e-09
-0.0001855875 1.3899867e-07 -0.0017069425 0.00020466084 -0.0002723382 -0.0018412435 -6.383812e-05 0.00012946175
-0.0011374481 0.00023580255 0.00071808486 -8.5462796e-07 -2.497456e-05 -7.508879e-05 -0.00071576814 0.0006983548
-0.00021480679 -0.0003399015 -0.0027807388 3.0736021e-12 -3.71054e-06 -0.00053033535 2.084422e-07 2.421637e-05
-0.00059839844 -0.0020398074 -9.328428e-05 0.00049790135 0.0010124457 -2.1484335e-05 0.00028990192 -1.4306736e-05
-0.002788772 0.00024437046 0.00025002816 -8.624406e-06 -3.3446673e-07 -0.000113809714 0.0007799758 -0.0009281483
1.2475542e-07 -0.00069259846 -4.0679978e-07 -9.185962e-05 -0.00033226932 0.0011476633 0.00040056556 -0.0006844838
-9.9845986e-11 2.354315e-12 0.0005934548 1.7428212e-05 0.00034924067 0.00015598067 3.193818e-08 -1.4401361e-06
-1.1861006e-05 4.152642e-08 -2.0732725e-05 0.00045637751 -0.00262293 3.6914476e-05 -2.4456163e-08 -0.001006877

exp_avg_sq f4 [128]
00000000: b470 3132 909c 2531 5fea 3e37 3d20 2437
00000010: 0bb3 3b33 7b63 b137 ac31 a822 fdba ba36
00000020: 105f d734 6fc7 7738 349b 7c37 a901 aa2e
00000030: 5b0c ea34 9bb8 8736 1e6b 3d34 dfb3 3830
00000040: b54c 6c38 6019 622e 95c9 322e 695f 0432
00000050: 818e 5030 3f44 0f2f a60a 052e ddbc 1438
00000060: 0eb9 0a38 08e0 8938 62ba a331 9e4e 7037
00000070: baf2 a636 ab43 0837 e26f c632 d0d6 5c22
00000080: 4186 522d 1281 2237 3b4e 4335 af9d 2338
00000090: 05b0 b42f 5a8a ef37 43cf 5f39 4a47 c836
000000a0: a5da 8537 7d5b a737 a5cd 8037 0bdc bd2d
000000b0: 7b69 4037 b6b3 8c38 8cfa aa37 8701 8433
000000c0: 874e b638 6c41 f538 3517 b937 0990 aa37
000000d0: 94ca f736 5df9 b330 8e0e b030 920b a237
000000e0: 4cf1 4e37 be45 c037 d891 db37 01ea f237
000000f0: 3575 f036 5525 1837 a9ad 4438 4e2c 2029
00000100: 7907 1737 7145 7f2f c593 9c38 770f 8836
00000110: a2ba fe36 edb3 9938 341f 0a35 dab2 3137
00000120: cf79 3d38 4c41 1636 8e5e 2e37 650d b72e
00000130: 5408 7d35 74c5 b334 72e2 1a37 848b 2537
00000140: 31af 5b36 693e e136 9795 8b38 6e34 1a21
00000150: 16be 9234 cc69 0637 ce87 942e 53e2 0836
00000160: 1715 a736 f1cf 8938 a594 8834 042f 8f37
00000170: 2eec 9a37 b55f 0133 5fea 8036 f2a3 9c33
00000180: 761f c438 9c02 1637 2deb 6f37 3b3e 8633
00000190: c8df 1a31 b795 6f36 5e9b 8d37 35e6 2337
000001a0: 9ff5 b22d e7ea 2f37 3e12 972d 9cda fd34
000001b0: 97cd 8b36 e0fc a737 3f65 6937 2cde d737
000001c0: 3be2 9d23 4fc4 3420 ae23 0537 c3e1 8232
000001d0: e67e 9f37 a087 9736 94dc 9b2e 5644 a830
000001e0: 7e67 a632 5b05 852d f2f5 f732 5cc2 3c37
000001f0: 2a4e e838 f7d3 8937 7deb 8e2b 96f1 d237
1.0328382e-08 2.4099656e-09 1.1379451e-05 9.782668e-06 4.370217e-08 2.1146368e-05 4.5589083e-18 5.5650003e-06
4.0116038e-07 5.9075126e-05 1.50565065e-05 7.731e-11 4.3594886e-07 4.0448044e-06 1.7640966e-07 6.719442e-10
5.6338224e-05 5.1408988e-11 4.0651555e-11 7.705105e-09 7.587247e-10 1.303002e-10 3.0250157e-11 3.5461842e-05
3.307411e-05 6.574398e-05 4.7651136e-09 1.4323419e-05 4.9754426e-06 8.121987e-06 2.3101112e-08 2.992928e-18
1.1966928e-11 9.686004e-06 7.2757e-07 3.9009083e-05 3.286688e-10 2.8555445e-05 0.00021344148 5.9687636e-06
1.595665e-05 1.9950554e-05 1.535455e-05 2.1584531e-11 1.1468651e-05 6.709194e-05 2.038225e-05 6.147007e-08
8.693063e-05 0.00011694696 2.2064525e-05 2.033265e-05 7.384757e-06 1.3094837e-09 1.2809822e-09 1.9317293e-05
1.2334738e-05 2.292066e-05 2.6174748e-05 2.8957615e-05 7.166202e-06 9.068598e-06 4.6891775e-05 3.5565565e-14
9.002041e-06 2.3216785e-10 7.466184e-05 4.054916e-06 7.591517e-06 7.329122e-05 5.145441e-07 1.0591664e-05
4.5174555e-05 2.238975e-06 1.0393223e-05 8.324256e-11 9.4261964e-07 3.3485014e-07 9.231839e-06 9.86725e-06
3.2735518e-06 6.712788e-06 6.6559e-05 5.224662e-19 2.7332925e-07 8.011655e-06 6.7543846e-11 2.0397317e-06
4.979443e-06 6.571401e-05 2.5440127e-07 1.7068822e-05 1.846821e-05 3.0122198e-08 3.8419817e-06 7.2941376e-08
9.351868e-05 8.941304e-06 1.4300266e-05 6.251181e-08 2.2537154e-09 3.570092e-06 1.6880858e-05 9.769156e-06
2.0345335e-11 1.0485505e-05 1.7174814e-11 4.7283982e-07 4.1664566e-06 2.0025705e-05 1.3911455e-05 2.5733454e-05
1.7117786e-17 1.5311546e-19 7.935725e-06 1.5236656e-08 1.9013369e-05 4.5159395e-06 7.0877665e-11 1.2243031e-09
1.9372006e-08 1.5122728e-11 2.8866427e-08 1.1250926e-05 0.00011077181 1.6430376e-05 1.0155068e-12 2.5146448e-05
