MLAgentDevProject/results/BreadCrumb9/MoveToGoal/checkpoint.pt (torch, 440939 bytes, 36 tensors)

network_body._body_endoder.seq_layers.0.weight f4 [128, 6]
000000 f0 f7 8e 3d dc 45 dc 3d 3e e2 0e 3f 76 2e 9e 3e
       0.06980884 0.10755512 0.5581397 0.30894822
000010 2d 5b 49 bf 21 98 d6 3d 3a 24 8d be 5f c3 cc 3d
       -0.7865475 0.10478235 -0.275667 0.099982016
000020 04 82 b1 3e e8 63 df 3e 49 f5 e2 3b bf b1 d2 bd
       0.34669507 0.4363091 0.006926213 -0.102878086
000030 c0 09 bc bd 3b 01 02 3e e5 69 59 3d ee cc 99 be
       -0.09181547 0.12695782 0.053079505 -0.3003916
000040 2d e3 59 be ae 49 e8 be 85 cb 24 bd a6 8c d2 be
       -0.21278067 -0.45368713 -0.040233154 -0.4112293
000050 99 33 56 3d 71 8e 70 3e 10 5c 83 be ac 6c 50 3e
       0.0522953 0.23491837 -0.25656176 0.20353955
000060 cd a1 50 3f 0a 36 dc 3e fb 4f 57 be ee da a8 3e
       0.8149689 0.4300998 -0.21026604 0.3297953
000070 51 9d c2 3d a0 b9 3b 3e 12 85 2f 3f 6e b0 67 be
       0.09502662 0.18332529 0.68562424 -0.22625896
000080 b2 e1 3a 3e 3b 64 ce be 14 aa 0e 3f 32 03 92 be
       0.18250158 -0.40310845 0.5572827 -0.28518063
000090 27 fd 0b 3f 15 52 2d bd 93 32 2f 3d 42 db 31 3f
       0.54683155 -0.042314608 0.04277284 0.69475186
0000a0 c4 2f b0 3e ad 97 22 bf 8a 8c 73 bf ca 49 2a be
       0.34411442 -0.6351269 -0.9513632 -0.16629711
0000b0 18 5a a6 bd 0c a3 b3 bd fe ed 3c 3f 7a a1 ec be
       -0.08122653 -0.08771333 0.7380065 -0.46216947
0000c0 64 ac 17 3d 30 e8 4a 3f 84 37 c4 bd ac c2 3c 3d
       0.03702964 0.7926054 -0.09580901 0.04608409
0000d0 b8 2f b0 be 6b 59 c8 be 3f 07 35 3c 14 64 ce bc
       -0.34411407 -0.3913072 0.011049091 -0.025194205
0000e0 67 9c 36 3e b5 99 a4 3e cd fb db be 3b 7e bd be
       0.178331 0.3214852 -0.42965546 -0.3701037
0000f0 d8 c8 bf 3e 6f 19 c6 3e 97 d8 26 3e 1c 94 1d 3e
       0.3745792 0.3869128 0.1629356 0.1538853
000100 2a ad 11 3f 66 1a be 3e 61 41 3f bf bf e9 52 be
       0.5690485 0.37129515 -0.74709135 -0.2059698
000110 ed 35 2a 3e 97 09 1d be 7a af f6 3e fd a9 9d 3e
       0.16622134 -0.1533569 0.48180753 0.30793753
000120 60 73 90 3e f4 e7 89 be 93 e6 90 bd 7c 2d fb be
       0.28213024 -0.2693478 -0.070752285 -0.4905814
000130 1f 9f f4 bd 0b f7 3b bf 9b c9 8a be 23 03 9f 3e
       -0.119444124 -0.7342383 -0.27106938 0.3105708
000140 fe 7a 1f bf f8 f2 ce 3d 90 19 34 3f 03 d2 74 be
       -0.62297046 0.10104936 0.70351505 -0.23908238
000150 cf 62 b3 bd 22 3a 13 bf d3 b0 1e be d4 a0 0a bf
       -0.087590806 -0.5751058 -0.1549714 -0.54151654
000160 d1 83 86 bf a9 ff 29 bc a2 ce 41 bd ad fe 39 3f
       -1.0508977 -0.010375896 -0.0473162 0.7265423
000170 96 a7 0a 3f 6f 62 97 bc 66 75 07 3f d8 f6 55 be
       0.54161966 -0.018479554 0.5291351 -0.20894945
000180 e0 97 7f be b5 25 42 be 85 84 b8 3c 45 45 56 bf
       -0.2496028 -0.18959697 0.022524128 -0.83699447
000190 88 87 9b 3e 65 39 0f bf 4b 69 03 3f f3 b6 35 3f
       0.3037684 -0.5594695 0.5133254 0.70982283
0001a0 50 6b b5 bc ae f2 73 be 24 1b 93 3e 89 ed 78 3d
       -0.022145897 -0.23823044 0.28731644 0.060773406
0001b0 3b b6 83 be 42 94 05 3f ad 83 47 be 12 8d 7a bd
       -0.25724968 0.5217935 -0.19483824 -0.06116969
0001c0 55 bd 4f be 62 cc 01 3f d4 51 ce be f3 d6 8f be
       -0.20287068 0.5070249 -0.40296805 -0.2809368
0001d0 12 05 89 3e c7 ae ec 3d 7b ad 49 be 75 d4 1b 3e
       0.2676168 0.11556774 -0.19695084 0.15217765
0001e0 b9 78 aa 3f 70 aa 33 3c 1e b7 84 bd 30 53 00 3f
       1.3318092 0.010965928 -0.06480239 0.50126934
0001f0 1a 1a d6 be 7a c5 df 3e 55 33 bc 3e cf e5 05 bf
       -0.4181679 0.4370535 0.36757913 -0.52303785
000200 4b 03 31 bf 71 07 58 3e e8 8d 23 3d d8 b4 50 3f
       -0.6914565 0.21096589 0.039930254 0.81525946
000210 cf 24 66 3f b2 9d 8c 3e 89 ed 47 3e a0 2c 0c 3e
       0.89899915 0.27464062 0.19524206 0.13688898
000220 bc 1f 40 bf 44 8c 87 be 98 63 86 be 79 d1 95 bd
       -0.7504842 -0.26474202 -0.2624786 -0.07315344
000230 0f fd 8b bd 23 e0 0b bf 4e d2 4c be 8a 63 ea 3d
       -0.068353765 -0.5463888 -0.200021 0.11444767
000240 c6 0c 47 3f 1e 4e b8 be b1 cc 68 be 9b a9 a4 3e
       0.77753866 -0.359971 -0.22734334 0.3216065
000250 8d 6b a9 bd f0 07 03 3e a0 b8 e1 3e 98 f3 4d 3e
       -0.08272467 0.12795997 0.4408617 0.20112455
000260 e4 98 f4 bd 06 ee 4d be b6 78 31 3f 69 da 92 be
       -0.11943224 -0.2011033 0.69324815 -0.2868226
000270 18 7e 4a 3f 05 02 d7 bd e7 42 d0 3e ed ee 9b 3d
       0.79098654 -0.10498432 0.40676042 0.07613931
000280 7e fe 12 3f 3e 96 32 3e 35 b2 67 3e a3 d7 36 bf
       0.57419574 0.17440125 0.22626574 -0.71422786
000290 6b c1 b6 3e 65 04 46 3e 71 14 d5 3e fc c2 1f be
       0.3569444 0.19337614 0.41617158 -0.15601724
0002a0 f9 25 07 3f ca 19 4c 3e fd e1 04 3e b0 13 9e be
       0.52792317 0.19931713 0.12976833 -0.30874395
0002b0 27 b3 29 bf a7 1f eb 3e 60 f3 4a bf d7 9d 83 be
       -0.6628899 0.45922586 -0.7927761 -0.2570636
0002c0 c1 80 73 be 64 79 1e 3f 94 1c 64 be 02 b2 98 be
       -0.23779584 0.6190398 -0.22276527 -0.2982331
0002d0 4f 59 11 3f 12 21 9c 3e 47 b6 13 bd 78 a6 9f be
       0.567769 0.3049398 -0.036062505 -0.31181693
0002e0 0d 37 8e bd a3 f3 6e be 1f 56 82 be c6 e4 f1 3d
       -0.06944094 -0.23335128 -0.2545633 0.11811213
0002f0 b5 e2 bb be 3b c4 fc be e2 8d 3b be c7 b8 99 3e
       -0.366964 -0.49368462 -0.18315843 0.30023786
000300 66 a3 d5 be ad 81 17 3e 2d 80 0c bf 85 54 a1 3f
       -0.41726226 0.14795561 -0.5488308 1.2603918
000310 b8 fa 3b be ff 44 14 3e 2f c7 68 be 6d 5e 3e bf
       -0.1835736 0.14479445 -0.22732233 -0.7436283
000320 df 0f 0e 3d 9e 1c c6 be 57 ae ba be d7 18 d3 3d
       0.034683105 -0.38693708 -0.36461136 0.10307472
000330 42 8d 1d bf 20 34 a6 bd 8f 5a 11 bf c8 b5 9a bd
       -0.6154367 -0.08115411 -0.56778806 -0.07554203
000340 fc 38 54 bf 69 8f d5 be 6d 19 d1 3e 39 4d bf bd
       -0.8289945 -0.41710976 0.4083971 -0.09340901
000350 29 88 f1 3c 90 ef bf bd 9a 62 30 be 4d d1 dc be
       0.029483872 -0.09371865 -0.17225114 -0.43128434
000360 b3 ab 9d 3d a4 5c 3d 3d e8 8d 96 3e c3 87 ef be
       0.07698765 0.046230927 0.2940514 -0.46783265
000370 af 6d 40 be d3 e8 da 3d 20 9b 2e 3e fd a3 17 3f
       -0.18791841 0.10688939 0.17051363 0.592346
000380 e5 8d 0b 3f 9c c6 1c bf 7c 98 d9 3e 77 7b 1b bf
       0.5451339 -0.61240554 0.4249915 -0.6073527
000390 64 f9 08 bf 2c f4 1e 3e 53 5f 49 bd 2e bd d7 3e
       -0.5350554 0.15522832 -0.049163174 0.4213652
0003a0 8a b0 97 be f4 0e c5 be ba ff ba 3e 37 ea 9e 3e
       -0.29626876 -0.3848797 0.3652323 0.31038067
0003b0 ba 99 6d 3e 53 5b a8 3c ae da a5 bd 71 24 93 be
       0.23203173 0.02055136 -0.080983505 -0.2873874
0003c0 c5 95 16 bf 8f 3d a8 be a7 d8 12 bf c2 d4 6a bf
       -0.5882228 -0.32859465 -0.57361835 -0.9173089
0003d0 22 a1 31 be 80 9d 97 3e fe af 89 3e a5 8c 1e 3f
       -0.17346624 0.2961235 0.26892084 0.61933357
0003e0 3e 48 a1 be a6 d6 8a be 71 d4 52 3f 62 bf 88 be
       -0.3150043 -0.2711689 0.8235541 -0.26708513
0003f0 97 02 14 3f 2d d0 4c bd 29 ca 5e bf 52 72 c5 3e
       0.5781645 -0.05000322 -0.8702722 0.38563782

network_body._body_endoder.seq_layers.0.bias f4 [128]
000000 9a 4f c1 bc 87 67 8f 3c 5c 34 29 bd 69 18 00 bd
       -0.023597527 0.01750542 -0.0413097 -0.03127328
000010 f1 c5 e7 3c 80 49 99 3d ab 9a 95 3d 70 a1 c8 bd
       0.028292628 0.07484722 0.07304891 -0.09796417
000020 7c ce 8d bd 5b 50 60 3d ad 9c a4 bd 35 82 61 3c
       -0.069241494 0.054764133 -0.08037696 0.013763954
000030 c6 e9 92 bd a9 0e bc 3c ca 74 ad 3d 16 ea a8 bb
       -0.07173495 0.02295621 0.08469541 -0.0051548583
000040 99 0c 2b bc ee 5f be 3b c3 41 6f bd ba db a6 bc
       -0.010440015 0.0058097756 -0.058412325 -0.020368446
000050 5a f5 19 bd 4d 52 80 bd 91 ba db 3d 02 23 5d bc
       -0.0375875 -0.06265698 0.10728944 -0.013497116
000060 72 d9 c4 3d ef f4 8e 3d 83 fa 1a bd db 33 25 3d
       0.09611787 0.06980311 -0.037836563 0.040332656
000070 bc 6f 71 bc 68 ca 98 3d de b9 c6 3c b1 bb 8f bd
       -0.014736112 0.07460481 0.02425855 -0.07018221
000080 0e 8a 0e 3c 90 5a 2a bd 0e da c3 bd 26 10 14 3d
       0.008699907 -0.041590273 -0.09563075 0.036148213
000090 d9 73 d4 bd 99 d8 1f 3b f9 67 38 3b 60 7e 80 3d
       -0.10373659 0.0024390577 0.0028138144 0.06274104
0000a0 a6 54 6b bd f9 f9 1e bd bd 3d c1 bc bb dc 28 bb
       -0.057453774 -0.03881261 -0.02358901 -0.0025766331
0000b0 44 7e 47 bd b7 23 4f 3d 47 04 87 bd 61 3f 89 bc
       -0.0487044 0.05057117 -0.06592613 -0.016753854
0000c0 b7 af 15 3d 6d 40 14 bb f7 9a bc bc 08 f3 ab 3a
       0.036544528 -0.0022621409 -0.023023112 0.0013118694
0000d0 45 80 b9 bd c0 8e 81 3b bd b1 fa bc c4 fb 8c bc
       -0.090576686 0.0039537847 -0.03060233 -0.017209895
0000e0 db 45 dc bc fb 34 16 bd 71 80 57 3d 59 56 28 bc
       -0.026888778 -0.03667162 0.052612726 -0.010274493
0000f0 29 e7 92 3c 2d cc 00 bc 03 56 9e bd 54 01 de 3c
       0.017932491 -0.007861179 -0.07731249 0.027100243
000100 c1 3b 0d bd 82 51 d6 bc 30 63 36 bd 03 73 25 be
       -0.034480814 -0.026161913 -0.044528186 -0.16157155
000110 7c 17 3c bd 14 03 bd bc f2 b0 8b bd b8 f5 31 bd
       -0.045920834 -0.023072757 -0.06820859 -0.043447226
000120 77 40 30 3d 34 fe 8c bc 22 a4 4e 3d df e6 86 bd
       0.04303023 -0.017211057 0.050449498 -0.06587004
000130 ce 53 7e bd b0 35 5e bd 0a a5 1b bd e1 4c 0b bd
       -0.06209164 -0.05425042 -0.03799919 -0.034008864
000140 f7 e7 fe 3c 2e f5 07 bd 61 d0 e2 bc 0b 32 26 bd
       0.031116469 -0.033192806 -0.027687253 -0.04057507
000150 8c 1a 20 3d 8f e0 87 bd 53 07 8a bd 70 94 bd bd
       0.039087817 -0.06634628 -0.06739678 -0.09256828
000160 79 8a b2 bc 8f 8d 83 bd 9b 2e 93 bc ea 1d 67 bd
       -0.021794545 -0.064234845 -0.01796656 -0.056425013
000170 43 f8 a8 bd d7 12 a1 3b e3 42 23 bd a5 ef 32 bd
       -0.08250477 0.004915576 -0.03985871 -0.043685574
000180 e4 db ad 3d 2d 38 6d 3c 65 e7 89 3c 5b e6 51 3a
       0.084892064 0.014478725 0.01683397 0.0008007043
000190 bb 8e 86 bd 37 a7 52 3c 6e d4 d2 bd 84 78 e4 ba
       -0.065701924 0.01285725 -0.10294424 -0.0017430936
0001a0 5d 72 62 bd 36 03 99 3b a6 c6 55 3d ab 23 5a bc
       -0.055284847 0.004669572 0.0521914 -0.013314168
0001b0 e6 a4 d0 bd 7f 68 e0 bd c7 8b 1d bd 0b cc 75 bd
       -0.10187702 -0.10957431 -0.03846338 -0.060009044
0001c0 7a ff fe bb 48 17 09 3d e1 f7 98 3d 55 0b d5 3b
       -0.00778192 0.03346947 0.07469154 0.006501595
0001d0 61 8b ef 3a b0 85 8b 3b 89 b6 a4 bd ce fd 15 bd
       0.0018275791 0.00425788 -0.08042628 -0.036619
0001e0 f7 e6 08 3b 7e 1d 88 bd d7 16 a5 3c bd 1c f4 3c
       0.002088962 -0.0664625 0.020152492 0.02979886
0001f0 8c 66 50 3a 0f 09 0c bd 14 43 2f 3d d7 f4 20 bb
       0.0007949851 -0.034188326 0.04278858 -0.0024559998

network_body._body_endoder.seq_layers.2.weight f4 [128, 128]
000000 29 59 24 be 45 b7 1f 3e 34 d4 21 3d 05 d0 b2 bd
       -0.16049637 0.15597256 0.039509013 -0.08731083
000010 9b 64 1d bd 7d e5 02 3d c9 b0 4b bd 78 25 10 3d
       -0.038426023 0.03195714 -0.049729142 0.035191983
000020 a1 43 8c 39 a4 89 69 3d ec 1d 27 be 73 2d 52 be
       0.00026753268 0.05701603 -0.16320008 -0.2052515
000030 9b 73 ee 3d d5 89 9b 3d 68 62 a4 bd 43 ac 5e 3e
       0.11643144 0.07594649 -0.08026582 0.217454
000040 3a da cf 3d aa 06 b4 bd 3b f7 6f 3c 73 18 2a be
       0.10149045 -0.087903336 0.014646347 -0.16610889
000050 e2 71 b3 3b 63 62 5f be 99 37 1e be 4f a0 15 be
       0.0054762224 -0.21814875 -0.15450896 -0.14611934
000060 70 55 a0 bd d1 41 49 bd b3 f0 f7 3b f6 1c 42 3c
       -0.07828796 -0.049135033 0.0075665354 0.011847725
000070 bf e2 8e 3c 71 7c 57 3d c1 5a 84 bd 8b 5e 18 be
       0.017442105 0.05260891 -0.064626224 -0.14879815
000080 a4 b4 ee 3d 92 40 17 3e 82 59 49 3e aa b5 75 bc
       0.11655548 0.14770725 0.19663051 -0.014996925
000090 bc ff 0f 3d 59 86 d0 bd 34 dd d5 3b 23 09 b6 3d
       0.035155997 -0.10181875 0.0065266136 0.088884614
0000a0 32 21 86 bd a5 98 80 3a db 7e 41 3d 51 c1 85 3d
       -0.065493 0.0009811117 0.04724012 0.06531013
0000b0 5e b2 35 be 24 94 14 3d 0e cf 26 3d aa d6 9c bd
       -0.17743823 0.03627409 0.040724806 -0.076581314
0000c0 fe b2 7a 3d 26 f0 1e 3b cd 16 b1 3c a9 8a 08 be
       0.061205857 0.0024252026 0.021617318 -0.13334145
0000d0 99 a5 0e 3d 3b 63 09 3d b2 3a 5e bc f2 7c 97 3c
       0.034825895 0.0335419 -0.013563799 0.018492196
0000e0 1b 62 e2 3c 50 5e 05 3e 92 70 c0 bd 5f 3e 59 3d
       0.027634671 0.13024259 -0.09396471 0.053037997
0000f0 c9 be d6 3b dc d3 27 3b bb 3a fa 3d 78 4c 0c 3d
       0.006553505 0.0025608456 0.12218233 0.034252614
000100 77 b3 27 bd 04 dc 85 bd 49 06 72 bd d1 1e 4f 3d
       -0.040942635 -0.06536105 -0.059088025 0.0505665
000110 fd 22 66 3c 7c 1b ad bb 71 f3 e3 bc 7b 97 b8 bd
       0.014046428 -0.0052828174 -0.027826043 -0.090132676
000120 15 71 18 bd 35 49 dd 3c 19 21 45 3a 67 50 10 bd
       -0.03721722 0.027012447 0.00075198855 -0.035232928
000130 f8 60 1e 3d 61 2b 55 bd 4f 67 1d 3d 91 0a ca 3d
       0.038666695 -0.052043322 0.0384286 0.09865297
000140 79 f0 2d be 5b 9d 22 3d 1d f5 12 be f5 5f 18 3c
       -0.16986264 0.039700847 -0.14351316 0.009300222
000150 59 99 c6 bd 59 5f 79 bd 65 37 b1 bc 97 0c 9b bd
       -0.096972175 -0.060881946 -0.02163286 -0.07570761
000160 5a c4 5f 3d f8 89 27 be 0f 1d 23 bc 36 82 48 3d
       0.054630615 -0.16361225 -0.009955659 0.048952304
000170 27 be f4 3c f1 bf af 3d 24 63 04 3e 2d 2d 33 3b
       0.029875828 0.08581532 0.12928444 0.002734016
000180 77 c3 12 3e 5d 78 1d bd 44 2e ee bd ea b6 8f bd
       0.14332376 -0.038444865 -0.11629918 -0.0701731
000190 32 42 0f 3e f1 0c b1 bc 71 95 85 3d ea c3 19 3d
       0.13990095 -0.021612616 0.06522644 0.037540354
0001a0 94 d3 3b 3c 4e a0 53 3e 90 12 02 be 28 8e 37 3e
       0.011464018 0.2066662 -0.12702394 0.17925322
0001b0 37 4a ce 3c e4 f4 36 bd 8c db e8 bd a4 f7 9e bd
       0.025181873 -0.04466714 -0.1137 -0.077620775
0001c0 a7 88 dc 3d 06 0d d2 bc 27 fc 0c be 19 02 a4 bd
       0.10768252 -0.025640976 -0.13768063 -0.080082126
0001d0 2e 1a bc 3d 9b 79 90 bd 0a be 19 3b bd 33 00 be
       0.09184681 -0.070544444 0.002345922 -0.12519737
0001e0 f1 3c ff 3d c2 34 98 bd 20 e0 bf 3d da fe bf bd
       0.124627955 -0.07431938 0.0936892 -0.09374781
0001f0 bb 9d 72 bc dc da 31 3d 75 11 d5 bd 69 0c 14 bd
       -0.014808114 0.04342161 -0.1040372 -0.036144648
000200 07 ac 51 bc 61 7b 95 bc 51 c2 da 3c 71 78 ce 3d
       -0.012797362 -0.018247308 0.026703985 0.10081566
000210 22 f1 5f 3d 5d c9 ab 3d 23 6f d8 3d 1e 24 23 be
       0.05467332 0.083880164 0.10568073 -0.15931746
000220 9f b9 b0 3d 81 7c b1 bd c1 85 fa bd d5 aa c3 3c
       0.086291544 -0.08666325 -0.12232543 0.02388517
000230 b9 a2 45 bd 84 90 25 3e 38 3d bf bd 4e 46 0d be
       -0.048250888 0.1616841 -0.093378484 -0.1379635
000240 c1 56 3c be d7 c8 ec bd d3 a0 d7 3d 5a 0d f4 bd
       -0.18392469 -0.11561745 0.10528722 -0.11916609
000250 24 62 27 bd 5b f2 4b be 3a 48 9d bd 5c 7e 8a bd
       -0.04086508 -0.1991667 -0.07679792 -0.067623824
000260 1a 7d 02 3d fc 4d 03 3e e3 1c 80 3c c5 77 13 3e
       0.031857587 0.12822717 0.015638774 0.14401157
000270 5d 69 3a bc 21 82 1f 3e e7 a7 55 3d f7 dd ae bc
       -0.01137766 0.15576984 0.052162077 -0.021346075
000280 e0 ae a5 bd 9d 03 5c 3c 00 0b b8 bc 37 df 1b be
       -0.080899954 0.013428596 -0.022466183 -0.15221868
000290 00 02 fd bc 59 fa be 3a 88 86 86 bb 1a 0e 22 3d
       -0.030884743 0.0014570459 -0.004105393 0.03956423
0002a0 cd 61 41 bd f4 41 a7 3d 2b 15 ce 3d d3 15 ea bd
       -0.04721241 0.081668764 0.10062631 -0.11429944
0002b0 57 96 a3 3d 2a 77 bb bc 4b a3 aa 3c ff fd 5b be
       0.079876594 -0.02288397 0.020829817 -0.2148361
0002c0 0d 24 1c bd 8a bc 92 bc 01 68 a4 bc dc 9d f8 bc
       -0.03812032 -0.017912168 -0.020069124 -0.03034871
0002d0 21 24 d1 bc f6 c0 12 3d 06 59 d0 3c e4 75 98 bd
       -0.025529923 0.035828553 0.025433075 -0.07444361
0002e0 ec c0 91 bc 88 fb bc 3d d5 19 a8 3d 5d 8a 36 3e
       -0.017792188 0.09227663 0.08208052 0.17826219
0002f0 85 32 a0 38 af c6 84 be f9 67 f0 bc ca 93 86 3d
       7.6388045e-05 -0.25932834 -0.029346453 0.06571157
000300 4f 65 9d bd cd 3d fe bd 5f b4 72 bd 90 81 e5 3b
       -0.07685339 -0.12414131 -0.059254047 0.0070039704
000310 39 ab 46 bd fe cb a8 3c a8 19 8b bd 72 77 3e 3e
       -0.048503134 0.020605084 -0.06792003 0.18600252
000320 a6 2c 95 bd 15 d7 0b be 9e ac 05 3e 8e 6d 31 be
       -0.07283907 -0.13656266 0.1305413 -0.17326948
000330 2b cb 55 3e 55 80 b6 bc 08 55 ed bd 95 89 0d 3e
       0.20878284 -0.02227799 -0.11588484 0.13822015
000340 a8 fd 56 bd 76 d3 bd 3d 0a ec 87 3a dc 7c f6 3b
       -0.052488 0.092688486 0.0010370028 0.0075222086
000350 82 d4 bc bd 15 d9 64 bc c0 c3 9b bd 82 6e 39 3d
       -0.0922022 -0.013967772 -0.07605696 0.045271404
000360 4d f8 a1 bd d7 52 92 be 5f b5 1f bd e5 b0 bd 3d
       -0.07908688 -0.28578827 -0.03899133 0.092622556
000370 9c 91 d2 3d f1 e6 26 3c f2 21 67 be 95 d0 a9 bc
       0.10281679 0.010186897 -0.22571543 -0.020729342
000380 d1 09 e3 3d b0 b7 3e 3b 48 e7 1f 3e c0 91 8f bc
       0.11085857 0.0029101186 0.1561557 -0.017525554
000390 c4 43 c2 bd 84 85 5f be 30 09 28 be 84 4d c4 3d
       -0.094855815 -0.21828276 -0.16409755 0.095850974
0003a0 f5 0f 8e bd ee fc 9d bc 15 6c 9c 3d 21 21 ce bd
       -0.06936637 -0.019285645 0.076378025 -0.100649126
0003b0 db 36 6a 3d df e6 80 3d a3 72 04 be af 07 b9 3c
       0.05718122 0.06294035 -0.12934355 0.022586672
0003c0 7c 59 8e 3c cb af f2 bb 46 7a 0e bc b2 c8 33 bd
       0.017376654 -0.00740621 -0.008696144 -0.04389257
0003d0 59 61 47 be 06 b1 90 bc eb be d3 3d 1a 08 41 3e
       -0.19470729 -0.017662536 0.10339149 0.18850747
0003e0 1a 37 d6 bd 3b 11 df bc 23 3d 0a be ac 2e 1e 3d
       -0.104597285 -0.027229896 -0.13499884 0.03861873
0003f0 4f c7 64 be 63 60 e3 3b 5b 31 57 ba 27 98 fb bd
       -0.22341655 0.0069389804 -0.00082089537 -0.1228488

network_body._body_endoder.seq_layers.2.bias f4 [128]
000000 20 e1 ee bc fa 85 54 bb 7e 93 ed bc b7 95 f8 bc
       -0.029160082 -0.003242849 -0.029000994 -0.030344827
000010 98 c5 53 bd d7 30 64 bc 90 ab 83 bd 42 c4 2f bd
       -0.051702112 -0.01392766 -0.06429207 -0.042911775
000020 79 a7 49 3b ee 99 37 bd bb e6 89 bb 92 d1 ae bc
       0.0030769987 -0.044824533 -0.0042084134 -0.021340165
000030 12 79 91 bc b2 8b 98 bc 23 b9 1f bd 52 75 9d 3b
       -0.017757926 -0.0186213 -0.03899492 0.0048052454
000040 77 07 00 bd 47 26 bc bb 73 fa 48 bd a8 5c a9 bc
       -0.03125712 -0.0057418677 -0.049066972 -0.020674065
000050 d5 c7 07 3d ec 29 1c bd c8 93 0d bd 0f c7 00 bd
       0.03314956 -0.038125917 -0.034564763 -0.031439837
000060 ae e6 18 bc fe 39 77 3b 08 e9 51 bc 1c dc 87 bc
       -0.009332342 0.0037723775 -0.012811907 -0.016584449
000070 ec b4 68 bc 67 76 c4 bc ff fa 7a bc 25 b0 60 bc
       -0.014203291 -0.02398224 -0.015318631 -0.013713871
000080 4e 0f f1 bc c5 d6 d2 bc 7c 3a 74 bc 35 81 50 bd
       -0.029426243 -0.025737176 -0.014906522 -0.05090447
000090 22 c7 54 bc 89 ef fd bc 4f 28 06 bd a7 1a 05 bd
       -0.01298693 -0.030998008 -0.032753285 -0.03249612
0000a0 f1 47 8d bc e9 b4 84 3c 89 b6 6e bd cb 50 2f bd
       -0.017246218 0.016199546 -0.058279548 -0.04280166
0000b0 6c 64 a0 bc 9f d0 27 bd 9e 13 2b bd c4 8c 68 bd
       -0.019579135 -0.04097044 -0.041766755 -0.05677487
0000c0 d6 d0 b8 bc f3 00 73 bd 69 bb df bc fc 75 62 bc
       -0.022560518 -0.059327077 -0.027311044 -0.013822075
0000d0 31 7f f0 3b 13 06 33 bd 06 64 4d bd 59 94 8b bb
       0.007339381 -0.043706965 -0.050144218 -0.004259628
0000e0 84 2d 7f bc 15 e8 42 bd e1 94 43 bd 5d e0 54 bd
       -0.015574817 -0.047584612 -0.047749404 -0.051971782
0000f0 ca ea e0 bc bf 8e d5 bc 3b 87 56 3c 4d 6f 13 bd
       -0.027455706 -0.026069043 0.013093765 -0.035994817
000100 34 cc 81 bc 29 a6 5a bd 0b a0 97 bc 39 d0 aa 3c
       -0.015844442 -0.05338112 -0.018508932 0.020851241
000110 c3 54 ca bc 86 3a 08 bd e2 55 23 bd 99 0d 4a bd
       -0.02469862 -0.033258937 -0.039876826 -0.049329374
000120 ed 8d 16 bd 90 4a aa 3b be 5f 98 bc ca 87 85 bd
       -0.036756445 0.005196877 -0.018600341 -0.0652004
000130 53 68 b4 bc 79 a9 37 bd 3c 8b f1 bb d1 13 01 bd
       -0.022022402 -0.044839356 -0.0073713344 -0.03151304
000140 f7 d5 3c bc f9 fb 3e bd 88 f0 11 bd f5 53 6f bc
       -0.011525623 -0.04662702 -0.03562978 -0.014607419
000150 58 04 e8 bc a8 73 0b bd ff 85 a6 bc 86 ad ce ba
       -0.028322384 -0.034045845 -0.020327566 -0.0015768267
000160 80 2c 40 bd 78 71 3b bc df 96 0b bd 14 cd 0c bd
       -0.04691744 -0.011440627 -0.03407943 -0.034375265
000170 58 21 61 bb 00 10 9e bc c8 63 c0 bc a4 9a be bc
       -0.003435215 -0.019294739 -0.02348508 -0.023267098
000180 46 39 a8 bc 9d aa 0c bd 67 c4 27 bc 04 82 50 bc
       -0.020535123 -0.034342397 -0.010239697 -0.012726311
000190 2d be 18 bd 23 88 5c bd c9 e5 ac bc 08 be 35 bd
       -0.03729074 -0.053840768 -0.021105664 -0.04437068
0001a0 18 17 59 bd 58 0e e0 bc f5 37 12 bd d7 21 5f 3a
       -0.05300054 -0.02735059 -0.035697896 0.00085118174
0001b0 c5 90 31 bd 74 ce 88 bc 69 17 97 bc 89 60 f2 bb
       -0.043350954 -0.016700007 -0.01844378 -0.007396762
0001c0 64 ac 37 bd 44 37 12 bd d7 bf 85 3c aa cf bd bc
       -0.04484214 -0.035697237 0.016326828 -0.023170311
0001d0 15 7f 55 bc ca a3 fe bc 58 4b 31 bd 67 2b fd bc
       -0.013030787 -0.03108396 -0.043284744 -0.030904485
0001e0 6a 66 04 bd 8b f2 05 bd 80 10 16 bd 87 10 e9 bc
       -0.032324232 -0.03270201 -0.03663683 -0.028450264
0001f0 14 97 35 bc aa 6d 31 bd 69 47 ed bc 0e 52 1d bd
       -0.011083383 -0.043317474 -0.028964715 -0.03840833

action_model._continuous_distribution.log_sigma f4 [1, 2]
000000 ff c8 01 be 58 8f b7 be
       -0.1267433 -0.3585155

action_model._continuous_distribution.mu.weight f4 [2, 128]
000000 b3 f9 9b bb f4 f5 92 3c b9 b5 36 bc 33 c1 05 3b
       -0.004759991 0.017939545 -0.0111517245 0.0020409345
000010 be fe fc 3b 88 c1 09 3d 02 64 aa 3b 57 b2 51 bb
       0.0077207973 0.03363183 0.00519991 -0.0031997168
000020 fb 6a d8 3c 9d a4 11 3c 2f 37 39 bc 62 f4 97 3b
       0.0264182 0.0088893445 -0.011304661 0.004637287
000030 1e 39 e8 bb 77 dc 6e bb 62 13 11 bc af 4e 9d 38
       -0.007086887 -0.0036447325 -0.008854719 7.500999e-05
000040 d5 2c 8d 3c c2 59 e8 3c 4a d7 12 bb 16 53 c3 bc
       0.017233292 0.028363112 -0.0022406154 -0.02384333
000050 e8 f5 a3 3b 45 49 ac bc a4 95 48 b9 f6 ea 83 3a
       0.0050036795 -0.021031031 -0.00019129232 0.0010064531
000060 46 13 16 3c 6c d8 26 3d d7 9c cd 3c 02 c9 09 3d
       0.009159869 0.04073374 0.025099201 0.03363896
000070 bf af a9 bc 28 63 3c 3c 25 fe 8f bc 40 b6 87 bd
       -0.020713685 0.01149825 -0.01757724 -0.06626558
000080 68 18 1d 3c 75 82 62 bc f6 0c 23 3d 2f d5 50 bc
       0.009588338 -0.013825049 0.039807282 -0.012746139
000090 e5 54 81 3c c1 cc c8 3c c5 e2 ad 3c 9e 99 a2 bb
       0.015787551 0.024511697 0.021226296 -0.0049621603
0000a0 ff a7 9f bc 6f 90 90 bc fa 5c 70 bb c1 d3 05 bc
       -0.019489286 -0.017646996 -0.0036676512 -0.008168162
0000b0 b2 00 1b bd c5 34 84 bb 8c bd d6 3b 10 f6 fe 3a
       -0.03784246 -0.004034611 0.0065533575 0.0019451994
0000c0 5b 3c 82 bc 61 18 0e 3b 25 0a 9d bb 29 81 42 3c
       -0.01589792 0.0021682011 -0.004792469 0.0118716145
0000d0 f1 28 cc bc a5 e7 18 bc c3 05 91 bc a0 c0 e2 3c
       -0.024921866 -0.009332572 -0.017702943 0.027679741
0000e0 44 c4 de bc 1b d2 45 3c fc 6d 0a 3b 31 66 1d 3c
       -0.027193196 0.012074019 0.0021122685 0.009606884
0000f0 f1 ec 5b 3b 20 5e a7 bc 47 bf de bc 96 44 88 bc
       0.0033557976 -0.020430624 -0.027190818 -0.016634267
000100 27 de db 3a 17 28 79 bc 79 0a 3e bb 50 77 bf 3c
       0.001677458 -0.015207312 -0.0028997941 0.023372322
000110 b2 8f 60 bb f2 31 0e bc 09 88 3d 39 ac e3 0d 3c
       -0.0034265337 -0.0086789 0.00018075122 0.008660238
000120 86 59 3e bb f7 66 e0 bc 46 d7 47 bc 0c 33 b6 39
       -0.002904506 -0.027392847 -0.012197321 0.00034751778
000130 93 0b 9e bb e6 be 1e bb ee d4 ba 3c ad 09 64 3c
       -0.004823157 -0.002422267 0.02280661 0.0139183225
000140 bc 96 df bc fc 78 21 bb 22 9e f7 3b 64 c1 14 bb
       -0.027293555 -0.0024638763 0.0075566927 -0.0022698278
000150 7c 6f 53 bd 35 e9 33 3c 3b 37 a7 3c 19 ed 45 bc
       -0.05161999 0.010980894 0.020412078 -0.012080454
000160 d8 7f 64 bc 05 1b e4 3a 47 be 92 bc 52 71 a2 3b
       -0.013946496 0.0017403072 -0.017912997 0.0049573565
000170 c1 f2 51 ba 4f 71 c7 3c 1b 77 d4 3c da 07 db bc
       -0.00080088904 0.024346022 0.0259357 -0.026737142
000180 12 23 a5 3c 80 d4 1c bc 02 65 c3 bb c7 c6 30 bc
       0.020158324 -0.009572148 -0.005962969 -0.01078958
000190 02 ef 4b bc 84 e4 b6 bb b6 eb d1 bc 61 92 fc bb
       -0.012447121 -0.0055814404 -0.025625091 -0.0077078794
0001a0 81 aa 78 3b 8a 36 a6 3c de 6e 39 ba 67 d9 ac 3b
       0.0037943425 0.020289678 -0.00070737104 0.00527494
0001b0 b1 44 68 3b 51 27 73 3c 5d 96 1e bc 05 49 5f 3a
       0.0035441334 0.014840917 -0.009679404 0.00085176557
0001c0 fa 74 9f 3a 7f 0d 92 3c c9 c9 80 bc eb a4 3a bc
       0.0012165599 0.017828701 -0.015721219 -0.011391859
0001d0 bd d0 cb bc 92 e5 a7 3c d6 26 16 bb d0 85 39 3b
       -0.024879808 0.02049521 -0.0022911332 0.0028308518
0001e0 ba d1 1f 3b 31 b6 4a 39 b7 4d 99 bb 6d c5 ea bc
       0.0024386481 0.00019332093 -0.004678454 -0.028658593
0001f0 f9 fa 7c bd ed 7f e6 3b 55 d2 80 bb a9 65 8d bc
       -0.061762784 0.007034293 -0.0039313235 -0.01726039
000200 7d e7 ad bc 36 1c d2 bc 4d 4e 07 bc 1d 2d 27 bc
       -0.021228546 -0.025648218 -0.008258414 -0.010203627
000210 55 e9 7e ba 84 f8 b0 3c 3b 8f 8c bb 4c e6 6f bc
       -0.00097241 0.021602876 -0.0042895353 -0.014642309
000220 4d ca 4c bd f0 bf 82 bc 79 b0 10 bd 5c d6 f8 bc
       -0.049997617 -0.015960664 -0.035324547 -0.030375652
000230 2d 32 7e 3c fa 3d 0b bd be 62 ec bc eb 70 47 3c
       0.0155148925 -0.033994652 -0.028855678 0.012172918
000240 fe 1f ba bc 0a 3a bb bc 5b 1c 0b bc 08 12 49 bc
       -0.022720333 -0.022854824 -0.008490647 -0.012272365
000250 0a 8f 57 bd 35 1b c1 39 07 98 a8 bc 6e 19 05 3c
       -0.052626647 0.000368321 -0.020580305 0.008123739
000260 1e 9a 87 3c 12 ef 7c bc 0e 08 a5 bc 3e e8 c7 3b
       0.016552981 -0.015437858 -0.020145442 0.0061006835
000270 6e 0a 5c bc 21 3e b1 bc 12 34 22 bd a2 17 4e 3c
       -0.013430221 -0.02163607 -0.03960044 0.012578877
000280 70 bd ab bc e1 83 6a 3c 02 2f 8c bc 44 d1 97 bb
       -0.020964354 0.014313669 -0.017112259 -0.0046331007
000290 b5 16 2a bd a3 e4 f6 bb c2 b9 b0 bc 80 6d 22 3b
       -0.04152556 -0.00753458 -0.021572951 0.0024784505
0002a0 69 c0 90 3c f3 31 7a bd a0 92 fc ba 5d ff 5e 3c
       0.017669873 -0.06108279 -0.0019269772 0.013610688
0002b0 40 8b b4 3c 53 7d b9 bb 5b 14 56 bc 90 2e 69 bb
       0.022039056 -0.0056606918 -0.013066377 -0.0035580732
0002c0 b3 7f a9 bb 0f b9 91 bb dd 1d 83 bc 9c 5b 08 3d
       -0.0051726936 -0.0044471095 -0.01600545 0.03329049
0002d0 4a a1 5a bd b7 b7 74 bc b1 45 c0 3c 9f d3 99 bb
       -0.053376473 -0.014936379 0.023470731 -0.0046944167
0002e0 8f 0c 25 3d 06 1f a0 ba f6 25 41 bc d1 8a 95 bc
       0.04029518 -0.0012216277 -0.011788836 -0.01825467
0002f0 1a c7 66 3c 8e df 09 bd a4 a9 28 3d 8a 6d 67 3b
       0.014085555 -0.033660464 0.041177407 0.0035313093
000300 97 4c 88 bc 73 b1 16 ba f2 8f d8 bc 9c 86 ce 3c
       -0.016638083 -0.0005748488 -0.026435826 0.025210671
000310 4f d8 3d 3c 9f 32 5f bc 4a a6 bc bc ae f8 cc bb
       0.0115872165 -0.013622909 -0.023028512 -0.006255231
000320 66 07 cd 3b 79 1c 13 bd e5 d2 13 bd 98 10 8a 3b
       0.0062569855 -0.035915826 -0.036089797 0.004213404
000330 e4 ea e2 bc 06 79 29 bc ab a4 45 3c a4 2b d0 bc
       -0.027699895 -0.010343796 0.012063186 -0.025411434
000340 ec eb cd 3c 1f 88 92 bc 16 7e a7 bc 82 49 36 3c
       0.02513691 -0.017887173 -0.020445865 0.011125924
000350 b6 a2 a2 3c 95 dc ea bc ae c9 2e bd ba 84 4e bd
       0.019852977 -0.028669635 -0.042672805 -0.050419547
000360 26 85 64 3c e8 fe 2b bd c9 ba 06 bc 73 67 43 bc
       0.013947761 -0.041991144 -0.008223244 -0.01192652
000370 a1 a4 95 bd 28 9b e8 bc cd aa d6 bc 59 67 63 bc
       -0.07306791 -0.028394297 -0.026204491 -0.0138796205
000380 a8 38 cd bc 27 1b 09 bd c9 5a 32 bd 2f e6 92 bd
       -0.02505143 -0.03347316 -0.04354361 -0.0717281
000390 57 17 5c 3c e7 b3 8e 3b cd 58 01 3d 1e 20 21 bb
       0.013433299 0.004354942 0.031578828 -0.0024585794
0003a0 a8 16 5a bb 8c 54 aa bc 9f 7d d9 bc 4b 5c 03 3c
       -0.0033277664 -0.020792268 -0.026549159 0.00801761
0003b0 a9 7a 57 bc f4 99 0e bc 33 aa 03 bd 98 e1 96 bd
       -0.013151803 -0.0087036975 -0.032144736 -0.07367247
0003c0 09 91 7d bc 18 f0 96 bb 39 3c eb 3b 17 f7 f6 bc
       -0.015476474 -0.004606258 0.00717881 -0.030147118
0003d0 98 d8 36 bd dd bf cc bc 52 e8 26 bc ab 4c 6a bc
       -0.044640154 -0.024993831 -0.010187225 -0.014300506
0003e0 37 18 e2 bc c2 ef 7b 3c 15 75 9d bc e7 e1 95 3c
       -0.027599437 0.015376987 -0.019220868 0.018296195
0003f0 3c 32 98 3c 05 e9 45 bc 3e c7 d9 bc 6c 46 97 3a
       0.018578641 -0.012079482 -0.026584264 0.0011541373

action_model._continuous_distribution.mu.bias f4 [2]
000000 0b a5 d2 3a ba b4 d4 3c
       0.0016070915 0.025965083

exp_avg f4 [128, 6]
000000 a2 21 2f 3b 00 00 00 00 5b a0 83 3a 1c d3 1f bb
       0.0026722928 0.0 0.0010042296 -0.0024387306
000010 00 00 00 00 9d 7b fb bc 01 2b d6 37 00 00 00 00
       0.0 -0.030698592 2.5530813e-05 0.0
000020 85 b8 98 37 64 a0 7b b8 00 00 00 00 0c ec a3 b9
       1.8205736e-05 -5.999244e-05 0.0 -0.0003126565
000030 97 1b 08 35 00 00 00 00 96 09 31 34 24 79 ab b4
       5.0704097e-07 0.0 1.6487897e-07 -3.1939373e-07
000040 00 00 00 00 9e e2 b9 b6 24 fe 19 bb 00 00 00 00
       0.0 -5.5398114e-06 -0.0023497427 0.0
000050 cc c9 50 ba c0 92 0b 3b 00 00 00 00 cd da d6 3c
       -0.00079646404 0.0021297187 0.0 0.02622738
000060 be 5a aa ba 00 00 00 00 84 46 4c ba 05 ca c1 39
       -0.0012997014 0.0 -0.000779249 0.00036962345
000070 00 00 00 00 50 ec 54 3c ad f1 1b 34 00 00 00 00
       0.0 0.012995794 1.4523421e-07 0.0
000080 be 3d c5 b4 6a 8e 1e b5 00 00 00 00 d1 f9 ba b6
       -3.6739033e-07 -5.9066826e-07 0.0 -5.5723144e-06
000090 f8 59 82 32 00 00 00 00 6d c8 c2 31 93 d9 8c b2
       1.5174905e-08 0.0 5.668929e-09 -1.6397086e-08
0000a0 00 00 00 00 4a 3c 3b b4 18 4b d8 b5 00 00 00 00
       0.0 -1.7437665e-07 -1.6115109e-06 0.0
0000b0 2d 4a 69 b5 30 97 90 35 00 00 00 00 7e 76 95 37
       -8.6907204e-07 1.0772837e-06 0.0 1.7817361e-05
0000c0 ca 9e 33 36 00 00 00 00 66 5a 49 35 b3 2a 24 b6
       2.6765506e-06 0.0 7.500988e-07 -2.4462759e-06
0000d0 00 00 00 00 ac f5 e9 b7 14 dc 48 36 00 00 00 00
       0.0 -2.7890164e-05 2.9930425e-06 0.0
0000e0 f8 24 cf 35 99 3e 36 b6 00 00 00 00 40 4c 0b b8
       1.5433461e-06 -2.715655e-06 0.0 -3.3211196e-05
0000f0 37 73 2e ba 00 00 00 00 9f 7b 42 b9 6b cc ed 39
       -0.00066547416 0.0 -0.00018547334 0.00045356466
000100 00 00 00 00 56 f7 f0 3b 07 f3 fa 39 00 00 00 00
       0.0 0.0073537035 0.00047864785 0.0
000110 d0 11 1c 3a 00 96 ea 37 00 00 00 00 d0 27 5b bb
       0.0005953582 2.7964823e-05 0.0 -0.0033440478
000120 fc 22 42 ae 00 00 00 00 f6 4a 38 b0 09 22 af af
       -4.4141565e-11 0.0 -6.7045336e-10 -3.1856498e-10
000130 00 00 00 00 d8 48 a9 30 ba 29 e6 b8 00 00 00 00
       0.0 1.2317072e-09 -0.00010975027 0.0
000140 98 bf 0c b8 3e 3e ba 38 00 00 00 00 2c 4d 8a 3a
       -3.3557037e-05 8.880765e-05 0.0 0.0010551563
000150 b0 f1 27 b7 00 00 00 00 6e 3d 00 b9 46 a9 ec b8
       -1.0010248e-05 0.0 -0.00012229916 -0.000112848866
000160 00 00 00 00 f0 b7 95 b9 14 cc 4b b7 00 00 00 00
       0.0 -0.0002855654 -1.21472585e-05 0.0
000170 2e 30 71 b6 ec d1 4f 37 00 00 00 00 2c 6c 06 39
       -3.5939843e-06 1.2387038e-05 0.0 0.00012819533
000180 bb a0 d2 33 00 00 00 00 58 a3 4d b2 90 01 72 33
       9.808124e-08 0.0 -1.1969711e-08 5.6346437e-08
000190 00 00 00 00 a7 3c 54 b5 56 a0 86 39 00 00 00 00
       0.0 -7.9064415e-07 0.0002567793 0.0
0001a0 04 e9 ec b9 7c 1f 57 ba 00 00 00 00 4c c0 31 bb
       -0.00045187038 -0.00082062907 0.0 -0.0027122675
0001b0 cc 7d 30 ba 00 00 00 00 40 c8 7b 37 25 1f 04 3a
       -0.00067326124 0.0 1.500739e-05 0.0005040041
0001c0 00 00 00 00 78 50 cf 3b ef 15 9f b9 00 00 00 00
       0.0 0.0063267313 -0.00030343185 0.0
0001d0 78 cc cb 37 08 6e c8 39 00 00 00 00 87 8e a7 3b
       2.4294699e-05 0.00038228952 0.0 0.005113426
0001e0 3c 9f af 39 00 00 00 00 48 61 34 b7 3b f7 ed b9
       0.0003349724 0.0 -1.0751486e-05 -0.00045388364
0001f0 00 00 00 00 24 bb 4e bb 99 02 00 bb 00 00 00 00
       0.0 -0.003154465 -0.0019532798 0.0
000200 4a 3f 10 ba dd 8b e2 3a 00 00 00 00 94 89 ac 3c
       -0.0005502595 0.0017284114 0.0 0.021061696
000210 e6 0e 64 36 00 00 00 00 98 af 4f 35 cc 5c 8e b6
       3.398332e-06 0.0 7.736903e-07 -4.2427328e-06
000220 00 00 00 00 fd 5c 1f b8 17 e7 93 3a 00 00 00 00
       0.0 -3.7995156e-05 0.001128408 0.0
000230 9d 92 7f 39 3e 82 72 ba 00 00 00 00 e4 d3 41 bc
       0.00024373313 -0.0009250975 0.0 -0.011830304
000240 7d d8 5d 3a 00 00 00 00 74 7f 87 b9 f8 a3 c3 ba
       0.000846274 0.0 -0.00025844167 -0.0014926186
000250 00 00 00 00 ad 73 45 bc f2 e4 92 36 00 00 00 00
       0.0 -0.012051505 4.377792e-06 0.0
000260 8b 9e 3d b6 35 1c e5 b6 00 00 00 00 97 ba 1f b8
       -2.8255479e-06 -6.8280156e-06 0.0 -3.808233e-05
000270 0d 78 82 3a 00 00 00 00 02 e2 a2 b8 f5 7a a5 ba
       0.0009953991 0.0 -7.766859e-05 -0.0012625145
000280 00 00 00 00 dc e3 35 bc 8f 61 a5 b8 00 00 00 00
       0.0 -0.011101689 -7.885985e-05 0.0
000290 a2 24 2b b8 58 5a a3 38 00 00 00 00 b1 de 59 3a
       -4.0803694e-05 7.7892735e-05 0.0 0.00083110767
0002a0 cd d4 62 3a 00 00 00 00 db 79 3d 38 d9 69 84 ba
       0.00086529256 0.0 4.51746e-05 -0.0010102346
0002b0 00 00 00 00 28 ed 18 bc a0 2c 76 b9 00 00 00 00
       0.0 -0.009333886 -0.00023477012 0.0
0002c0 97 25 b1 b8 96 1e 7c 39 00 00 00 00 a4 65 2a 3b
       -8.447019e-05 0.00024043987 0.0 0.0026000524
0002d0 c3 7f 8b 36 00 00 00 00 02 77 dc b5 92 f9 0a b7
       4.1573962e-06 0.0 -1.6425913e-06 -8.283549e-06
0002e0 00 00 00 00 4b d0 a1 b8 5c e5 ba b9 00 00 00 00
       0.0 -7.715876e-05 -0.0003564757 0.0
0002f0 00 6f d1 b7 a2 af 7a 39 00 00 00 00 0b b1 79 3b
       -2.496643e-05 0.00023907286 0.0 0.003809991
000300 b2 b1 65 bb 00 00 00 00 46 4a 8d ba 73 01 47 3b
       -0.0035048542 0.0 -0.0010779581 0.0030365854
000310 00 00 00 00 df d5 1a 3d 3c d4 00 bb 00 00 00 00
       0.0 0.03780162 -0.0019657752 0.0
000320 f6 9c ef b9 59 4b 11 3b 00 00 00 00 20 4f ba 3c
       -0.00045702577 0.0022170155 0.0 0.022742808
000330 12 f2 77 b6 00 00 00 00 4b 46 6c b5 6e e1 4d 36
       -3.6946772e-06 0.0 -8.801914e-07 3.0678598e-06
000340 00 00 00 00 95 28 24 38 f8 59 08 35 00 00 00 00
       0.0 3.9138442e-05 5.079487e-07 0.0
000350 c4 3f b1 33 a8 36 0d b5 00 00 00 00 61 e7 bd b6
       8.253804e-08 -5.260613e-07 0.0 -5.659575e-06
000360 7c a4 09 b8 00 00 00 00 16 72 14 b9 b3 29 00 b9
       -3.2816533e-05 0.0 -0.0001415688 -0.00012222565
000370 00 00 00 00 65 be 09 3a d8 82 3e 31 00 00 00 00
       0.0 0.0005254506 2.7723015e-09 0.0
000380 c2 98 06 30 db f4 e4 b0 00 00 00 00 4a 8e cc b2
       4.8966e-10 -1.6658775e-09 0.0 -2.3813431e-08
000390 cc 2f a3 b7 00 00 00 00 cf 55 fc b6 ce 6b a3 37
       -1.9453371e-05 0.0 -7.5201747e-06 1.9481315e-05
0003a0 00 00 00 00 2e 1e 5f 39 95 19 33 36 00 00 00 00
       0.0 0.0002127818 2.668797e-06 0.0
0003b0 99 46 2e 35 fc fe 52 b6 00 00 00 00 42 ae e7 b7
       6.4922784e-07 -3.144086e-06 0.0 -2.7618491e-05
0003c0 26 6d c1 39 00 00 00 00 38 5e 11 39 9c 57 6e b8
       0.0003689315 0.0 0.00013863377 -5.6825214e-05
0003d0 00 00 00 00 58 a4 32 bb f0 cf 06 37 00 00 00 00
       0.0 -0.00272586 8.035437e-06 0.0
0003e0 f5 05 5f b6 cd 5a 87 b7 00 00 00 00 1b f2 95 b8
       -3.3233057e-06 -1.6135536e-05 0.0 -7.149969e-05
0003f0 1c f0 0b b9 00 00 00 00 e0 a6 98 b9 df 6b be b9
       -0.0001334552 0.0 -0.0002911603 -0.00036319994

exp_avg_sq f4 [128, 6]
000000 de 8d 16 37 00 00 00 00 b6 76 39 37 89 f8 1e 37
       8.973728e-06 0.0 1.1054499e-05 9.4754005e-06
000010 00 00 00 00 59 da 99 3a bb 5c 4a 35 00 00 00 00
       0.0 0.0011738046 7.5385805e-07 0.0
000020 43 38 43 36 ea 7a 49 35 00 00 00 00 38 e3 cf 38
       2.9090013e-06 7.50572e-07 0.0 9.912852e-05
000030 28 22 38 2d 00 00 00 00 aa 45 93 2d 03 87 9f 2d
       1.0466773e-11 0.0 1.6742902e-11 1.8136164e-11
000040 00 00 00 00 4a 19 ac 30 d1 ef 5c 37 00 00 00 00
       0.0 1.2521835e-09 1.31688585e-05 0.0
000050 d2 36 f7 37 46 d6 a5 37 00 00 00 00 73 ec 17 3b
       2.9470222e-05 1.9769312e-05 0.0 0.0023181706
000060 76 72 7a 37 00 00 00 00 ca 6f 53 38 88 04 c6 37
       1.4927811e-05 0.0 5.0410432e-05 2.360555e-05
000070 00 00 00 00 37 31 59 3b ca f6 c4 31 00 00 00 00
       0.0 0.0033140907 5.7324074e-09 0.0
000080 41 9c bf 31 77 62 ab 31 00 00 00 00 67 3b fe 34
       5.5765956e-09 4.987949e-09 0.0 4.7354408e-07
000090 dd 07 1d 2b 00 00 00 00 df bc db 2a e6 5b 02 2b
       5.5788517e-13 0.0 3.903327e-13 4.631281e-13
0000a0 00 00 00 00 33 12 1b 2e c7 45 8f 30 00 00 00 00
       0.0 3.5259084e-11 1.0424451e-09 0.0
0000b0 0b 73 17 30 22 66 cc 2f 00 00 00 00 6e 11 13 33
       5.5096966e-10 3.7179954e-10 0.0 3.4241957e-08
0000c0 2f c9 6c 2e 00 00 00 00 9b dc 0d 2f fe ea c9 2e
       5.3838874e-11 0.0 1.290225e-10 9.182165e-11
0000d0 00 00 00 00 d5 06 14 32 1c e2 ba 2f 00 00 00 00
       0.0 8.616287e-09 3.3993863e-10 0.0
0000e0 de 15 01 31 c1 b8 20 30 00 00 00 00 4e fe e3 33
       1.87844e-09 5.847021e-10 0.0 1.0616769e-07
0000f0 3c a8 34 36 00 00 00 00 32 c5 f0 36 43 13 b1 36
       2.6920015e-06 0.0 7.175514e-06 5.2772534e-06
000100 00 00 00 00 b7 ed f1 39 7a 54 9e 37 00 00 00 00
       0.0 0.00046144213 1.8874405e-05 0.0
000110 51 36 4e 38 bd 67 1c 38 00 00 00 00 70 76 7e 3b
       4.9164813e-05 3.7289912e-05 0.0 0.0038827918
000120 55 1c 12 28 00 00 00 00 12 01 e4 27 94 0f 33 28
       8.110772e-15 0.0 6.3283873e-15 9.939874e-15
000130 00 00 00 00 57 62 1e 2b e7 65 46 33 00 00 00 00
       0.0 5.626935e-13 4.6193147e-08 0.0
000140 d7 4a 14 34 d8 f0 d1 33 00 00 00 00 31 de 0a 37
       1.38108e-07 9.77613e-08 0.0 8.277174e-06
000150 c6 8e 44 36 00 00 00 00 67 a0 e0 36 89 bf 24 37
       2.928938e-06 0.0 6.6943935e-06 9.819757e-06
000160 00 00 00 00 35 28 26 3a 92 51 ae 33 00 00 00 00
       0.0 0.0006338389 8.117344e-08 0.0
000170 b2 21 10 35 82 fd d1 33 00 00 00 00 62 05 af 37
       5.3693213e-07 9.778434e-08 0.0 2.0864132e-05
000180 d6 84 5f 2d 00 00 00 00 62 a6 9c 2d 99 0a 39 2e
       1.2705578e-11 0.0 1.7809035e-11 4.2073543e-11
000190 00 00 00 00 42 18 0e 31 e8 73 26 37 00 00 00 00
       0.0 2.0677509e-09 9.921358e-06 0.0
0001a0 f5 b7 29 38 12 8b 18 38 00 00 00 00 1f 61 72 3b
       4.0464063e-05 3.6369143e-05 0.0 0.0036984158
0001b0 c4 72 e1 36 00 00 00 00 e9 72 9b 37 2f cf a9 37
       6.718883e-06 0.0 1.853095e-05 2.0242847e-05
0001c0 00 00 00 00 02 33 fc 3a b8 fc 57 37 00 00 00 00
       0.0 0.0019241276 1.2873839e-05 0.0
0001d0 16 71 31 38 d2 ee ac 37 00 00 00 00 26 f5 2c 3b
       4.2305408e-05 2.0615207e-05 0.0 0.0026391237
0001e0 82 b2 82 37 00 00 00 00 b4 d1 43 38 70 7b af 37
       1.5580332e-05 0.0 4.6686924e-05 2.0919106e-05
0001f0 00 00 00 00 8e 1f 2a 3b d3 fb 41 37 00 00 00 00
       0.0 0.002595875 1.1562329e-05 0.0
000200 fb 3d ef 37 ed fc a7 37 00 00 00 00 59 bd 1d 3b
       2.8519882e-05 2.002573e-05 0.0 0.0024069159
000210 ba 5a fc 31 00 00 00 00 81 76 dd 31 57 75 f2 31
       7.3444797e-09 0.0 6.445419e-09 7.056467e-09
000220 00 00 00 00 70 e1 3b 35 12 30 9a 36 00 00 00 00
       0.0 6.9990983e-07 4.5951538e-06 0.0
000230 00 06 68 37 c3 a7 6b 37 00 00 00 00 b2 a1 c9 3a
       1.3829675e-05 1.4046152e-05 0.0 0.0015383272
000240 18 90 aa 37 00 00 00 00 90 1f a1 38 81 ee 60 38
       2.0332678e-05 0.0 7.682957e-05 5.3627886e-05
000250 00 00 00 00 62 b3 c1 3b ab 21 ae 31 00 00 00 00
       0.0 0.0059112767 5.067894e-09 0.0
000260 e1 bd 03 32 72 a2 0a 32 00 00 00 00 bc 00 39 35
       7.668377e-09 8.069593e-09 0.0 6.891894e-07
000270 61 63 3c 37 00 00 00 00 74 2b 14 38 1b 4e d3 37
       1.1228812e-05 0.0 3.532642e-05 2.518953e-05
000280 00 00 00 00 ac df 3d 3b 38 9d 29 34 00 00 00 00
       0.0 0.002897243 1.5796547e-07 0.0
000290 4a 70 d0 34 54 df 00 34 00 00 00 00 e9 27 d8 37
       3.882472e-07 1.2002175e-07 0.0 2.5767791e-05
0002a0 78 10 95 37 00 00 00 00 7d 4c 5a 38 6a 51 d6 37
       1.7769853e-05 0.0 5.2046486e-05 2.55487e-05
0002b0 00 00 00 00 60 32 50 3b de 5e a7 33 00 00 00 00
       0.0 0.0031768307 7.7938e-08 0.0
0002c0 ab 9c 17 34 7a a3 bc 33 00 00 00 00 4a b6 07 37
       1.4119966e-07 8.7841684e-08 0.0 8.0890695e-06
0002d0 bc 8c cf 32 00 00 00 00 d4 79 2d 33 b4 6d 3a 33
       2.416197e-08 0.0 4.0390503e-08 4.3406274e-08
0002e0 00 00 00 00 23 0b 77 36 d4 08 aa 36 00 00 00 00
       0.0 3.681235e-06 5.0674225e-06 0.0
0002f0 cf b7 0e 37 dd 51 fe 36 00 00 00 00 3e a1 5a 3a
       8.506656e-06 7.57932e-06 0.0 0.0008340067
000300 f1 28 2c 38 00 00 00 00 1f ce 14 39 ef 3c 46 38
       4.1046125e-05 0.0 0.00014191166 4.7263627e-05
000310 00 00 00 00 f6 d5 08 3c cd 4d 1e 37 00 00 00 00
       0.0 0.0083517935 9.435648e-06 0.0
000320 53 d2 c7 37 8c 86 50 37 00 00 00 00 48 6e c9 3a
       2.3820588e-05 1.2429093e-05 0.0 0.0015367949
000330 85 f9 de 2f 00 00 00 00 f6 f6 4c 30 6d 97 0e 30
       4.055886e-10 0.0 7.456572e-10 5.187449e-10
000340 00 00 00 00 27 89 03 33 c0 40 88 2e 00 00 00 00
       0.0 3.0625554e-08 6.196066e-11 0.0
000350 5f 80 59 2e 77 56 88 2e 00 00 00 00 87 81 b4 31
       4.9454104e-11 6.199923e-11 0.0 5.253415e-09
000360 43 d7 2c 36 00 00 00 00 a3 f9 33 37 5c 1a 94 36
       2.5755296e-06 0.0 1.07273545e-05 4.4138123e-06
000370 00 00 00 00 f8 9f 2a 3a d6 71 8f 2b 00 00 00 00
       0.0 0.00065088226 1.0192357e-12 0.0
000380 3b dd 53 2d a1 7e 83 2c 00 00 00 00 d6 6d 1a 2f
       1.2043084e-11 3.7373026e-12 0.0 1.404524e-10
000390 4b 39 86 31 00 00 00 00 4b 26 cf 31 7d 8f 84 31
       3.9064267e-09 0.0 6.0288463e-09 3.8580183e-09
0003a0 00 00 00 00 cc e3 9f 34 8e ea 00 32 00 00 00 00
       0.0 2.9781802e-07 7.503912e-09 0.0
0003b0 e0 5c 95 32 30 e0 19 32 00 00 00 00 8d 9d 8d 35
       1.7388118e-08 8.9567465e-09 0.0 1.0551172e-06
0003c0 22 50 cf 36 00 00 00 00 3f ea ce 37 ec 21 8a 37
       6.1784094e-06 0.0 2.4666193e-05 1.6466678e-05
0003d0 00 00 00 00 ec 98 02 3b 69 63 ac 31 00 00 00 00
       0.0 0.0019927574 5.0171605e-09 0.0
0003e0 0f 43 5a 32 23 54 fa 31 00 00 00 00 13 cb 34 35
       1.2704517e-08 7.285523e-09 0.0 6.735074e-07
0003f0 1d f0 6e 37 00 00 00 00 f8 1e 28 38 1f 97 2d 38
       1.4241811e-05 0.0 4.0083163e-05 4.1387157e-05

exp_avg f4 [128]
000000 52 48 ac ba 30 bb 5f b7 fc bd 7d b4 6a 26 93 3a
       -0.0013144112 -1.3335419e-05 -2.3631577e-07 0.0011226658
000010 a3 4e 12 3a 42 47 7a b4 f4 00 ff b1 b5 58 4d 35
       0.0005581176 -2.3308988e-07 -7.421585e-09 7.6497537e-07
000020 65 06 a0 b5 ac 58 bf b5 8a 29 a5 39 68 95 17 b9
       -1.192279e-06 -1.4256416e-06 0.000315022 -0.0001445614
000030 a5 db 90 2e 6f 9c 3d 38 38 19 40 b7 99 65 b9 36
       6.5873786e-11 4.52068e-05 -1.14499635e-05 5.525257e-06
000040 a8 fe 0f b3 34 c7 f0 b8 96 23 8e 39 1b b8 64 39
       -3.352639e-08 -0.00011481196 0.00027110864 0.00021812359
000050 6a 42 0d b9 6c 6a 6c 3a 12 e4 d9 b5 b5 df 04 ba
       -0.00013471549 0.00090185436 -1.6234137e-06 -0.00050687353
000060 7a c3 06 ba 52 75 d9 b5 2c e0 f8 b9 11 50 15 38
       -0.00051408226 -1.6201905e-06 -0.00047469267 3.5598936e-05
000070 5c 33 d1 b9 3a 63 e9 38 86 73 5c b6 b7 3b 2b 39
       -0.00039901852 0.00011128788 -3.2849798e-06 0.00016330076
000080 2a 29 d4 3a d6 f9 7e 3a da 97 e0 35 a8 eb 81 b4
       0.0016186584 0.00097265595 1.6733495e-06 -2.4199585e-07
000090 14 68 be 37 10 27 94 b0 e2 d3 18 37 4e 77 9f b5
       2.269823e-05 -1.077952e-09 9.109239e-06 -1.1881145e-06
0000a0 c1 aa f6 b8 a5 7e 4b b6 28 32 f3 37 c1 6a 11 39
       -0.000117619995 -3.0323074e-06 2.8991213e-05 0.00013868047
0000b0 ae d9 a1 b5 a7 3f 96 38 47 71 9c 3a e8 a8 1b 36
       -1.2058788e-06 7.1644135e-05 0.0011935615 2.3195116e-06
0000c0 63 54 de 37 16 b6 4b ba 82 3a 25 ba cd 6b c9 b7
       2.6503758e-05 -0.00077709684 -0.0006302969 -2.4011266e-05
0000d0 7e 58 86 ba 08 7d b3 37 ca 51 8e 39 5d 5e 54 3a
       -0.0010249761 2.1396685e-05 0.00027145288 0.00081012194
0000e0 5e 82 11 b7 1c c8 aa b6 80 55 58 35 c3 e1 8b b4
       -8.673027e-06 -5.0896906e-06 8.059069e-07 -2.605503e-07
0000f0 08 c6 14 b3 b4 c4 4e ba e2 1f 68 b5 dc 66 ba b7
       -3.4639044e-08 -0.00078875874 -8.647313e-07 -2.2220825e-05
000100 35 c8 1b 35 d6 33 2c 3a 25 3f 80 ba 10 50 98 37
       5.803334e-07 0.00065690035 -0.0009784444 1.8157094e-05
000110 3b 70 2e 37 fb 3f 4f 3a 88 f2 c9 b8 40 25 ac b7
       1.0397339e-05 0.0007905957 -9.629602e-05 -2.0521344e-05
000120 6e a0 10 af 28 c5 95 ba f9 62 0f 38 8e 04 84 b9
       -1.315372e-10 -0.0011426555 3.4186032e-05 -0.00025180395
000130 3d 76 58 ba 1a 43 02 b5 9f 81 ac ba a6 01 dc 39
       -0.0008257365 -4.852642e-07 -0.0013161189 0.00041962898
000140 f6 fc bd ba 8a c2 59 35 2f 80 97 ba f2 af ea b4
       -0.0014494944 8.112189e-07 -0.0011558587 -4.3713914e-07
000150 c8 5f 0a 38 82 25 91 b8 ae 9b c7 39 41 ff f0 b8
       3.2990967e-05 -6.921125e-05 0.00038072228 -0.000114916365
000160 31 84 94 39 7c 60 68 b9 14 e0 04 39 93 dd 4f ae
       0.0002832725 -0.00022161187 0.00012671977 -4.7263148e-11
000170 93 8a f3 b6 00 c3 73 b5 50 bc d7 31 f0 e7 00 b7
       -7.2580965e-06 -9.0808317e-07 6.278732e-09 -7.683397e-06
000180 ac ed 9d 3a 8f 69 36 b7 ae c6 81 b8 a8 33 08 39
       0.0012048981 -1.0872623e-05 -6.188206e-05 0.00012989214
000190 0d 4e d1 38 42 da d4 ba 93 9a e8 39 c2 1b 17 b8
       9.980435e-05 -0.0016239362 0.00044365655 -3.6027057e-05
0001a0 da 5b 9c 39 3a 24 a7 3a ba 2d c1 b9 95 4d eb 38
       0.00029823073 0.0012751885 -0.00036845898 0.00011220124
0001b0 23 e1 93 b9 7b 5f 17 3a 26 ae a0 ba ce 99 88 3a
       -0.00028205765 0.00057744206 -0.0012258932 0.0010421814
0001c0 80 d0 09 30 c9 f9 ab 34 c8 e8 87 b7 05 cd e5 2c
       5.0136606e-10 3.2032975e-07 -1.6201651e-05 6.531333e-12
0001d0 a1 4e 85 39 eb f1 33 b9 60 ff 4c ba 44 b9 8d ab
       0.0002542632 -0.00017160892 -0.0007820036 -1.0070074e-12
0001e0 2f c2 8a ba 43 df 0d 3a 6d 57 ee b6 ba e3 96 36
       -0.0010586436 0.0005411992 -7.1031304e-06 4.496859e-06
0001f0 96 c7 de b0 df 9a 2d ba 22 59 97 ba 10 8d fa 39
       -1.6209352e-09 -0.0006622504 -0.0011546949 0.00047788816

exp_avg_sq f4 [128]
000000 97 61 3b 36 9d 43 8e 34 49 7e 6e 2c da 4e ba 36
       2.7921976e-06 2.6498756e-07 3.3891937e-12 5.5524115e-06
000010 cc 8b 04 37 f4 3b b0 30 ee 05 e6 29 a6 5f da 2e
       7.900362e-06 1.2822725e-09 1.02150805e-13 9.930483e-11
000020 26 8d cb 2d f2 fd a0 2f 1b cb 98 35 a2 3e 1b 37
       2.314111e-11 2.928427e-10 1.1383994e-06 9.253303e-06
000030 de 1c f3 26 fa 01 b8 32 e7 11 c7 35 66 12 64 33
       1.6869337e-15 2.1421318e-08 1.4831866e-06 5.310212e-08
000040 e8 c2 ca 2c 45 a7 11 37 17 22 a0 36 72 41 da 36
       5.7628242e-12 8.681619e-06 4.77234e-06 6.504525e-06
000050 31 2d de 36 d6 ce c5 36 3b f1 fc 30 40 d3 78 36
       6.6213765e-06 5.8951364e-06 1.8403975e-09 3.7077843e-06
000060 4a 4d 67 37 c3 5c fd 30 64 83 e8 36 40 e0 85 33
       1.3786668e-05 1.8434537e-09 6.9294347e-06 6.234086e-08
000070 9f 72 04 37 f5 07 b8 32 ef ed 23 32 46 d0 09 36
       7.8945e-06 2.1424038e-08 9.541949e-09 2.0535822e-06
000080 a7 28 a9 37 0a bc 78 36 f8 cc b2 2e 14 b9 85 2d
       2.01653e-05 3.7064333e-06 8.1309126e-11 1.520254e-11
000090 45 f9 d6 35 cc 35 f7 2a 03 1d 73 30 99 20 46 31
       1.601679e-06 4.3913343e-13 8.8444113e-10 2.8831322e-09
0000a0 3a 59 a4 36 07 4c f8 30 c7 da 04 37 e6 19 08 36
       4.897968e-06 1.8065983e-09 7.918751e-06 2.0280654e-06
0000b0 01 5e fd 30 91 7f 8d 35 6f 68 b3 36 89 19 14 31
       1.843489e-09 1.0542445e-06 5.3467734e-06 2.155135e-09
0000c0 d3 de 5d 35 68 5b ba 35 78 d6 47 36 ef 4e 62 33
       8.265317e-07 1.3884683e-06 2.9778148e-06 5.2691515e-08
0000d0 b7 84 fb 35 03 34 ae 33 39 7e 27 37 68 9d bb 36
       1.8739582e-06 8.111967e-08 9.983364e-06 5.591359e-06
0000e0 27 e6 19 32 b9 7c 80 31 65 27 be 33 3c 87 84 30
       8.958103e-09 3.7394696e-09 8.85473e-08 9.6427e-10
0000f0 5e 02 a3 2d 32 ac f8 35 31 04 50 30 8b 09 43 35
       1.8532006e-11 1.8527555e-06 7.5675916e-10 7.265705e-07
000100 ad e1 28 2d dc a3 5e 36 c1 99 cd 36 09 93 9a 35
       9.5998045e-12 3.3175957e-06 6.1273754e-06 1.1516687e-06
000110 10 98 82 32 43 d4 4e 36 f2 54 52 36 f0 92 4a 36
       1.5203142e-08 3.0819945e-06 3.1341883e-06 3.0185874e-06
000120 8d 80 e5 25 d1 af 10 37 04 04 06 33 14 c6 43 36
       3.9812277e-16 8.624004e-06 3.120296e-08 2.917256e-06
000130 59 f6 84 36 17 ed 24 2e 1a 94 71 36 1e 52 57 36
       3.962585e-06 3.749986e-11 3.5998005e-06 3.2085295e-06
000140 46 65 3f 37 3b 7c 23 31 38 36 86 37 5c 27 48 2e
       1.1408067e-05 2.3790239e-09 1.5999292e-05 4.5509693e-11
000150 99 5e 14 32 68 96 a1 35 9f 29 48 36 6a ee 9a 35
       8.636243e-09 1.2039209e-06 2.982655e-06 1.1543282e-06
000160 36 6c d3 36 6a 44 1d 36 5e 6f 98 35 06 ff 5d 25
       6.3008874e-06 2.3434645e-06 1.1357295e-06 1.92551e-16
000170 91 08 43 32 38 ce 6d 35 83 b3 23 2d 75 16 76 36
       1.1352442e-08 8.858947e-07 9.305337e-12 3.6669928e-06
000180 2b f5 16 36 90 1e b4 31 63 cb bf 36 55 57 95 36
       2.2494448e-06 5.242164e-09 5.715921e-06 4.450713e-06
000190 80 d8 8b 36 86 12 c2 37 97 1f 44 35 e1 56 0c 32
       4.1677267e-06 2.3135228e-05 7.306166e-07 8.1688265e-09
0001a0 83 7d ee 35 26 8e 1b 37 0f d4 49 36 46 d7 57 37
       1.776891e-06 9.271816e-06 3.0074768e-06 1.2865121e-05
0001b0 c4 8e cb 35 d9 f8 24 36 d5 1a b3 36 07 3c 67 37
       1.5166229e-06 2.4582753e-06 5.3377394e-06 1.3782649e-05
0001c0 e4 fb ab 29 50 cd 08 2e 31 d5 69 34 c5 66 2c 21
       7.6376215e-14 3.1105174e-11 2.1777375e-07 5.841188e-19
0001d0 13 41 97 35 0f 97 be 35 4a cd 96 36 4a 81 4d 25
       1.1269316e-06 1.4200067e-06 4.494247e-06 1.782472e-16
0001e0 36 0d b6 37 29 81 e3 36 80 b2 20 32 e3 ee 48 31
       2.1702243e-05 6.7801634e-06 9.353812e-09 2.9239622e-09
0001f0 2c bb e5 27 02 9f f6 35 aa d8 94 36 4e 60 1b 37
       6.37632e-15 1.8374706e-06 4.4359667e-06 9.261143e-06
