MLAgentDevProject/results/BreadCrumb11/MoveToGoal/MoveToGoal-58033.onnx (onnx, 75061 bytes, 7 tensors)

network_body._body_endoder.seq_layers.0.weight f4 [128, 6]
0.14113528 0.16062716 0.026328418 -0.17591745 0.1628315 0.10227832 -0.35147947 -0.24850057
0.06957143 -0.13654643 0.04076021 0.29862323 0.38590032 0.049907167 -0.45583752 -0.33884308
-0.5407148 -0.08446477 -0.52324903 -0.24389659 -0.3413972 -0.43337935 0.20335957 -0.104867674
0.03706205 0.09206792 -0.69633806 -0.45923904 -0.3435493 -0.28045553 -0.14645797 0.34732485
0.28513643 -0.032254126 0.16448939 -0.15553294 0.105486654 0.07184909 -0.19476344 -0.1973435
-0.06168487 0.18317814 -0.24438497 -0.019185217 -0.109097995 -0.14851591 -0.23267713 0.06678531
-0.5499072 -0.07813611 0.36690643 -0.29962772 -0.6017941 -0.2587961 0.37357852 0.006032729
0.07390379 0.079396985 -0.4701649 0.50230855 0.4558628 -0.4730958 -0.25160724 0.23312779
-0.7579172 -0.4802259 -0.69387245 -0.62516433 -0.044501808 -0.33173734 -0.24507129 0.23983152
-0.18266843 0.31641692 0.115230836 -0.031985663 -0.29119396 0.12241943 -0.79495513 -0.2710152
0.48396346 0.78620005 0.16190177 0.28446117 0.27852267 -0.092397116 0.19531702 0.3385084
-0.64490455 0.27844995 -0.06585397 -0.6718991 -0.60059315 0.1694369 -1.1386739 0.20603661
-0.5379603 -0.7608803 0.3579974 0.041796044 -0.51110864 0.32165888 0.065163955 0.062498443
-0.25532958 0.06386651 0.15484722 0.10457581 -0.019766439 0.51396155 0.30783987 -0.4417152
0.21573986 0.20477417 -0.42076564 -1.0194851 -0.46946245 -0.6487277 -0.13335858 -0.49791652
-0.15496506 -0.28931454 0.28519604 0.3725535 0.04609958 0.066061705 0.13170595 0.43292233
0.16647978 0.26367036 -0.20078698 0.714675 0.35963488 0.34866673 0.00814828 0.003053962
-0.42581767 -0.23674251 -0.7711789 0.43819606 0.3387427 -0.010002081 0.668941 0.24699563
0.4645242 0.85391366 0.4484216 0.665863 0.17056358 -0.29631233 -0.45609012 -0.23035374
0.07059071 -0.005891653 0.23736675 0.41388845 0.13502046 0.44131413 0.49913567 0.03237428
-0.18518433 0.12870201 -0.10804937 0.47496003 0.29656565 -0.12392156 0.6286406 0.7485909
0.7946162 0.042488895 -0.10779659 0.1872839 0.22446051 0.007079427 1.0729011 0.14272074
-0.29428002 0.15012372 0.4528206 0.1249869 -0.2796115 -0.061362196 0.21149878 0.106843114
0.26794484 -0.3817355 -0.024807058 0.26799756 0.11182853 0.21594521 -0.0100588435 0.030376501
0.05260503 0.59721124 0.11876962 0.13591674 0.000943974 -0.35565874 -0.49397817 0.25304693
-0.3885815 0.36840743 0.43585914 -0.055696383 0.15031576 0.25412297 -0.020148592 0.17547497
-0.90864617 0.6801245 0.09356077 0.39891505 0.38502362 0.60276616 0.6120944 0.26791164
0.013755061 1.0656955 -0.22564623 -0.39382768 -0.09457325 0.082536176 -0.20001133 0.8631922
0.355145 -0.42472044 0.16270944 0.003446834 -0.07849591 1.0535562 0.6420883 -0.7705785
-0.13698742 -0.033195913 -0.56485474 -0.3787871 0.2869421 -0.04440652 -0.043592002 0.46189415
-0.5791858 -0.26603338 -0.3658185 0.058961444 0.44665495 0.5112259 -0.57339036 0.37737775
0.17281201 -0.24121511 0.7215358 -0.09234051 -0.13017623 0.04330668 0.5196168 0.10437594
00000000: c485 103e 727b 243e b2ae d73c b423 34be
00000010: 4dbd 263e 4c77 d13d 1ef5 b3be ef76 7ebe
00000020: 777b 8e3d d4d2 0bbe 2ef4 263d 25e5 983e
00000030: ba94 c53e 756b 4c3d 8963 e9be d77c adbe
00000040: 496c 0abf defb acbd a6f3 05bf 07c0 79be
00000050: 9dcb aebe e6e3 ddbe 7e3d 503e ddc4 d6bd
00000060: 60ce 173d 1b8e bc3d 3643 32bf 6121 ebbe
00000070: b2e5 afbe de97 8fbe 14f9 15be 90d4 b13e
00000080: 67fd 913e e71c 04bd e86f 283e 0744 1fbe
00000090: 6309 d83d 9e25 933d 1170 47be 6a14 4abe
000000a0: 46a9 7cbd 0d93 3b3e 0e40 7abe 512a 9dbc
000000b0: c56e dfbd 8e14 18be ea42 6ebe bdc6 883d
000000c0: b8c6 0cbf d305 a0bd 29db bb3e ce68 99be
000000d0: 2e0f 1abf ec80 84be af45 bf3e 33ae c53b
000000e0: df5a 973d e39a a23d 74b9 f0be 4b97 003f
000000f0: d966 e93e 9d39 f2be aad2 80be 0db9 6e3e
00000100: dd06 42bf 2be0 f5be a0a1 31bf c50a 20bf
00000110: 8747 36bd 7ad9 a9be f8f3 7abe 6596 753e
00000120: 6f0d 3bbe 6601 a23e 25fe eb3d 6603 03bd
00000130: 6017 95be 0ab7 fa3d 2e82 4bbf 81c2 8abe
00000140: 0fca f73e 6844 493f 94c9 253e e5a4 913e
00000150: 869a 8e3e b33a bdbd 2f01 483e f950 ad3e
00000160: 7718 25bf fe90 8e3e 72de 86bd 9401 2cbf
00000170: 79c0 19bf de80 2d3e 11c0 91bf 43fb 523e
00000180: c4b7 09bf 0dc9 42bf 6f4b b73e 5432 2b3d
00000190: 04d8 02bf 79b0 a43e ae74 853d 5efe 7f3d
000001a0: 8fba 82be 72cc 823d 4590 1e3e d82b d63d
000001b0: 3aed a1bc fc92 033f 309d 9d3e 7f28 e2be
000001c0: e9ea 5c3e 52b0 513e 986e d7be 7d7e 82bf
000001d0: 625d f0be 0513 26bf 278f 08be eaee febe
000001e0: 29af 1ebe 0921 94be 3705 923e 55bf be3e
000001f0: ead2 3c3d 5c4b 873d eddd 063e ffa7 dd3e
00000200: ad79 2a3e cdff 863e 1a9b 4dbe f1f4 363f
00000210: 1022 b83e 7284 b23e 5d80 053c fb24 483b
00000220: c604 dabe a16c 72be fb6b 45bf 3c5b e03e
00000230: af6f ad3e c5df 23bc b83f 2b3f 6cec 7c3e
00000240: 1ed6 ed3e 169a 5a3f 8497 e53e ff75 2a3f
00000250: 38a8 2e3e 40b6 97be a584 e9be dae1 6bbe
00000260: dd91 903d c40e c1bb 4510 733e 30e9 d33e
00000270: ce42 0a3e edf3 e13e b68e ff3e e59a 043d
00000280: f6a0 3dbe 76ca 033e fd48 ddbd f62d f33e
00000290: 74d7 973e 96ca fdbd 97ee 203f a7a3 3f3f
000002a0: f86b 4b3f d608 2e3d 75c4 dcbd 5ac7 3f3e
000002b0: fad8 653e 8afa e73b d354 893f 6325 123e
000002c0: dfab 96be 08ba 193e 1ad8 e73e 22f9 ff3d
000002d0: 3d29 8fbe ed56 7bbd 2393 583e 90d0 da3d
000002e0: 1130 893e d672 c3be 2c38 cbbc fa36 893e
000002f0: 5b06 e53d be20 5d3e d9cd 24bc 24d8 f83c
00000300: 5f78 573d d6e2 183f 7d3d f33d c22d 0b3e
00000310: 0675 773a e718 b6be b5ea fcbe 5e8f 813e
00000320: 28f4 c6be e69f bc3e ee28 df3e e421 64bd
00000330: 60ec 193e 681c 823e a90e a5bc b6af 333e
00000340: 099d 68bf a41c 2e3f ca9c bf3d 983e cc3e
00000350: d121 c53e e24e 1a3f 38b2 1c3f b72b 893e
00000360: e85c 613c b668 883f ce0f 67be c8a3 c9be
00000370: 9faf c1bd ba08 a93d c5cf 4cbe 2afa 5c3f
00000380: 91d5 b53e f574 d9be 4e9d 263e 47e4 613b
00000390: 77c2 a0bd eeda 863f e65f 243f a244 45bf
000003a0: 6e46 0cbe 70f8 07bd 529a 10bf 62f0 c1be
000003b0: 13ea 923e 9ce3 35bd 878d 32bd 647d ec3e
000003c0: 8545 14bf 8735 88be 904c bbbe 8e81 713d
000003d0: f5af e43e b3df 023f b6c9 12bf a837 c13e
000003e0: a2f5 303e 1801 77be 92b6 383f 051d bdbd
000003f0: eb4c 05be 5862 313d 9b05 053f 0ec3 d53d

network_body._body_endoder.seq_layers.0.bias f4 [128]
-0.037140213 -0.04285018 0.0095609315 -0.026824309 -0.02535859 -0.056075316 -0.044493105 0.0006683188
-0.0029553657 -0.047516074 0.042475205 -0.045212984 -0.005089871 0.0057308613 -0.07999109 -0.0111106
-0.07317082 -0.057536606 -0.053664997 -0.012040219 0.011544077 -0.050304983 0.02855595 0.012341087
-0.020352285 -0.003676611 -0.022698225 -0.00848314 -0.003975527 -0.012731721 0.15201163 -0.05099598
0.08240404 0.0031159075 -0.03447958 -0.012582341 0.0027512782 0.0016616886 0.0075837187 0.006233253
-0.0059435125 -0.017354293 0.0062365 0.0035998079 0.027965868 0.03410565 0.0876446 0.011932176
-0.044282123 0.026757458 -0.012035702 0.0015495033 -0.016202623 0.09261412 -0.029984798 0.033861224
-0.010080356 -0.045485843 -0.017506741 -0.01568092 -0.0075801658 0.062055085 -0.0157158 0.05636403
-0.014136315 0.13485424 0.006285264 0.018080814 0.0010474292 -0.027740339 0.023076912 0.0566853
0.19284025 -0.0208668 -0.031644236 0.008181887 -0.025924789 -0.04021082 0.16091697 0.033886105
-0.016776832 0.015320278 0.04432868 -0.06256451 -0.019246018 0.044333357 0.11660951 0.09109104
0.009341664 -0.04416761 0.075243324 -0.006391504 0.054133907 0.056967933 -0.03582338 -0.03715239
-0.065929726 0.03316848 0.021452125 0.004725145 -0.03788304 0.12730405 0.007188947 -0.0022536325
-0.016544858 0.11305644 -0.045422483 -0.029685607 0.1556019 -0.015611711 -0.0015753513 0.002271804
-0.028670851 0.021572614 0.07621559 0.019212322 0.0032280271 -0.027707847 -0.023842119 -0.0043321187
0.110314764 -0.026187716 -0.059333134 -0.03580965 0.026719203 0.00045932396 -0.03076143 -0.020178208
00000000: 5620 18bd ac83 2fbd 74a5 1c3c a7be dbbc
00000010: d1bc cfbc 3baf 65bd 673e 36bd 1e32 2f3a
00000020: cfae 41bb 37a0 42bd 7bfa 2d3d 4031 39bd
00000030: efc8 a6bb f3c9 bb3b 5ed2 a3bd 3c09 36bc
00000040: 95da 95bd 81ab 6bbd d4cf 5bbd 5744 45bc
00000050: 5e23 3d3c 990c 4ebd 2bee e93c 4532 4a3c
00000060: d6b9 a6bc 4cf3 70bb a1f1 b9bc defc 0abc
00000070: 2345 82bb b598 50bc f0a8 1b3e 29e1 50bd
00000080: 73c3 a83d 4134 4c3b 763a 0dbd 2a26 4ebc
00000090: ca4e 343b 04cd d93a d880 f83b 5140 cc3b
000000a0: ccc1 c2bb 972a 8ebc 8e5b cc3b c1ea 6b3b
000000b0: ad18 e53c 5eb2 0b3d 037f b33d 2c7f 433c
000000c0: 2c61 35bd 7532 db3c 6531 45bc b418 cb3a
000000d0: 5dbb 84bc 79ac bd3d aea2 f5bc 11b2 0a3d
000000e0: 1428 25bc 5d4f 3abd 4c6a 8fbc 4675 80bc
000000f0: 0a63 f8bb 792d 7e3d 6cbe 80bc f8dd 663d
00000100: 019c 67bc 3b17 0a3e 9ef4 cd3b 371e 943c
00000110: e449 893a b53f e3bc cb0b bd3c d82e 683d
00000120: ea77 453e daf0 aabc 639d 01bd 520d 063c
00000130: 3960 d4bc 1ab4 24bd 6bc7 243e 28cc 0a3d
00000140: 916f 89bc e701 7b3c fd91 353d d221 80bd
00000150: d3a9 9dbc e596 353d f7d0 ee3d f08d ba3d
00000160: c70d 193c 19e9 34bd 2c19 9a3d d26f d1bb
00000170: 84bb 5d3d 3557 693d 89bb 12bd 1b2d 18bd
00000180: 2a06 87bd acdb 073d 5ebc af3c 64d5 9a3b
00000190: 3f2b 1bbd fe5b 023e 4291 eb3b aeb1 13bb
000001a0: 1589 87bc 238a e73d ed0c 3abd 3b2f f3bc
000001b0: 1b56 1f3e 43c8 7fbc 057c ceba 8ce2 143b
000001c0: 22df eabc 0db9 b03c eb16 9c3d 2963 9d3c
000001d0: 4f8d 533b 91fb e2bc 8c50 c3bc 72f4 8dbb
000001e0: b5ec e13d 9f87 d6bc 4d07 73bd 24ad 12bd
000001f0: 3be2 da3c 6bd1 f039 65ff fbbc c54c a5bc

network_body._body_endoder.seq_layers.2.weight f4 [128, 128]
0.036636796 0.06336224 -0.001888177 -0.024682388 0.12905028 -0.055520236 0.056635477 0.012694257
-0.05746642 0.028087761 -0.035538327 -0.20223738 -0.17741345 -0.09240763 -0.035237625 0.08516194
0.01264429 0.101554126 0.023794279 -0.00799245 -0.09401787 -0.10359439 -0.08448238 -0.030521069
0.033361882 -0.091000676 -0.07138231 -0.16966702 0.030060314 0.022302128 0.13338017 -0.060374297
-0.03369375 -0.13415442 0.10137017 -1.2368657e-05 -0.02950259 -0.031329844 0.017536402 -0.035391945
-0.10295338 0.0788297 0.033160124 -0.058452446 0.09695525 0.113527045 0.06468702 -0.010652677
-0.12724511 -0.08175831 0.08244286 0.084408924 -0.079220735 -0.048374068 0.0069645476 0.04915435
0.09101732 -0.059607346 -0.05988392 0.014595047 -0.07969258 -0.0043272255 -0.05552913 0.1733217
0.0035647962 0.01216334 0.019718735 0.078173496 -0.09031349 -0.00040892168 -0.051380973 0.04365718
0.026734859 0.067751795 -0.1556307 0.0041221 0.028613495 -0.027329864 0.023538629 -0.062169816
-0.12860604 -0.0059505133 0.0009687065 -0.059804462 0.017440138 0.1517789 -0.026952941 -0.00228809
-0.21800204 -0.05682942 -0.09744682 -0.01161246 0.004603066 0.14476062 0.019823004 0.023140589
-0.09829621 -0.01165058 0.08560238 -0.010534054 0.08693509 -0.061183132 0.20709167 -0.09684984
-0.0635958 0.023022352 -0.018454857 0.057561986 -0.11688384 -0.0610231 0.090043984 0.030993946
0.018193098 0.20603919 0.014817969 0.037545294 0.01973641 0.0023629298 0.023775874 -0.09318389
-0.08515132 0.09708961 -0.0621747 -0.07010582 -0.08214156 -0.0072490303 -0.08704183 0.020849518
-0.024154764 -0.2692647 0.16627668 0.010986791 -0.06832302 -0.19190332 -0.009130576 -0.052203998
-0.17267582 0.007348349 -0.1371251 -0.16318406 -0.1137214 -0.03940237 -1.6516396e-05 0.108430214
-0.06552413 -0.013914851 -0.16105077 -0.102587774 -0.08492906 -0.056339636 -0.06731864 -0.0034372811
-0.15993902 -0.18342716 -0.09659403 0.044515193 0.1298311 0.075132094 -0.028593412 0.0013430429
-0.085987374 -0.11721651 -0.13490935 0.051927783 0.02542753 -0.21479109 0.0305814 -0.019568922
-0.021981848 -0.034596317 -0.04890836 0.037593305 -0.018265737 0.12773202 0.13737188 0.04934024
-0.038535412 -0.08828974 0.028438479 -0.0035863058 0.0030930364 -0.1193337 -0.08548022 0.061168913
0.093735024 0.0034369838 -0.052359063 -0.0335306 0.03927634 -0.196845 -0.026610378 -0.10555065
-0.07753475 -0.052073117 0.14081274 0.035286587 -0.0075435564 -0.1910464 -0.13315609 -0.13440347
-0.069241084 0.06110971 0.27480042 0.13424428 0.07790261 -0.014620795 -0.0059462893 0.07702682
0.03763552 0.027682636 0.26490533 -0.075158484 -0.009796812 0.14822456 0.004095365 -0.12888597
0.039679136 -0.10442867 -0.08851655 -0.053275 0.08829902 -0.097706676 0.09576332 0.00868321
-0.04307933 0.027541902 0.1019363 -0.08875999 -0.15543506 -0.09587743 0.042385265 0.03640485
-0.0134589765 -0.10791435 0.07622535 -0.16326903 0.061877742 -0.07005548 -0.031161705 0.0070840265
0.013253643 0.017780347 -0.1505021 -0.10530699 -0.03557797 0.039794408 0.06867396 0.0026585
-0.0040227463 0.02379822 -0.11110816 0.072962664 -0.10530829 -0.06250361 -0.015127873 -0.14660075
00000000: 7710 163d 10c4 813d b57c f7ba b832 cabc
00000010: c225 043e 3069 63bd 9afa 673d 93fb 4f3c
00000020: e961 6bbd 4e18 e63c a390 11bd 5117 4fbe
00000030: dfab 35be 3640 bdbd 5455 10bd 6269 ae3d
00000040: ff29 4f3c 9cfb cf3d 38ec c23c c4f2 02bc
00000050: 718c c0bd 4c29 d4bd 1905 adbd 5207 fabc
00000060: 78a6 083d 905e babd e330 92bd 31bd 2dbe
00000070: 0c41 f63c f4b2 b63c d094 083e 0a4b 77bd
00000080: 7502 0abd c75f 09be 2a9b cf3d fa82 4fb7
00000090: 6aaf f1bc b953 00bd 80a8 8f3c 25f7 10bd
000000a0: 39d9 d2bd 7771 a13d e9d2 073d d56b 6fbd
000000b0: 7990 c63d de80 e83d a17a 843d 9188 2ebc
000000c0: 8b4c 02be e770 a7bd cdd7 a83d 96de ac3d
000000d0: 7b3e a2bd e323 46bd dc36 e43b 1256 493d
000000e0: 4a67 ba3d d526 74bd d748 75bd 1020 6f3c
000000f0: dd35 a3bd 66cb 8dbb 8372 63bd 3e7b 313e
00000100: 5b9f 693b bf48 473c 2f89 a13c 6d19 a03d
00000110: 47f6 b8bd 8a64 d6b9 db74 52bd dfd1 323d
00000120: 1003 db3c 74c1 8a3d a75d 1fbe ae12 873b
00000130: d966 ea3c e1e2 dfbc 15d4 c03c c7a5 7ebd
00000140: 4db1 03be 86fc c2bb cbf0 7d3a 86f5 74bd
00000150: 9fde 8e3c ee6b 1b3e 6acc dcbc c8f3 15bb
00000160: ed3b 5fbe f7c5 68bd 3392 c7bd 3042 3ebc
00000170: 51d5 963b 213c 143e da63 a23c 5591 bd3c
00000180: 864f c9bd 13e2 3ebc 4d50 af3d 0697 2cbc
00000190: 060b b23d 2a9b 7abd d70f 543e 3559 c6bd
000001a0: 843e 82bd 5f99 bc3c a42e 97bc 1ec6 6b3d
000001b0: cb60 efbd 5cf3 79bd fb68 b83d 04e7 fd3c
000001c0: b109 953c f0fb 523e 11c7 723c 18c9 193d
000001d0: 40ae a13c 62db 1a3b 9fc5 c23c 32d7 bebd
000001e0: d163 aebd ebd6 c63d e6aa 7ebd a493 8fbd
000001f0: d639 a8bd 4689 edbb fd42 b2bd 9ccc aa3c
00000200: 36e0 c5bc 10dd 89be 6f44 2a3e f101 343c
00000210: f1ec 8bbd 4e82 44be 6998 15bc dcd3 55bd
00000220: eed1 30be 6bca f03b 866a 0cbe b919 27be
00000230: c4e6 e8bd 6164 21bd b18c 8ab7 a910 de3d
00000240: 8431 86bd 1dfb 63bc 7eea 24be 8a19 d2bd
00000250: 49ef adbd 64c4 66bd 5bde 89bd 0244 61bb
00000260: 0ec7 23be 54d4 3bbe 17d3 c5bd 9055 363d
00000270: 72f2 043e dbde 993d bb3c eabc 0b09 b03a
00000280: 261a b0bd 360f f0bd ad25 0abe 3ab2 543d
00000290: 654d d03c 32f2 5bbe d885 fa3c 014f a0bc
000002a0: 4713 b4bc deb4 0dbd 2254 48bd 70fb 193d
000002b0: 07a2 95bc 2fcc 023e 37ab 0c3e fe18 4a3d
000002c0: 4fd7 1dbd 40d1 b4bd d0f7 e83c 3a08 6bbb
000002d0: 8ab4 4a3b 3a65 f4bd 4110 afbd 418c 7a3d
000002e0: 26f8 bf3d 053f 613b 7576 56bd 6257 09bd
000002f0: 3ae0 203d bc91 49be 02fe d9bc f02a d8bd
00000300: 8aca 9ebd 9f4a 55bd 3731 103e ab88 103d
00000310: f02f f7bb aba1 43be 125a 08be 10a1 09be
00000320: 45ce 8dbd 2d4e 7a3d a4b2 8c3e 5577 093e
00000330: 678b 9f3d 0f8c 6fbc 17d9 c2bb 3dc0 9d3d
00000340: b427 1a3d b2c6 e23c aca1 873e b1ec 99bd
00000350: cf82 20bc 2ec8 173e 6932 863b affa 03be
00000360: 9786 223d b3de d5bd 2a48 b5bd e336 5abd
00000370: 1ed6 b43d 701a c8bd 8f1f c43d 0644 0e3c
00000380: f473 30bd 8e9f e13c fbc3 d03d ccc7 b5bd
00000390: 5e2a 1fbe 635b c4bd 2c9c 2d3d 411d 153d
000003a0: 0a83 5cbc 3302 ddbd 091c 9c3d ff2f 27be
000003b0: 8473 7d3d 3f79 8fbd d546 ffbc 1f21 e83b
000003c0: cf25 593c 17a8 913c 391d 1abe 31ab d7bd
000003d0: 35ba 11bd 76ff 223d efa4 8c3d 3b3a 2e3b
000003e0: 3ed1 83bb 7cf4 c23c ad8c e3bd 736d 953d
000003f0: dfab d7bd e501 80bd e6da 77bc 821e 16be

network_body._body_endoder.seq_layers.2.bias f4 [128]
-0.0002005489 0.014337077 0.027603785 -0.00591766 -0.009680686 -0.0023879006 0.00033453698 0.0036999132
-0.023346744 0.026360434 0.014992704 0.001454422 0.01091878 -0.013766231 -0.013375677 0.0024648183
-0.010100778 0.02668438 -0.011723728 -0.0057140496 -0.006736873 -0.004431178 -0.00042228738 0.019974556
0.009052915 0.01113626 -0.025817387 -0.029413532 -0.0075355335 0.008460809 -0.024665097 -0.016156344
0.0029305043 0.0069958456 -0.01946331 0.02671958 0.0018293414 -0.034838755 0.013713317 0.010842937
0.00014863425 -0.008716778 0.04264619 -0.011907201 -0.028276887 -0.024180863 -0.01151478 0.0045790607
0.022459527 -0.033675004 -0.036763217 -0.020751461 0.02460973 0.01845681 -0.0074490746 -0.00023026048
-0.017601788 -0.009331839 -0.02647612 -0.02814102 0.008972285 0.00831776 0.020298287 0.009485185
-0.019039258 0.014776485 -0.027133776 0.009737767 -0.028117364 -0.007022006 -0.0025592474 -0.036853895
0.0028299964 0.029639326 0.02300359 -0.032206826 -0.019063959 -0.027435176 0.021022819 -0.03558565
0.019110642 0.005591546 0.017870909 -0.015373321 -0.033527873 0.018306334 0.016722994 -0.021591911
0.011605874 -0.039004873 0.025097087 -0.026347768 -0.0024620385 -0.014080801 0.03181147 -0.015543619
-0.030621968 0.016116763 -0.007871773 -0.018255152 -0.004706272 0.012252577 0.0068531693 0.022269472
0.02021448 0.012512404 -0.018337008 0.013102823 -0.016069172 0.004239754 0.027540183 0.014801118
-0.033525698 -0.0075870934 -0.04293385 0.019691514 -0.014159291 -0.025162617 0.0014878927 -0.0055473736
0.007222554 0.03683933 -0.02355157 0.01386463 0.008756466 0.0005533442 0.00838947 0.008680408
00000000: 6f4a 52b9 0fe6 6a3c 5521 e23c eee8 c1bb
00000010: bd9b 1ebc 537e 1cbb cb64 af39 3e7a 723b
00000020: ac41 bfbc d6f1 d73c f5a3 753c 4ea2 be3a
00000030: afe4 323c c28b 61bc a825 5bbc ca88 213b
00000040: bc7d 25bc 3399 da3c e114 40bc ec3c bbbb
00000050: fdc0 dcbb 6a33 91bb 7466 ddb9 aea1 a33c
00000060: ad52 143c dc74 363c fc7e d3bc a6f4 f0bc
00000070: a3ec f6bb 349f 0a3c 750e cabc 4f5a 84bc
00000080: b40d 403b 683d e53b 8571 9fbc 05e3 da3c
00000090: 83c6 ef3a 15b3 0ebd d2ad 603c 93a6 313c
000000a0: b4da 1b39 d1d0 0ebc c5ad 2e3d 6c16 43bc
000000b0: eea4 e7bc f216 c6bc 7da8 3cbc f20b 963b
000000c0: 0bfd b73c cdee 09bd 0795 16bd f8fe a9bc
000000d0: 589a c93c bc32 973c 5e17 f4bb 1472 71b9
000000e0: a031 90bc 92e4 18bc 73e4 d8bc ff87 e6bc
000000f0: 7e00 133c 3747 083c 9848 a63c c067 1b3c
00000100: 38f8 9bbc 1219 723c a747 debc 288b 1f3c
00000110: 6356 e6bc db18 e6bb 0cb9 27bb 1cf4 16bd
00000120: 7677 393b 2cce f23c 0672 bc3c 4eeb 03bd
00000130: 052c 9cbc bcbf e0bc 0c38 ac3c 42c2 11bd
00000140: ec8d 9c3c 4a39 b73b 0366 923c 62e0 7bbc
00000150: 8654 09bd 2af7 953c a9fe 883c 85e1 b0bc
00000160: 9026 3e3c 93c3 1fbd 6898 cd3c 46d7 d7bc
00000170: 275a 21bb 29b3 66bc be4c 023d aaaa 7ebc
00000180: ecda fabc 4d07 843c 9cf8 00bc d48b 95bc
00000190: 1237 9abb 08bf 483c 8d90 e03b 786e b63c
000001a0: d698 a53c d300 4d3c 7e37 96bc 39ad 563c
000001b0: 7fa3 83bc a2ed 8a3b f39b e13c 6380 723c
000001c0: 3e52 09bd 279d f8bb 68db 2fbd 1950 a13c
000001d0: 5ffc 67bc d521 cebc 6505 c33a bec6 b5bb
000001e0: 2dab ec3b d6e4 163d 39ef c0bc 7928 633c
000001f0: 4877 0f3c 4d0e 113a fd73 093c 4538 0e3c

action_model._continuous_distribution.log_sigma f4 [1, 2]
-0.17640252 -0.050447535
00000000: dda2 34be 13a2 4ebd

action_model._continuous_distribution.mu.weight f4 [2, 128]
0.031408556 0.07089676 -0.03039928 0.025497941 0.018908136 0.012647535 0.030195825 0.025813373
0.0045088357 -0.025274312 -0.036563095 0.023466688 0.040292148 0.010141874 -0.005579922 -0.005471406
0.010589749 -0.03332917 -0.036254734 0.020336976 0.04192562 -0.006754183 -0.023109525 -0.03760071
-0.010959969 0.04419489 0.014602929 -0.0015671968 0.0067632673 0.045319855 -0.0077969097 -0.00200891
-0.00635005 0.05406535 0.0073927864 -0.026144102 0.017911285 0.014320686 0.07598981 0.04702683
-0.0045286515 -0.013233124 -0.034318995 0.022917042 -0.004708915 0.0048611085 0.0016242622 0.0200187
-0.032423273 -9.369113e-05 7.4424956e-05 0.021136664 -0.032323595 -0.022559775 0.044115975 -0.00740057
0.017557813 -0.018769028 -0.0050062444 0.009254066 -0.011710392 0.040042993 -0.025971767 0.05019499
-0.026595362 -0.025415195 -0.007312435 0.024522556 0.013479331 -0.009956136 0.05428382 -0.0024677054
-0.017461058 -0.025901882 -0.030015979 0.0069730184 0.014921508 -0.008983837 -0.028355211 0.0010074467
-0.020072866 -0.0008715273 0.06279032 -0.012346539 0.008984632 -0.027008679 -0.024430487 0.0048955046
0.009672294 0.008014539 -0.024010811 0.021928886 0.039475486 0.013477362 -0.036724612 0.01287041
-0.0044298056 -0.019044338 -0.046983935 0.016190369 0.032132376 0.019446915 0.0283148 0.056593206
-0.027234389 0.034826085 0.006978792 0.035582166 0.016178576 0.046873234 0.058541153 -0.02355702
0.0018581568 0.010218045 0.008530112 0.036028817 0.013171375 -0.00069568935 0.03836981 -0.01656827
0.05574792 -0.049552314 0.0073855906 -0.0060400334 0.054355916 0.04056047 0.039911766 0.049628623
-0.0122002 -0.0374855 0.029481474 -0.03006057 -0.046768747 0.05443541 -0.04964764 -0.0278066
-0.008230103 0.025087098 0.012332371 -0.038748246 -0.04379196 -0.022818575 -0.032430645 0.042065974
-0.015464265 0.032810874 -0.046607193 -0.029945266 -0.017557446 0.009677575 0.0063098185 0.019922594
0.0085759135 -0.030420117 -0.006777104 -0.0035854673 -0.026440067 -0.009868851 -0.0010969522 -0.023220113
0.011206928 -0.018542053 -0.006691037 0.04569448 -0.014000342 0.0005288356 -0.018294614 0.0115895895
-0.048182126 0.015248756 -0.05089381 -0.013494467 0.0042589 -0.018847553 -0.028184408 0.02600559
0.022083053 -0.011822446 0.002179369 -0.0022517736 0.030604556 0.02804108 -0.014853639 0.021983704
-0.003152478 -0.026123516 0.0063562356 -0.0038466973 0.010572401 -0.047014967 0.018812757 -0.015524261
-0.046833158 0.031916816 -0.016538441 0.04358337 0.00021998645 -0.02911487 -0.005452482 0.0042838715
0.004726872 0.034810334 0.031618834 -0.0076297675 -0.0012500812 -0.015597096 0.030638672 -0.0006587709
0.018266104 -0.00988847 -0.040388644 -0.025957435 0.0104915295 0.025089687 0.025557432 -0.022522306
0.016785728 0.00086364575 0.03694257 0.010399059 -0.043621436 -0.022646356 0.037191436 -0.033124078
-0.030840876 0.025492696 -0.037046213 -0.005949938 0.016057743 -0.052909132 0.01885977 -0.023636274
0.01783756 -0.0054490673 0.025364429 0.0016858791 -0.013577658 -0.019276885 -0.024274532 0.02203821
0.012368297 0.0046849926 0.0051098736 -0.04066228 -0.010932164 0.0065250797 -0.020266905 -0.005805411
-0.01922233 0.039852157 -0.0064025456 0.04990827 0.0007823484 -0.03680273 -0.005340899 -0.0023644725
00000000: 42a6 003d 5232 913d e907 f9bc 0fe1 d03c
00000010: 3ce5 9a3c 9b37 4f3c 3c5d f73c 9176 d33c
00000020: dbbe 933b 130c cfbc 2fc3 15bd 363d c03c
00000030: 6109 253d 1a2a 263c c7d7 b6bb 7b49 b3bb
00000040: a080 2d3c 2b84 08bd d87f 14bd bb99 a63c
00000050: 33ba 2b3d 3252 ddbb 3050 bdbc 3403 1abd
00000060: 7191 33bc b305 353d 2041 6f3c 666a cdba
00000070: 669e dd3b 50a1 393d 387d ffbb eba7 03bb
00000080: 1514 d0bb a173 5d3d 303f f23b 282c d6bc
00000090: b0ba 923c 50a1 6a3c 8ca0 9b3d 359f 403d
000000a0: 1565 94bb bfcf 58bc 1392 0cbd 85bc bb3c
000000b0: 3e4d 9abb ef49 9f3b 32e5 d43a 42fe a33c
000000c0: 44ce 04bd 0b7c c4b8 9814 9c38 cc26 ad3c
000000d0: bf65 04bd 47cf b8bc f4b2 343d 7b80 f2bb
000000e0: 67d5 8f3c 81c1 99bc 6c0b a4bb 5e9e 173c
000000f0: f2dc 3fbc 1f04 243d bec2 d4bc 4399 4d3d
00000100: 84de d9bc 8733 d0bc 279d efbb 87e3 c83c
00000110: 69d8 5c3c 101f 23bc b658 5e3d 3ab9 21bb
00000120: 7e0a 8fbc 2f30 d4bc 12e4 f5bc eb7d e43b
00000130: 5779 743c f230 13bc 3049 e8bc 4d0c 843a
00000140: da6f a4bc 3577 64ba 3698 803d 2349 4abc
00000150: 4734 133c 4e41 ddbc 7222 c8bc 786a a03b
00000160: 8b78 1e3c 6a4f 033c 52b2 c4bc 35a4 b33c
00000170: 0cb1 213d 27d0 5c3c 8c6c 16bd 6ade 523c
00000180: e727 91bb df02 9cbc 3a72 40bd aaa1 843c
00000190: 3d9d 033d 234f 9f3c 70f4 e73c 47ce 673d
000001a0: a71a dfbc cca5 0e3d 5aae e43b 9bbe 113d
000001b0: ef88 843c 26fe 3f3d d9c8 6f3d a7fa c0bc
000001c0: 658d f33a 9669 273c e2c1 0b3c f492 133d
000001d0: c0cc 573c ec5e 36ba a929 1d3d 2eba 87bc
000001e0: ee57 643d 5ef7 4abd d302 f23b 79eb c5bb
000001f0: 4fa4 5e3d bc22 263d 857a 233d 6247 4b3d
00000200: 59e3 47bc 658a 19bd 2283 f13c 9641 f6bc
00000210: 9690 3fbd aaf7 5e3d 535b 4bbd abca e3bc
00000220: 8ed7 06bc 7583 cd3c b70d 4a3c 7bb6 1ebd
00000230: 335f 33bd 05ee babc ffd5 04bd 5f4d 2c3d
00000240: d45d 7dbc b264 063d 2fe7 3ebd c64f f5bc
00000250: a2d4 8fbc b18e 1e3c 98c2 ce3b b534 a33c
00000260: fd81 0c3c 9c33 f9bc 7812 debb 29fa 6abb
00000270: d798 d8bc f6b0 21bc 9cc7 8fba 1b38 bebc
00000280: 439d 373c 81e5 97bc 7d40 dbbb 232a 3b3d
00000290: b161 65bc 8ea1 0a3a 96de 95bc 43e2 3d3c
000002a0: 9f5a 45bd ebd5 793c 0776 50bd e617 5dbc
000002b0: 3e8e 8b3b 2f66 9abc fde2 e6bc ad09 d53c
000002c0: 85e7 b43c efb2 41bc bfd3 0e3b 7e92 13bb
000002d0: 68b6 fa3c 68b6 e53c ad5c 73bc 2b17 b43c
000002e0: ce99 4ebb fc00 d6bc f847 d03b df18 7cbb
000002f0: dd37 2d3c c492 40bd 361d 9a3c 7859 7ebc
00000300: 20d4 3fbd 35bb 023d a07b 87bc 7a84 323d
00000310: 2aac 6639 4f82 eebc bcaa b2bb b85f 8c3b
00000320: e0e3 9a3b 4895 0e3d c082 013d 2103 fabb
00000330: c4d9 a3ba f68a 7fbc f4fd fa3c 5eb1 2cba
00000340: cca2 953c 4003 22bc 906e 25bd b0a4 d4bc
00000350: aae4 2b3c e388 cd3c d25d d13c b380 b8bc
00000360: 3982 893c 4966 623a 1851 173d d160 2a3c
00000370: 64ac 32bd da84 b9bc 0c56 183d 1dad 07bd
00000380: 01a6 fcbc 0fd6 d03c c5bd 17bd b3f7 c2bb
00000390: 878b 833c 3fb7 58bd ce7f 9a3c dca0 c1bc
000003a0: 1320 923c 178e b2bb 10c9 cf3c b7f8 dc3a
000003b0: d374 5ebc 8fea 9dbc 62db c6bc 7a89 b43c
000003c0: 66a4 4a3c 9184 993b ba70 a73b 7e8d 26bd
000003d0: d21c 33bc 56d0 d53b c806 a6bc 513b bebb
000003e0: 2678 9dbc 043c 233d 72cc d1bb 9d6c 4c3d
000003f0: 8316 4d3a 76be 16bd b502 afbb 44f5 1abb

action_model._continuous_distribution.mu.bias f4 [2]
-0.035277624 0.037033726
00000000: 457f 10bd adb0 173d
