MLAgentDevProject/Assets/MoveToGoal.onnx (onnx, 75061 bytes, 7 tensors)

network_body._body_endoder.seq_layers.0.weight f4 [128, 6]
000000 cf 5e 99 bd ce 3b 37 be a1 33 3d 3f d0 96 d8 be
       -0.074887864 -0.17893907 0.73906904 -0.4230256
000010 6a c3 d1 3e 7c 18 f2 bd ef aa fa be e4 c2 b6 be
       0.40969402 -0.11821076 -0.48958537 -0.35695565
000020 1e 98 22 bf 3c 9b 27 bd 98 f3 9f bd 37 95 0c 3e
       -0.6351336 -0.040919527 -0.07810134 0.13728796
000030 d8 1b d8 3e a3 1c d5 be e6 03 7e bd 0a e1 32 3e
       0.42208743 -0.4162341 -0.062015437 0.17468658
000040 8e 3a 0c bf 5b 80 38 3d 13 0a 04 3f 1e bb 62 be
       -0.5477685 0.045044284 0.5157787 -0.22141692
000050 07 65 b9 be e8 d0 88 be 03 29 36 be 11 70 1b 3f
       -0.3620989 -0.26721883 -0.17789082 0.60717875
000060 0d b2 1d bf d0 9d 38 3e 99 c8 d1 3e ae d6 e2 bc
       -0.6159981 0.1802895 0.40973356 -0.027690258
000070 f7 c9 88 3e a2 12 88 3e 9c 89 d7 3e aa 0e 82 be
       0.26716587 0.26576716 0.42097175 -0.25401813
000080 46 9d d1 3e 44 58 fa 3e df 5a a9 be c4 25 12 bf
       0.40940303 0.48895466 -0.33077142 -0.57088876
000090 47 97 9d bd 55 b0 d9 3e e0 6d 4c be 56 e1 17 3c
       -0.076948695 0.42517343 -0.19963789 0.009270033
0000a0 3f 83 64 3e a4 b6 14 be 6e 9a 8d 3d 00 12 0a 3e
       0.22315691 -0.14522797 0.06914221 0.13483429
0000b0 2e ce 5d be 80 76 63 bc 43 01 65 be 57 a1 b4 3e
       -0.21660683 -0.013883233 -0.22363763 0.35279343
0000c0 cb 7e 12 3f 38 89 1d bf 2a 4c 30 bf 97 9a d6 bd
       0.5722472 -0.61537504 -0.6886622 -0.104787044
0000d0 45 a7 29 bd 2a 84 6b 3e d8 54 e0 3e 78 45 c2 3e
       -0.041419286 0.22999635 0.4381473 0.37943625
0000e0 dd 23 26 3f 9a 45 49 3f 59 29 29 be db 10 a8 be
       0.64898473 0.7862183 -0.16519679 -0.3282536
0000f0 0c cb 13 3e 8f a1 41 3e 12 5d 5e 3e d0 25 45 3e
       0.14432925 0.18909286 0.21715191 0.19252706
000100 41 91 8f 3d 09 67 9c bd ac 08 70 be 9c fa 14 bf
       0.07010127 -0.0763684 -0.23440808 -0.581949
000110 0d 63 02 bf de 8e 83 3f c4 e9 cc 3e 06 66 19 3e
       -0.5093239 1.0277975 0.400221 0.14980325
000120 76 6a bf 3e 16 9e 59 bf 07 f4 95 be 86 53 d0 3d
       0.3738591 -0.85006845 -0.2928774 0.10172181
000130 e7 04 f3 bc 1f a4 87 3e f3 c9 19 3e 06 19 1c 3f
       -0.029665424 0.26492402 0.15018444 0.6097568
000140 98 2f 95 3e 62 6c 01 3f 76 18 31 be 40 1e c4 be
       0.29137874 0.50556004 -0.17294487 -0.3830433
000150 af 21 8d be fc b5 02 bf 1a a0 11 3e 24 cc 85 3e
       -0.2756476 -0.51058936 0.1422123 0.2613231
000160 e1 eb 24 3f 71 05 65 be 3d 5e 91 bf 79 a2 55 bf
       0.6442242 -0.22365357 -1.1356884 -0.8345104
000170 b2 33 b5 be 0f f0 24 bf f1 d8 45 be 65 8f 5e 3c
       -0.35391003 -0.644288 -0.19321038 0.013583993
000180 fb 5f cd 3d d5 91 bc 3e c2 e4 a3 be 9a c5 01 bf
       0.100280724 0.3683001 -0.32010466 -0.5069214
000190 85 d2 94 bd 48 d4 0d be 9e f9 a7 be 4c e6 0e 3f
       -0.07266716 -0.1385051 -0.3280763 0.55820155
0001a0 b0 fc 86 bd e4 6c 7b 3e 13 47 00 3f 45 88 c9 be
       -0.06591165 0.24553257 0.5010845 -0.39361778
0001b0 af 9c a2 3b 6d 8c d6 3e 58 a7 53 3e 6e d5 03 3f
       0.004962526 0.4190401 0.20669305 0.5149754
0001c0 b8 45 99 be 6a 06 03 ba 8b 73 56 be 10 5d 44 3e
       -0.29936004 -0.0004998209 -0.20942514 0.19176126
0001d0 4f ee af bd 2e 1a 1e 3e 88 82 ce 3a e0 55 09 bf
       -0.08590376 0.15439674 0.0015755454 -0.5364666
0001e0 3f bb ed 3e d4 3f 11 3f 76 42 2a 3f b7 36 49 be
       0.4643192 0.5673802 0.6650766 -0.19649778
0001f0 8d c1 40 3e bb 10 7e be a5 85 38 3d ea 85 a6 3f
       0.18823834 -0.2481107 0.04504933 1.3009617
000200 e5 8a ce 3e 87 6b 4f be 56 be bf 3e e3 28 78 be
       0.40340343 -0.20255862 0.37449902 -0.24234347
000210 bc d5 1a 3f af af 87 be 35 30 0b 3e 32 0d 33 bf
       0.6048238 -0.26501223 0.13592608 -0.6994201
000220 6e b5 7f 3e f3 6e 00 3f ae 65 40 3d e5 be 37 bf
       0.24971554 0.50169295 0.04697197 -0.71775657
000230 db e9 64 bd 45 f0 01 bf d1 0a 00 bd 30 af 23 bf
       -0.055887084 -0.5075725 -0.031260315 -0.6393919
000240 d1 b8 9e be 4e 72 1e 3e 49 cc 96 3e 0e ce b9 be
       -0.3100038 0.15473291 0.29452732 -0.3629002
000250 56 02 27 3e f8 d1 b8 3e a2 d8 4b 3e 4e f0 3d be
       0.16309485 0.36097693 0.19906858 -0.185487
000260 ea 94 f3 bd e3 fe 50 bd d6 b9 9b 3e 05 fc 9b be
       -0.118936375 -0.05102433 0.3041522 -0.30465713
000270 ae 6e 5e be 5d 53 7e 3e 6a 66 1f 3f c1 ba a2 be
       -0.21721908 0.24836488 0.62265646 -0.31783107
000280 8b 9e 34 bd 4c a4 39 3f c1 72 bc 3d 02 f2 d2 be
       -0.04409651 0.7251632 0.09201575 -0.41200262
000290 4a e0 b7 be e4 8a ad be 0a 96 00 bd 45 71 a3 3e
       -0.35913306 -0.33895028 -0.03139309 0.31922355
0002a0 e9 2f 26 be 74 76 06 3f d5 54 d0 bb 58 e5 ca be
       -0.16229214 0.52524495 -0.006357769 -0.396281
0002b0 e9 05 9e be 07 62 57 be 5b 89 af bd a4 93 27 be
       -0.30863884 -0.21033488 -0.0857112 -0.16364914
0002c0 02 2d 48 be 30 ad 21 be 9c ed 4c bf d4 3d 9a 3e
       -0.19548419 -0.15788722 -0.80050063 0.30125296
0002d0 54 e0 04 bf 3a ba cb 3d ae 4f 1f 3e a2 07 8f be
       -0.519048 0.09947629 0.15557739 -0.2793551
0002e0 81 ce 74 be b3 ec f2 3e e0 d1 69 bf 0e 47 14 3f
       -0.239069 0.47446212 -0.9133587 0.5792092
0002f0 2c 35 a6 3e 14 dc 68 be da b5 9e bd 14 b8 be 3e
       0.32462442 -0.22740203 -0.07749529 0.37249815
000300 7f 99 08 3e 3a 6a a6 3e 85 37 dc 3e 0c ae 3b 3d
       0.13339804 0.3250292 0.43011108 0.04582028
000310 36 d9 38 3c 02 84 92 bd 0d 0d 43 be 0f f2 20 3f
       0.011282256 -0.07154085 -0.19047947 0.6286935
000320 fd 6b 19 3f 8a 3b e5 3e d7 d4 9c 3e 8b e9 4c 3d
       0.599304 0.44771987 0.30631134 0.05002741
000330 52 57 9d be 08 44 08 bf 14 ed f8 bd 75 d2 40 3e
       -0.30730683 -0.5322881 -0.12154594 0.18830283
000340 c7 9f ca 3e 7b 05 eb bc 58 db 04 bf 3a 5c 05 3d
       0.39575025 -0.028689137 -0.5189719 0.032558657
000350 95 08 f6 3e 2d e5 ac 39 fd 6d 79 3e bc d0 ab be
       0.48053423 0.00032977146 0.24358363 -0.3355769
000360 53 e3 2b bf 5a 59 99 3d 04 60 c8 be 91 fe 67 3f
       -0.67143744 0.074877456 -0.39135754 0.9062281
000370 c0 e9 7a be 7e 2b ba 3e c0 5a bd 3d 38 63 2a be
       -0.24503231 0.36361307 0.09245825 -0.16639411
000380 af b2 06 3e e1 96 07 3d c9 da e6 be 9e 32 38 3e
       0.131541 0.033102874 -0.45088795 0.17988059
000390 5f 5a 1c be 4f 30 68 bd b5 5b a0 3e 9f 01 5a bf
       -0.15268849 -0.056686696 0.31319967 -0.85158724
0003a0 84 f0 37 3e 57 bd 70 bf f0 1f 19 3f 88 8c 70 3e
       0.17962843 -0.9403891 0.5981436 0.23491108
0003b0 9b 98 a5 3e 7d 61 a7 3d 51 52 40 bd ab 12 8c bd
       0.3234299 0.08172891 -0.046953503 -0.06839498
0003c0 6f ed be 3e 93 e0 ca 3e c0 da e0 3e 69 55 06 3f
       0.37290522 0.39624462 0.43916893 0.52474076
0003d0 4a f2 43 3e ea 1b 45 bd a5 03 eb bc cf 58 73 3e
       0.19135395 -0.048122324 -0.028688261 0.23764347
0003e0 00 28 4c bf 71 87 c1 be 9c e5 74 3e 8f b1 ab bd
       -0.79748535 -0.37798646 0.23915714 -0.08383476
0003f0 90 41 88 3f 98 3b 14 3f 46 22 05 3f d6 a1 1c 3e
       1.0645008 0.5790343 0.5200542 0.1529611

network_body._body_endoder.seq_layers.0.bias f4 [128]
000000 02 c0 be bc ea a6 ed bc 1a 8b 11 3d d7 e6 de 3d
       -0.023284916 -0.029010255 0.03553305 0.10883873
000010 9f 21 a0 3c 2c 81 5d bd 23 39 2e bd 3e 03 db 3d
       0.019547282 -0.054078266 -0.04253496 0.10693978
000020 3f 8f 12 3d 0b 8c a0 3d dd 82 b0 bd fe 92 05 bc
       0.03578114 0.07839211 -0.0861871 -0.008152721
000030 27 42 1c 3d 4b a8 13 bd 72 c0 55 bd 5d ce a4 3d
       0.038149025 -0.03604917 -0.052185483 0.08047173
000040 ad 19 6d 3c c6 ef 10 bd f4 9e e0 bc 5f 0f 96 bd
       0.014471454 -0.035384916 -0.027419545 -0.073271506
000050 65 04 7f 3d 3f 0d 52 bc db 63 81 3d a9 87 af bd
       0.06226005 -0.012820541 0.06317874 -0.08570797
000060 53 d9 31 bd 41 43 bb bd 20 7c 8c bd 35 3a 0d 3e
       -0.043420147 -0.09143687 -0.068596125 0.13791735
000070 b2 ad 8e bd 43 a0 f7 3c 76 6b 5f 3d 3d 04 23 bb
       -0.069667235 0.030227786 0.054545842 -0.0024874352
000080 5f 59 70 ba 38 6f 67 3d 6d 01 59 bd 54 f1 09 bd
       -0.0009168591 0.05650255 -0.052979875 -0.033677414
000090 99 b1 ba 3d 1a 24 37 3c 34 6c 63 bd 41 18 4c 3c
       0.09115905 0.011178041 -0.055523112 0.012456954
0000a0 e0 8f 88 bd a5 ee 39 bc 02 8a c8 3d 4b e4 9e bd
       -0.06668067 -0.011348401 0.09791948 -0.07758387
0000b0 3c bc eb bc 6f bf ec 3c 5b 83 0a 3e 96 1a 58 3a
       -0.02877628 0.028899876 0.1352667 0.00082437077
0000c0 c6 1b 08 3d f2 07 15 3d f6 62 2e be 89 3a 52 3d
       0.03322961 0.03638453 -0.17029938 0.051325355
0000d0 f2 72 48 bd ba b9 1f bd a3 34 a3 bd 03 0a 9c bc
       -0.048937745 -0.038995482 -0.07969024 -0.019047743
0000e0 86 4b 8b bd 23 ce ee bd 17 5a e0 bb 2e 34 6c bd
       -0.06801514 -0.11660411 -0.006846677 -0.05766695
0000f0 ca 17 24 3c cb 87 b9 bd 74 08 d4 bc 8b b7 0e 3e
       0.010015437 -0.090591036 -0.025882937 0.13937204
000100 9b e0 fd bc e4 9f b2 3c aa 23 dd 3d 8e b8 c8 bc
       -0.03099089 0.021804757 0.10797818 -0.024502065
000110 b3 47 a1 bc cc aa b1 3d 71 74 d0 bc b0 1f b7 3d
       -0.01968751 0.08675155 -0.025446149 0.08941591
000120 7a 8b f1 3c f0 d0 a1 bd b2 8b ce bd 6d 25 b3 bd
       0.029485453 -0.0790118 -0.100852385 -0.08747373
000130 47 9f d6 3d 1a 8f 79 bd 55 f2 f6 3c bf b4 ef bc
       0.104795985 -0.060927488 0.03014485 -0.029260991
000140 c2 f9 8e 3d ac 9d 8f 3d 58 51 51 3d 0b a7 81 bd
       0.06981231 0.070124954 0.051102966 -0.06330689
000150 c7 59 0b bd dd 45 88 3c ff 03 3b bd ac 72 61 bc
       -0.034021165 0.016634876 -0.045658108 -0.01376025
000160 47 7e d2 3c a6 e6 16 be 8f c2 c3 bd 70 80 61 bd
       0.02569498 -0.14736423 -0.095585935 -0.05505413
000170 2e d3 99 bb fe 2f 30 3c 58 4c 2a bd 52 a9 bc bd
       -0.004694364 0.01075363 -0.041576713 -0.09211983
000180 50 14 c5 bd c1 60 fa 3c f3 fd 06 3d 8a fe 69 bd
       -0.09623015 0.030563714 0.03295703 -0.057127513
000190 f5 54 df bd 74 57 5b 3d 81 db 97 3c 44 17 ae 3b
       -0.10904876 0.0535502 0.018537285 0.005312832
0001a0 2b 19 49 3c c4 80 92 bd f8 28 29 3d 1c 52 5e 3d
       0.012274067 -0.07153466 0.041298836 0.054277524
0001b0 06 0b 0b bd 01 25 ac 3d 0c 78 0f bc 50 06 1e bd
       -0.03394606 0.084054954 -0.008756649 -0.03858024
0001c0 43 d3 27 3d 4e 43 a0 bc 5a c5 71 3d ed df 35 bb
       0.04097296 -0.019563343 0.0590261 -0.0027751878
0001d0 7c 60 50 bc 00 25 2d 3d a5 26 6c 3d d7 2d 16 bd
       -0.012718316 0.042271614 0.05765404 -0.03666481
0001e0 d4 a4 5b bd 2a 8a bd 3b f5 f8 48 bd a8 8b 8f bd
       -0.05362399 0.0057842927 -0.04906555 -0.07009059
0001f0 87 47 8d bc 1e 75 5e bd 40 07 26 bd 38 64 ad 3d
       -0.017246021 -0.05431091 -0.040534258 0.08466381

network_body._body_endoder.seq_layers.2.weight f4 [128, 128]
000000 d5 f1 e5 3d 4f 2d 13 be 49 7b a2 bc 97 5b 86 bb
       0.112277664 -0.14372753 -0.019834178 -0.004100274
000010 27 97 a6 3d 75 96 60 bd ce 81 1e 3d 24 cc 8b bd
       0.08134299 -0.054830987 0.03869801 -0.06826046
000020 07 ac ac 3c 7e 83 42 bd 23 a1 82 3d 9d 77 cb bd
       0.021078123 -0.047488682 0.06378391 -0.09934924
000030 9b 73 ea bd c2 c4 ee bc 1b b2 20 3e a2 c0 ab be
       -0.11447831 -0.029146556 0.15692942 -0.33545405
000040 da 3a b3 bd 2d b6 39 bd 0b 6d 77 bd 5c 5e 7f 3c
       -0.087514594 -0.045339752 -0.060406726 0.015586462
000050 51 52 ab bd 45 42 b9 bd 43 ae 8b 3d 25 8c 49 3e
       -0.0836531 -0.09045843 0.06820347 0.19682367
000060 0b 3c 23 be 21 ca 44 3a c0 2f 23 bd d7 ff d0 bc
       -0.15940873 0.0007506926 -0.03984046 -0.025512619
000070 8c 0e 91 bb 9c 86 22 be da 7e 01 bc 15 ad 0d bc
       -0.004426783 -0.15871662 -0.007903779 -0.008647223
000080 e0 0c b9 bd e1 c7 70 bd 46 d7 0e 3d 14 65 8e 3c
       -0.09035659 -0.05878437 0.03487327 0.017382182
000090 a8 cc 31 bd c2 0b e1 3c 93 47 90 3d c7 2f 3d be
       -0.043408066 0.027471427 0.07044902 -0.18475257
0000a0 c6 da fd bd 6c 4f 04 be 1a fd 4d be 7c 63 0c bc
       -0.12395243 -0.12920922 -0.20116082 -0.008568641
0000b0 b4 ff b2 bd 48 86 35 3d 92 da c8 bd 54 22 91 bb
       -0.08740178 0.044317514 -0.09807314 -0.004429141
0000c0 a2 a7 b9 bc f1 1b 91 3e bf 3e 5b 3c e8 c6 36 bd
       -0.022662941 0.2834163 0.013381659 -0.044623286
0000d0 65 40 93 3d fb 3d 20 be 96 7f f8 bd 6c c3 89 3d
       0.07190017 -0.15648644 -0.1213371 0.06726727
0000e0 2c 93 9a 3c 8a c0 bb bd 39 0c 53 3c d6 2c 11 be
       0.018869005 -0.09167583 0.012881332 -0.1417726
0000f0 09 37 8c 3d 04 80 63 3d b1 fd 45 bd 96 1d be bd
       0.068464346 0.055542007 -0.048337642 -0.09282987
000100 01 64 23 3d 73 08 1c bd 6c 68 e7 bd 80 02 f0 3d
       0.039890293 -0.038093995 -0.11299214 0.11719227
000110 a9 2b 71 bc e3 f6 03 bd 7f 83 b3 3b 2e 68 fa 3b
       -0.014719882 -0.03221787 0.005478322 0.0076418137
000120 c8 a8 9f bd 4b f9 dd 3d e6 8b 4a 3d 5a a6 0c 3e
       -0.07795864 0.108385645 0.049449824 0.13735333
000130 e0 81 01 3e a2 5b 08 be 4b 8f 42 bd a1 0a 50 3e
       0.126472 -0.13316205 -0.047499936 0.20316555
000140 ae 16 89 bd 43 87 7b bd 4a 0f 7d be b0 00 dd b8
       -0.06693779 -0.061408293 -0.24712864 -0.00010538229
000150 34 5c 0c bd d7 a6 0a be 13 dc be 3c 47 7c 68 3c
       -0.03426762 -0.13540207 0.023298299 0.014189786
000160 72 8a 87 bd 6a c2 19 be af 51 0d 3d 56 1a 42 3e
       -0.06618203 -0.1501557 0.034501728 0.18955359
000170 1d 66 5d be e4 d5 04 be b7 1d 94 3b ab ab 35 be
       -0.21620984 -0.12972218 0.004520144 -0.17741267
000180 48 9d 50 3c 63 e6 29 3d 21 fc 68 3e 03 2b 9a 3c
       0.012732811 0.04147948 0.2275243 0.018819338
000190 68 9a ab 3d c2 85 57 3d ff 5e 0d be b6 d2 4b bd
       0.0837906 0.052617796 -0.1380577 -0.049761496
0001a0 d8 69 b5 3d a5 95 1f be 90 b7 bf bd e6 6d 89 bc
       0.08858079 -0.15584429 -0.09361184 -0.016776036
0001b0 0a 7d 1d 3e 2b 3a 1c be b3 3f df bd fb eb 90 be
       0.1537973 -0.15256564 -0.109008215 -0.2830504
0001c0 93 82 ba bd dc a4 57 3d 19 bb 31 be c1 6c bb bc
       -0.09106936 0.052647457 -0.17356528 -0.022879006
0001d0 b5 42 2f bc 39 1b be 3d f8 31 8f bd c5 1e 89 bd
       -0.010697057 0.09282536 -0.06991953 -0.06695322
0001e0 75 10 e1 bc c1 64 92 bd dd bc b9 3d c1 d3 f1 3d
       -0.027473668 -0.071481235 0.09069226 0.11807967
0001f0 dd 75 58 bc 96 51 9b 3c c4 6d a6 3d 6d 97 19 3d
       -0.013211695 0.018959802 0.08126405 0.037497927
000200 13 df 77 3b 24 6b 3e 3d 3d 34 3e 3e 99 26 70 bd
       0.0037822172 0.046488896 0.18574615 -0.05863056
000210 11 fb 45 3e 81 9a d8 bd 06 1b a5 3c fa c7 b7 3b
       0.19334055 -0.10576344 0.020154487 0.005608556
000220 ff 61 17 be 9f 20 b3 3c 3d a5 0f bc 0c 81 75 3c
       -0.14783476 0.02186614 -0.008767423 0.01498438
000230 7f b9 e2 3d 80 57 fd 3d 29 a7 67 3e 7a 86 1c be
       0.11070537 0.12370205 0.2262236 -0.15285674
000240 97 61 53 be 9a 7b 78 3d 08 54 55 3d 07 90 15 3e
       -0.20642696 0.06066475 0.05208209 0.14605723
000250 b7 3f 3e be fc 3b 08 be 65 b3 c1 bd b1 80 6c be
       -0.18578993 -0.13304132 -0.09458045 -0.23095967
000260 9a ab 91 bd b3 77 98 bd d0 ff 84 3d 5c 99 19 be
       -0.071128085 -0.07444706 0.06494105 -0.14999908
000270 75 76 27 be 70 33 11 be a7 23 85 bd a9 4a e1 3d
       -0.16353782 -0.14179778 -0.06500941 0.110005684
000280 41 62 af 3d e3 65 00 3e bf 0d 87 3d b0 e1 98 3d
       0.08563662 0.12538867 0.06594419 0.074649215
000290 4e 2e 0b 3e 11 72 78 3d 50 72 88 be 06 3c 11 3e
       0.13591883 0.060655657 -0.26649714 0.14183053
0002a0 55 b1 88 3e a5 77 c9 3d 14 61 5d 3e 26 d2 44 3d
       0.26697794 0.098372735 0.21619064 0.048051976
0002b0 ed 53 09 3e cc 1b 03 3d ef 01 21 bd d5 1e d8 3d
       0.13410921 0.03200893 -0.039308485 0.10552756
0002c0 4d ab 4e 3d 86 6d 39 3d 2f c6 88 bd 15 15 bb bd
       0.050456334 0.045270465 -0.066784255 -0.091348805
0002d0 38 55 a9 3d 28 1b 82 3b 0d 99 48 3d 35 08 d0 3d
       0.08268207 0.0039705224 0.048974086 0.10157815
0002e0 d0 4d 02 bd 36 32 e5 3d 80 f4 60 3d fc 2c 3c bc
       -0.03181249 0.111912176 0.054920673 -0.0114853345
0002f0 20 25 cb bc 8a 1b a7 bd 09 bc 28 3e f7 4c 5d 3d
       -0.024797976 -0.081595495 0.1647798 0.054028478
000300 c5 84 16 be 45 ea 40 be 02 78 fd 3d 80 5b 49 be
       -0.14699085 -0.18839367 0.12376405 -0.1966381
000310 b7 01 3f be ed 45 a7 bd b6 bd 0f bd 21 2c 17 3e
       -0.18652998 -0.08167634 -0.03509303 0.14762928
000320 c1 03 09 be 2f 48 a9 bd 5f ee e5 bd 24 91 64 be
       -0.13380338 -0.08265721 -0.11227106 -0.22320992
000330 be 20 79 3d 69 02 19 bd 2f 59 a0 3c 6c b7 1a bd
       0.06082224 -0.037355814 0.019573776 -0.03777258
000340 7c 3f 02 3e f9 34 76 bd 51 c8 25 3e 1b 53 2f be
       0.1271953 -0.060109112 0.16189696 -0.17121546
000350 86 a6 b5 3d e6 6a f1 3c 19 b4 9e bd d6 15 a9 3d
       0.088696525 0.029469918 -0.07749195 0.08256118
000360 22 27 92 bc a3 9b 8b 3d b1 25 42 be ee 34 92 3c
       -0.017840926 0.06816795 -0.1895969 0.017847504
000370 19 ce 79 be e6 5d fd ba 46 13 a2 3b 3e 54 19 be
       -0.24395026 -0.0019330352 0.004946145 -0.14973542
000380 85 4f 39 bd 91 ba 5e 3d e4 58 ff 3c 6f f9 fb 3d
       -0.04524185 0.054377142 0.031170316 0.12303435
000390 fd 28 72 bc 16 0e 79 3a d0 33 30 bd 30 44 0b bc
       -0.01478028 0.0009500695 -0.043018162 -0.008500144
0003a0 04 36 9e 3d 4e cc a0 be 96 6f 15 3e f7 03 d1 bd
       0.077251464 -0.31405872 0.14593348 -0.10205834
0003b0 de 1d 24 be ec 49 20 3e 46 f4 7f bd ba 32 c8 bd
       -0.16027018 0.15653199 -0.062488817 -0.097753
0003c0 6e bb 46 3e 2f 71 4a bc 41 7a 05 3c f0 77 10 be
       0.19407436 -0.012356087 0.008146823 -0.14108253
0003d0 d4 d4 e0 bc a5 91 5f be a5 43 9c bc f8 43 44 be
       -0.027445234 -0.21832903 -0.019075224 -0.19166553
0003e0 c5 04 26 bd 3e 4c 43 3e 70 ba 44 3c fb bc 3e 3d
       -0.040531892 0.19072053 0.012007341 0.046566945
0003f0 e5 6f 05 bb 63 98 3e 3d 1c e2 df bc ed a9 d8 3d
       -0.0020360884 0.046532046 -0.027329497 0.10579286

network_body._body_endoder.seq_layers.2.bias f4 [128]
000000 f0 b1 13 bd 58 6d af 3d 1d 37 0c 3d 89 ca 5d bd
       -0.036058366 0.085657775 0.034232248 -0.05414823
000010 c1 80 32 3d 72 6e a6 bd c4 2b 7d 3c 5d 52 33 bd
       0.04357982 -0.081265345 0.015452329 -0.04377972
000020 13 11 a7 bd fd 29 48 bd b3 8f 0b bd c6 b5 f9 3c
       -0.081575535 -0.04886817 -0.03407259 0.030482184
000030 8e 46 22 3d 5f 93 2b 3a 70 96 52 bc 67 79 de 3c
       0.039618067 0.00065450923 -0.01285325 0.027157499
000040 5b be 5c bd ef 8e 79 bd 2e a9 df bd a7 b1 ef bc
       -0.053892475 -0.060927328 -0.1092094 -0.029259516
000050 60 60 cf 3c ee 97 09 bd 0c 36 42 bd 00 44 b4 3c
       0.02531451 -0.033592157 -0.047414824 0.022005081
000060 ed 02 ac bc ca 2a 20 3c de c9 59 bd 4b d3 42 bd
       -0.020997489 0.009775827 -0.05317103 -0.047564786
000070 e5 d0 c6 bc aa 40 cc bc 73 cd 0a bd d4 e6 10 bd
       -0.02426953 -0.024933178 -0.033887338 -0.035376385
000080 02 9f a7 3c 72 83 b2 3a 4f f4 1e bd b1 64 6a 3d
       0.020461563 0.0013619496 -0.03880721 0.057224933
000090 ed 02 a5 bd 22 58 0e bb 4b af 3b bd 2d 1d 8a ba
       -0.08057199 -0.0021720012 -0.04582147 -0.001053726
0000a0 02 d6 c8 3c 7b 87 60 bd aa 27 6e bc cc 4f 19 bd
       0.02451611 -0.054816704 -0.014535824 -0.037429616
0000b0 96 9d 64 bd 00 45 f8 3c 57 48 d3 bc 57 33 f2 3c
       -0.05581435 0.03030634 -0.02579133 0.029565496
0000c0 29 7c 56 bd 24 38 61 bd 30 d0 a1 bc c6 5e 20 3d
       -0.052364502 -0.05498518 -0.019752592 0.039152883
0000d0 69 34 ce 3c 7b 1e 5c bd 20 a6 5b bd 68 4c 4d 3d
       0.025171475 -0.053740006 -0.053625226 0.050121695
0000e0 ab d6 d5 bc d1 30 d2 bc 19 6b 79 3b 1a fe 18 bd
       -0.026103338 -0.025658043 0.003805822 -0.037351705
0000f0 8c cc 56 3d 2b a7 cd 3d 39 08 2a bd c6 74 3e bd
       0.052441165 0.100416504 -0.041511748 -0.046498083
000100 12 30 a1 3d c6 79 a6 bc 69 3f cd bc 6e 82 6c 3b
       0.07870497 -0.020321738 -0.02505465 0.0036088484
000110 2a 15 0d bd 92 06 3f bd eb 65 e9 3b 38 7c 17 bd
       -0.03444401 -0.046637125 0.0071227453 -0.0369837
000120 64 0b 50 bc 0a 75 80 bd 9d 5d 5a bd d2 34 1a bd
       -0.012698028 -0.062723234 -0.053311933 -0.03764803
000130 82 39 16 bd 28 a5 10 bd 90 3e 3f bd b1 28 12 bd
       -0.036675937 -0.035313755 -0.046690524 -0.035683338
000140 22 83 84 3d 2c 50 52 3d dd 10 7a bd 2c 6b 20 bd
       0.06470324 0.05134599 -0.06105124 -0.039164707
000150 85 bc fe bc e6 14 28 3d 94 2c 43 bd c4 49 2b bd
       -0.031095752 0.041035555 -0.047649935 -0.041818395
000160 a2 41 d9 3d 8f 42 b8 bc bf c3 39 bd 68 18 73 3c
       0.106082216 -0.022492675 -0.045352694 0.014837362
000170 c1 79 b4 bb 79 72 c2 bc e8 a6 2e bd 7f 5c 5e 3d
       -0.0055076783 -0.023736225 -0.042639643 0.05428743
000180 6a 9e a7 3c e4 d8 d5 bc 29 15 0d bd 29 eb 65 bd
       0.02046128 -0.026104398 -0.034444008 -0.05613247
000190 08 b9 52 bd 70 81 06 bd 2b 19 3e bd 00 ce 32 bd
       -0.05144599 -0.032838285 -0.04641072 -0.04365349
0001a0 87 cc 9d 3c ca 77 50 bd 51 b8 96 bb 79 ad b4 bb
       0.019262565 -0.05089549 -0.004599609 -0.0055138436
0001b0 fd 72 cd 3b 4c 43 55 bc af 60 2c bd 21 69 82 bc
       0.006269811 -0.013016533 -0.042084392 -0.01591927
0001c0 ec 13 04 bc 4b d6 1a bd 7a af 66 bd 30 b0 49 bd
       -0.00806139 -0.037802022 -0.05631969 -0.04924029
0001d0 20 f0 73 bd dd a5 7f bd 27 92 ae 3d fb 31 78 3c
       -0.059555173 -0.06241404 0.0852397 0.015148635
0001e0 c9 d2 16 bd d9 b5 9b bc 1c f8 95 bd 90 37 85 bc
       -0.036822114 -0.01900761 -0.07322714 -0.016261846
0001f0 e3 af 07 bd 2e 46 30 bc c5 97 80 bd 01 c0 bd 3b
       -0.033126723 -0.01075892 -0.06278948 0.005790711

action_model._continuous_distribution.log_sigma f4 [1, 2]
000000 b9 be 2e be 2c d8 86 be
       -0.17064942 -0.263368

action_model._continuous_distribution.mu.weight f4 [2, 128]
000000 2f 61 b8 bd fd 1c 5c 3d b8 c0 3d 3d a1 22 4c bc
       -0.09002911 0.053738583 0.04632637 -0.012459428
000010 42 db 99 3d f8 c8 b3 bd 7d a4 8a 3c 53 ba b3 bd
       0.07512523 -0.08778566 0.016924137 -0.08775773
000020 ef 0a 07 be 23 9e 1e bd a1 9b 98 bd 02 59 80 3d
       -0.13187765 -0.03872503 -0.07451559 0.06266977
000030 6f b4 7e bb 48 2b c5 bd bc 4e 91 3b 28 45 42 3d
       -0.003886487 -0.09627396 0.0044344347 0.047429234
000040 66 e8 21 bd 3f de d0 bd d3 76 5a bd 8a 08 24 bc
       -0.039528273 -0.1019864 -0.053335976 -0.0100118015
000050 13 96 80 3d ca 4b 75 bd 51 72 d2 bd 40 a6 10 3d
       0.062786244 -0.05988673 -0.102757104 0.0353148
000060 17 9c d0 bd 76 09 22 bd fb a6 63 bd 1b 8f 0b be
       -0.10186022 -0.039559804 -0.055579167 -0.13628809
000070 f1 25 9f bd 81 a2 db bd d1 ba b9 bd e1 28 b0 bd
       -0.077709086 -0.107243545 -0.090688355 -0.08601547
000080 a6 14 8a bc 5e 62 46 bd 00 13 94 bd 96 7a c4 3d
       -0.016855549 -0.048433654 -0.072301865 0.09593694
000090 49 6c 87 bd 98 bc 93 bb ce 67 17 3b 53 cf b7 3c
       -0.06612451 -0.004508566 0.0023102644 0.022437727
0000a0 7c da f6 3c 76 a1 30 bd 8e bb b2 bd f7 ab d8 bd
       0.030133478 -0.04312273 -0.087271795 -0.10579675
0000b0 bf f1 8e bd ba 07 55 3d fa 96 c6 bd 96 c3 95 3d
       -0.06979703 0.05200932 -0.09696765 0.07312696
0000c0 a0 ed da bd ec 2d a6 bd 48 e1 d3 bd 56 1c 3f 3d
       -0.106898546 -0.08114228 -0.10345703 0.046657883
0000d0 a4 83 d4 3c af 86 9e bd b9 b0 c4 bd 0a 41 e1 bc
       0.025941677 -0.077405326 -0.0960402 -0.027496833
0000e0 4b 43 ca bd ec 5f ea bd 57 01 c8 3c 05 4b c3 bd
       -0.09876116 -0.11444077 0.024414701 -0.09535793
0000f0 eb 7c 4f 3d 44 22 c4 3d 3e 6f fb bd 4c 6e d1 bd
       0.05065624 0.09576848 -0.12277077 -0.102261156
000100 6e 97 a1 3d 09 97 00 bd 32 57 e2 bd a2 b4 d9 3c
       0.07890211 -0.03139404 -0.110517874 0.02657539
000110 51 9a 05 be dc 45 f5 bd 5a f8 0e be eb 98 cb bd
       -0.13047148 -0.11976215 -0.13961926 -0.09941276
000120 e2 74 a9 bc 0c 31 ac bd 15 24 b7 bd 85 94 11 3c
       -0.020685617 -0.084077924 -0.08942429 0.0088855075
000130 27 29 46 bd c2 0e 08 be 9f 2c 9d bd 40 fb d2 bd
       -0.04837909 -0.1328688 -0.076745264 -0.103018284
000140 68 e9 86 3d 30 3c 9e 3d 0a 25 86 bd d3 c3 d0 bd
       0.065874875 0.077263236 -0.065500334 -0.101936005
000150 47 3f 95 bd 4f c8 b5 3c 36 ca 69 bd 53 71 ae bb
       -0.0728746 0.022190241 -0.05707761 -0.005323568
000160 7e d5 9c 3d 52 be e6 bd ee 87 e6 bd 45 63 fa b9
       0.07657908 -0.112667695 -0.11256395 -0.00047757677
000170 ae 86 d1 bd 73 9b d7 bd 8a 9d a3 bd 73 ec 16 3d
       -0.10230766 -0.105276965 -0.079890326 0.03684659
000180 fc e7 49 3d 1f 1c 0b be 9d c7 d0 bd 93 76 98 bd
       0.049293503 -0.13584946 -0.10194323 -0.07444491
000190 a7 dc ae bd 35 99 b7 bc 29 da 7c bd 5d 8c 86 bd
       -0.0853818 -0.022411922 -0.06173149 -0.06569741
0001a0 df 5c 63 3c a4 bd f4 bd c7 a8 f4 3b b9 4e ca ba
       0.013877123 -0.119502336 0.007466409 -0.0015434838
0001b0 79 43 88 bc 81 ce c2 bc 0d d9 a4 bd ae bd eb bd
       -0.016633736 -0.02378011 -0.08049212 -0.11510788
0001c0 1d f7 09 be 83 6c 07 be ee c0 c0 bd 23 f0 b9 bd
       -0.13473172 -0.13224988 -0.094117984 -0.090790056
0001d0 4a c0 c9 bd 59 42 93 bd 9b 85 1d 3d 5a 66 33 3c
       -0.09851129 -0.07190389 0.038457494 0.0109496955
0001e0 b6 d3 7b bd bf 80 c4 bd e5 e0 12 bc 88 47 23 bb
       -0.0614812 -0.09594869 -0.008964752 -0.0024914462
0001f0 c8 bd 54 bd de a2 1d bd b0 45 97 bc 0a 0c da 3b
       -0.051938802 -0.0384854 -0.018465847 0.006654267
000200 4c b4 9d 3b c8 0d 25 3c c1 d3 dd bc 59 f0 79 3d
       0.004812753 0.0100740865 -0.027078511 0.06102023
000210 42 b7 39 bd c2 8c 19 3d df 9e b7 bd 56 1e 1c 3d
       -0.045340784 0.037487753 -0.08965849 0.038114868
000220 53 f8 ee bb 9d 92 30 bd ee 79 6d 3d 3d b7 89 bd
       -0.007292786 -0.04310857 0.05797761 -0.06724403
000230 1d 44 a0 3d 1c e8 de 3b 42 1a ac bb a9 15 d0 bd
       0.078254916 0.006802572 -0.0052521536 -0.10160381
000240 c3 11 03 3b db f7 0a 3d b2 26 96 3d 42 f7 9a 3c
       0.00199996 0.03392778 0.07331599 0.01891673
000250 9b 8a 4b 3d 01 94 2f 3d e7 cd 16 3d 85 be e5 bd
       0.04969273 0.042865757 0.036817458 -0.11217979
000260 91 3e 12 3c 8b e9 a3 3d 4d 47 c1 bb b9 a6 49 ba
       0.00892605 0.08003529 -0.0058983923 -0.0007692385
000270 1f d5 71 3c 2e 39 19 3c e8 8f d1 3b 0b b3 65 bd
       0.014760285 0.009352012 0.006395329 -0.05607895
000280 44 4e 5f 3d 34 53 54 3d e4 f9 96 bd 97 d7 3d bd
       0.054518 0.05183716 -0.073718816 -0.04634818
000290 8f 53 98 3c 1f f6 6b 3d f1 cf 92 3c a2 17 f1 3c
       0.018594531 0.057607766 0.01792142 0.029430214
0002a0 7f 6c 69 3d b7 ac 7c 3c 2b 74 bf 3c 89 e6 b4 3c
       0.056988236 0.015422038 0.023370823 0.022082584
0002b0 eb c0 c4 3c 15 40 6e bd 9d e8 43 bb ef 75 11 bd
       0.024017772 -0.058166582 -0.0029893287 -0.03551286
0002c0 f3 cc 02 bb b4 4c ad 3c 43 b6 20 3c 1c 04 d0 bd
       -0.0019958585 0.021154739 0.00980908 -0.10157034
0002d0 e7 18 37 3d ce 57 93 bb 49 a8 3f 3c a9 0b 6a 3d
       0.044701483 -0.004496551 0.011697837 0.057140026
0002e0 2c f3 89 3c be ef 0a 3d f3 11 03 3d 4d 83 e4 3c
       0.016839586 0.033920042 0.03199954 0.02789464
0002f0 3e 5b 15 3d e8 e8 33 bb bb ed cb 3c bc d3 09 3d
       0.03646397 -0.0027452055 0.024893632 0.03364919
000300 0d 2a d6 3c e0 44 99 3d 11 b7 1e 3d 19 3e 8a 3d
       0.026143098 0.0748384 0.038748804 0.067501254
000310 50 6a a9 3b f0 3f 23 3d 65 67 ad 3c e8 d6 8e 3c
       0.005170144 0.039855897 0.021167466 0.01743646
000320 77 e0 5f 3d 78 cf 21 3d 78 b3 a2 3c b8 a5 1a 3c
       0.054657426 0.0395045 0.019860968 0.0094389245
000330 54 da b0 bc 5a 34 c6 39 26 97 00 3d 01 f1 fa 3c
       -0.021588482 0.00037804508 0.031394146 0.030632498
000340 06 c0 e7 3c 7e 04 43 bc 62 c2 2a 3a 04 56 fd 3c
       0.028289806 -0.0119029265 0.00065139506 0.030924805
000350 42 57 71 3b e1 e3 02 3d a4 ec 7b 3c 5d bb 23 bc
       0.0036825691 0.031955604 0.015376244 -0.009993401
000360 bf fc 3d 3d 20 1c 10 3d d0 9f 07 3d 0b 1e 6a 3d
       0.046383616 0.035183072 0.033111393 0.057157557
000370 a5 25 c9 3c 1d e5 06 3c 8a 54 ad 3c 71 e9 51 3d
       0.024554083 0.008233336 0.021158475 0.051248018
000380 d5 ed 91 bd bf a0 61 3c fb ae 26 3d 40 d4 22 bb
       -0.07125441 0.013771235 0.040694218 -0.002484575
000390 51 eb 9b 3c b3 3b ad 39 bf f1 8e 3c 52 9c 8c 3d
       0.019033106 0.0003304161 0.017449258 0.06865753
0003a0 a6 9c 9f 3d eb 11 f0 bc b3 58 60 3d 19 ed bf 3d
       0.0779355 -0.029305419 0.05477209 0.09371395
0003b0 4f f9 8b 3d e3 72 b1 3d 7b d3 f8 3b 13 d3 0d 3d
       0.06834661 0.08664491 0.00759357 0.034625124
0003c0 1e 38 05 3d e2 cd 95 bd 76 12 94 3c d9 a7 1e 3d
       0.03252422 -0.0731466 0.01807521 0.03873429
0003d0 ad 05 49 3c b0 9f b0 3c 2e 35 95 3d 19 57 85 3c
       0.01226942 0.02156052 0.07285534 0.016276883
0003e0 5b 5c ba bc c0 99 ea 3c 40 d4 c8 bc 1c 32 5c 3d
       -0.022749117 0.028637767 -0.024515271 0.053758726
0003f0 47 25 94 bc 27 24 a7 3c 2b d6 b4 ba 51 3b 69 3d
       -0.018084181 0.020402981 -0.0013796737 0.056941334

action_model._continuous_distribution.mu.bias f4 [2]
000000 66 47 d8 3d 97 05 23 bd
       0.10560493 -0.039800253
