MLAgentDevProject/results/MoveToGoal1/MoveToGoal/checkpoint.pt (torch, 440939 bytes, 36 tensors)

network_body._body_endoder.seq_layers.0.weight f4 [128, 6]
000000 d7 73 8d bd eb 4b e8 be 0f eb 24 3f 6a 73 e9 3e
       -0.0690686 -0.4537042 0.6442117 0.45595866
000010 09 08 24 3e 3b 9a 96 bc 1e 26 47 3e d4 38 72 3e
       0.1601869 -0.01838409 0.19448134 0.2365449
000020 91 54 56 3e 8e 7e 3f be dc 65 16 bf a3 87 12 3f
       0.20930697 -0.1870062 -0.58749175 0.57238215
000030 b9 7d 22 3f 9f bc 06 3e f4 da e6 bd dc aa ea 3d
       0.6347309 0.1315789 -0.11272231 0.1145837
000040 e5 59 ad bb 24 01 79 be 86 80 d1 be a7 c3 04 3f
       -0.0052902573 -0.24316841 -0.40918368 0.5186104
000050 46 0a cb bd 99 fd b6 3c 6a da e6 3e 75 58 71 3e
       -0.09914069 0.022337722 0.45088512 0.235689
000060 63 73 23 3f 65 23 8a be 1a 38 0e 3d 65 e7 5d be
       0.6384794 -0.2698013 0.03472147 -0.21670301
000070 f9 9b a6 3d 7f 8b 33 be 89 70 88 3e ad 6d 84 be
       0.08135218 -0.17533682 0.26648358 -0.25864926
000080 2d 92 2b bf 12 12 8a be cf a2 04 bf f7 92 e4 3e
       -0.6701992 -0.26966912 -0.51810926 0.44643375
000090 0b b1 ee 3e d0 5c 1e be fb 53 15 bd 89 33 90 3f
       0.46619448 -0.15465093 -0.036457043 1.1265727
0000a0 98 b1 60 be 89 5c 09 3f fe 2d 6e 3e d8 6f c6 be
       -0.21942747 0.5365682 0.23259732 -0.38757205
0000b0 fc ae 14 3f 5f 8f a2 3e 7e 49 1e bf d6 c4 16 3c
       0.58079505 0.31750008 -0.6183089 0.009202203
0000c0 82 70 ce be ce 87 92 3e 5b b5 d7 3e 7d 6e 60 3e
       -0.40320212 0.28619236 0.4213055 0.21917148
0000d0 e0 0d 04 bf 93 a0 36 3f 7a 39 f5 3e 1b 96 bb bd
       -0.5158367 0.71338767 0.47895414 -0.0915949
0000e0 95 07 a2 3e 94 86 3e 3e c1 a3 74 be f4 66 e5 be
       0.3164641 0.18606025 -0.23890592 -0.4480511
0000f0 09 85 41 bf bf 43 fc be 60 8c 29 be a4 17 0a 3f
       -0.7559362 -0.49270436 -0.16557455 0.5394232
000100 dd dc 64 bf 41 81 15 be 6b 2c 77 be 5d e6 1b be
       -0.8939951 -0.14600088 -0.24138038 -0.15224595
000110 2a 1d 6c be a2 f8 49 3f 49 ce 0f 3e b7 7b 29 bf
       -0.23058 0.7889501 0.14043535 -0.662044
000120 cd d0 9e 3d 9a f3 a2 be cc 34 0f bf 51 c2 a3 be
       0.07754669 -0.31826478 -0.55939937 -0.3198419
000130 25 79 e0 be d3 48 5a 3e b3 d1 d4 be 92 5e 7e 3d
       -0.43842426 0.21316843 -0.41566238 0.062101908
000140 43 17 41 3e 6e 4d e6 3e b6 2e e5 3d b4 3c 18 be
       0.1885653 0.4498095 0.1119055 -0.14866906
000150 2c 03 77 3e 86 a2 55 bf f3 1b 21 3f 31 cf 99 bc
       0.24122304 -0.83451116 0.6293327 -0.018775554
000160 6f b6 4a 3e 8f 63 63 3d ce ff 2a 3f 65 3a 7c be
       0.19796155 0.05551487 0.66796577 -0.24631651
000170 84 2d d8 be 9d 40 89 3d e4 bc a6 be 97 5d a9 bd
       -0.42222226 0.06701777 -0.32565987 -0.08269804
000180 b5 11 fa bd 6d ce 9c 3e 97 b3 94 be 48 b0 3f bf
       -0.122104086 0.3062624 -0.29043266 -0.7487836
000190 04 6d 1a 3f 3a bb 4f 3e e7 21 44 3e 1e e1 a0 3c
       0.60322595 0.20286265 0.19153558 0.019638594
0001a0 a5 cb a4 be e1 b0 fe bd bd 15 85 bf 8a c3 95 3d
       -0.32186618 -0.12436081 -1.0397259 0.07312687
0001b0 77 4e 0a be fc 42 22 3e cd 72 36 3e ab 60 6d 3e
       -0.13506494 0.15845865 0.1781723 0.23181407
0001c0 26 f7 62 bc 64 d3 f8 3d 4f 05 a0 3d c7 8f 0c bf
       -0.01385287 0.121496946 0.078135125 -0.54906887
0001d0 d3 84 de be f9 69 f7 be a6 70 d3 bc 9a ba dd be
       -0.43460712 -0.48323038 -0.02581055 -0.43306428
0001e0 59 87 fc bc 06 1e 62 be 31 3f ab be d8 9d 09 3e
       -0.030826258 -0.22081766 -0.3344665 0.13439119
0001f0 8f cc 98 3e d7 81 ae 3d 69 78 79 3d 97 b2 8f 3e
       0.29843566 0.08520859 0.060905848 0.2806594
000200 17 53 4a bf 7c f6 b7 bd 81 63 df be d9 64 80 be
       -0.79033035 -0.0898256 -0.43630603 -0.2507694
000210 b5 24 c4 3e 9f 08 9b be d4 9d 45 be 3b fd 09 3d
       0.38309255 -0.30280015 -0.19298488 0.033688765
000220 cc 54 f6 be 19 0d 23 3e 0c 56 31 bf e8 23 54 bd
       -0.4811157 0.15922965 -0.6927192 -0.051792055
000230 59 ce d8 3d 1c 91 69 bf a0 1d 0d be e2 28 71 be
       0.10586233 -0.91237044 -0.13780832 -0.23550752
000240 b5 c6 3f bf f0 10 3b 3f 1c de 9c be 7f 3c 1e bf
       -0.7491258 0.7307272 -0.30638206 -0.6181106
000250 b5 e6 02 3e 30 9c 54 3f 1d 07 17 be 77 2c 2c 3f
       0.1278332 0.83050823 -0.14748807 0.6725535
000260 2a 12 f3 bd 05 c1 53 3f 14 03 de 3d f2 f4 e6 3d
       -0.11868699 0.827164 0.10840431 0.11277188
000270 ef 9c ab 3d c4 f7 cb 3d 86 42 4c 3f 34 b6 b1 bd
       0.08379542 0.09959367 0.79789007 -0.086773306
000280 f0 a6 65 bf 9d 94 f9 be f2 b0 82 be 82 0a 58 bd
       -0.8970785 -0.48746195 -0.25525624 -0.052744396
000290 3a d1 98 bd 9a 60 b6 bc 0d 03 82 be 80 e5 72 be
       -0.07461782 -0.02226286 -0.25392953 -0.2372036
0002a0 89 cb 8c 3e c3 2b c2 bd 28 2b 2b 3e 9c b8 05 bf
       0.27499035 -0.09481003 0.16715682 -0.52234817
0002b0 37 4a 6a 3e db 52 be 3d 87 09 22 3e 9f 47 8d 3e
       0.22879873 0.09293147 0.15823947 0.27593705
0002c0 fb 0e 1c 3f 60 df d8 be 87 b2 78 be 7f 7c a6 3e
       0.6096036 -0.42357922 -0.24286853 0.32516858
0002d0 5e 6b 31 bf 31 ba 2f be 94 46 09 3e 5c 99 dd bd
       -0.69304454 -0.1716087 0.1340583 -0.108202666
0002e0 56 42 99 be 4d 64 b3 bd 6c f4 59 be 81 fe 20 3e
       -0.29933423 -0.08759365 -0.21284646 0.15722086
0002f0 62 fd bb bc ac 06 5f 3e f7 4e 4b bf d1 4a fc be
       -0.02294797 0.21779889 -0.79417366 -0.4927583
000300 29 b1 f3 be 82 dc d1 3e b7 56 07 bf 8c 9f 98 3c
       -0.475961 0.40988547 -0.5286669 0.018630765
000310 fa bf 2e 3e fe d5 8c 3e 4d 03 31 be f9 be 43 3e
       0.17065421 0.27507013 -0.17286415 0.19115819
000320 a4 30 52 be 63 90 34 bf ac ce 0f bf 74 2b f2 be
       -0.20526367 -0.70532817 -0.5617473 -0.47298777
000330 e3 d1 a0 be 9e 59 01 bf be b9 94 3c 4d df 4d 3e
       -0.3141013 -0.5052737 0.018154975 0.20104714
000340 90 ac d8 3d 24 1a 68 3e 26 f1 12 3e b5 70 7d 3f
       0.10579789 0.22666222 0.14349803 0.990001
000350 f9 db a2 be bc 8e 09 be ed c7 67 3b 14 ec f1 be
       -0.3180845 -0.13433355 0.0035366968 -0.47250426
000360 60 88 0c 3f 2b 0a cd bd 0b b5 8a 3e e2 db 96 bf
       0.5489559 -0.10011705 0.2709125 -1.1785853
000370 ca 35 95 3d 87 6d d8 be 4c 41 4b bd 51 1b fd ba
       0.0728565 -0.42271063 -0.04962282 -0.0019310509
000380 da 3c bb 3d 8e 95 55 3d 8c c7 6a bf 63 f0 80 bd
       0.09142466 0.05214458 -0.91710734 -0.0629585
000390 dc 40 b6 bd be 80 31 bf c7 6f 73 bf 24 b1 cd bd
       -0.0889909 -0.6933707 -0.95092434 -0.100435525
0003a0 8d a1 98 3e 29 05 b6 3d 8a eb 04 3e 88 f2 0c 3f
       0.29810753 0.08887703 0.12980476 0.55057573
0003b0 62 be 8c be 76 bf 98 bd 41 59 64 3d 60 71 27 3f
       -0.27489 -0.07458393 0.05574918 0.6540737
0003c0 87 9c 14 be 47 86 39 bd 81 1f fb 3e 09 5f 30 be
       -0.14512835 -0.045294072 0.49047473 -0.17223753
0003d0 1b b3 2e 3f c5 8f 27 3e 47 39 01 be 24 15 aa 3d
       0.68242043 0.16363437 -0.12619506 0.083048135
0003e0 ab 0a 47 bf 6c 8a 2a 3f f6 28 03 3f 59 27 4e 3e
       -0.77750653 0.66617465 0.51234376 0.20132197
0003f0 9f 7d fe bd 88 4b bf 3e 1e 85 ad be fa ce cc bd
       -0.12426304 0.37362313 -0.33890623 -0.10000415

network_body._body_endoder.seq_layers.0.bias f4 [128]
000000 9c e6 8f 3b b1 52 2c 3c 1c 85 7e bb 52 06 bf 3b
       0.0043915045 0.010517762 -0.0038836664 0.005829611
000010 d1 58 1a bb 86 bd 12 3c 7b 55 b8 bb c9 ee 8d bb
       -0.0023551474 0.008956319 -0.0056254244 -0.004331444
000020 27 df 3e 3a 39 3b 8a bb 5c cb c3 3a 1e b9 1c bb
       0.0007281177 -0.0042184857 0.0014937925 -0.002391405
000030 73 21 dd 3b 12 06 43 3b 4c 39 47 bb fa b7 d2 bb
       0.006748372 0.0029758257 -0.0030399142 -0.006430623
000040 fe 89 72 39 42 fa 62 ba ae 1c 18 3b b5 f9 88 bb
       0.00023130325 -0.0008658507 0.0023210454 -0.004180158
000050 72 e5 a6 3b 37 0f cb ba 2a ff 32 bb 15 35 a8 3a
       0.00509327 -0.0015492205 -0.0027312734 0.0012833202
000060 a0 1d 17 3c 85 82 11 3a d9 af 8e bb 95 0c a5 3a
       0.009223372 0.000555076 -0.004354459 0.0012592251
000070 f4 41 af ba 16 05 4a 3b e6 60 71 bb 25 2f a8 bb
       -0.0013371096 0.0030825785 -0.0036831438 -0.005132573
000080 85 28 49 3b 7d 14 d1 3b 05 4f 95 bb 8a 01 7b bb
       0.0030694318 0.006380616 -0.004556539 -0.0038300478
000090 50 d1 bf 3b 5d b0 5b 3b 6f b2 bb bb a5 a6 da 3b
       0.0058538094 0.0033521869 -0.005728058 0.0066726976
0000a0 95 30 13 3b 3e 10 51 3b ad cd 0c 3b b8 92 70 3b
       0.0022459377 0.003190055 0.0021484897 0.0036708545
0000b0 59 67 86 bb f2 0d 28 3a 77 88 18 bb 7f 72 9d 3b
       -0.0041016755 0.00064107694 -0.0023274699 0.0048049088
0000c0 6b d0 4f bb 1b 8d a7 3b bf 29 0e bb 41 06 a3 3b
       -0.003170992 0.0051132566 -0.0021692363 0.0049751108
0000d0 37 04 90 3b 7e b2 62 3b 6f c2 75 3b ff e4 c4 b9
       0.0043950337 0.0034591253 0.0037499925 -0.0003755465
0000e0 3d 91 c7 3b 48 df 72 bb a4 f8 00 bc 46 1f b0 3b
       0.006090312 -0.0037059356 -0.007871781 0.005374822
0000f0 71 1a ae 3b b0 13 81 bb 05 30 f4 bb bd 00 72 3b
       0.0053132107 -0.0039391145 -0.0074520134 0.003692671
000100 ed 97 16 3c 27 1e 8b 3b 79 cf 4d 3b 4e 10 f1 bb
       0.009191495 0.004245538 0.003140418 -0.00735668
000110 ea ab 5e 3b 73 2d bf 3b 21 d6 a0 bb 4c be 1d bb
       0.003397698 0.0058342754 -0.0049083387 -0.0024069725
000120 07 bf e1 3b 15 73 9d 3b 94 46 76 3b cc e4 4e bb
       0.0068892273 0.0048049786 0.003757869 -0.003156948
000130 31 9b 10 bb bc bf da ba ba 11 19 3c 7f 1b 35 3b
       -0.0022065158 -0.0016689221 0.009342605 0.0027634797
000140 d8 48 2f bb 3d 36 76 bb 46 d3 b6 bb 13 2e d1 3a
       -0.00267463 -0.003756895 -0.005579385 0.0015959166
000150 bf 2a b1 bb fe d3 f8 3b a6 a5 d4 bb 91 95 7e 3b
       -0.005406707 0.007593631 -0.0064894734 0.0038846473
000160 42 08 b4 ba 2d d8 a9 3b ed 80 3c 3b ce ba 7c bb
       -0.0013735371 0.005183241 0.002876337 -0.0038563493
000170 1e 6c 6a bb d3 52 96 bb e2 62 8b 3b 96 f5 dc 3b
       -0.003577001 -0.00458751 0.004253731 0.0067431433
000180 ea c8 dd bb 3f 4d fb 3a b1 23 f8 3b 37 89 75 bb
       -0.0067683356 0.0019172801 0.007572614 -0.003746582
000190 cd 37 0b 39 6f 50 81 bb 37 7e 32 3b 09 66 da 3a
       0.0001327686 -0.003946356 0.0027235874 0.0016662489
0001a0 5d 06 5d 3b 93 4a 48 3a aa 89 45 3b c0 4d cd 3a
       0.0033725717 0.0007640507 0.0030141869 0.001566343
0001b0 b1 2c bc bb 88 43 0c 3c 15 68 93 3b 08 ea 86 bb
       -0.0057426323 0.008561023 0.0044984915 -0.004117254
0001c0 61 44 bf 3b 2a 92 4b 3b ef 0c e5 3b 57 d8 84 3b
       0.005837009 0.0031062462 0.006990067 0.00405411
0001d0 ec e5 62 bb af 9d 03 3b d8 0b d0 3b 6c 07 d9 3b
       -0.0034621907 0.0020083 0.006349068 0.006623199
0001e0 04 d5 5d bb 84 b3 9f 3b db 4d 54 bb e3 93 97 bb
       -0.003384889 0.004873695 -0.0032395038 -0.004625784
0001f0 cc c6 83 bb 5d 7b 8e bb 99 4b 87 3b 04 5d 92 bb
       -0.004021501 -0.004348202 0.004128885 -0.0044666547

network_body._body_endoder.seq_layers.2.weight f4 [128, 128]
000000 64 5f 38 bd 7e 0b d8 3c b1 fb 0a 3d ef 58 d3 3d
       -0.045012847 0.026372667 0.033931438 0.10319697
000010 47 2c 57 bd 75 5b d8 bd 44 14 84 3d b5 d1 bc 3d
       -0.05253246 -0.10564319 0.06449178 0.09219686
000020 f9 96 3d 3e 3b e7 94 3d 26 97 d9 bd 25 14 ea bc
       0.18514623 0.07270666 -0.106245324 -0.028574059
000030 26 ba 6b bd 33 01 49 bd 85 4f 0a bc ed 83 ff bc
       -0.05755057 -0.04907341 -0.0084418105 -0.031190837
000040 17 b0 14 be da bd dc bd 22 f5 f4 3d 8a bb c7 bd
       -0.14520298 -0.10778399 0.11960818 -0.09752567
000050 d4 9b 6c bb 94 ee 11 bd dc df 00 3e d0 f6 ed bd
       -0.0036103623 -0.035627916 0.12585396 -0.116193414
000060 a4 c9 84 bd 86 48 d7 bc 09 d3 a7 3c 36 dd fe bc
       -0.064837724 -0.026279699 0.020486372 -0.031111341
000070 e6 39 ee 3c 51 46 4b 3d fd 5d d6 3d 73 3d b5 bb
       0.029080343 0.049627606 0.104671456 -0.005531007
000080 4e 6b 1d bd 45 d8 d6 bd 85 c8 f7 3c 7a 3f 74 bc
       -0.03843241 -0.10490469 0.030246982 -0.014907712
000090 cb 0d fa bc 91 12 ed 3c 03 2a 29 bd 30 57 61 3e
       -0.030524155 0.028939517 -0.04129983 0.22005916
0000a0 26 5a ec bd 2b a1 8d 3c 62 c7 36 bc 79 f8 24 3d
       -0.11540632 0.017288765 -0.011155935 0.040276024
0000b0 34 70 2c 3d 1b 60 04 be b6 91 14 bc e8 41 00 3d
       0.042099193 -0.12927286 -0.009067943 0.031312853
0000c0 eb f1 cd bd fa 66 d6 bc 60 80 77 bd 5f 33 b2 bd
       -0.10055908 -0.02617215 -0.060425162 -0.087012045
0000d0 ea 62 d8 3d aa ec 20 bd 1f 49 ea bb 0c 7c f5 3d
       0.10565741 -0.0392882 -0.00714983 0.11986551
0000e0 63 b7 1d 3e 4e d4 1f bb 8f 83 fe 3d 42 08 cc bd
       0.15401988 -0.0024388018 0.124274366 -0.099625126
0000f0 62 e6 6a bc f8 28 0d 3d c5 2d 69 3c 5b 0c eb bc
       -0.014337154 0.0344629 0.014232104 -0.028692415
000100 fb 5e 66 3d be e6 8a 3c 8f ac 9c 3d d3 1b 88 bd
       0.056242924 0.01695573 0.076501004 -0.06645932
000110 45 cd 70 bd 9b f5 51 bc 1c cc e7 3d 13 57 a8 3d
       -0.05878951 -0.012814905 0.11318228 0.08219733
000120 52 17 5f be 25 1d 33 3e 45 fd c9 3d 89 14 1e 3d
       -0.2178624 0.17491587 0.098627605 0.038593803
000130 55 5b 12 be 31 2e 4e 3c 6e f9 cb bd 02 0f 19 3e
       -0.14292653 0.012584255 -0.09959684 0.14947131
000140 5c ef 05 be 05 3d 2f bd 4b 77 e5 bd 58 d3 1c 3d
       -0.1307959 -0.042782802 -0.11204394 0.03828749
000150 35 de cd bd 76 08 b0 bd cf 6f 2e 3d 27 09 83 3c
       -0.10052148 -0.08595364 0.042587098 0.015995575
000160 e0 4b 0e 3e 6d 31 81 bd d5 d1 cc 3d d8 f2 6c 3c
       0.13896132 -0.06308255 0.1000096 0.014462195
000170 ad 81 7b bd f4 84 22 be eb c8 dc bc 20 ba 82 bb
       -0.061402965 -0.1587103 -0.026951274 -0.003989473
000180 d9 25 9d bd 2a 9b 1d be a6 a1 38 bd c1 b7 99 bd
       -0.076732345 -0.15391222 -0.045076035 -0.075057514
000190 6c c1 7c bd e6 33 81 bd df f1 14 bd 4d 8c e3 3c
       -0.0617079 -0.06308727 -0.03636348 0.027776862
0001a0 a9 61 2b bc 15 33 33 bc 10 c8 03 3e 22 7f 2e 3c
       -0.010460296 -0.010937472 0.12869287 0.010650428
0001b0 30 07 04 bd 5a 61 ec bd b8 95 fa bd a8 e2 3c be
       -0.032233417 -0.11542006 -0.12235588 -0.18445837
0001c0 5d 39 89 bd f6 cc 02 3c 40 71 1f 3c 9b b4 a5 bd
       -0.06700394 0.007983437 0.009731591 -0.080910884
0001d0 83 5e 7f 3e c8 32 9b bc f4 d7 0f bd a3 25 5e 3d
       0.24938397 -0.018945113 -0.03511806 0.054235112
0001e0 70 9a 05 3d e8 88 15 be 91 4b c2 3c 47 4d a1 bd
       0.032617986 -0.14603007 0.023717673 -0.078760676
0001f0 2c 1b e0 bd e0 c3 d3 3c 90 74 b2 3d 24 dd d8 3d
       -0.109426826 0.025850236 0.08713639 0.10589054
000200 7a 1c cb 3c f9 a5 01 be d2 55 e7 bd 02 0c 20 3d
       0.024793852 -0.1266097 -0.11295666 0.03907395
000210 f9 92 f3 bc 4d 30 e7 bc f8 40 36 bd d5 1e f8 3d
       -0.029733168 -0.028221274 -0.044495553 0.12115256
000220 81 03 32 be 7b a0 76 bd ab 71 33 bd db 52 5f bc
       -0.17384149 -0.06021164 -0.043809574 -0.013630594
000230 f1 61 1a be 5c 46 9d 3d d1 c3 08 3e d8 4e 10 3d
       -0.15076424 0.076794356 0.13355948 0.03523144
000240 a9 8b 62 bd 4e fb ae 3d cd e3 16 bc d7 cd 81 3b
       -0.05530897 0.08544026 -0.009209585 0.0039613056
000250 5c b8 f1 bd b9 dc 3b be e3 81 1e 3d dc a1 0f bb
       -0.11802742 -0.18345918 0.03869809 -0.0021916544
000260 53 42 c0 3d b6 c2 9f bd 01 24 3a 3d 96 2a e8 ba
       0.0938765 -0.0780081 0.045444492 -0.0017712887
000270 1a 2a 75 3d 94 5b 19 3e 5d 7b 81 bd 03 6d 74 bc
       0.059854604 0.1497634 -0.06322358 -0.014918569
000280 08 45 19 3d 89 29 3b 3c 14 1e 80 bc 08 7b d8 bc
       0.03741935 0.011423477 -0.015639342 -0.026425853
000290 2d fc b2 3c 03 08 d1 bd 7c b9 a3 bd 03 1e bb 3d
       0.021848762 -0.10206606 -0.07994363 0.09136584
0002a0 e9 08 70 bb 91 27 4e be 47 65 8d 3d 81 8d fd ba
       -0.0036626405 -0.20132281 0.06904083 -0.001934454
0002b0 9f bb 32 3d a7 8a 81 3e 07 c5 91 bd 0b 25 ba bd
       0.04363596 0.25301096 -0.07117658 -0.09089097
0002c0 f4 74 25 be 72 6b d2 3d 1e 6e 03 be 40 9e 80 bd
       -0.16157895 0.102744 -0.12834975 -0.06280184
0002d0 77 df 81 bc d0 b2 9f 3d f3 65 2a 3d 89 cb 28 bc
       -0.015853627 0.07797778 0.041601133 -0.010302433
0002e0 a8 86 0f 3e 6d 16 99 bd cd 09 83 bd 6a 3d 4a 3d
       0.14016211 -0.074749805 -0.06398354 0.049374975
0002f0 57 49 31 3d 27 f2 51 bd 30 6e 16 3d 7d b8 0e be
       0.043282833 -0.051256325 0.036726177 -0.13937564
000300 ec ea 1e be 9e 71 36 3d fe c4 c3 3c 25 8e 7b bd
       -0.15519303 0.044541948 0.023897644 -0.061414856
000310 9f 22 88 bb 66 58 1e 3d e3 41 0f 3d 05 63 bb bd
       -0.004154518 0.038658522 0.034974944 -0.09149746
000320 ff 7e 17 bd 48 9b 2d bd d9 44 bd bd 37 4d fe 3d
       -0.036986347 -0.042384416 -0.09241647 0.12417071
000330 b4 42 84 3b 87 02 fa bd 2e 08 bd bd cb eb 57 bd
       0.004036272 -0.12207513 -0.09230076 -0.052715104
000340 15 b1 93 bd ac 83 70 bd 8e 7f a9 bd 71 a9 32 3b
       -0.0721151 -0.058719322 -0.08276282 0.002726164
000350 11 1b a0 bd 41 f9 bd bd d6 85 98 3d e6 48 e3 bc
       -0.078176625 -0.09276057 0.07447402 -0.027744722
000360 f1 20 80 bd 91 fd 61 bd e0 4d 00 3e 4f cb bb 3c
       -0.06256283 -0.05517346 0.12529707 0.022924094
000370 8a 68 0e 3d be 1b 5a 3d 2a ee 47 bd 65 8c 99 bd
       0.034767665 0.053249113 -0.048811115 -0.07497481
000380 cb 45 4f 3d b0 2a 16 3c fd 91 b2 bd 1a f1 98 bc
       0.05060367 0.009165451 -0.08719251 -0.018669654
000390 17 49 1c bd c3 11 36 3d be e4 d0 3c 7c 57 bc bc
       -0.03815564 0.044450533 0.025499698 -0.022990935
0003a0 6c ad ca 3d b0 df 55 bc 52 7a ef 3c c4 d3 9d 3d
       0.09896359 -0.01305382 0.029233132 0.07706407
0003b0 45 b5 65 be cd 3a 9f 3d 0a 7c 3f 3d 29 2f a9 3d
       -0.2243243 0.07774887 0.046749152 0.08260948
0003c0 2b 66 4b 3d 6b 40 9e bd 4e 26 11 bd 87 ac 5d 3d
       0.04965798 -0.077271305 -0.03543692 0.054119613
0003d0 c8 4a 0e 3d 4d 2b 6a bd 59 8b b4 3d d1 45 d3 3d
       0.034739286 -0.0571702 0.08815641 0.10316051
0003e0 1f 20 e9 3b 2f 56 58 3b 90 1a 71 bd d4 30 bb 3d
       0.007114425 0.0033010354 -0.058863223 0.091401726
0003f0 b3 ee f1 bd f7 9f 8f bd 0d 25 bf bd 0a 2b 6b bd
       -0.118131064 -0.07012933 -0.09333239 -0.057414092

network_body._body_endoder.seq_layers.2.bias f4 [128]
000000 44 b8 65 3b b2 d5 ae bb ef cd a1 3b 4a d6 a4 bb
       0.0035052458 -0.005335533 0.0049378793 -0.005030428
000010 3c 13 80 3a fa 3b 12 3b 99 b0 b1 bb 57 cb 64 3b
       0.0009771357 0.002231358 -0.0054226634 0.003491124
000020 29 ef b0 bb ba 01 c1 3b f9 e5 b1 bb b3 35 c6 bb
       -0.005399604 0.0058900984 -0.005429026 -0.006048882
000030 13 8d 8e 3b 52 6b a7 b9 b3 6a 82 bb d4 64 90 3b
       0.0043503135 -0.00031932682 -0.0039800047 0.004406551
000040 a8 35 38 bb 01 02 20 bc d5 b9 94 bb 21 f3 74 3b
       -0.0028108153 -0.009766103 -0.0045387545 0.0037376361
000050 68 a9 82 39 76 46 04 3b 01 50 e0 ba 04 f1 9d 3b
       0.0002492175 0.00201836 -0.0017113687 0.004819991
000060 10 4e 64 39 bb b3 45 ba 0a f2 c6 3a 53 db 0d bb
       0.00021772855 -0.00075417355 0.0015178334 -0.002164562
000070 0b f0 f8 ba df a0 8a bb a3 6f a2 3b ce 6e 58 3b
       -0.0018992437 -0.004230603 0.004957156 0.003302503
000080 76 5c 36 b9 f6 82 b6 bb b5 60 6c bb 61 fc 4b b8
       -0.00017391317 -0.005569811 -0.0036068384 -4.8634018e-05
000090 3a 7a 0d bb 22 76 af bb f0 8c b6 bb c7 af 39 bb
       -0.0021587745 -0.0053546587 -0.0055710003 -0.0028333531
0000a0 78 53 d1 3a 13 6a 48 3b 83 c1 d8 3a 61 57 8d 3b
       0.001597031 0.0030580803 0.0016537163 0.004313395
0000b0 40 74 9e 39 8c 0c 2b ba 98 d1 13 3b c6 bd 91 bb
       0.0003022272 -0.0006525002 0.0022555348 -0.0044476716
0000c0 b1 d0 84 3a e5 f3 51 ba 08 0d 0a 3b 62 5c 0c 3b
       0.0010132996 -0.00080090604 0.0021064896 0.002141737
0000d0 e9 68 a6 bb c7 f0 9f bb cd 29 04 bb 02 28 86 3b
       -0.0050784242 -0.004880998 -0.0020166517 0.004094125
0000e0 f8 7a 73 3b 76 02 62 3b 19 35 e6 3b f7 e3 b1 bb
       0.0037152153 0.003448633 0.0070253727 -0.005428787
0000f0 0e d1 bc ba e4 f7 b7 bb b6 50 14 3b 05 76 ec ba
       -0.0014405565 -0.0056142677 0.0022631115 -0.0018040544
000100 96 cd 2d 3b eb f7 69 3b 3f b1 96 bb 2f eb 5c 3b
       0.0026520244 0.003570075 -0.004598766 0.0033709516
000110 17 4a 46 3b 30 39 63 bb 66 61 74 3b 99 b1 ab bb
       0.0030256563 -0.0034671538 0.00372895 -0.005239677
000120 66 cd 83 3b a2 4b 79 3b 83 d7 56 3b 90 56 83 3b
       0.004022288 0.0038039465 0.0032782264 0.004008122
000130 8c b3 54 bb c8 e9 79 b9 02 f1 91 bb 5f c9 84 3b
       -0.003245565 -0.00023833581 -0.004453779 0.0040523256
000140 bb f0 70 3a 22 0f 87 bb c0 9d a9 3b d6 ec ad 3a
       0.0009191145 -0.004121677 0.005176276 0.0013269435
000150 60 c9 3b ba 10 d8 05 38 9e f8 39 3b a0 77 7a bb
       -0.0007163491 3.1910895e-05 0.0028376947 -0.0038218275
000160 2f 62 25 bb e8 61 aa bb d6 d0 82 3b 20 96 ff 3a
       -0.0025235524 -0.0051996596 0.0039921803 0.0019499697
000170 b1 3b 69 3b 3b 31 7d 3b 63 c7 6e 3b 23 3d 93 bb
       0.0035588557 0.003863408 0.0036434762 -0.004493372
000180 4b c4 18 3b bd 75 82 bb 29 24 c0 bb 9a 82 4a bb
       0.002331036 -0.0039813207 -0.0058636856 -0.0030900599
000190 f4 ca e7 bb 6c 62 ff ba 66 c3 38 bb 54 91 8c 3b
       -0.0070737544 -0.0019484288 -0.0028192638 0.0042897854
0001a0 12 f3 50 ba 02 95 a2 bb ae 90 03 3b 4a f3 37 b9
       -0.00079707906 -0.004961611 0.002007525 -0.00017542872
0001b0 3a 40 62 bb 10 26 5d 3b 81 82 97 bb d0 e6 27 3b
       -0.0034523145 0.003374461 -0.0046237116 0.0025619753
0001c0 e4 79 56 39 6a 41 2e 3b 68 67 6d 3b f2 94 aa bb
       0.00020454038 0.0026589283 0.0036224965 -0.005205744
0001d0 f9 f2 88 3b 4f 9b f2 ba 6f e3 89 bb 24 2e 27 3b
       0.004179355 -0.001850942 -0.0042080204 0.002550968
0001e0 95 53 9e bb 8d 26 b4 bb 19 7c 70 bb 38 ce 6d 3b
       -0.004831741 -0.0054977597 -0.0036695062 0.0036286246
0001f0 5b 3a 0b 3b c1 b0 a4 bb a9 5d 83 bb 41 4d 0d 3b
       0.00212445 -0.0050259535 -0.004008968 0.002156094

action_model._continuous_distribution.log_sigma f4 [1, 2]
000000 4b fc c1 ba 78 21 14 bb
       -0.0014799921 -0.0022602957

action_model._continuous_distribution.mu.weight f4 [2, 128]
000000 a3 44 56 3c 10 60 9b bc 40 c6 53 3d 5c 25 90 bc
       0.013077888 -0.018966705 0.051702738 -0.01759594
000010 a6 97 3c bb 3b 07 22 3c 84 31 9c bc 09 da fd 3c
       -0.0028776913 0.009889419 -0.01906658 0.030987756
000020 bb d1 1b bd 26 50 f2 38 3c 90 d4 bc 73 aa e3 bc
       -0.03804181 0.00011554388 -0.025947683 -0.027791237
000030 53 0b 84 3c 90 f3 0f bc da db dd bc 0a 97 2f bb
       0.016118681 -0.008786097 -0.027082372 -0.0026792907
000040 a3 ae 96 bc 6e eb d9 3a 8e e1 c6 bb c6 8c cb 3c
       -0.01839382 0.001662595 -0.0060693687 0.0248474
000050 76 8e 6a bc ec 2d c8 3b b1 83 25 bc 16 3a 84 3c
       -0.014316192 0.00610899 -0.010102198 0.016140979
000060 52 2f df 3b f4 a7 d3 3b 34 67 4a 3c c4 69 eb ba
       0.006811061 0.0064592306 0.012353707 -0.0017960598
000070 be 2a 66 bb da 43 9e bc ce 61 f3 3c 19 a1 b0 3b
       -0.0035120691 -0.019319464 0.029709723 0.005390298
000080 7c 30 2d bb 8a 18 99 bb 84 6f 3d bc 55 f8 c6 ba
       -0.0026426604 -0.0046721147 -0.011562232 -0.001518021
000090 48 a0 4a bc bf 8b c0 bc a7 cb 58 bc e8 a9 5e bc
       -0.012367316 -0.023504136 -0.013232148 -0.0135903135
0000a0 45 a9 9e bc 44 2f ea b8 c4 63 d8 3b c2 d9 09 3b
       -0.019367823 -0.000111667934 0.00660369 0.0021034335
0000b0 45 cd 82 3b 0a 9b 0a 3c a3 7f d2 ba ea 46 79 bc
       0.003991755 0.008459816 -0.0016059767 -0.015214661
0000c0 d5 4e 8e bb 2e 6d bb 3a 79 63 8b 3c 6d 75 10 3c
       -0.0043428936 0.0014299506 0.017015206 0.008817059
0000d0 68 61 04 bc 91 b1 68 bc 1f 37 07 bc b7 56 09 3c
       -0.008079864 -0.014202491 -0.008252888 0.008382491
0000e0 7d d0 90 3c 86 7f e8 3c c2 0b 30 3c 7f 7d b0 bc
       0.01767754 0.02838112 0.010744991 -0.021544216
0000f0 40 39 82 bc e7 ae 9c bb 0a ce 9f bb a5 60 34 bc
       -0.01589644 -0.004781592 -0.0048768567 -0.01100937
000100 d5 a8 59 3c 43 be 4f 3c 1f 4c c1 bc cd f7 d1 3c
       0.013284882 0.012679639 -0.023595868 0.025630856
000110 57 d9 96 3c 42 85 8a bc 29 a9 ab 3c cd 23 0f bc
       0.018414183 -0.016909245 0.020954685 -0.008736563
000120 5a 0e 18 3d b1 5e 08 3c 31 80 35 3c f9 25 c7 3c
       0.03712306 0.008323357 0.0110779265 0.024310099
000130 58 f9 05 bd e7 ce fb 39 e7 15 c6 bc e6 70 9f 3c
       -0.032708496 0.00048028605 -0.024180366 0.019463014
000140 20 83 72 3c de 9e e2 bc 0c 93 0f 3c c8 01 0f 3c
       0.01480177 -0.027663644 0.008763086 0.008728452
000150 64 ad 32 ba dc be 4c bc 59 c3 01 3c 3e 31 42 bc
       -0.00068159983 -0.012496676 0.00792011 -0.011852561
000160 e2 5b 2b bc fb bb ae bc 7c 17 2f 3a d9 4d bd ba
       -0.010458918 -0.02132987 0.00066792197 -0.0014442756
000170 c2 cf ee 3b 89 cb ba 3c 08 b2 0a 3d 28 ef 9b bc
       0.0072879503 0.022802131 0.03386119 -0.019034937
000180 c3 72 8c 39 b9 59 e0 bc b1 10 1d bd 28 e5 f5 bb
       0.00026788385 -0.027386533 -0.038345996 -0.007504124
000190 cb ef 20 bd dc 52 6b bc 3b de a5 bc 1f 5a 3a 3d
       -0.039291184 -0.014363017 -0.02024757 0.045496102
0001a0 18 a4 97 bc fc f1 d1 bb ea a3 da 3b 49 56 01 39
       -0.018510863 -0.0064070206 0.006672372 0.00012334542
0001b0 d6 ad 44 bb 7b 6f bf 3c 33 a3 62 bc a7 cc a4 3c
       -0.003001084 0.023368588 -0.013832855 0.020117117
0001c0 58 4f f5 b9 21 40 68 3c 7a 43 16 3d df 0f 3b bc
       -0.00046789157 0.014175446 0.036685444 -0.011417358
0001d0 17 04 41 3c a4 73 04 3a 45 25 1b bd 57 ad 53 3c
       0.01178076 0.0005052632 -0.03787734 0.012919745
0001e0 a1 db 12 bc ba 7e f9 bb 28 19 ff bc 25 43 92 3c
       -0.008963496 -0.007613984 -0.031139925 0.017854283
0001f0 93 18 1a 3c 1c 98 e3 bb 9a 53 46 bc de 34 0c 3c
       0.009405273 -0.006945623 -0.012104893 0.008557526
000200 d9 01 4b bb 33 96 1d bb 42 23 06 3c 11 d3 3d 3c
       -0.0030976443 -0.0024045825 0.008187117 0.011585967
000210 3a 07 64 bc d4 1b 3a bd 1a 33 02 bc 2b 75 bf bc
       -0.013917739 -0.045436695 -0.007946754 -0.0233713
000220 8d 98 df bc 61 99 58 3c cf d3 7d bb 4a d8 87 bc
       -0.027294422 0.013220162 -0.0038730984 -0.016582627
000230 8a 8f 51 bd ed 7e 2d bc 81 88 bd bc 32 17 35 ba
       -0.05116228 -0.0105893435 -0.02313638 -0.00069080584
000240 d6 89 8e bc 2c 4e 30 bb 96 86 f2 3b ec 05 2f bc
       -0.01739971 -0.0026902063 0.007401298 -0.010682564
000250 68 63 16 3c aa d0 76 bb f6 7c 69 bc 1e f0 0c bb
       0.009178974 -0.0037660995 -0.014250984 -0.0021505426
000260 7a 96 d8 bb 34 c9 8c 3c 7f 8f a9 bc e5 aa 9c bc
       -0.006609735 0.017185785 -0.020698307 -0.019124458
000270 08 77 e2 3c e4 b6 9c 39 12 3e c4 3c 0b ea 1d 3d
       0.02764465 0.00029890903 0.023955379 0.03855328
000280 40 23 a1 3c 65 4b ed bb 10 05 3c 3c d0 d7 f1 bc
       0.019670129 -0.0072416537 0.011475816 -0.029521853
000290 7b bb 19 3d 4a 52 d8 bb 67 03 3b bc 34 93 b9 bc
       0.03753231 -0.0066016065 -0.011414385 -0.0226532
0002a0 ee 64 e7 3c 1b 6b fa 3c aa 0e 58 3c 5b cb 62 bc
       0.02824637 0.03056865 0.01318709 -0.013842429
0002b0 0b b4 07 3d 20 5a 88 3c f6 c7 8e bc fe 84 64 3c
       0.033130687 0.016644537 -0.017429333 0.013947723
0002c0 fe da 5e 3b 44 7c 3a 3c de 8f 20 3d 76 bd c4 bc
       0.0034005041 0.011382166 0.039199702 -0.024016123
0002d0 98 79 04 3c d1 16 f4 3b 45 88 e8 3c 39 b2 88 3c
       0.008085631 0.007449009 0.02838529 0.016686546
0002e0 04 81 1c 3c 5f f7 9f bc 3b 36 27 3c 0c 22 24 bc
       0.009552244 -0.019527135 0.010205801 -0.010017883
0002f0 4e 27 4d 3c 76 e9 c9 3b bd c3 57 3d 2b 47 90 bc
       0.012521578 0.006161864 0.052676905 -0.01761206
000300 13 c4 9b bc 21 71 65 bb 37 51 3a 3b 23 61 cc bc
       -0.019014394 -0.0035010057 0.0028429755 -0.024948662
000310 09 c8 83 3c d8 ec 02 bb d7 e9 ce 3b 2b d8 09 bc
       0.016086595 -0.0019977596 0.006314497 -0.008413355
000320 e5 96 b7 3c cf c8 d5 3c 29 7e 57 ba f0 95 b5 bb
       0.02241082 0.02609673 -0.00082203984 -0.0055415556
000330 36 33 ca 3c d2 41 b5 3c d0 4b 95 b5 b6 5f 18 bd
       0.024682622 0.022126112 -1.1123429e-06 -0.037200652
000340 86 34 a2 3c cc 8b dc 3b c3 95 93 3c f5 17 1c bc
       0.019800436 0.0067305323 0.018015748 -0.009527196
000350 36 a7 9b bc 72 d9 d8 3c 1b 98 ab 3b fa ed ee 3b
       -0.01900063 0.026470874 0.0052366382 0.0072915526
000360 ee 13 8c 3c 61 05 af bc c2 80 6f 3c 5a ba 12 3c
       0.017099347 -0.02136487 0.014618101 0.0089555625
000370 22 15 86 3c 02 39 4f bb c8 ba 70 bc 86 5f 38 bb
       0.016367499 -0.0031619673 -0.01469297 -0.0028133108
000380 bd 2f 7f 3c 75 07 9c 3b 2d 64 b3 bc 1e da ec 3c
       0.015575347 0.004761631 -0.021898353 0.0289126
000390 98 91 d2 b9 b2 95 9b 3c cb 2a c9 3c ba 32 27 3c
       -0.00040162797 0.018992279 0.024556538 0.010204965
0003a0 51 55 d4 3c 54 40 01 3c f3 d8 05 3a 5c 03 99 bc
       0.025919588 0.007888872 0.00051058753 -0.01867836
0003b0 7a ea 40 3c a8 8b 08 bb 19 1f 22 3c a9 a5 c2 bc
       0.011774654 -0.0020835195 0.00989511 -0.023760634
0003c0 ad 39 16 ba e9 23 f1 3c 9b 00 67 bc e2 19 7d 3c
       -0.000573064 0.029436069 -0.014099265 0.0154480655
0003d0 0f 72 89 3c 2e 9e bf 3b 0f a9 3d bb 8a 18 a8 3c
       0.01677802 0.005847714 -0.0028939878 0.020519514
0003e0 ce a2 02 3c 0f 02 5c bc 3b 1a 5a 3c 03 07 ba ba
       0.007973386 -0.013428225 0.013311918 -0.0014192763
0003f0 9a 4f 27 bc b0 87 0f 3c fb a8 b3 bb 4d 95 e4 3b
       -0.01021185 0.008760378 -0.0054827905 0.006975806

action_model._continuous_distribution.mu.bias f4 [2]
000000 4f fd 8c 3b 58 c8 b1 b7
       0.0043026577 -2.1193337e-05

exp_avg f4 [128, 6]
000000 6c 1a 04 38 00 00 00 00 de d4 c7 b8 ce cd 5c 39
       3.149586e-05 0.0 -9.528709e-05 0.00021057503
000010 00 00 00 00 00 00 00 00 c0 64 0a b7 00 00 00 00
       0.0 0.0 -8.248899e-06 0.0
000020 b4 70 9d 35 61 39 db b7 00 00 00 00 00 00 00 00
       1.1730212e-06 -2.6133554e-05 0.0 0.0
000030 14 4b 3b b8 00 00 00 00 ac 17 06 39 7d bb aa b8
       -4.4654196e-05 0.0 0.00012788054 -8.141154e-05
000040 00 00 00 00 00 00 00 00 a0 94 72 35 00 00 00 00
       0.0 0.0 9.0368303e-07 0.0
000050 36 4c 47 38 2a 9a 00 b9 00 00 00 00 00 00 00 00
       4.7516274e-05 -0.00012264462 0.0 0.0
000060 5d fa e0 b7 00 00 00 00 65 0c 1d 38 7f da 32 b8
       -2.6819465e-05 0.0 3.744326e-05 -4.2641997e-05
000070 00 00 00 00 00 00 00 00 3e e9 10 b6 00 00 00 00
       0.0 0.0 -2.1593437e-06 0.0
000080 7a 13 fd b7 ac 98 40 37 00 00 00 00 00 00 00 00
       -3.016902e-05 1.14796385e-05 0.0 0.0
000090 05 61 4e 38 00 00 00 00 39 ff 24 b9 04 ae 71 39
       4.9204584e-05 0.0 -0.00015735337 0.00023048377
0000a0 00 00 00 00 00 00 00 00 fd 2a fa 37 00 00 00 00
       0.0 0.0 2.982234e-05 0.0
0000b0 09 28 f4 b7 bd ab 82 38 00 00 00 00 00 00 00 00
       -2.910571e-05 6.230872e-05 0.0 0.0
0000c0 08 71 ce b7 00 00 00 00 94 11 22 b8 94 79 ff b7
       -2.4609748e-05 0.0 -3.864018e-05 -3.0454983e-05
0000d0 00 00 00 00 00 00 00 00 c1 f8 02 37 00 00 00 00
       0.0 0.0 7.806521e-06 0.0
0000e0 52 01 40 b7 82 32 99 38 00 00 00 00 00 00 00 00
       -1.1444399e-05 7.305016e-05 0.0 0.0
0000f0 d4 7b 19 37 00 00 00 00 a2 a9 97 b8 3a 75 c7 b7
       9.148342e-06 0.0 -7.231838e-05 -2.3777236e-05
000100 00 00 00 00 00 00 00 00 78 20 1f 38 00 00 00 00
       0.0 0.0 3.7938793e-05 0.0
000110 24 11 17 b8 15 d7 15 39 00 00 00 00 00 00 00 00
       -3.601717e-05 0.00014289872 0.0 0.0
000120 ba d4 c4 b7 00 00 00 00 b0 68 bf 38 a8 f2 0f b9
       -2.346408e-05 0.0 9.127089e-05 -0.00013727939
000130 00 00 00 00 00 00 00 00 e7 b8 eb 37 00 00 00 00
       0.0 0.0 2.8100285e-05 0.0
000140 20 be 9d b8 4a ee 59 39 00 00 00 00 00 00 00 00
       -7.521757e-05 0.00020783502 0.0 0.0
000150 3e 5b 13 b7 00 00 00 00 62 02 0b 37 96 5f d9 b7
       -8.783127e-06 0.0 8.2856e-06 -2.5912927e-05
000160 00 00 00 00 00 00 00 00 96 ec f5 37 00 00 00 00
       0.0 0.0 2.9316445e-05 0.0
000170 0f ad ec b7 02 8e ac 38 00 00 00 00 00 00 00 00
       -2.8213979e-05 8.22805e-05 0.0 0.0
000180 d5 11 80 36 00 00 00 00 bf 40 e7 36 34 a4 55 36
       3.816773e-06 0.0 6.891874e-06 3.1835052e-06
000190 00 00 00 00 00 00 00 00 d0 13 c3 b7 00 00 00 00
       0.0 0.0 -2.3255037e-05 0.0
0001a0 f8 1d d3 37 0a e3 99 b8 00 00 00 00 00 00 00 00
       2.5167115e-05 -7.337898e-05 0.0 0.0
0001b0 73 91 21 37 00 00 00 00 3d 89 8b b8 b3 8a bc 38
       9.630213e-06 0.0 -6.653599e-05 8.990373e-05
0001c0 00 00 00 00 00 00 00 00 87 ef 22 b7 00 00 00 00
       0.0 0.0 -9.711722e-06 0.0
0001d0 9a f6 25 38 a2 a2 63 b8 00 00 00 00 00 00 00 00
       3.956873e-05 -5.427248e-05 0.0 0.0
0001e0 89 3a b8 38 00 00 00 00 da dd 36 b9 58 cc c1 39
       8.784707e-05 0.0 -0.00017439519 0.00036964077
0001f0 00 00 00 00 00 00 00 00 ac 6c 8e b8 00 00 00 00
       0.0 0.0 -6.791329e-05 0.0
000200 43 4f 52 39 b8 06 90 b9 00 00 00 00 00 00 00 00
       0.00020056688 -0.00027470826 0.0 0.0
000210 6e 71 ed 37 00 00 00 00 fd 69 41 38 c6 37 07 38
       2.8305421e-05 0.0 4.6113495e-05 3.223845e-05
000220 00 00 00 00 00 00 00 00 29 80 be 36 00 00 00 00
       0.0 0.0 5.677361e-06 0.0
000230 00 6c 70 b5 0c 98 65 37 00 00 00 00 00 00 00 00
       -8.956413e-07 1.3684865e-05 0.0 0.0
000240 66 53 14 38 00 00 00 00 64 7e 31 38 8f 9d 6f b8
       3.536362e-05 0.0 4.23178e-05 -5.712878e-05
000250 00 00 00 00 00 00 00 00 d3 3d 60 38 00 00 00 00
       0.0 0.0 5.346334e-05 0.0
000260 9e 7e 3c b9 02 6a b5 39 00 00 00 00 00 00 00 00
       -0.00017976246 0.00034601992 0.0 0.0
000270 75 43 af 36 00 00 00 00 72 75 b7 36 77 62 83 37
       5.2232594e-06 0.0 5.4674974e-06 1.5662268e-05
000280 00 00 00 00 00 00 00 00 e2 9c 4f b7 00 00 00 00
       0.0 0.0 -1.2374689e-05 0.0
000290 ae ac eb 37 af d7 5d b8 00 00 00 00 00 00 00 00
       2.8094593e-05 -5.2891377e-05 0.0 0.0
0002a0 8b be 64 b7 00 00 00 00 50 38 82 36 fa 5c 95 b7
       -1.3634223e-05 0.0 3.8808575e-06 -1.780548e-05
0002b0 00 00 00 00 00 00 00 00 70 59 df 36 00 00 00 00
       0.0 0.0 6.65633e-06 0.0
0002c0 56 fa 8e 37 35 0b 13 37 00 00 00 00 00 00 00 00
       1.704429e-05 8.764492e-06 0.0 0.0
0002d0 c1 b9 cb 37 00 00 00 00 c6 39 0d 38 1c be 8e b8
       2.4285984e-05 0.0 3.3670825e-05 -6.806498e-05
0002e0 00 00 00 00 00 00 00 00 25 4c 58 b7 00 00 00 00
       0.0 0.0 -1.2892332e-05 0.0
0002f0 2c c0 e5 36 e4 2b c6 b8 00 00 00 00 00 00 00 00
       6.8471036e-06 -9.449551e-05 0.0 0.0
000300 75 fc aa b6 00 00 00 00 2c 33 1f 38 4d 68 42 b8
       -5.0957847e-06 0.0 3.795621e-05 -4.6350342e-05
000310 00 00 00 00 00 00 00 00 3b 12 e4 36 00 00 00 00
       0.0 0.0 6.797052e-06 0.0
000320 a2 7f ac 36 2c cd 96 b6 00 00 00 00 00 00 00 00
       5.140858e-06 -4.4942335e-06 0.0 0.0
000330 46 bb 07 37 00 00 00 00 d7 de 0c 39 26 53 63 b9
       8.09023e-06 0.0 0.00013434455 -0.00021679382
000340 00 00 00 00 00 00 00 00 f1 96 b5 b7 00 00 00 00
       0.0 0.0 -2.1647169e-05 0.0
000350 50 20 20 38 5e cf 60 b8 00 00 00 00 00 00 00 00
       3.8177066e-05 -5.3598887e-05 0.0 0.0
000360 40 24 16 33 00 00 00 00 25 91 00 b7 d4 99 79 37
       3.4957566e-08 0.0 -7.663189e-06 1.4877372e-05
000370 00 00 00 00 00 00 00 00 00 dd 04 38 00 00 00 00
       0.0 0.0 3.1677075e-05 0.0
000380 f2 8d 33 b8 f3 85 b1 38 00 00 00 00 00 00 00 00
       -4.2809123e-05 8.464968e-05 0.0 0.0
000390 9e 4d e9 b7 00 00 00 00 1b 44 6d 36 b7 76 c2 37
       -2.7811908e-05 0.0 3.5355395e-06 2.3181883e-05
0003a0 00 00 00 00 00 00 00 00 dd 6e 70 36 00 00 00 00
       0.0 0.0 3.5827318e-06 0.0
0003b0 77 cf da b7 7a fa 43 37 00 00 00 00 00 00 00 00
       -2.6084233e-05 1.1681224e-05 0.0 0.0
0003c0 d1 a5 a0 b6 00 00 00 00 fb 26 08 b7 42 2b 03 b8
       -4.787675e-06 0.0 -8.1153075e-06 -3.127312e-05
0003d0 00 00 00 00 00 00 00 00 38 b9 89 38 00 00 00 00
       0.0 0.0 6.567169e-05 0.0
0003e0 4a 9a 4e b9 c3 f5 c9 39 00 00 00 00 00 00 00 00
       -0.00019703168 0.00038520814 0.0 0.0
0003f0 78 49 26 b7 00 00 00 00 ed 5c 1d 38 c9 72 6b b8
       -9.911477e-06 0.0 3.751826e-05 -5.6135268e-05

exp_avg_sq f4 [128, 6]
000000 16 83 10 32 00 00 00 00 40 d2 89 31 13 7a d9 33
       8.411709e-09 0.0 4.0111274e-09 1.0127055e-07
000010 00 00 00 00 00 00 00 00 e9 3e 6f 2e 00 00 00 00
       0.0 0.0 5.4398184e-11 0.0
000020 45 67 73 2e 8d 03 e6 2f 00 00 00 00 00 00 00 00
       5.5343525e-11 4.183928e-10 0.0 0.0
000030 09 aa bc 31 00 00 00 00 3b 95 74 31 61 b7 34 33
       5.490851e-09 0.0 3.55915e-09 4.2076298e-08
000040 00 00 00 00 00 00 00 00 b9 77 17 2f 00 00 00 00
       0.0 0.0 1.3775904e-10 0.0
000050 81 a1 0a 30 69 80 78 31 00 00 00 00 00 00 00 00
       5.043362e-10 3.6161742e-09 0.0 0.0
000060 35 33 07 2f 00 00 00 00 63 d5 3d 2f a4 98 2c 30
       1.2296371e-10 0.0 1.726526e-10 6.279015e-10
000070 00 00 00 00 00 00 00 00 63 da af 30 00 00 00 00
       0.0 0.0 1.2794995e-09 0.0
000080 4d a2 83 31 aa b3 82 32 00 00 00 00 00 00 00 00
       3.8310533e-09 1.5215694e-08 0.0 0.0
000090 e6 f4 80 31 00 00 00 00 83 7d b5 31 45 51 b1 32
       3.753132e-09 0.0 5.2820623e-09 2.0642469e-08
0000a0 00 00 00 00 00 00 00 00 48 03 02 30 00 00 00 00
       0.0 0.0 4.729839e-10 0.0
0000b0 9e 4e 1c 30 5d f1 65 31 00 00 00 00 00 00 00 00
       5.686419e-10 3.3461085e-09 0.0 0.0
0000c0 cb 01 96 30 00 00 00 00 6d de b7 30 71 c2 24 32
       1.0914446e-09 0.0 1.337822e-09 9.590267e-09
0000d0 00 00 00 00 00 00 00 00 95 6e f3 2f 00 00 00 00
       0.0 0.0 4.4280016e-10 0.0
0000e0 23 24 1f 30 20 4d 0b 31 00 00 00 00 00 00 00 00
       5.7895216e-10 2.0271003e-09 0.0 0.0
0000f0 b6 1d a7 30 00 00 00 00 4e a8 fa 30 a4 9b 4f 32
       1.2159294e-09 0.0 1.8237729e-09 1.2084374e-08
000100 00 00 00 00 00 00 00 00 1a 77 eb 30 00 00 00 00
       0.0 0.0 1.7132351e-09 0.0
000110 38 c3 2d 31 0e 40 88 32 00 00 00 00 00 00 00 00
       2.5285782e-09 1.5861612e-08 0.0 0.0
000120 24 3c ed 2f 00 00 00 00 c1 47 95 30 03 7d 33 31
       4.315278e-10 0.0 1.086157e-09 2.611899e-09
000130 00 00 00 00 00 00 00 00 a0 52 17 31 00 00 00 00
       0.0 0.0 2.2020359e-09 0.0
000140 ec 5a bd 30 46 45 f5 32 00 00 00 00 00 00 00 00
       1.3777401e-09 2.8553256e-08 0.0 0.0
000150 14 be c3 2e 00 00 00 00 72 87 c0 2e 14 01 1a 30
       8.901338e-11 0.0 8.755209e-11 5.6026406e-10
000160 00 00 00 00 00 00 00 00 95 5a ee 2f 00 00 00 00
       0.0 0.0 4.335631e-10 0.0
000170 81 b6 6a 30 f5 bc 35 31 00 00 00 00 00 00 00 00
       8.538806e-10 2.6446376e-09 0.0 0.0
000180 fd d3 ad 2c 00 00 00 00 f4 4f e1 2c 89 0a de 2d
       4.940491e-12 0.0 6.403761e-12 2.5243157e-11
000190 00 00 00 00 00 00 00 00 79 d6 05 30 00 00 00 00
       0.0 0.0 4.86899e-10 0.0
0001a0 b2 3c 85 30 f8 b0 ad 31 00 00 00 00 00 00 00 00
       9.694274e-10 5.0550817e-09 0.0 0.0
0001b0 3f a1 e0 30 00 00 00 00 1b 12 bb 30 58 95 50 32
       1.6343974e-09 0.0 1.3611187e-09 1.214115e-08
0001c0 00 00 00 00 00 00 00 00 fd 69 c3 2e 00 00 00 00
       0.0 0.0 8.8864006e-11 0.0
0001d0 36 20 95 2f 10 07 ab 30 00 00 00 00 00 00 00 00
       2.712583e-10 1.2443895e-09 0.0 0.0
0001e0 1f ad 48 32 00 00 00 00 d7 f4 9e 32 fa 62 1c 34
       1.1680895e-08 0.0 1.8504961e-08 1.456464e-07
0001f0 00 00 00 00 00 00 00 00 37 bb d7 30 00 00 00 00
       0.0 0.0 1.5696519e-09 0.0
000200 de d0 65 31 46 79 8e 32 00 00 00 00 00 00 00 00
       3.3442613e-09 1.6586124e-08 0.0 0.0
000210 bc bb ca 31 00 00 00 00 79 76 c9 31 d0 d3 27 33
       5.9003167e-09 0.0 5.8633387e-09 3.907536e-08
000220 00 00 00 00 00 00 00 00 19 39 df 2d 00 00 00 00
       0.0 0.0 2.5377521e-11 0.0
000230 f9 ec 00 2e ec 23 56 2f 00 00 00 00 00 00 00 00
       2.9314304e-11 1.9475949e-10 0.0 0.0
000240 3c 70 3a 2f 00 00 00 00 d1 b8 8a 2f 3d 7b 07 30
       1.6956475e-10 0.0 2.5233374e-10 4.9287846e-10
000250 00 00 00 00 00 00 00 00 21 df 27 31 00 00 00 00
       0.0 0.0 2.4428533e-09 0.0
000260 3a 32 d5 31 1e 0c 3c 33 00 00 00 00 00 00 00 00
       6.204826e-09 4.378318e-08 0.0 0.0
000270 dc db 1f 30 00 00 00 00 bd ce 37 30 47 24 a6 31
       5.81563e-10 0.0 6.6868805e-10 4.83536e-09
000280 00 00 00 00 00 00 00 00 73 15 94 2e 00 00 00 00
       0.0 0.0 6.734071e-11 0.0
000290 b8 f4 d2 2e 25 ec 08 30 00 00 00 00 00 00 00 00
       9.593165e-11 4.9812093e-10 0.0 0.0
0002a0 a1 57 f9 2d 00 00 00 00 40 de 38 2d e7 51 19 2f
       2.8346938e-11 0.0 1.05085385e-11 1.3944366e-10
0002b0 00 00 00 00 00 00 00 00 ae 6f 6a 2f 00 00 00 00
       0.0 0.0 2.1321853e-10 0.0
0002c0 87 13 81 2f 8e ef bf 30 00 00 00 00 00 00 00 00
       2.3478838e-10 1.3965165e-09 0.0 0.0
0002d0 d1 d2 c2 2e 00 00 00 00 95 50 8d 2f 30 ae 34 31
       8.859547e-11 0.0 2.5705008e-10 2.6292462e-09
0002e0 00 00 00 00 00 00 00 00 83 a5 61 31 00 00 00 00
       0.0 0.0 3.2835892e-09 0.0
0002f0 d2 e4 4e 31 c7 85 2d 33 00 00 00 00 00 00 00 00
       3.0107015e-09 4.040137e-08 0.0 0.0
000300 37 86 d5 2e 00 00 00 00 99 6b d1 2f 40 46 ac 30
       9.70996e-11 0.0 3.809333e-10 1.2534613e-09
000310 00 00 00 00 00 00 00 00 16 8b b3 2d 00 00 00 00
       0.0 0.0 2.041171e-11 0.0
000320 1c 40 aa 2d ac 9c 1c 2f 00 00 00 00 00 00 00 00
       1.9355233e-11 1.4243778e-10 0.0 0.0
000330 fc 35 c8 31 00 00 00 00 8c 25 79 31 8a 96 bf 33
       5.8269034e-09 0.0 3.6255612e-09 8.9215135e-08
000340 00 00 00 00 00 00 00 00 5a 9c 4c 2f 00 00 00 00
       0.0 0.0 1.8609239e-10 0.0
000350 a5 22 98 2f 73 95 ef 30 00 00 00 00 00 00 00 00
       2.7673255e-10 1.7432015e-09 0.0 0.0
000360 da 4f cf 2d 00 00 00 00 93 8c 0c 2e c7 cd 9f 2f
       2.3568637e-11 0.0 3.195717e-11 2.9068145e-10
000370 00 00 00 00 00 00 00 00 43 69 fe 2f 00 00 00 00
       0.0 0.0 4.6277124e-10 0.0
000380 87 0e b2 2f b3 6a a2 31 00 00 00 00 00 00 00 00
       3.2388334e-10 4.726951e-09 0.0 0.0
000390 41 b3 96 2f 00 00 00 00 32 65 3d 30 8d 91 ef 30
       2.741221e-10 0.0 6.8901607e-10 1.7430907e-09
0003a0 00 00 00 00 00 00 00 00 94 fc 42 2f 00 00 00 00
       0.0 0.0 1.7733931e-10 0.0
0003b0 b3 94 30 2f 2e 17 18 31 00 00 00 00 00 00 00 00
       1.6059935e-10 2.2132087e-09 0.0 0.0
0003c0 19 db e2 2e 00 00 00 00 b1 ec 8b 2e bc b6 b4 30
       1.031621e-10 0.0 6.363033e-11 1.314866e-09
0003d0 00 00 00 00 00 00 00 00 98 df f6 31 00 00 00 00
       0.0 0.0 7.184962e-09 0.0
0003e0 88 fa d0 31 e2 05 cf 33 00 00 00 00 00 00 00 00
       6.082079e-09 9.640259e-08 0.0 0.0
0003f0 dd ab 38 30 00 00 00 00 89 6f 18 31 14 00 cd 31
       6.718304e-10 0.0 2.2182312e-09 5.966294e-09

exp_avg f4 [128]
000000 d0 cd dc 38 64 39 5b b7 80 bb 2a b8 2c 9a 80 b8
       0.00010528753 -1.30667795e-05 -4.070578e-05 -6.1322324e-05
000010 7e da b2 b7 cc 98 c0 36 03 ae f1 38 bd ab 02 38
       -2.1320997e-05 5.739834e-06 0.00011524188 3.115436e-05
000020 94 79 7f b7 83 32 19 38 44 75 47 b7 17 d7 95 38
       -1.52274915e-05 3.6525085e-05 -1.1888627e-05 7.144937e-05
000030 a6 f2 8f b8 4e ee d9 38 93 5f 59 b7 02 8e 2c 38
       -6.863968e-05 0.00010391754 -1.29564605e-05 4.114025e-05
000040 2f a4 d5 35 0a e3 19 b8 b0 8a 3c 38 a2 a2 e3 b7
       1.591752e-06 -3.668949e-05 4.4951856e-05 -2.713624e-05
000050 58 cc 41 39 b7 06 10 b9 bc 37 87 37 0a 98 e5 36
       0.00018482038 -0.00013735412 1.6119207e-05 6.8424315e-06
000060 90 9d ef b7 01 6a 35 39 71 62 03 37 b0 d7 dd b7
       -2.8564391e-05 0.00017300995 7.831129e-06 -2.644569e-05
000070 fa 5c 15 b7 33 0b 93 36 1e be 0e b8 e6 2b 46 b8
       -8.90274e-06 4.382245e-06 -3.40325e-05 -4.7247762e-05
000080 4b 68 c2 b7 30 cd 16 b6 25 53 e3 b8 5e cf e0 b7
       -2.3175167e-05 -2.2471177e-06 -0.000108396904 -2.6799444e-05
000090 d4 99 f9 36 f2 85 31 38 ba 76 42 37 7f fa c3 36
       7.438686e-06 4.2324835e-05 1.1590944e-05 5.8406144e-06
0000a0 44 2b 83 b7 c1 f5 49 39 c1 72 eb b7 fe b5 2e 38
       -1.5636564e-05 0.00019260404 -2.806762e-05 4.1654326e-05
0000b0 be 69 7d 38 6b 3a c6 b6 b2 24 35 b8 90 9d 10 37
       6.041838e-05 -5.9076606e-06 -4.3187938e-05 8.619754e-06
0000c0 8a e4 27 b7 d0 1f 98 b5 b2 4f b6 b5 f0 76 8b 36
       -1.0007187e-05 -1.1334141e-06 -1.3583251e-06 4.156369e-06
0000d0 f2 20 86 38 e9 61 87 38 09 25 d1 38 f1 2f c6 37
       6.3957545e-05 6.455539e-05 9.972795e-05 2.3625764e-05
0000e0 1c b4 09 b7 f5 1e 91 b8 58 99 bb 38 98 a6 2c b5
       -8.207771e-06 -6.919905e-05 8.945417e-05 -6.431742e-07
0000f0 c6 ca eb 38 7c 58 40 b8 a8 99 7b 36 d3 0a 5d 38
       0.00011243443 -4.5858775e-05 3.7491354e-06 5.2700587e-05
000100 47 eb 47 b7 90 ee 03 37 8d 1d d3 b7 90 06 60 b7
       -1.1916104e-05 7.863753e-06 -2.516692e-05 -1.3352968e-05
000110 dd 3c b6 37 d4 f1 42 38 f9 39 09 b8 30 79 52 39
       2.1724432e-05 4.6478424e-05 -3.2717337e-05 0.00020072307
000120 aa 7e 2e b6 e0 8e 35 39 81 92 cb 38 9e 87 d6 b8
       -2.6001749e-06 0.0001731473 9.707083e-05 -0.00010229576
000130 19 50 56 b8 30 f1 06 b8 d1 ff 9d b7 48 8f 69 b7
       -5.1096173e-05 -3.2172713e-05 -1.8834982e-05 -1.39212425e-05
000140 28 42 62 b6 40 37 85 b8 d2 74 f7 b6 a0 ba 7e b6
       -3.3715132e-06 -6.352225e-05 -7.3747733e-06 -3.795758e-06
000150 ac 0d c7 b8 90 1e 6c b7 80 cf 55 38 72 99 7a 37
       -9.491606e-05 -1.4073812e-05 5.0976407e-05 1.4936888e-05
000160 ef 82 ca b7 74 a2 80 36 38 69 ba b6 e7 64 d6 b8
       -2.4141247e-05 3.8336093e-06 -5.555481e-06 -0.0001022311
000170 30 7e 8b 37 a8 32 ed b7 86 70 30 b8 cb be f2 b7
       1.6628852e-05 -2.827619e-05 -4.2066466e-05 -2.8937493e-05
000180 a6 1e eb b7 b2 9b f6 b7 00 b2 b6 b6 a7 31 f7 b8
       -2.8028455e-05 -2.9397987e-05 -5.4447446e-06 -0.00011787126
000190 70 bb 83 b8 c6 74 1b b9 4f 42 52 39 e8 67 15 39
       -6.28148e-05 -0.00014825453 0.00020051863 0.00014248455
0001a0 8a 38 79 39 fd 36 92 38 92 8c 3f 38 26 6a 76 b8
       0.00023767553 6.972065e-05 4.5668865e-05 -5.874983e-05
0001b0 5f ee b1 b7 0a 5e 54 b7 af c1 00 39 db a1 63 b8
       -2.1211044e-05 -1.265808e-05 0.00012279184 -5.4271757e-05
0001c0 7e dc 88 37 53 23 ad 38 bd 74 44 b7 c2 75 a0 b7
       1.6315138e-05 8.2558625e-05 -1.1709691e-05 -1.9128322e-05
0001d0 f4 77 42 b8 77 0f 0e 38 ee f3 0f b7 47 b5 f4 b5
       -4.636492e-05 3.386984e-05 -8.5802585e-06 -1.8232175e-06
0001e0 b4 ad f5 37 30 4e bd b7 24 e3 b9 37 55 1e de b6
       2.9287163e-05 -2.2566965e-05 2.215949e-05 -6.6196467e-06
0001f0 62 30 39 38 98 eb d2 37 92 51 6f 39 47 14 f4 b7
       4.4152497e-05 2.5143658e-05 0.00022823203 -2.9096509e-05

exp_avg_sq f4 [128]
000000 14 7a d9 32 8e 03 e6 2e 61 b7 34 32 69 80 78 30
       2.531764e-08 1.04598205e-10 1.05190745e-08 9.0404356e-10
000010 a4 98 2c 2f aa b3 82 31 44 51 b1 31 5d f1 65 30
       1.5697538e-10 3.8039234e-09 5.160617e-09 8.365271e-10
000020 73 c2 24 31 20 4d 0b 30 a3 9b 4f 31 0e 40 88 31
       2.3975673e-09 5.0677507e-10 3.0210934e-09 3.965403e-09
000030 03 7d 33 30 45 45 f5 31 14 01 1a 2f f5 bc 35 30
       6.5297473e-10 7.1383135e-09 1.4006601e-10 6.611594e-10
000040 88 0a de 2c f7 b0 ad 30 5b 95 50 31 10 07 ab 2f
       6.3107887e-12 1.2637703e-09 3.0352882e-09 3.1109737e-10
000050 fa 62 1c 33 46 79 8e 31 cf d3 27 32 ed 23 56 2e
       3.64116e-08 4.146531e-09 9.768839e-09 4.8689875e-11
000060 3d 7b 07 2f 1f 0c 3c 32 48 24 a6 30 25 ec 08 2f
       1.2321962e-10 1.0945796e-08 1.2088401e-09 1.2453023e-10
000070 e6 51 19 2e 8f ef bf 2f 30 ae 34 30 c8 85 2d 32
       3.4860913e-11 3.4912914e-10 6.5731154e-10 1.0100344e-08
000080 41 46 ac 2f ac 9c 1c 2e 89 96 bf 32 74 95 ef 2f
       3.1336536e-10 3.5609446e-11 2.2303782e-08 4.358004e-10
000090 c7 cd 9f 2e b6 6a a2 30 8d 91 ef 2f 2e 17 18 30
       7.267036e-11 1.181738e-09 4.3577267e-10 5.533022e-10
0000a0 bc b6 b4 2f e2 05 cf 32 12 00 cd 30 cf 7f dd 31
       3.287165e-10 2.4100647e-08 1.4915733e-09 6.4464767e-09
0000b0 38 36 27 31 ca 01 a7 2e d4 f1 42 30 f6 c7 e4 30
       2.4332518e-09 7.5945986e-11 7.092045e-10 1.6646016e-09
0000c0 f2 23 b1 2e d4 fe 01 30 66 85 8d 2f 0b d6 eb 2f
       8.055413e-11 4.729206e-10 2.5742536e-10 4.2898338e-10
0000d0 ee db bd 31 68 81 65 31 e5 2e 31 32 8b 0b 08 30
       5.525627e-09 3.3397445e-09 1.0313419e-08 4.9492915e-10
0000e0 9c 4e 47 2f 2b 3b 1f 32 72 34 06 31 b6 98 61 2f
       1.8126872e-10 9.268471e-09 1.9529378e-09 2.0517885e-10
0000f0 2c 95 5b 32 ec e9 f1 30 e6 34 c3 2d 0b 85 59 32
       1.27813955e-08 1.7601542e-09 2.2192425e-11 1.2661313e-08
000100 27 bf 3f 2f 32 97 4b 31 f3 cd 5c 2f 43 aa 1c 31
       1.743926e-10 2.9626332e-09 2.0082051e-10 2.279777e-09
000110 b9 9f 15 31 7c 68 32 31 34 99 b9 30 be 13 9c 32
       2.1773146e-09 2.5961802e-09 1.3504065e-09 1.8169768e-08
000120 55 1c 0d 2d 12 f9 d9 32 5d 62 37 32 41 b4 44 32
       8.021213e-12 2.5375389e-08 1.0674367e-08 1.14496865e-08
000130 a0 b0 00 31 cb 03 74 31 c6 9e 57 30 42 c4 86 31
       1.8726851e-09 3.550883e-09 7.8442175e-10 3.922225e-09
000140 e5 dd 7f 31 02 e7 bf 31 00 8a 5e 30 c2 9a 51 30
       3.7233516e-09 5.585094e-09 8.095924e-10 7.625368e-10
000150 af 4d c9 31 b4 2d 10 2e 21 39 1a 31 4a 8d 41 30
       5.8587015e-09 3.2782402e-11 2.2442423e-09 7.0413775e-10
000160 af 0f 58 2f 10 59 40 2f c9 c6 96 30 19 62 25 32
       1.9650657e-10 1.749394e-10 1.0970435e-09 9.626569e-09
000170 cb 26 4d 30 2e dc 0b 30 f3 bc 83 30 d3 af e0 2e
       7.4633694e-10 5.08808e-10 9.585207e-10 1.0217573e-10
000180 3c 45 09 30 7d 48 ef 30 c5 a8 72 2d 8a 4f 1c 32
       4.99387e-10 1.7410141e-09 1.3793582e-11 9.09848e-09
000190 32 4b 21 31 38 1a 92 32 8e ee f3 32 02 eb 47 32
       2.3471327e-09 1.700856e-08 2.8397405e-08 1.1636759e-08
0001a0 d6 a6 26 33 fd 29 be 31 ad dd ea 30 fb 16 69 30
       3.8801623e-08 5.5345013e-09 1.7088745e-09 8.4797563e-10
0001b0 70 c1 ee 2f 09 7c e9 2d 42 4c 58 32 71 6d 0e 32
       4.3429393e-10 2.6544116e-11 1.2590194e-08 8.290372e-09
0001c0 4f d1 7e 30 b4 4f b3 31 bd f1 55 30 ce fc 13 30
       9.2702107e-10 5.218647e-09 7.783248e-10 5.3837546e-10
0001d0 16 72 22 31 f5 1f 38 31 68 7b 33 2f a8 37 b2 2c
       2.3638953e-09 2.679369e-09 1.6323798e-10 5.0652434e-12
0001e0 1a 1e 9c 31 86 8d 46 2f 50 2a 6d 30 14 21 bd 30
       4.5436197e-09 1.8058274e-10 8.628023e-10 1.3760961e-09
0001f0 30 cd 88 31 66 55 8e 31 04 84 30 33 a1 03 73 30
       3.981448e-09 4.1424526e-09 4.109826e-08 8.840804e-10
