MLAgentDevProject/results/BreadCrumb8/MoveToGoal/checkpoint.pt (torch, 440939 bytes, 36 tensors)

network_body._body_endoder.seq_layers.0.weight f4 [128, 6]
000000 54 b9 cc be f5 a9 5a bf c1 1f 83 be 53 f6 21 be
       -0.39985144 -0.85415584 -0.25610164 -0.15816621
000010 a8 61 3a bc 95 52 33 be 67 19 d6 3b 04 26 b0 3e
       -0.011375822 -0.17511971 0.00653379 0.34404004
000020 13 95 0d be e2 2b 32 3e bc 82 72 3e 7a f5 e7 ba
       -0.13826399 0.17399552 0.23682684 -0.0017697059
000030 92 4b 62 3f f5 59 c5 be 9c 05 d0 3e df 64 80 bf
       0.8839656 -0.38545194 0.4062928 -1.0030783
000040 b5 12 6a be 7a cc ae be c6 d5 0a 3f eb bd 9c 3e
       -0.22858699 -0.34140378 0.5423244 0.30613646
000050 11 c6 0f 3f 7a 46 82 bb 9d 2f 90 be 98 4f 46 3e
       0.561616 -0.0039756866 -0.28161326 0.193663
000060 2f f5 aa be 99 ca 1e bf 99 18 7a be ef 29 64 3b
       -0.33390185 -0.6202789 -0.24423446 0.0034815033
000070 84 0b 71 bf 20 a4 3f 3e 75 6b e8 be 98 ea ac bc
       -0.94158196 0.18714952 -0.45394483 -0.021107957
000080 54 5a 9f 3e ee dc 8d be 4c e3 cd 3e ea b6 31 3c
       0.31123602 -0.27707618 0.40212476 0.010846833
000090 f5 ee d0 3e f0 43 82 be e7 57 b4 3e 07 53 49 bf
       0.4080731 -0.25442457 0.35223314 -0.78642315
0000a0 be ac 1b be 00 dd 88 3d 58 d2 14 3f da 5c 08 3e
       -0.15202615 0.066827774 0.5813346 0.1331667
0000b0 a9 87 02 be c7 aa ec bb b8 a1 d2 3d 50 ca 7f 3d
       -0.12747063 -0.0072225067 0.10284752 0.0624488
0000c0 9a 48 0a bf d8 2f c4 be f9 63 44 3e 82 d2 e5 3e
       -0.5401703 -0.38317752 0.19178762 0.44887167
0000d0 fa dc 5b 3e d8 9b e7 3d a1 e4 dd 3e 04 0c ac 3d
       0.21471015 0.11309022 0.43338493 0.08400729
0000e0 70 f2 47 bd b5 49 7e be bc e4 e0 39 9c 1e 13 3e
       -0.04881519 -0.24832805 0.0004289503 0.14367145
0000f0 80 aa 1f 3f 34 65 2f bf 6c 20 1b bf c7 57 a1 be
       0.6236954 -0.685138 -0.60596347 -0.3151228
000100 dd 21 92 3f 73 5e 42 be 69 19 46 3d f3 c3 65 bd
       1.1416584 -0.18981342 0.048364077 -0.056095075
000110 f7 43 e1 3e dc e6 18 bf d2 d2 b3 be c4 5d db 3b
       0.43997166 -0.59727263 -0.3512178 0.0066945273
000120 d3 a3 d6 be c8 37 a0 3d d6 68 90 bd a3 1f dc bd
       -0.41921863 0.078231394 -0.07051246 -0.10748222
000130 42 7d 3d 3e ef 2d 05 3d d4 b3 c6 be b3 1a 69 be
       0.18504813 0.03251451 -0.38809073 -0.22764091
000140 ba 50 0a be bc 73 7d be 12 0e a9 bd b2 a7 16 be
       -0.13507357 -0.2475118 -0.08254637 -0.14712408
000150 f3 cf 4a be 1c 7b 0f bd 39 69 10 bf ad 8b 83 3d
       -0.19805889 -0.035029516 -0.5641056 0.064231254
000160 97 e4 a5 3e 45 46 17 3c ae d8 3a be 0a 2a 29 3d
       0.32400963 0.009233062 -0.18246719 0.041299857
000170 da 70 de bd ff 59 b0 3e 85 47 8e 3c 51 5e b8 3e
       -0.108613685 0.34443662 0.017368088 0.36009458
000180 a5 e9 c5 b7 c0 1c 0a 3e 0f 43 32 3f 42 68 e0 3e
       -2.359303e-05 0.1348753 0.69633573 0.43829542
000190 5f 38 29 be 54 97 ee 3e c3 27 40 be e5 3c 00 bf
       -0.1652541 0.4659983 -0.18765168 -0.5009292
0001a0 5a e8 60 3f 0f 5f 09 3f 29 fa d6 bc 21 50 79 be
       0.8785454 0.5366067 -0.026242333 -0.24346973
0001b0 91 ee 50 3e 25 bd 2b be db 04 6b 3f d9 50 83 3e
       0.20403506 -0.16771372 0.91804284 0.2564762
0001c0 cb 59 e9 bd 19 d2 19 be 1c ac 10 bf 98 d9 d9 be
       -0.1139408 -0.15021552 -0.5651262 -0.42548823
0001d0 df e0 7c 3e fd 83 12 3f 28 75 1c be 21 39 47 be
       0.24695157 0.5723265 -0.15279067 -0.19455387
0001e0 75 b2 3e be 7c 4f a7 bd 79 14 f4 3e c3 41 39 3e
       -0.18622763 -0.08169457 0.4767187 0.18091492
0001f0 51 52 0a 3f 8e 42 06 bf 01 e9 4a 3f 8b 12 8d 3f
       0.54031855 -0.52445304 0.79261786 1.1021284
000200 6a 30 4c bf fc 38 08 3f 66 1e af 3e 6f 9c ab bd
       -0.79761374 0.5321195 0.3420288 -0.08379447
000210 a1 8d dd 3d 6d 7f 2e be 0f 8c 81 3c 11 19 7c bf
       0.10818029 -0.17040797 0.015813855 -0.9847575
000220 6f 5f 3b 3e a0 3d b2 bd 09 1e 30 3f 15 fe 43 3f
       0.18298124 -0.0870316 0.6879583 0.76559573
000230 fd 3f 8e be 4b 14 24 3f 8b 63 3c be b3 d9 bd be
       -0.27783194 0.64093465 -0.18397348 -0.37080154
000240 3c e9 9f be c2 aa 73 3e d0 50 06 bf d1 18 2d bf
       -0.3123263 0.23795608 -0.5246706 -0.6761599
000250 ff 77 53 3f 68 ae 99 be 42 f3 fe be 58 72 22 3e
       0.82604975 -0.30015874 -0.49794966 0.15863931
000260 db 4c 06 3e fb f2 a0 bd 6a 36 d3 3e 2d 65 e5 3d
       0.13115256 -0.07858845 0.41252452 0.112009384
000270 94 a8 3b 3e 6c e8 04 bf 0b 9e e5 bd 44 c5 0f 3e
       0.18326026 -0.5191715 -0.11211785 0.14040095
000280 e9 f1 15 3f 92 cf b3 be 1d d9 d9 be ee c9 74 be
       0.5857225 -0.351193 -0.42548457 -0.23905155
000290 42 56 26 3f f9 22 4b 3a f9 15 14 bf f6 0d b1 3d
       0.6497537 0.0007749047 -0.5784603 0.08645241
0002a0 03 73 8b 3e a3 c6 27 be c8 a6 89 bd 3a 7c 29 3e
       0.27236184 -0.16384368 -0.06721264 0.16551295
0002b0 08 bd 20 3e aa dc 1c bf cc ac 0d bf 01 da c6 3d
       0.1569711 -0.61274207 -0.5534179 0.0970955
0002c0 ac fe e5 3e 3c 77 c3 be f8 e3 64 bc 82 79 c5 be
       0.44920862 -0.38176906 -0.013970368 -0.38569266
0002d0 6e d9 2e bd 1b 9a 94 bf 62 ca f9 be e6 8b 54 be
       -0.042687826 -1.1609529 -0.48787218 -0.20756492
0002e0 5c 09 97 be 25 a8 0b bf 69 8c 3c be 78 46 d0 3e
       -0.29499328 -0.54553443 -0.18412937 0.40678763
0002f0 57 32 a8 3e dc 8e f3 bc be 32 2a 3e ca 9d 40 be
       0.32850906 -0.029731207 0.16620919 -0.18810192
000300 5c 69 12 bf e4 76 8f bf 4a 9b 72 3e 12 90 3a 3f
       -0.57192016 -1.1208158 0.2369205 0.72876084
000310 7f 8c 9e be e1 c4 50 be 35 8d 3f be 67 12 fe 3e
       -0.30966565 -0.20387603 -0.1870621 0.49623415
000320 76 e1 b3 3d 83 29 23 bf 0d 23 2b bf 2d 94 ca 3d
       0.08783238 -0.63735217 -0.6685036 0.098915435
000330 e4 ce fc bd 55 e9 8e 3e 0f 8b 0d bd fc 19 22 bf
       -0.12344149 0.27912393 -0.034556445 -0.633209
000340 99 71 22 3d c8 b2 9d be 3b f1 fe 3d 8d 8b a9 bd
       0.039659116 -0.30800462 0.12448355 -0.0827857
000350 6e 78 a3 bd 9e 22 0a 3f 50 94 97 be b2 0c 5a be
       -0.079819545 0.5395907 -0.2960534 -0.21293905
000360 67 11 a7 be 48 3f e6 be 28 0d 6a 3b 38 5a e0 bc
       -0.32630464 -0.44970155 0.0035713408 -0.02738677
000370 6f 6c f7 3e 50 1c e9 3e 0e 39 cc 3e d1 93 89 3e
       0.48324916 0.45529413 0.3988728 0.26870587
000380 3c fb ac 3e 25 cb 5a 3f b0 14 19 be 41 cc 87 be
       0.33785427 0.85466224 -0.14949298 -0.2652302
000390 54 50 89 be 6e 27 00 3e 5b 47 b4 be 01 cf ae be
       -0.26819098 0.12515041 -0.3521069 -0.34142306
0003a0 25 ae d0 3e 59 d7 68 bc 8f 19 c8 3d 48 ab 13 bf
       0.40757862 -0.014211499 0.097705 -0.5768323
0003b0 71 8d d8 be 72 95 23 3f 9d 11 80 3d a2 c4 bd 3e
       -0.4229541 0.6389991 0.062533595 0.3706408
0003c0 e0 a0 b5 3e 8f 94 33 3f f0 e4 3d be fd b3 50 bf
       0.354743 0.7014856 -0.18544364 -0.8152464
0003d0 b3 70 79 3e 0b e9 0b bf ed c3 ef 3e 31 9f 36 3e
       0.24359398 -0.5465247 0.46829167 0.17834164
0003e0 8a 6e 2f 3e 1b d9 4e be 55 96 6a be e3 30 8b 3e
       0.17132011 -0.20200007 -0.2290891 0.27185735
0003f0 d1 98 84 3e 09 1d e3 be 49 89 49 be 8e 73 ef 3e
       0.2589784 -0.4435809 -0.19681276 0.4676785

network_body._body_endoder.seq_layers.0.bias f4 [128]
000000 ef e9 50 3c 17 03 c9 bd 53 16 01 3d 83 a7 d2 bd
       0.012751087 -0.098150425 0.03151543 -0.102858566
000010 6d a1 80 bd 8f 6a 8d 3d 2b 07 1c bd a4 65 45 bd
       -0.062807895 0.0690509 -0.038092773 -0.048192635
000020 bf b7 1d bd 17 ec 16 bd 99 d8 e7 bc 57 fa 05 bd
       -0.038505312 -0.036846247 -0.028301524 -0.032709446
000030 85 28 d6 3c 26 01 89 bd 89 de 2c 3d f9 df 91 bd
       0.026142368 -0.06689672 0.042204414 -0.071227975
000040 f9 b4 ab bb bb 9a 1a 3d 1c dc fd 3c 5b 48 69 3c
       -0.0052400795 0.03774522 0.030988745 0.014238442
000050 0d fa 29 3e 73 1f a0 3d 94 7c c0 3c ef de 04 3e
       0.16599293 0.078184985 0.023496903 0.12975667
000060 a8 1e d9 3c c4 48 02 be 8f f2 72 3d a1 1d a4 3c
       0.026503876 -0.1272307 0.059313353 0.02003366
000070 f5 51 d7 3d 27 d5 dc 3c f2 8d b8 bc dd 03 69 bc
       0.10513679 0.026957108 -0.022528622 -0.0142221125
000080 46 80 81 3d d6 0d 1d bd 5f 0c 7f bc 54 b6 b3 3c
       0.06323294 -0.038343273 -0.015566914 0.021937527
000090 51 76 b2 bd c6 db b6 bd de 30 0f 3d d8 f2 9a bd
       -0.08713973 -0.08928637 0.034958713 -0.0756585
0000a0 f2 90 84 3c 5f d3 00 bd c7 95 f6 3d dc a3 15 3c
       0.016182397 -0.03145158 0.120402865 0.009133305
0000b0 63 2c 6b bc 5a 53 1c bd 32 c6 a7 bd 66 66 20 bd
       -0.014353844 -0.038165428 -0.081921 -0.039160155
0000c0 1e 63 9c bc a2 ec 86 3b c0 45 26 bc b8 df 8e 3c
       -0.019090232 0.0041175643 -0.010148466 0.017440662
0000d0 a0 25 8d 3d 86 55 18 bd aa ae 28 3e ea a8 ef bd
       0.06891942 -0.037190937 0.16472879 -0.1170214
0000e0 ba bc ae 3c 86 7d 73 3c 83 02 8d 3c ec 01 84 bb
       0.021330226 0.01486147 0.017213112 -0.0040285494
0000f0 a3 fc ae bc 85 9c 52 bd 07 fd 0f 3d 49 de da 3c
       -0.021360701 -0.0514188 0.035153415 0.026717322
000100 a7 85 a4 bc 11 90 f6 bb 51 9b c9 3c ff ea ce bd
       -0.020083262 -0.0075244983 0.024610193 -0.10103416
000110 f5 64 46 3c ad 64 1d 3d 5a 7f 32 3d 66 28 5c bc
       0.012109031 0.03842609 0.043578483 -0.013437366
000120 6e d7 0c 3d c3 01 da 3d eb 35 73 3d 52 e0 49 bd
       0.034385137 0.10644867 0.059377592 -0.049286194
000130 16 a4 c7 bc fa 82 aa bd 2c cf 58 bd 19 a8 54 3d
       -0.024370234 -0.08325763 -0.05293195 0.051918123
000140 25 78 11 bd 1b 77 c9 bc d7 d9 06 bc e7 06 e4 bc
       -0.03551497 -0.024592927 -0.008230648 -0.027835323
000150 0c a0 54 3c e7 e6 3f 3d d9 65 1a bd 69 88 2f 3d
       0.012977611 0.046851065 -0.037694786 0.0428547
000160 ee cb d2 3b 79 63 bd bb 46 30 b6 bd b1 4a c8 bd
       0.0064330017 -0.0057796803 -0.08895926 -0.09779871
000170 b0 91 8f 3d 20 ec 29 bd 17 9e 89 3d 91 0b 8e bd
       0.070102096 -0.041484952 0.06719606 -0.069358
000180 3b 01 e9 3c 47 3a 3f 3e 2d 97 b1 bc 66 c8 79 3d
       0.02844297 0.18674575 -0.021678532 0.06098213
000190 20 1e ce 3c 1b 5e 1e bd a1 56 fd b7 e6 2a c2 bd
       0.02516085 -0.038663965 -3.020029e-05 -0.094808385
0001a0 ca 0f e7 3c 22 ba c9 bc cf 53 6d 3b fb bf 8a bd
       0.028205771 -0.024624888 0.0036213284 -0.067748986
0001b0 ee dd 2b 3d 1e 71 39 bc d9 92 8d 3d da 34 b4 3d
       0.041959696 -0.011318473 0.069127746 0.08799143
0001c0 c3 f0 37 3c 27 d2 7e 3c 63 37 5b 3d 7d 53 9c bd
       0.011226836 0.015553034 0.053519618 -0.076331116
0001d0 b9 b9 22 3e 03 2e 66 3d 35 7a fa bd f6 29 25 3d
       0.1589116 0.056196224 -0.122303404 0.04032322
0001e0 c0 99 11 3c 46 72 0b be 23 bf ed 3d 9d 5f f6 bc
       0.0088867545 -0.1361781 0.11608722 -0.030074889
0001f0 77 e2 a5 3a 81 8f 9c bd 7f cc b2 bb 35 2e 7d bd
       0.0012655993 -0.07644559 -0.0054565067 -0.061811645

network_body._body_endoder.seq_layers.2.weight f4 [128, 128]
000000 e8 2c 20 bd a7 25 d7 3c b7 12 43 3e 50 07 92 bd
       -0.039105326 0.026263071 0.19050108 -0.07130301
000010 fd cc bb bd 1d 17 da bc 75 bb 44 bc 8e 2b 09 be
       -0.09169958 -0.02662235 -0.012007584 -0.13395521
000020 04 cd bc 3d 47 86 c1 3b 01 0f b4 bd a1 29 bf 3d
       0.09218791 0.0059058997 -0.08791924 0.09334112
000030 64 1a 2b 3d 01 c7 bb 3d 70 b4 90 bd 2a 41 bb bd
       0.041773215 0.09168816 -0.07065666 -0.091432884
000040 3f 02 ee bd 07 f0 85 bc a9 9e 87 bd 29 ec 9d 3d
       -0.11621522 -0.016349806 -0.06622059 0.077110596
000050 52 fa 1e bd ad 7b f5 bd 51 c3 dc bc 14 38 30 3e
       -0.038812943 -0.1198648 -0.026948603 0.17208892
000060 f8 33 df bd ae c5 1d be d8 ca 9d 3d 83 de df bc
       -0.10898584 -0.1540744 0.07704705 -0.027327782
000070 da e9 06 bc f8 03 bc 3d ff ac 75 bc 6f a0 05 bd
       -0.0082344655 0.091804445 -0.014994859 -0.032623705
000080 e2 d6 0e 3d d1 3a 45 bd d4 b3 c1 3d 72 cc 57 3d
       0.034872897 -0.048151795 0.094581276 0.05268521
000090 51 35 37 3c 2e dc ee 3d b4 83 7e 3c 56 a0 20 bc
       0.011182145 0.1166309 0.01553433 -0.009803852
0000a0 e2 a1 92 3d c6 71 45 3e a0 f8 0c 3e bc 9b 13 be
       0.07159783 0.19281682 0.13766718 -0.14414877
0000b0 01 0d 98 bd 3a 8f 30 3d 10 3a ba bc c3 b0 e6 bc
       -0.07424355 0.04310534 -0.022732764 -0.028160458
0000c0 bf be a8 3d 53 a5 8d bb d9 9e d9 3b fe 4b 5c bd
       0.08239507 -0.0043226867 0.0066412506 -0.05378341
0000d0 fb 6c 18 be 09 e5 0f be 5f 37 05 3d 4c 2c 92 bd
       -0.14885323 -0.14052214 0.03252351 -0.07137355
0000e0 7c c8 b8 3d 0c ab ac 3d 8e ee 80 3c 04 b2 8d 3d
       0.09022614 0.08431062 0.015738752 0.069187194
0000f0 b6 ba 09 be 06 ad 86 bd 8c a9 e4 bd 7e 44 09 3e
       -0.13450131 -0.0657597 -0.11165151 0.13405034
000100 e7 41 42 3d 46 30 fc bc 3a 35 88 bd 25 0c bf 3d
       0.04742613 -0.030784737 -0.06650777 0.09328488
000110 b4 56 07 3d c4 a5 2b be 0e bb 9f bd be 7e 8e 3d
       0.03304167 -0.16762453 -0.0779935 0.06957768
000120 e4 92 b7 bd 36 ef 3a be df 86 ad bd e5 25 02 be
       -0.08963564 -0.18255314 -0.0847299 -0.12709768
000130 6c 2a a1 bd 21 d0 12 3d de d0 91 3d b7 2b 83 bd
       -0.078694195 0.03584302 0.071199164 -0.06404822
000140 4a 6f 9e bc 4c 3a bf 3c 27 72 ad 3c 9e 3b b2 3b
       -0.019340176 0.023343228 0.021172596 0.005439236
000150 5c cc b1 bd c3 07 40 bc 31 69 96 be 93 df 04 3e
       -0.086815566 -0.011720601 -0.2937713 0.12975912
000160 54 f5 3b 3d c7 05 65 3c 2c 8e b5 bd 9f 29 18 be
       0.04588826 0.013978428 -0.08865008 -0.14859627
000170 05 e6 e2 3b af 16 8d bd 3e fd 8b 3d d3 e7 9d bd
       0.006924393 -0.06889092 0.068354115 -0.077102326
000180 49 0a 40 bd 5e 9d 4f 3e 09 91 9f bc 8a f7 06 be
       -0.04688481 0.20274875 -0.019478338 -0.13180366
000190 0e 99 36 3e 20 c8 2c 3e e5 21 c7 bc 2e 1c 00 bd
       0.17831823 0.16873217 -0.024308154 -0.031276874
0001a0 94 e7 2a be 30 9d 05 3c 2a 42 12 bd 65 86 19 bc
       -0.16689903 0.008155152 -0.03570763 -0.009370421
0001b0 02 95 91 3e e0 0a a1 3d 75 c5 8b bd 06 c4 93 bd
       0.28433996 0.07863402 -0.06824771 -0.07215123
0001c0 7a 93 d8 bd fb 49 8a 3c 76 0f 70 bc c3 56 0d be
       -0.10575004 0.01688098 -0.014652124 -0.13802628
0001d0 22 a0 11 be 76 48 2c 3d 0f cf a0 bd 3e ef 28 3b
       -0.14221242 0.04206129 -0.07851993 0.0025777365
0001e0 da 0d 27 bd 28 7d 04 be a5 f0 a0 3d d9 d5 28 bd
       -0.040784694 -0.12938368 0.07858399 -0.041219566
0001f0 a8 02 3d 3e c8 21 fd bd dd 2b cc bd ad 36 7f bd
       0.18458045 -0.12359959 -0.09969304 -0.062308002
000200 90 5d a7 bc eb 04 6e bc 91 7b e0 bd 82 97 85 3d
       -0.020430356 -0.01452754 -0.109610684 0.065230384
000210 6a d5 02 3d 7f 8b bc 3d a2 ea 8d 3c 2e 88 d7 3c
       0.03194181 0.09206294 0.017323796 0.026310053
000220 6c 41 da bd 64 4e 31 3e 3a bb 9e bc 6d f3 3d bb
       -0.106570095 0.1731506 -0.019376386 -0.0028984204
000230 39 db 99 3d 3d e1 36 3d 25 bb f8 bd df ea 2f 3c
       0.075125165 0.044648398 -0.1214507 0.01073715
000240 1f 76 23 3e 3c b9 9e bd 3b 02 48 3d 59 df a9 bd
       0.15963028 -0.077501744 0.048830252 -0.08294553
000250 3a 0b 85 bd 15 03 55 be 6e da 61 3c ff a9 c5 3d
       -0.06496282 -0.20801957 0.013784988 0.09651565
000260 f1 b7 be 3d f1 ef 1b 3d 69 58 c7 3d bc 25 32 3e
       0.09312428 0.038070623 0.0973366 0.17397207
000270 12 0c cb bc 35 a1 59 3d 1b 60 20 3d 5e be 0e bd
       -0.024786029 0.053132255 0.039154153 -0.034849517
000280 78 ea 94 3b 86 4b 38 bd 75 59 28 3c ef 27 03 3e
       0.0045445524 -0.0449939 0.0102752345 0.12808202
000290 ff a0 69 ba 4b 37 10 3d 6a da 80 be ed e1 32 be
       -0.0008912235 0.03520898 -0.25166637 -0.17468996
0002a0 2c b2 d1 bc 87 45 e2 bd 3b 68 00 3e ef 58 8c bd
       -0.025597654 -0.110484175 0.12539761 -0.068529
0002b0 22 cd 72 3d 94 c5 6c be 79 4b 92 bd 5d 3e e2 bd
       0.05927766 -0.23122245 -0.071433015 -0.11047051
0002c0 f2 1f ee 3d 0f 4d 8c 3c 50 3c 8c 3d 51 d7 09 3e
       0.11627187 0.017126588 0.06847441 0.13461043
0002d0 0e db 47 3e 18 c2 06 bc 19 ac d8 bc 36 b7 0d 3c
       0.19517156 -0.0082249865 -0.02644925 0.008649638
0002e0 11 ef da 3d f5 29 5d bd 2b 3c 0e 3d 6b 22 b2 3d
       0.106901295 -0.05399509 0.03472535 0.08697971
0002f0 52 ba 92 3d 62 5a ab bd bc c7 c4 3d 0b fa 6a bd
       0.07164444 -0.083668485 0.09608409 -0.057367366
000300 bf 4f a4 bd ba 1a 88 3d f2 b5 1e bd d2 cd 82 3d
       -0.08023023 0.06645723 -0.038747735 0.06386913
000310 d5 f5 fc 3b 2c b5 9f 3b 69 06 8b 3d 5d 4c 3d 3c
       0.007719735 0.0048738923 0.06788332 0.011553851
000320 36 2a 2c bd 80 1d ec 3d fc c1 f1 3c d3 af ab bc
       -0.042032443 0.11529064 0.029511444 -0.020957863
000330 b4 bd 2f be 60 a2 0a be 3c 46 be bd 80 b8 e8 3d
       -0.1716221 -0.13538504 -0.0929074 0.113633156
000340 a7 df 4b 3e be b1 43 bd 28 6e 67 bd 44 23 61 bb
       0.19909535 -0.04777693 -0.056501538 -0.0034353295
000350 9e b8 87 3d 62 67 7d 3d 2c ad 23 bd 96 84 46 3e
       0.0662701 0.06186617 -0.03996007 0.19386515
000360 49 f7 d6 3b 66 b4 38 bd b2 6a b8 3d 48 62 60 bd
       0.0065602404 -0.045093916 0.090047255 -0.05478123
000370 ed 02 51 bd 40 3e 3f bd 13 98 31 3e 26 9f 1e bd
       -0.05102818 -0.046690226 0.17343168 -0.038725995
000380 fd a7 2e 3d 62 37 14 be 78 21 54 bd c4 71 41 bd
       0.042640675 -0.14474252 -0.05178973 -0.047227636
000390 eb 11 84 3c f1 3f 29 3b ed db 5a 3e 1a 07 52 be
       0.016121825 0.0025825466 0.21372958 -0.20510522
0003a0 85 46 fd bd 52 df c5 bd 91 7d e7 bb a2 72 e4 bd
       -0.12366966 -0.096617356 -0.007064529 -0.11154677
0003b0 72 a1 81 3d 94 f2 39 3e 76 91 d0 3c 68 71 86 3d
       0.063296214 0.18158942 0.025459986 0.06564599
0003c0 ca 7b e2 3c f1 80 05 bc ad bb f9 3d cd cb 7e be
       0.027646918 -0.008148418 0.121939994 -0.24882431
0003d0 e7 ac 8f bd b8 bf 28 3d 01 f7 46 bd a1 5b 33 3d
       -0.070154004 0.041198462 -0.048575405 0.043788556
0003e0 19 5f 04 be 14 49 29 be 1b 00 07 3e 92 7c 2b bc
       -0.12926902 -0.16531783 0.13183634 -0.010466712
0003f0 39 ea 17 bd a7 72 80 bd 03 dd c3 bc 45 83 75 3e
       -0.037088607 -0.06271868 -0.023909098 0.23975857

network_body._body_endoder.seq_layers.2.bias f4 [128]
000000 72 0c 26 bd b2 82 24 bd 80 d0 86 3c 88 df 43 bc
       -0.040539213 -0.040163703 0.016456842 -0.0119551495
000010 74 51 22 bd ed 96 fb bb 6e 61 12 3a fa e4 ba bc
       -0.03962846 -0.007677904 0.0005583976 -0.022814263
000020 9e b9 99 bc c0 ce 30 bd 06 73 48 bd dc 95 da bb
       -0.018765267 -0.043165922 -0.04893782 -0.0066706967
000030 c5 17 e3 bc 23 93 a3 3b 5a 6c 0d bd 61 97 84 bd
       -0.027721295 0.0049919053 -0.03452716 -0.06474186
000040 c9 89 66 bd e9 02 63 bd 49 5a ca 3b fb 94 40 bd
       -0.056283746 -0.055422697 0.0061753136 -0.04701708
000050 7b 65 e1 bc e8 96 fd bb ff 0b 33 3a 34 67 3d bd
       -0.02751421 -0.0077389367 0.00068300957 -0.046241
000060 bb 59 da 3c e3 60 02 bd c2 f2 b0 bc 3c c4 5d bd
       0.026654115 -0.03183068 -0.021600131 -0.05414222
000070 ad 44 b5 bc 36 6e 3d bd 5f 4b 44 bd cb d8 73 bd
       -0.022127474 -0.046247683 -0.047923442 -0.05953292
000080 93 13 15 3d ec 78 29 bd cb 91 10 bd c5 5e 96 bb
       0.03639562 -0.041375086 -0.03529529 -0.004588934
000090 a4 8a 5c bd ad fe 42 bc 9b 3f cd 3c bb 5e 5c bb
       -0.053843156 -0.01190154 0.025054744 -0.00336258
0000a0 71 b9 3f bd 0e a5 2f bc 01 18 06 3c b1 70 35 bd
       -0.04680771 -0.010720504 0.008184434 -0.044296924
0000b0 11 03 3e bd 77 fa 9f bc 87 45 ae bc 1f 35 e1 bc
       -0.046389643 -0.01952861 -0.021273388 -0.02749115
0000c0 46 5c 54 bd b6 6b 0f bd 81 cf 05 bc 7a 86 45 bc
       -0.05184581 -0.03501483 -0.008167149 -0.0120559875
0000d0 79 db f9 bb c7 fe 27 bd 7b 8b 5c bd f0 95 7b bc
       -0.00762504 -0.04101446 -0.053843956 -0.015355572
0000e0 db 7d 7c bc 4d ce b6 bc 13 74 9d ba 61 67 97 bc
       -0.015410866 -0.022315169 -0.0012012742 -0.018481912
0000f0 f3 f2 02 3c 54 54 0c bd 7c 09 60 3c d6 be af bc
       0.007992494 -0.03426011 0.013674136 -0.021453302
000100 f7 b4 22 bc 21 3a 3d bc 03 78 51 bc 5b 8a ff bb
       -0.009930841 -0.011549504 -0.012784961 -0.0077984757
000110 9c fa 75 bd 07 af 1f bd 4f e8 54 bc 6f 72 94 bc
       -0.060053453 -0.03898528 -0.01299484 -0.018120972
000120 57 c2 0f bd a7 58 2a 3c ca 11 88 3c 9b a7 33 bd
       -0.035097446 0.010397113 0.016610045 -0.043861013
000130 25 87 de bc e4 25 11 bd 9a ac 08 bd a7 86 6d 3c
       -0.027164051 -0.035436526 -0.03336773 0.014497436
000140 f5 d9 11 bd de 94 8c 3b 2c c0 57 bd bd 47 b5 bc
       -0.03560825 0.0042902073 -0.052673504 -0.022128934
000150 3e 73 d6 bc 3b 8c 45 bc 48 2d 30 bd e3 27 8b bb
       -0.026177999 -0.012057359 -0.043011934 -0.004246698
000160 30 10 98 bc 5c 77 56 3c 31 3b 81 bb 7d b6 4e bd
       -0.018562406 0.013089981 -0.0039438237 -0.050467003
000170 4b 1d 35 bd bc 74 b9 bb 2e 9a d0 bc 56 a1 d0 3b
       -0.04421739 -0.005659668 -0.025464144 0.006366889
000180 db 73 ad bc 23 41 51 bc b6 d5 e2 3b 94 a3 42 bd
       -0.021173408 -0.012771877 0.006922449 -0.04751928
000190 53 55 1b bd d7 1b a5 3b f2 85 7e bd 32 b7 dd bc
       -0.03792317 0.005038719 -0.06213946 -0.027064893
0001a0 72 0b a6 bc a2 4f 59 3c 8d d0 6e 3c 64 ad 09 bd
       -0.02026913 0.013263615 0.01457609 -0.033612624
0001b0 4c 61 02 bd d4 04 19 bd 0b b3 4a bd 31 ff 03 bd
       -0.03183107 -0.03735812 -0.049487155 -0.03222579
0001c0 71 0d 60 bd 96 03 3f bd 0c 5f 1f 3a e7 e2 4d bc
       -0.05470032 -0.04663428 0.0006079532 -0.012566305
0001d0 34 67 06 3c 32 ce 2d bd da 1d 0d bb 87 b0 48 bd
       0.0082033165 -0.04243297 -0.0021532685 -0.048996475
0001e0 5e ab 0e bd 18 8d 42 bd 1e f2 9c bb 6c 89 cd 3b
       -0.034831397 -0.04749784 -0.004789605 0.0062724855
0001f0 8e 25 9c 3a f4 e0 91 bb 1d f7 e5 3c a1 b1 b5 bc
       0.0011913048 -0.0044518653 0.028071934 -0.022179427

action_model._continuous_distribution.log_sigma f4 [1, 2]
000000 47 6d 47 be b5 1d fd bd
       -0.1947528 -0.12359182

action_model._continuous_distribution.mu.weight f4 [2, 128]
000000 ca 5f c6 3b e0 38 87 ba 9b 45 fe 3c c7 bb 0c 3d
       0.0060538994 -0.0010316633 0.03103905 0.034358766
000010 c0 bf 10 3c e3 00 4d 3c 98 f8 8b 3d 1c 3f 07 3d
       0.008834779 0.012512418 0.06834525 0.03301917
000020 b0 56 f6 ba 81 c8 4b 3c e8 a5 aa bb 6c aa aa 3b
       -0.0018794145 0.012437941 -0.005207766 0.005208304
000030 a6 f6 43 3c 3c 8a 89 3c 19 dd d1 3c 7b 17 38 bb
       0.011960661 0.016789548 0.025618123 -0.0028090167
000040 4b f2 d4 3c 90 34 f8 3a 7c de 36 3d d3 50 7b 3b
       0.02599444 0.0018936563 0.04464577 0.0038347736
000050 d8 4a dc 3c 16 11 ea 3c 68 c2 42 3d 05 5f b4 3b
       0.026891157 0.0285726 0.04754868 0.0055044913
000060 03 ec 57 3d 93 ec 78 3c 59 52 0a bd bb 72 3a bb
       0.052715313 0.015193122 -0.03376994 -0.0028449732
000070 34 bc 1f 3d 17 78 69 bb 52 f0 b9 bc fc 27 9c bc
       0.038997844 -0.0035624558 -0.022697601 -0.019062035
000080 36 61 0b bd d2 3b 07 3d e2 73 b1 3c a1 08 35 3d
       -0.034028254 0.033016033 0.021661703 0.044197682
000090 e0 90 ee 3b 10 7b 69 3c 25 1f 8f 3d 39 76 ab 3c
       0.007280454 0.014250532 0.06988362 0.020930396
0000a0 b0 96 43 bb 35 a1 03 3d a9 d0 bf 3c f8 36 67 3d
       -0.0029844455 0.03213616 0.023414927 0.056448907
0000b0 85 3f 4a bc b8 5d 31 3c bc 1e c0 3d 2b 31 5c 3b
       -0.012344246 0.010825567 0.09380862 0.0033598642
0000c0 e2 ba 1b bd bc 0e f1 3b 6b 78 e6 3c 9c 96 59 bd
       -0.038020022 0.007356493 0.028133592 -0.053122148
0000d0 46 ab b1 3b b5 2e bd bc 5d dc 45 ba 95 35 f1 3c
       0.0054220287 -0.02309356 -0.00075477903 0.029444495
0000e0 9a 37 da 3b 4b 33 73 3c e5 e4 f7 bc 33 bd 40 bd
       0.0066594603 0.014843772 -0.030260513 -0.047055434
0000f0 c6 59 91 3c 11 8d 91 3c 2b 4a 98 3d 4c 72 3b bd
       0.017743003 0.017767461 0.074360214 -0.0457633
000100 c8 52 12 3d 5f 1a be 3d 14 9a 60 3c 7c 57 7f 3d
       0.035723478 0.09282374 0.01370861 0.06233929
000110 a8 e0 aa 3b 99 91 9e 3c 84 86 61 3c 90 8d bb bb
       0.0052147694 0.019356536 0.013764981 -0.0057236627
000120 b4 7f b4 3b 57 cf 56 b9 6d 17 64 3d 40 3f 50 3d
       0.0055083875 -0.0002048587 0.055686403 0.05084157
000130 8a 4b 81 3d 18 04 c3 3c 92 bf 36 3c 36 94 a0 3d
       0.06313236 0.023805663 0.011154072 0.07840769
000140 00 0d e6 3c 4d b7 e9 3c 94 18 8a 3b 52 66 10 3d
       0.02808237 0.028529787 0.0042143557 0.03525383
000150 5c 6b 8c bc 52 68 52 3c 3b e3 84 3c 3b 51 97 3d
       -0.017141037 0.012842255 0.016221633 0.0738854
000160 5d 02 23 3b f0 04 2a 3c e7 81 63 bb fe 49 3a 3c
       0.0024873235 0.010377154 -0.003471488 0.01137018
000170 6c a7 74 3b 8a bc 2c bc fc be 2e bc b2 be b1 3d
       0.0037331237 -0.010542998 -0.010665651 0.0867895
000180 df 58 9d 3d 39 d1 27 3d ad 11 2b 3d 48 9e 33 bc
       0.076829664 0.040971015 0.041764904 -0.01096303
000190 ba a4 50 ba 98 98 f9 3b bf 58 94 3c ed ba ff bc
       -0.00079591165 0.0076170675 0.018108724 -0.031217063
0001a0 14 2a 9d 3b b2 56 49 bc ed 5f 57 3d f7 38 86 bb
       0.004796276 -0.012288736 0.052581716 -0.004096146
0001b0 6d 70 c0 3c ca 0a bf bc 51 c7 57 ba ee b7 31 3d
       0.023491109 -0.023320574 -0.00082312996 0.0433883
0001c0 92 76 f3 bb 86 be 75 bc 19 04 4d bd 95 37 5c bd
       -0.007429906 -0.014999038 -0.050052736 -0.053763945
0001d0 94 c7 8b 3b 0d a0 f4 bc 74 9c b6 3c 4b 4f 82 3c
       0.004265735 -0.029861474 0.0222914 0.01590695
0001e0 04 6e 94 3c 87 39 7d 3c 22 b7 c9 3b 0a b8 81 3c
       0.018118866 0.01545561 0.0061558643 0.015834827
0001f0 1b f1 61 3d 2a da 35 bd 12 06 84 3c 88 4d 01 3c
       0.055161577 -0.04439751 0.016116176 0.00789202
000200 0d 7c c8 bc 88 bc ea 3c 91 a8 65 3d e1 55 2e bd
       -0.024473215 0.028654352 0.05606896 -0.04256237
000210 a8 98 c0 3c 70 8c 4b 3d e6 e5 65 bd 5f b7 ff 39
       0.023510292 0.04969448 -0.05612745 0.00048774012
000220 5d 44 d7 3c f5 ea e1 3b 72 1e 4a bd 9e 27 26 bd
       0.026277715 0.006894464 -0.04934544 -0.040565126
000230 19 a8 12 3d f2 ce 7f 3d 06 c8 a4 ba 6a 5f 7a 3c
       0.03580484 0.062453218 -0.0012571819 0.015281538
000240 64 bd 00 bc 0f e2 8d 3c ff d3 7f bc 27 b5 2c 3b
       -0.007857654 0.017319707 -0.015614509 0.0026353092
000250 b8 20 2e 3d de cf 55 3d 02 fd b2 bc 67 f0 39 3c
       0.04251167 0.05220019 -0.02184916 0.01134882
000260 23 f3 87 3d e0 f9 e8 3c be c3 82 3d d1 e7 05 3c
       0.066381715 0.028439462 0.06384991 0.008172945
000270 d9 68 84 3c 46 51 cf 3c 8e ea 12 bc 65 67 29 3c
       0.016163277 0.025307309 -0.008967055 0.010339593
000280 43 0b 68 bd 99 11 3e 3d d1 a6 0a 3d 03 a8 ab 3c
       -0.056651365 0.0464035 0.033850495 0.020954138
000290 3b 84 22 3c 03 85 53 3d 16 47 9e 3d e9 1b 81 3d
       0.0099192215 0.05164052 0.07728402 0.063041516
0002a0 4a da c9 3b 7a 91 9c 3d 12 ce a4 3d d0 f9 4f 3c
       0.0061600553 0.07644935 0.08047117 0.012693837
0002b0 46 e6 cd 3c 4e 5a f6 bc 70 65 a6 bc 35 34 f4 3c
       0.025134217 -0.030072358 -0.020312041 0.02981005
0002c0 05 48 ab 3b d0 67 3f 3c b9 dc 3b 3d 7b c8 01 3c
       0.0052270913 0.011682466 0.045864794 0.007921333
0002d0 11 64 5c 3d 63 4a a0 3c f4 6a 9e 3c 44 94 5c 3d
       0.05380637 0.01956672 0.019338109 0.053852335
0002e0 17 2e 2a 3d 9b df c0 bc f3 93 22 3a 64 2f 01 bd
       0.04154786 -0.023544123 0.0006201856 -0.031539336
0002f0 35 64 77 3d b4 04 ef 3c 4d 2f 18 3d 29 e5 06 bb
       0.0603983 0.029177047 0.037154485 -0.0020583367
000300 64 66 b2 bb cb 33 f3 bc f8 31 49 3d 3c 43 3c bc
       -0.005444335 -0.029687783 0.04911992 -0.011490639
000310 f7 20 b4 3c ca d5 7c bb f1 18 07 3d 7f 7f 17 3d
       0.021988375 -0.0038579577 0.03298277 0.036986824
000320 9d 80 a5 bc c6 e5 8b 3d 98 3b f5 bc 17 d3 be 3c
       -0.02020293 0.06830935 -0.029935643 0.023294015
000330 48 5b 87 3c 4f 37 1c bc f8 fa 23 3d 71 c4 1d 3d
       0.016523018 -0.009534671 0.040034264 0.03851742
000340 6c dd 8d 3c a4 e4 83 3d 03 f1 dd 3c f7 53 55 3d
       0.017317496 0.06440094 0.027092462 0.05208203
000350 d0 02 6e bc db d2 54 3d 07 2c 9c bb 99 43 06 bd
       -0.014527038 0.0519589 -0.0047659907 -0.03277931
000360 fa e3 87 3c a6 5c a0 3d b0 06 1d bd 3b 67 81 3c
       0.0165882 0.07830171 -0.038336456 0.015796294
000370 5a 43 4f 3a 2d 06 55 3d a4 41 72 bb e3 93 ee 3b
       0.00079064595 0.052007843 -0.0036965394 0.007280813
000380 9a 6a de bc db 18 ad 3c 29 b4 5e 3c 84 d7 19 3b
       -0.027150441 0.021130016 0.013592758 0.0023474405
000390 30 9e e0 3c 64 d8 8c 3d 0c 7a 71 36 30 72 1d bd
       0.02741918 0.06877211 3.598284e-06 -0.038438976
0003a0 a6 2d 88 3d 33 31 90 3d eb 6f 03 3d 2c b2 0a 3d
       0.06649332 0.07040634 0.032089155 0.033861324
0003b0 65 cc 8e 3c 2a 68 05 bd 0f a8 82 3c fd e8 ce bb
       0.017431447 -0.03257004 0.015949277 -0.0063143955
0003c0 f1 50 a5 bb 3c bd 1f bc c9 cf a0 bd d1 9d 6a bc
       -0.0050450494 -0.009749707 -0.07852132 -0.014319853
0003d0 35 10 68 bd 0b 33 79 bc 66 12 5b 3d 61 5b ca bc
       -0.05665608 -0.0152099235 0.053484343 -0.024701776
0003e0 77 7a e5 3b 0a 0a 61 bc fa 87 5f 3d b4 62 70 bb
       0.0070031243 -0.013735304 0.054573037 -0.0036679925
0003f0 5f d1 cf 3b d4 57 3c bc 81 98 74 3d 2e 4a 26 3d
       0.0063420977 -0.011495549 0.05971575 0.040598087

action_model._continuous_distribution.mu.bias f4 [2]
000000 4a a8 4a bc 5f 2f c6 3b
       -0.012369225 0.0060481275

exp_avg f4 [128, 6]
000000 2a a1 52 36 00 00 00 00 16 1a a9 37 15 c4 1e b8
       3.1386248e-06 0.0 2.0158517e-05 -3.785275e-05
000010 00 00 00 00 a6 b5 89 b9 45 42 a5 37 00 00 00 00
       0.0 -0.00026266015 1.9700392e-05 0.0
000020 75 57 0f b8 d6 05 c4 38 00 00 00 00 bc 54 5b 39
       -3.4175308e-05 9.347095e-05 0.0 0.00020917034
000030 df 94 36 b5 00 00 00 00 5c ad c0 35 08 cc 04 34
       -6.801692e-07 0.0 1.4355569e-06 1.2367684e-07
000040 00 00 00 00 ac ec c6 b6 9c 0d b2 b7 00 00 00 00
       0.0 -5.928412e-06 -2.122559e-05 0.0
000050 ee c2 36 b9 ee cf d7 39 00 00 00 00 6a 23 b6 3b
       -0.0001742949 0.00041162915 0.0 0.005558421
000060 e0 02 28 36 00 00 00 00 3b 80 8d b9 fa 46 da 39
       2.5035624e-06 0.0 -0.00026989155 0.00041633082
000070 00 00 00 00 bc 1c 97 ba 70 75 42 38 00 00 00 00
       0.0 -0.0011528949 4.6362577e-05 0.0
000080 49 58 26 b9 2c 2a a4 38 00 00 00 00 66 78 29 3b
       -0.00015863882 7.8279845e-05 0.0 0.0025859117
000090 64 d0 a1 b7 00 00 00 00 bc a4 ba 39 f0 e3 b5 b9
       -1.9289735e-05 0.0 0.0003559942 -0.00034692837
0000a0 00 00 00 00 b2 ec a0 bb c4 79 b6 b8 00 00 00 00
       0.0 -0.004911029 -8.701117e-05 0.0
0000b0 bf 87 44 ba ac c5 af 3a 00 00 00 00 cb cd 18 3c
       -0.00074970344 0.0013410351 0.0 0.009326409
0000c0 2c 47 50 39 00 00 00 00 6e 9c ef 3a 9f 44 47 bb
       0.0001986294 0.0 0.0018280873 -0.0030405892
0000d0 00 00 00 00 21 92 5c bc 90 d6 f6 b8 00 00 00 00
       0.0 -0.013462574 -0.000117701595 0.0
0000e0 a2 ea 8d ba ac 5d ed 3a 00 00 00 00 c8 f0 1d 3c
       -0.0010827372 0.0018109581 0.0 0.009639926
0000f0 80 29 d8 b5 00 00 00 00 76 ef b0 b7 6d d3 32 38
       -1.6105332e-06 0.0 -2.1092343e-05 4.2635413e-05
000100 00 00 00 00 b1 52 04 39 44 4e 02 36 00 00 00 00
       0.0 0.00012619306 1.9417066e-06 0.0
000110 49 ee 23 b8 c4 5f fb 37 00 00 00 00 af fe 2e 3a
       -3.908415e-05 2.9966126e-05 0.0 0.0006675524
000120 2d 8e f4 38 00 00 00 00 7d 10 ab 3a 1f 3d 11 bb
       0.00011661309 0.0 0.0013051179 -0.0022161675
000130 00 00 00 00 91 b7 80 bc 4f f5 61 36 00 00 00 00
       0.0 -0.015712531 3.36704e-06 0.0
000140 37 93 97 37 01 e1 0d b8 00 00 00 00 d0 ac a8 b9
       1.8069155e-05 -3.382657e-05 0.0 -0.00032172212
000150 c8 ea 6f b7 00 00 00 00 a6 9d 9f b9 2e 62 f5 39
       -1.4300174e-05 0.0 -0.000304443 0.0004680319
000160 00 00 00 00 f0 3c 01 3a 0e bf e8 36 00 00 00 00
       0.0 0.000493004 6.9363805e-06 0.0
000170 98 d8 40 38 ba 58 68 b8 00 00 00 00 a9 b9 8b 3a
       4.5978086e-05 -5.5395743e-05 0.0 0.001066019
000180 d8 fc 02 b8 00 00 00 00 76 b4 0d b9 cc a7 8f 39
       -3.1229894e-05 0.0 -0.00013514035 0.00027400104
000190 00 00 00 00 e7 03 d6 3b 89 0d f0 36 00 00 00 00
       0.0 0.006531227 7.154133e-06 0.0
0001a0 82 0b 79 b6 a4 4c 56 37 00 00 00 00 1a be 85 39
       -3.711059e-06 1.2773238e-05 0.0 0.00025509374
0001b0 ed 2e 00 37 00 00 00 00 c0 74 87 b7 f4 8f 07 38
       7.64032e-06 0.0 -1.614762e-05 3.2320575e-05
0001c0 00 00 00 00 c4 5c 2a 3a ec 9b 28 37 00 00 00 00
       0.0 0.00064988085 1.0049884e-05 0.0
0001d0 d0 48 20 b7 84 33 fd 37 00 00 00 00 f9 e0 49 3a
       -9.553696e-06 3.0183939e-05 0.0 0.0007701065
0001e0 de bc 0c 34 00 00 00 00 7a d0 cc b4 2e 35 9b 34
       1.3107226e-07 0.0 -3.8149648e-07 2.8909693e-07
0001f0 00 00 00 00 a1 63 13 37 eb f4 0a b9 00 00 00 00
       0.0 8.785079e-06 -0.00013251945 0.0
000200 2c dc 11 bb a6 77 68 3b 00 00 00 00 6f 53 aa 3c
       -0.0022256477 0.0035471707 0.0 0.020791737
000210 20 e2 df b5 00 00 00 00 40 1d ce 36 00 d8 b8 31
       -1.6680606e-06 0.0 6.1426836e-06 5.379661e-09
000220 00 00 00 00 ee 13 62 b9 e3 2b 09 b6 00 00 00 00
       0.0 -0.00021560464 -2.0440136e-06 0.0
000230 37 95 ec b6 64 5f b4 37 00 00 00 00 52 13 33 39
       -7.050719e-06 2.1502092e-05 0.0 0.00017077968
000240 88 31 f3 35 00 00 00 00 12 d6 f3 35 54 57 b7 b6
       1.8119326e-06 0.0 1.8167214e-06 -5.4639913e-06
000250 00 00 00 00 b2 0a 94 b8 40 2c 8a 38 00 00 00 00
       0.0 -7.059182e-05 6.588595e-05 0.0
000260 56 25 d1 39 c8 63 39 ba 00 00 00 00 83 42 ae bb
       0.00039891404 -0.00070720585 0.0 -0.0053179874
000270 83 fc 12 b5 00 00 00 00 4c 3a 58 b6 37 89 c5 36
       -5.475669e-07 0.0 -3.2220441e-06 5.8870314e-06
000280 00 00 00 00 8e 74 98 38 7b e3 c1 38 00 00 00 00
       0.0 7.269635e-05 9.245329e-05 0.0
000290 7b ee 4c 3a fe 56 a6 ba 00 00 00 00 d7 cb d3 bb
       0.0007817519 -0.0012690721 0.0 -0.0064635086
0002a0 20 82 f5 b1 00 00 00 00 75 46 ee b3 0c 54 38 34
       -7.145232e-09 0.0 -1.1095555e-07 1.7166911e-07
0002b0 00 00 00 00 f6 78 51 36 91 ea 82 34 00 00 00 00
       0.0 3.1213835e-06 2.4385056e-07 0.0
0002c0 b2 6e 7c b5 14 a9 bf 34 00 00 00 00 f7 75 8d 37
       -9.40384e-07 3.5699543e-07 0.0 1.6863441e-05
0002d0 9c 33 63 b2 00 00 00 00 b9 b9 2e 34 52 70 4f b3
       -1.3224874e-08 0.0 1.6272578e-07 -4.8298098e-08
0002e0 00 00 00 00 72 8a 60 b6 f6 73 bd 36 00 00 00 00
       0.0 -3.3459187e-06 5.6461386e-06 0.0
0002f0 be 41 01 b7 18 39 cd 36 00 00 00 00 4c c6 d7 39
       -7.704306e-06 6.1161227e-06 0.0 0.00041155738
000300 7c bc 09 37 00 00 00 00 e0 82 a5 38 d1 94 f7 b8
       8.209721e-06 0.0 7.8921905e-05 -0.00011805597
000310 00 00 00 00 2b 4c d7 b9 d8 f7 14 b8 00 00 00 00
       0.0 -0.00041064745 -3.5516772e-05 0.0
000320 92 19 ca b8 30 77 4c 39 00 00 00 00 b8 f6 20 b9
       -9.6368734e-05 0.00019499357 0.0 -0.00015350699
000330 10 d6 37 34 00 00 00 00 bc 30 e9 b5 84 c0 8c 34
       1.7121079e-07 0.0 -1.7374036e-06 2.6217106e-07
000340 00 00 00 00 11 c1 dd 37 95 cd 2c 36 00 00 00 00
       0.0 2.6435157e-05 2.5749662e-06 0.0
000350 49 6e 19 38 b6 2f 4d b8 00 00 00 00 f0 b4 2f b8
       3.6580754e-05 -4.8920243e-05 0.0 -4.1891763e-05
000360 4e ce 77 38 00 00 00 00 d4 3b 2c 3a ca 7b 96 ba
       5.9081525e-05 0.0 0.00065701944 -0.0011480984
000370 00 00 00 00 e8 ca de bb c0 45 ba 34 00 00 00 00
       0.0 -0.0067990907 3.469595e-07 0.0
000380 25 15 94 b7 70 ad 42 38 00 00 00 00 9c e5 f1 39
       -1.7652821e-05 4.641473e-05 0.0 0.00046138174
000390 80 c3 80 38 00 00 00 00 2d 9b 4b 39 3a dc e5 b9
       6.13993e-05 0.0 0.00019417396 -0.00043842365
0003a0 00 00 00 00 9f 6e 15 bb a6 89 bd b7 00 00 00 00
       0.0 -0.002280153 -2.2594653e-05 0.0
0003b0 a1 d2 f0 b9 b4 f3 41 3a 00 00 00 00 98 f1 93 3a
       -0.00045933298 0.00073986803 0.0 0.001128721
0003c0 18 20 bd b2 00 00 00 00 e2 4c 63 b3 4d aa 90 33
       -2.201709e-08 0.0 -5.292248e-08 6.7365e-08
0003d0 00 00 00 00 4e 3b c6 35 49 93 b1 b8 00 00 00 00
       0.0 1.476941e-06 -8.467452e-05 0.0
0003e0 35 4c 58 ba 58 ac b8 3a 00 00 00 00 64 2c 04 3c
       -0.0008251102 0.0014089448 0.0 0.008067224
0003f0 84 18 a9 34 00 00 00 00 f4 36 a9 b5 ee 3c 7a 36
       3.149654e-07 0.0 -1.2607475e-06 3.7288369e-06

exp_avg_sq f4 [128, 6]
000000 d6 c5 94 31 00 00 00 00 1e 19 74 32 56 27 33 33
       4.3298582e-09 0.0 1.420838e-08 4.171246e-08
000010 00 00 00 00 0d 9e 29 36 7c 24 c7 35 00 00 00 00
       0.0 2.527496e-06 1.4837274e-06 0.0
000020 7e 8b 40 36 91 1f 12 37 00 00 00 00 29 7f 01 3a
       2.8691425e-06 8.709628e-06 0.0 0.0004939908
000030 4a bd c1 32 00 00 00 00 63 0b 0d 32 eb af 25 34
       2.2554236e-08 0.0 8.209869e-09 1.5430821e-07
000040 00 00 00 00 19 e5 eb 36 a8 f6 12 37 00 00 00 00
       0.0 7.0302162e-06 8.759707e-06 0.0
000050 b7 92 bd 37 a5 67 91 38 00 00 00 00 a3 6c 8c 3b
       2.2598875e-05 6.933444e-05 0.0 0.0042854114
000060 2b 65 81 37 00 00 00 00 07 39 20 38 dc e2 f7 38
       1.5425108e-05 0.0 3.8200084e-05 0.00011820134
000070 00 00 00 00 fc c2 f0 3b 2a 54 03 37 00 00 00 00
       0.0 0.0073474627 7.827804e-06 0.0
000080 a0 1d c3 36 62 c2 90 38 00 00 00 00 0d 42 7d 3b
       5.8149017e-06 6.902662e-05 0.0 0.0038644106
000090 92 32 51 36 00 00 00 00 30 6b 6b 36 ae 6e 93 37
       3.1172863e-06 0.0 3.508012e-06 1.7575305e-05
0000a0 00 00 00 00 d4 2f c9 3a 7c d9 ab 36 00 00 00 00
       0.0 0.0015349337 5.1215156e-06 0.0
0000b0 95 a9 93 37 d5 2d 5c 38 00 00 00 00 b4 1d 57 3b
       1.7602733e-05 5.249477e-05 0.0 0.00328241
0000c0 45 d9 d4 37 00 00 00 00 03 c0 a3 38 40 53 6f 39
       2.5373543e-05 0.0 7.808211e-05 0.00022823829
0000d0 00 00 00 00 4b f0 63 3c a9 29 e2 36 00 00 00 00
       0.0 0.013912271 6.7401747e-06 0.0
0000e0 43 fd 94 37 a6 58 74 38 00 00 00 00 ea 01 6a 3b
       1.7760909e-05 5.8256694e-05 0.0 0.0035706707
0000f0 03 7e 0e 32 00 00 00 00 1b 15 d1 32 a5 d4 8a 33
       8.29414e-09 0.0 2.43404e-08 6.4648056e-08
000100 00 00 00 00 10 05 96 36 63 76 17 36 00 00 00 00
       0.0 4.4709377e-06 2.2569664e-06 0.0
000110 29 f7 06 36 8f 95 94 37 00 00 00 00 c6 63 94 3a
       2.0111422e-06 1.7712619e-05 0.0 0.0011321239
000120 4b b9 54 37 00 00 00 00 15 db 31 38 1a d6 08 39
       1.2679327e-05 0.0 4.2404125e-05 0.0001304973
000130 00 00 00 00 ff bd 02 3c 1a c5 18 32 00 00 00 00
       0.0 0.007979869 8.89238e-09 0.0
000140 34 52 31 33 76 a3 d3 33 00 00 00 00 5e 4f e4 36
       4.1285787e-08 9.8551865e-08 0.0 6.804169e-06
000150 b2 40 bb 36 00 00 00 00 f5 d5 9a 37 01 28 64 38
       5.580566e-06 0.0 1.8457862e-05 5.4396693e-05
000160 00 00 00 00 c6 2d 5f 3b 0e e1 49 36 00 00 00 00
       0.0 0.0034054383 3.0082333e-06 0.0
000170 39 52 8a 36 ea e4 5e 37 00 00 00 00 89 7b 6b 3a
       4.1222925e-06 1.3285529e-05 0.0 0.0008982947
000180 e7 30 a6 37 00 00 00 00 02 21 7e 38 97 6a 41 39
       1.9811514e-05 0.0 6.058906e-05 0.00018445622
000190 00 00 00 00 03 2b 2e 3c 36 8a c4 32 00 00 00 00
       0.0 0.010630372 2.2880254e-08 0.0
0001a0 23 5e f8 32 62 85 19 34 00 00 00 00 d6 89 08 37
       2.8913808e-08 1.429776e-07 0.0 8.138324e-06
0001b0 cd 65 1b 34 00 00 00 00 24 e7 81 34 82 e3 77 35
       1.4472535e-07 0.0 2.41963e-07 9.234574e-07
0001c0 00 00 00 00 b8 07 79 38 05 f9 5e 34 00 00 00 00
       0.0 5.9373415e-05 2.0765954e-07 0.0
0001d0 75 6c 41 35 7a 06 1f 36 00 00 00 00 ab 55 00 39
       7.205593e-07 2.3696616e-06 0.0 0.00012238945
0001e0 cc 73 ea 2c 00 00 00 00 ce 16 60 2d 56 07 f9 2d
       6.663536e-12 0.0 1.27379895e-11 2.831128e-11
0001f0 00 00 00 00 88 06 74 31 93 dc be 37 00 00 00 00
       0.0 3.5510386e-09 2.2752478e-05 0.0
000200 9a 56 85 38 9e 7f 44 39 00 00 00 00 53 ee 1e 3c
       6.358065e-05 0.00018739558 0.0 0.009700376
000210 2e e8 05 35 00 00 00 00 b7 ca eb 34 1f 19 e7 36
       4.9884227e-07 0.0 4.3919655e-07 6.887261e-06
000220 00 00 00 00 a1 63 97 39 07 e8 94 32 00 00 00 00
       0.0 0.00028875194 1.7334981e-08 0.0
000230 44 1b 18 33 bf 6d db 33 00 00 00 00 be 8e ac 36
       3.5415056e-08 1.0217945e-07 0.0 5.142617e-06
000240 b2 28 c4 30 00 00 00 00 1a e5 a8 31 be 22 bd 32
       1.4272443e-09 0.0 4.9154893e-09 2.2018295e-08
000250 00 00 00 00 24 fb ba 35 40 a9 89 36 00 00 00 00
       0.0 1.3931171e-06 4.1026215e-06 0.0
000260 20 7e 17 37 15 f9 de 37 00 00 00 00 0e 71 eb 3a
       9.029667e-06 2.658045e-05 0.0 0.001796277
000270 47 83 12 31 00 00 00 00 5e ae c9 31 52 db 42 32
       2.1320419e-09 0.0 5.869693e-09 1.1342154e-08
000280 00 00 00 00 a7 81 8f 35 d0 1d 34 37 00 00 00 00
       0.0 1.0692064e-06 1.0735777e-05 0.0
000290 56 02 63 37 44 9c 78 38 00 00 00 00 48 45 92 3b
       1.3530798e-05 5.927334e-05 0.0 0.0044638254
0002a0 96 7f 30 2c 00 00 00 00 b9 a2 d6 2c ab 80 24 2d
       2.5081929e-12 0.0 6.1003117e-12 9.350891e-12
0002b0 00 00 00 00 30 ed a1 30 fe d8 70 2e 00 00 00 00
       0.0 1.1781705e-09 5.476241e-11 0.0
0002c0 e8 d1 9a 2e a9 5a 69 30 00 00 00 00 c4 49 2b 33
       7.040396e-11 8.489374e-10 0.0 3.988113e-08
0002d0 b2 5c 26 2b 00 00 00 00 79 b0 43 2c 89 d2 90 2c
       5.910369e-13 0.0 2.7809129e-12 4.1161003e-12
0002e0 00 00 00 00 e6 35 05 30 2a 48 9b 33 00 00 00 00
       0.0 4.846171e-10 7.2308765e-08 0.0
0002f0 a0 0c f9 33 54 d9 f2 34 00 00 00 00 9f 3d 0c 38
       1.15972625e-07 4.523414e-07 0.0 3.343599e-05
000300 e6 7b b8 34 00 00 00 00 85 95 b3 34 03 29 d5 35
       3.436282e-07 0.0 3.3450138e-07 1.5881673e-06
000310 00 00 00 00 de e1 9a 38 44 52 0f 36 00 00 00 00
       0.0 7.385363e-05 2.1356545e-06 0.0
000320 03 ba 14 36 b0 61 22 37 00 00 00 00 e3 fc 66 3a
       2.2161992e-06 9.678697e-06 0.0 0.0008811487
000330 17 55 a7 30 00 00 00 00 f5 8a 47 31 de f3 e4 32
       1.2175033e-09 0.0 2.90373e-09 2.6653591e-08
000340 00 00 00 00 f3 57 8d 35 0a c8 6d 33 00 00 00 00
       0.0 1.0530915e-06 5.5362797e-08 0.0
000350 1e 88 61 34 f5 b0 29 35 00 00 00 00 08 14 0d 38
       2.1004277e-07 6.321491e-07 0.0 3.3635675e-05
000360 b3 38 d3 35 00 00 00 00 78 e0 95 36 17 71 5d 37
       1.5737227e-06 0.0 4.4666776e-06 1.3198957e-05
000370 00 00 00 00 dc 74 6a 3a 07 a4 67 33 00 00 00 00
       0.0 0.0008943805 5.393306e-08 0.0
000380 db 1f 48 34 8b d7 1e 35 00 00 00 00 93 2b f5 37
       1.863804e-07 5.9173243e-07 0.0 2.9226567e-05
000390 9d 67 0a 36 00 00 00 00 7d 3a 5b 36 82 fc 42 37
       2.0623913e-06 0.0 3.2667588e-06 1.1622093e-05
0003a0 00 00 00 00 71 49 63 3a 85 2f 44 37 00 00 00 00
       0.0 0.00086703064 1.1693574e-05 0.0
0003b0 08 fc 02 38 e0 94 cd 38 00 00 00 00 d7 e1 b8 3b
       3.1229138e-05 9.802892e-05 0.0 0.0056421566
0003c0 b0 22 87 2c 00 00 00 00 ac f0 60 2d 5e 58 f1 2e
       3.840782e-12 0.0 1.2786366e-11 1.0975108e-10
0003d0 00 00 00 00 5a 75 8a 31 e0 28 66 36 00 00 00 00
       0.0 4.02967e-09 3.4296463e-06 0.0
0003e0 3d d7 0b 37 56 83 da 37 00 00 00 00 9f 4e dc 3a
       8.33516e-06 2.6048783e-05 0.0 0.0016808099
0003f0 32 37 e3 30 00 00 00 00 6e 4f 95 31 ca 5c 47 32
       1.6532111e-09 0.0 4.345501e-09 1.1604422e-08

exp_avg f4 [128]
000000 36 57 51 b7 b0 a5 41 36 5c fd cb b4 64 06 a6 39
       -1.2477676e-05 2.8855684e-06 -3.799604e-07 0.0003166675
000010 c0 73 0b b9 a4 f3 21 39 90 24 8f b9 6f a0 e7 39
       -0.00013299193 0.0001544492 -0.00027302327 0.00044179286
000020 57 94 fe b9 8e b2 d0 39 54 e9 47 36 e0 6b 21 38
       -0.00048557177 0.00039805885 2.9789126e-06 3.8485858e-05
000030 6b 6b 42 ba 00 cc 8b b7 94 03 fb b7 86 12 a6 38
       -0.0007416519 -1.6665086e-05 -2.9923198e-05 7.918947e-05
000040 97 d9 cf 39 7c 15 81 37 d7 c2 23 38 5f 63 45 38
       0.00039644234 1.5388003e-05 3.9043687e-05 4.7061007e-05
000050 44 ac 0d 35 cc b4 6c 3a fe 5e 69 b7 b0 40 17 37
       5.277727e-07 0.00090296264 -1.3909999e-05 9.015363e-06
000060 32 69 82 b6 09 52 88 b9 b9 d8 87 36 cf fb 87 b9
       -3.8865483e-06 -0.00026001062 4.0485434e-06 -0.0002593682
000070 20 46 42 34 c0 eb 89 35 57 18 5d b4 a8 3b da 37
       1.8093169e-07 1.0275908e-06 -2.0591084e-07 2.6015405e-05
000080 b6 22 3b b7 e7 7f 13 b8 10 77 dc 35 82 34 87 36
       -1.115415e-05 -3.516665e-05 1.6425929e-06 4.0294262e-06
000090 c2 49 9c b9 1f 5d d4 37 cb f4 c3 b8 f0 9f c7 b7
       -0.00029809593 2.5315732e-05 -9.343921e-05 -2.3797125e-05
0000a0 52 a4 b9 33 4e fe b5 39 fa 74 7a 36 a3 3a f1 b8
       8.6446235e-08 0.00034712482 3.7320992e-06 -0.000115026975
0000b0 7c 12 76 b9 94 db 8e b8 28 81 bc 38 2e f3 2f ba
       -0.00023467274 -6.811987e-05 8.988596e-05 -0.0006711957
0000c0 46 fc e6 39 ca fa b8 37 25 f0 5a 2f 70 5a de b6
       0.00044056977 2.2051292e-05 1.9912301e-10 -6.626644e-06
0000d0 c8 fa 89 38 38 d8 c4 b9 04 47 df 37 bb b0 29 39
       6.579381e-05 -0.0003754513 2.661674e-05 0.00016182933
0000e0 99 87 52 b3 6f 46 e0 b8 56 bc 52 ba 54 09 0c 37
       -4.901776e-08 -0.000106942716 -0.00080389285 8.346822e-06
0000f0 c6 f5 79 33 ab 2e e9 38 54 f1 36 37 16 9e 94 32
       5.819836e-08 0.000111189984 1.0904234e-05 1.7301357e-08
000100 5f ea d8 b9 90 bc 0c af 9c f1 41 39 ae 97 36 b9
       -0.0004137335 -1.2799917e-10 0.00018495921 -0.00017413378
000110 61 45 b9 34 bb 3f 54 b9 59 9a 4c 37 0e 56 84 37
       3.4509415e-07 -0.00020241637 1.2195284e-05 1.5775699e-05
000120 e9 ba 6c b5 f8 59 c6 b8 f8 7c 4c 38 86 e9 b8 38
       -8.818884e-07 -9.458134e-05 4.8753776e-05 8.817301e-05
000130 48 98 7f b9 bb 28 d8 37 3f 45 9e 31 20 f4 1b 35
       -0.00024375424 2.5768173e-05 4.6062776e-09 5.809725e-07
000140 d4 e2 4d b9 9c c6 4d b6 5c 5d f4 39 50 1f a3 b6
       -0.00019634824 -3.0662986e-06 0.00046608865 -4.861424e-06
000150 8f 54 3d b9 f0 56 fc 36 cc cb 9b 39 c9 cd 27 35
       -0.00018055945 7.520306e-06 0.00029715744 6.2511805e-07
000160 0b 33 2a ba 2e fe 05 ba b4 a6 c8 b8 a5 2f fd b8
       -0.00064925913 -0.0005111423 -9.567794e-05 -0.000120728546
000170 fe 7c 3a 36 e2 0e d7 39 0e ff 01 36 7a ec 02 b9
       2.7788915e-06 0.00041019084 1.937096e-06 -0.0001248586
000180 38 01 a7 b9 f0 31 8a 36 e9 c5 8a b9 46 7e e1 b9
       -0.0003185363 4.118534e-06 -0.00026468866 -0.00043009425
000190 0e d6 52 ba 5e 6b e5 33 c6 8f 79 b6 66 96 19 b9
       -0.0008042761 1.06831735e-07 -3.7187579e-06 -0.00014647245
0001a0 c2 ea 61 3a 48 b2 b2 b8 60 27 a9 b8 d8 d5 d8 37
       0.00086180505 -8.520909e-05 -8.065882e-05 2.5848785e-05
0001b0 78 57 41 36 7e 2d bb b7 57 75 ab 34 4a fc 70 39
       2.8810155e-06 -2.2313321e-05 3.1936608e-07 0.00022982169
0001c0 e4 19 95 39 ed 14 2c 3a 52 56 de 32 d9 4b a4 39
       0.00028438785 0.00065643975 2.5883455e-08 0.00031337028
0001d0 e2 88 a4 34 7b 3a fd b7 86 bc 18 39 de db b7 34
       3.0646976e-07 -3.0187182e-05 0.0001456608 3.424638e-07
0001e0 f9 a1 2d 37 2e 78 ea b9 0e 71 db 36 00 cf cb 33
       1.0349316e-05 -0.000447215 6.53987e-06 9.490577e-08
0001f0 18 e9 ee ae bc 9e a4 b8 e7 9f 04 ba ac 63 5e 36
       -1.0864393e-10 -7.849696e-05 -0.00050592277 3.3138595e-06

exp_avg_sq f4 [128]
000000 b8 64 f3 31 f5 ca 9e 35 bb 49 a1 32 d2 31 34 37
       7.083681e-09 1.1830986e-06 1.8776396e-08 1.0740436e-05
000010 cb 87 9b 37 04 52 2f 37 fb 65 88 36 38 28 09 37
       1.8540673e-05 1.0449909e-05 4.064988e-06 8.1752005e-06
000020 36 7e 10 38 42 be 16 37 fc d4 47 32 63 91 42 36
       3.444982e-05 8.984995e-06 1.1631752e-08 2.899288e-06
000030 0f e1 a5 37 6a 69 a0 32 82 13 11 37 4e 34 19 36
       1.9774334e-05 1.8674388e-08 8.6472155e-06 2.2829222e-06
000040 41 78 dc 37 50 7d b2 32 a2 a0 26 34 42 d9 a0 34
       2.6282041e-05 2.0778913e-08 1.5518393e-07 2.9960398e-07
000050 68 d4 46 2d d9 bb c5 37 b2 3b 5a 35 1f 6c 5f 32
       1.1302161e-11 2.3571703e-05 8.1298197e-07 1.3004892e-08
000060 c3 52 91 31 08 df 95 36 46 e5 59 31 d3 57 42 37
       4.2294643e-09 4.4665103e-06 3.1707983e-09 1.1583749e-05
000070 38 c6 83 2c 49 63 03 2f 3b fb da 2b c2 96 c8 33
       3.7452506e-12 1.1949654e-10 1.5559562e-12 9.3406484e-08
000080 21 6a 3a 34 32 02 12 36 5d f6 52 31 4b 80 b1 33
       1.736121e-07 2.1756973e-06 3.0699063e-09 8.265541e-08
000090 a1 95 1a 36 9d 1c 9a 33 e2 3b 1d 36 40 1f 6a 37
       2.3034884e-06 7.1763886e-08 2.342968e-06 1.3954763e-05
0000a0 ec 0f 51 2d c4 d2 8e 36 5d 66 02 31 98 8c 27 37
       1.188381e-11 4.256466e-06 1.8975677e-09 9.98671e-06
0000b0 86 02 69 38 af 43 33 35 36 0b 32 37 3c a0 4a 38
       5.555388e-05 6.678119e-07 1.0612237e-05 4.8309783e-05
0000c0 94 dd d9 37 49 b3 b5 32 89 38 74 22 93 45 ce 34
       2.5971596e-05 2.1152703e-08 3.3098096e-18 3.8421112e-07
0000d0 4c 18 bd 37 91 25 cf 36 fc 0a be 33 96 50 2b 35
       2.254187e-05 6.173454e-06 8.8495625e-08 6.381973e-07
0000e0 95 c7 8a 2b 82 05 8f 35 7c 69 ab 37 56 64 a0 34
       9.860885e-13 1.0655933e-06 2.0433909e-05 2.9875326e-07
0000f0 b9 25 73 2a f8 e8 23 36 1d 3e 72 33 c2 56 3b 28
       2.1595823e-13 2.4424498e-06 5.6401507e-08 1.0399398e-14
000100 79 8e 66 37 72 b2 0c 22 bd fe 30 37 56 b5 a1 37
       1.374224e-05 1.9068006e-18 1.0549728e-05 1.9277137e-05
000110 8d c8 41 2d 32 08 43 37 9b 77 ce 33 88 88 5d 33
       1.1015311e-11 1.1624814e-05 9.6143786e-08 5.1579747e-08
000120 bc d6 19 2f ea 9a cd 38 a0 02 0b 35 c3 6e 41 35
       1.3991558e-10 9.804017e-05 5.1785355e-07 7.205928e-07
000130 e0 be 2e 38 72 c5 e9 35 1f 59 af 26 7a 5a f1 2d
       4.16626e-05 1.7417317e-06 1.2167221e-15 2.7438708e-11
000140 c8 17 7e 36 7c 28 6f 33 0e d1 2b 37 62 0b c7 32
       3.7862792e-06 5.5683344e-08 1.0241069e-05 2.3171825e-08
000150 d5 ca 0c 37 9f 0b 6e 33 1b 80 06 38 c0 47 f7 2e
       8.391876e-06 5.5424263e-08 3.2067397e-05 1.1245005e-10
000160 ce 18 bb 37 df c5 51 37 9c 1c a0 37 0b 44 d7 36
       2.2303688e-05 1.2503441e-05 1.9086809e-05 6.4154206e-06
000170 84 c5 0e 30 81 af f8 36 fd 66 1c 30 38 97 d8 36
       5.1939986e-10 7.4114073e-06 5.6898825e-10 6.454906e-06
000180 4e a4 da 36 25 88 b2 30 6c 46 e0 37 6f c2 32 38
       6.516034e-06 1.2989899e-09 2.6735674e-05 4.2619587e-05
000190 6b e8 d9 37 2b 40 35 2f 97 46 2e 31 3e 03 83 36
       2.5976644e-05 1.6484651e-10 2.5360458e-09 3.9044817e-06
0001a0 d6 4c d3 37 ff 4e 20 36 3a f9 24 35 79 a6 15 37
       2.518894e-05 2.388784e-06 6.1457433e-07 8.919852e-06
0001b0 e5 0a c4 32 90 13 d0 32 2b 22 be 2c d4 98 ad 37
       2.2822357e-08 2.4223283e-08 5.403918e-12 2.0694373e-05
0001c0 22 27 06 37 eb ce 93 37 0a 48 5f 29 76 03 36 36
       7.996134e-06 1.762012e-05 4.957843e-14 2.7122128e-06
0001d0 95 fc 6a 2d 2c cf 12 33 71 d1 93 35 d0 92 58 2f
       1.33574445e-11 3.4181696e-08 1.1013309e-06 1.9697244e-10
0001e0 fb f8 1c 33 fe 6c 61 37 2d 63 54 31 f4 9a 0b 32
       3.6548027e-08 1.3436422e-05 3.0906435e-09 8.126097e-09
0001f0 d1 b5 23 25 59 b4 df 37 86 aa 12 38 31 14 af 30
       1.4199598e-16 2.6667652e-05 3.4967925e-05 1.2738665e-09
