MLAgentDevProject/results/BreadCrumb7/MoveToGoal/MoveToGoal-32809.onnx (onnx, 75061 bytes, 7 tensors)

network_body._body_endoder.seq_layers.0.weight f4 [128, 6]
0	0x3dd9047e	0.1059656
1	0x3f0c5e6b	0.5483157
2	0x3e7f9db1	0.24962498
3	0xbe01e9d4	-0.12686855
4	0x3e25becd	0.16186066
5	0x3f222e52	0.6335193
6	0xbe09dd37	-0.13463293
7	0xbf163225	-0.58670264
8	0xbc8c4930	-0.017124742
9	0xbf9bc605	-1.2169806
10	0xbf1e2012	-0.61767685
11	0x3e934564	0.28763878
12	0x3ee68189	0.45020702
13	0x3ead6f54	0.33874
14	0xbf47ec8a	-0.78095305
15	0x3ed05939	0.4069307
16	0xbe4e2809	-0.2013246
17	0xbbee3522	-0.0072695175
18	0xbf06aeda	-0.5261055
19	0x3ed63afb	0.41841874
20	0xbf314522	-0.69246113
21	0x3e7d4a9d	0.24735494
22	0x3eaa5aa1	0.3327227
23	0x3e1c13bb	0.15241902
24	0xbeaab0c5	-0.3333799
25	0xbe41e132	-0.18933561
26	0xbf11b975	-0.5692361
27	0xbe277283	-0.16352277
28	0xbf0fbe00	-0.5614929
29	0x3f86c8c6	1.0530021
30	0x3d4ad02f	0.049514946
31	0xbe5ec824	-0.21756035
32	0xbe08394a	-0.13303104
33	0x3e0264a0	0.12733698
34	0xbd8149d8	-0.06312913
35	0xbd5ee8bd	-0.054421175
36	0x3db126ff	0.08650016
37	0x3ea564bf	0.32303426
38	0x3db31aa4	0.08745316
39	0xbdc75b12	-0.09734167
40	0xbe591bdd	-0.21202035
41	0xbf40992d	-0.7523373
42	0xbe903322	-0.2816401
43	0xbe4fbdff	-0.20287322
44	0x3e2e50c7	0.17023002
45	0x3db23bcb	0.08702811
46	0x3ea27016	0.3172614
47	0xbe873d59	-0.26413992
48	0x3ea9f0a7	0.33191416
49	0xbeb55028	-0.35412717
50	0x3e47197e	0.19443318
51	0x3f4d8f20	0.80296516
52	0x3ed98891	0.42487004
53	0x3f61e5aa	0.88241065
54	0x3cab3c3c	0.020902745
55	0x3e900367	0.28127596
56	0x3e2d6bd8	0.1693567
57	0xbcf51b78	-0.029920325
58	0xbeedc5fd	-0.46440116
59	0xbf3e031c	-0.74223495
60	0x3ee2d0bb	0.44299874
61	0x3c26edf8	0.010188572
62	0x3e86c03c	0.26318538
63	0x3fa19ef2	1.2626631
64	0xbec5e6fb	-0.38652787
65	0xbee5bee6	-0.44872206
66	0x3c8c8be1	0.017156543
67	0x3e104a83	0.14090924
68	0xbe999a9f	-0.3000078
69	0x3ed76c76	0.42074937
70	0x3f12430c	0.57133555
71	0x3f7e1f63	0.9926664
72	0xbf0f2792	-0.55919755
73	0x3f7fa444	0.99860024
74	0xbf04bbc1	-0.5184899
75	0xbee63abb	-0.44966683
76	0x3e41381c	0.1886906
77	0xbf085158	-0.5324912
78	0x3f0b1783	0.5433275
79	0xbdd400bc	-0.103517026
80	0xbf7553c4	-0.9583094
81	0x3f083c4d	0.5321701
82	0x3f241ebf	0.64109415
83	0xbeaa611b	-0.3327721
84	0xbe70867b	-0.234888
85	0x3f0a0ca1	0.5392552
86	0xbde73bc0	-0.11290693
87	0xbf31f8b6	-0.6952013
88	0x3eea8fc0	0.45812798
89	0xbd1518fb	-0.036400776
90	0x3f0fc744	0.5616343
91	0x3db04c7c	0.08608338
92	0x3f4cd702	0.80015576
93	0xbe928a8d	-0.2862133
94	0xbf1424f3	-0.5786888
95	0xbf1c4dd0	-0.6105623
96	0xbef36288	-0.4753611
97	0xbc667bcf	-0.014067604
98	0x3d14b710	0.036307395
99	0xbf2f02d2	-0.6836368
100	0xbd60bf9f	-0.054870244
101	0x3eea8e4f	0.45811698
102	0xbf21b0fe	-0.63160694
103	0xbec47a8d	-0.3837475
104	0xbf6b7cd5	-0.91987354
105	0x3e394e91	0.18096377
106	0x3e9a08d9	0.30084875
107	0xbeb10958	-0.3457744
108	0xbebbe142	-0.36695296
109	0xbcf2a2e1	-0.029618682
110	0x3e83e519	0.25760725
111	0xbf219dd3	-0.63131446
112	0xbe83f9ab	-0.2577642
113	0xbdec8f39	-0.11550755
114	0xbe45798e	-0.1928465
115	0xbe842528	-0.25809598
116	0x3f6a6dac	0.91573596
117	0xbf0af7e2	-0.5428449
118	0xbdb029a0	-0.08601689
119	0x3e8a97ca	0.2706893
120	0x3e87243e	0.26394838
121	0xbe4c45f1	-0.19948556
122	0x3d8b728f	0.0680896
123	0xbe5c22ce	-0.21497652
124	0xbe5560aa	-0.20837656
125	0x3a8c793b	0.0010717282
126	0x3ee29bc1	0.44259456
127	0x3ed0499b	0.40681157
128	0x3ec1eb42	0.378748
129	0x3f1bbeeb	0.6083819
130	0xbdcd4c97	-0.10024374
131	0xbf025e78	-0.509254
132	0x3f132c12	0.5748912
133	0xbd3e00d4	-0.04638751
134	0x3e404245	0.1877528
135	0x3c26918d	0.010166538
136	0x3f37565d	0.71616155
137	0xbf1d13c3	-0.6135828
138	0x3e9c7adf	0.30562493
139	0x3e1d722c	0.15375584
140	0xbf104572	-0.56355965
141	0xbdd162e5	-0.10223941
142	0x3e29e06c	0.16589516
143	0xbe946bad	-0.289884
144	0xbf0883ed	-0.533263
145	0x3f27b2ba	0.6550709
146	0x3e916de1	0.28404143
147	0xbe2fdfce	-0.17175218
148	0xbd071a9b	-0.032984357
149	0xbe0ef77c	-0.13961595
150	0x3d17fc2c	0.037105724
151	0xbea96f2a	-0.33092624
152	0xbe67974f	-0.22616313
153	0x3dd6baca	0.10484846
154	0xbed6c041	-0.41943553
155	0xbe12991f	-0.14316224
156	0x3f03bafa	0.5145718
157	0x3f0d5376	0.55205476
158	0xbe961911	-0.29316
159	0x3e0e7acf	0.13914035
160	0xbda49a48	-0.08037239
161	0x3d1cc57c	0.038274273
162	0x3f65ad26	0.8971733
163	0x3f466b95	0.7750791
164	0x3e2ec615	0.1706775
165	0x3ee830c8	0.45349717
166	0xbf3dce72	-0.74143136
167	0x3e2d117f	0.16901205
168	0xbedeef18	-0.4354179
169	0xbe1c2175	-0.15247138
170	0xbc4e1719	-0.012578749
171	0xbc2a41f9	-0.010391706
172	0xbeaf7688	-0.3427012
173	0x3e5cc151	0.2155812
174	0xbec8043c	-0.3906573
175	0xbe66db15	-0.2254451
176	0xbf2d61cd	-0.6772736
177	0x3ea42ce7	0.32065508
178	0x3ed97a57	0.4247615
179	0xbe6cca22	-0.23123983
180	0xbebcc20e	-0.36866802
181	0xbef8a9ea	-0.48567134
182	0xbdd9b41e	-0.10630058
183	0xbd893573	-0.06699648
184	0x3e4bd987	0.19907199
185	0x3d26003b	0.040527564
186	0xbd4cacfd	-0.049969662
187	0x3e45a676	0.19301781
188	0xbf27099a	-0.65249026
189	0xbea43f25	-0.32079425
190	0x3a04846c	0.0005055133
191	0xbf38766a	-0.72055686
192	0xbe47b089	-0.19500937
193	0xbf06b09b	-0.5261323
194	0xbeab3729	-0.3344052
195	0xbd1fb0bd	-0.03898691
196	0x3ecd1b0c	0.40059698
197	0xbee0ced9	-0.43907812
198	0xbe7982cb	-0.243663
199	0xbea05ed3	-0.31322345
200	0xbeaa2747	-0.3323309
201	0xbf85a110	-1.0439777
202	0xbeda338b	-0.4261745
203	0xbdb60a0b	-0.08888634
204	0x3ef7ced5	0.48399988
205	0x3ddf199a	0.10893555
206	0x3eb244e5	0.34818187
207	0x3f162b7f	0.5866012
208	0x3c5c2285	0.0134359645
209	0x3f411467	0.75421757
210	0xbf0cdbf1	-0.55023104
211	0xbeb1bd6b	-0.34714827
212	0xbeb997f9	-0.36248758
213	0xbefd0824	-0.49420273
214	0xbf3d2b0c	-0.7389381
215	0xbddb35ca	-0.10703619
216	0x3df5e2b6	0.12006132
217	0x3e71613b	0.23572247
218	0x3e8679c2	0.2626477
219	0x3ec4597d	0.38349524
220	0xbce4c112	-0.027924094
221	0xbeb29c51	-0.34884885
222	0xbe726492	-0.23671177
223	0x3e8f5e66	0.28001708
224	0xbeb867ee	-0.36016792
225	0x3e0c7f63	0.13720469
226	0x3f01f294	0.5076077
227	0x3ec02dcb	0.37534937
228	0xbf2f8318	-0.6855941
229	0xbe9654ec	-0.29361665
230	0xbf309782	-0.6898118
231	0xbd860645	-0.065441646
232	0x3ecdbf72	0.40185124
233	0x3dd99c5f	0.106255285
234	0xbd93d48c	-0.072182745
235	0xbea27442	-0.31729323
236	0x3e2cb8bd	0.16867347
237	0x3e82da50	0.25557184
238	0xbd39ae43	-0.045332205
239	0xbe8abb76	-0.27096146
240	0xbdce39dc	-0.100696295
241	0x3ef359c9	0.47529438
242	0x3e01c12f	0.1267135
243	0xbd2a7b0f	-0.041621264
244	0xbef43a23	-0.47700605
245	0x3e807fcd	0.25097504
246	0xbec12c3d	-0.37729064
247	0x3de67d7e	0.112544045
248	0xbe3e2d7a	-0.18572035
249	0x3e94fb67	0.29098055
250	0xbe9048b2	-0.28180462
251	0xbcc8d42d	-0.024515236
252	0xbdfd3402	-0.12363435
253	0xbedd1451	-0.43179563
254	0x3ec9abb3	0.3938881
255	0x3efdc47e	0.49563974

network_body._body_endoder.seq_layers.0.bias f4 [128]
0	0xbce937ae	-0.028468933
1	0xbc85af88	-0.016319051
2	0x3d778c59	0.06043658
3	0xba2752e2	-0.0006382895
4	0xbd7c421c	-0.061586484
5	0xbbb5d548	-0.0055491067
6	0xbc2eb964	-0.010664318
7	0xbc3fa2fd	-0.011696574
8	0xbce5d2d4	-0.028054632
9	0xbaa75902	-0.0012767615
10	0xbbb6eacb	-0.0055821887
11	0xbcff2137	-0.031143768
12	0xbc9d843e	-0.019228097
13	0x3d01447c	0.031559452
14	0x3d383e77	0.044981446
15	0x3bac5385	0.0052589797
16	0xbd199ef1	-0.037505094
17	0x3cb7f95a	0.022457767
18	0xbca4ca95	-0.02011613
19	0xbcc20ed0	-0.023688704
20	0x3bc353ce	0.005960918
21	0xbc0bf4e4	-0.008542273
22	0xbc9c7e44	-0.019103177
23	0x39cdb346	0.00039234216
24	0x3c3e734e	0.0116241705
25	0x3a36cab5	0.0006972955
26	0x3c65df0b	0.014030228
27	0x3c936921	0.017994465
28	0xbd907b13	-0.070547245
29	0x3cb323ee	0.021867719
30	0x3be4cce7	0.006982434
31	0xbd08f88f	-0.03344017
32	0xbcd7121c	-0.026253752
33	0x3ca50901	0.020145895
34	0x3ae86aae	0.0017731988
35	0x3bc19ebe	0.005908816
36	0xbc513fc6	-0.012771552
37	0xbd16fe4e	-0.036863618
38	0xbbc66383	-0.006054343
39	0xbbbffd78	-0.0058590733
40	0xbc83dde7	-0.016097022
41	0x3ca761ab	0.020432314
42	0x3cc10ec5	0.023566613
43	0x3c3ea6ee	0.011636479
44	0x3b17b364	0.0023147697
45	0x3cf89358	0.030343696
46	0x3c414ff9	0.011798852
47	0xbc70e378	-0.01470267
48	0xbb9efc6c	-0.0048518684
49	0xbcd3837d	-0.025819534
50	0xbd184b06	-0.037180923
51	0x3aac2300	0.0013132989
52	0xbb58b88c	-0.0033068983
53	0xbc9c5a29	-0.01908596
54	0xbca70091	-0.020386012
55	0xbd61db2a	-0.05514065
56	0x3d110c33	0.035412025
57	0xbd88f789	-0.066878386
58	0x3d156dc9	0.036481652
59	0x3ca17a04	0.019711502
60	0x3ad88873	0.0016520157
61	0xbd40a507	-0.047032382
62	0x3bb80e7c	0.005616961
63	0x3d39e86f	0.04538768
64	0xbd7c85a4	-0.061650887
65	0xbcda4393	-0.02664355
66	0xbc88c0f5	-0.016693572
67	0x3cb8f9dd	0.022580082
68	0xbbb617bd	-0.005557029
69	0xbc9fbebd	-0.01950013
70	0x3c5c2ed6	0.013438901
71	0x3d476f4a	0.048690118
72	0xbd13f158	-0.036118835
73	0x3ba1cd18	0.004937779
74	0xbd352550	-0.044225037
75	0xbc901597	-0.01758842
76	0x3b97185d	0.0046110586
77	0x3a09fda3	0.000526393
78	0x3c82ef58	0.015983269
79	0xbc50fbba	-0.012755329
80	0x3d99835a	0.074957564
81	0xbc8e1e30	-0.017348379
82	0x3bfec879	0.007775363
83	0xbc1915ca	-0.009343574
84	0xbdaa2f67	-0.083098225
85	0x3d6757a9	0.056480084
86	0x3b14d3e2	0.00227093
87	0x3c467b32	0.012114333
88	0xbc83f448	-0.016107693
89	0xbcbc4c0e	-0.022985484
90	0xbc02af44	-0.007976357
91	0x3bd268e4	0.0064211953
92	0xbdb965b8	-0.090526044
93	0xbd1b25f5	-0.037877996
94	0x3d7296b9	0.05922577
95	0xbc6482a9	-0.013947167
96	0xbcbe732b	-0.023248276
97	0xbcc54c87	-0.024084343
98	0x3a889a47	0.0010421955
99	0x3d0e1f33	0.034697723
100	0xba6dceee	-0.00090716674
101	0xbdde8ea9	-0.10867054
102	0x3c5a90f3	0.013340223
103	0xbd3b83b3	-0.045779895
104	0x3cc52a3f	0.024067996
105	0x3cc0dd29	0.023542957
106	0xbcfb6ba7	-0.030690981
107	0xbc5639f2	-0.013075339
108	0xbc83240b	-0.016008398
109	0xbca214b4	-0.019785263
110	0xbd2fbfb0	-0.042907417
111	0x3d2558ae	0.040367775
112	0x3c69a0d8	0.01425954
113	0xbd01a8a9	-0.031654987
114	0xbd1518c8	-0.036400586
115	0xbba07e07	-0.004897836
116	0x3ba00b67	0.0048841718
117	0xbac410c1	-0.0014958606
118	0xb9e73e5c	-0.00044106215
119	0xbc59f244	-0.0133023895
120	0x3c19dcc2	0.009391012
121	0xbb916e1f	-0.0044381763
122	0xbc807cc8	-0.0156845
123	0xbd0a1125	-0.033707757
124	0xbb26e565	-0.002546632
125	0x3ab92dc2	0.0014128017
126	0xbc681600	-0.014165401
127	0x3c2ff749	0.01074011

network_body._body_endoder.seq_layers.2.weight f4 [128, 128]
0	0x3db51825	0.08842496
1	0x3dbeb411	0.09311689
2	0x3c6f1aae	0.014593763
3	0xbda1b301	-0.078954704
4	0xbdbf718b	-0.093478285
5	0x3d91cd63	0.071192525
6	0xbd43e8cf	-0.047829445
7	0x3d4070d3	0.046982598
8	0xbdd54990	-0.104144216
9	0xbde513c4	-0.111854106
10	0x3ce245d7	0.027621193
11	0xbc185c40	-0.009299338
12	0xbe0de786	-0.1385785
13	0x3c6ce7fe	0.014459608
14	0x3d710f8d	0.05885272
15	0xbdc26e09	-0.09493644
16	0xbdc69380	-0.09696102
17	0xbd5eae99	-0.054365728
18	0x3dd3cf92	0.10342325
19	0x3be99d46	0.007129344
20	0x3e262abf	0.16227244
21	0xbcd519c9	-0.026013272
22	0x3c928ec3	0.01789034
23	0xbde910f1	-0.113801844
24	0x3dac7290	0.084202886
25	0xbd8931c6	-0.06698947
26	0xbd4d992a	-0.050194897
27	0xbba1a06d	-0.0049324543
28	0xbdd1eb8d	-0.10250006
29	0x3e338449	0.17530932
30	0xbdfe93bf	-0.12430524
31	0xbb94bd3f	-0.0045391615
32	0x3d5d7c96	0.054073893
33	0x3e250b8e	0.16117689
34	0xbcf2cde9	-0.029639201
35	0xbd7f1323	-0.06227411
36	0x3d7031d2	0.058641262
37	0xbd8aa8f3	-0.06770506
38	0x3aa7265c	0.0012752521
39	0x3d59d374	0.053180173
40	0xbc368afe	-0.011141537
41	0x3d612f2c	0.054976627
42	0xbd77fae0	-0.060541987
43	0xbd8304bc	-0.063973874
44	0xbd4f8cef	-0.050671514
45	0x3e113f15	0.1418422
46	0x3d1d12ea	0.038348116
47	0x3b058a6c	0.0020376695
48	0xbcea8311	-0.02862695
49	0xbd20ee30	-0.039289653
50	0x3dd512ae	0.104039535
51	0x3e048502	0.12941363
52	0xbce4d5d2	-0.027933989
53	0x3b948392	0.004532286
54	0xbce781f6	-0.028260212
55	0xbcdace5f	-0.026709734
56	0xbe2c4e6d	-0.16826792
57	0xbd4e80d8	-0.050415844
58	0xbe6d5e2d	-0.23180456
59	0xbcca74db	-0.024713924
60	0x3c9b1ab7	0.018933637
61	0x3d887dca	0.06664617
62	0x3ca959fa	0.020672787
63	0x3d6e8a18	0.058237165
64	0xbd6add61	-0.05734003
65	0xbdd1e8ec	-0.102495044
66	0x3d4f40df	0.050598975
67	0x3d4042e2	0.046938784
68	0xbd9788b2	-0.073991194
69	0xbd63497d	-0.055490006
70	0xbcc1b99c	-0.023648076
71	0x3cd2f953	0.025753653
72	0x3e0d156f	0.13777708
73	0xbcca7ab4	-0.024716713
74	0x3d60361d	0.054739106
75	0xbbb23275	-0.005438144
76	0x3ca1ff71	0.019775124
77	0xbdd926ed	-0.10603128
78	0xbe1cb4a4	-0.15303284
79	0x3c485f35	0.01222973
80	0x3d99e76a	0.07514842
81	0x3d1ea4ab	0.03873126
82	0xbd86d1f8	-0.06583017
83	0x3c2fdd9a	0.010733986
84	0x3da083d1	0.07837642
85	0x3b312e0e	0.0027035507
86	0x3c8a456e	0.01687881
87	0xbd8683ee	-0.06568132
88	0x3df7f0ab	0.12106451
89	0x3e4eb5e5	0.20186575
90	0x3c767c75	0.015044321
91	0x3d135760	0.035972
92	0x3d385347	0.045001294
93	0x3bb4a141	0.005512387
94	0xbc906549	-0.017626422
95	0xbda90465	-0.08252791
96	0x3d458d08	0.0482302
97	0xbde4f922	-0.11180331
98	0xbe35979e	-0.17733619
99	0xbdbffd8c	-0.09374532
100	0xbe38c8b1	-0.18045308
101	0x3e299711	0.16561534
102	0xbe25c4bf	-0.16188334
103	0xbe51d294	-0.20490485
104	0x3dece193	0.11566462
105	0x3dc71a11	0.09721769
106	0xbe2d3c7b	-0.16917603
107	0xbde023fd	-0.10944364
108	0x3d0ed223	0.03486837
109	0x3dddb3af	0.108252876
110	0xbdfadb41	-0.122488506
111	0xbcc34659	-0.023837255
112	0xbded7dd3	-0.11596265
113	0xb8426284	-4.6344954e-05
114	0xbd0fd384	-0.035113826
115	0xbe1c30af	-0.15252946
116	0xbbda4d89	-0.006662075
117	0xbcae70f1	-0.021294089
118	0x3d3aa482	0.045567043
119	0xbdf91577	-0.12162297
120	0x3d0b3c57	0.03399309
121	0xbdbfbdd8	-0.09362382
122	0x3e139dc3	0.1441565
123	0xbdaf5660	-0.085613966
124	0x3d760fea	0.06007377
125	0xbe4ec864	-0.2019363
126	0x3e1204ec	0.1425969
127	0xbce68bd6	-0.02814285
128	0x3e0e1461	0.13874961
129	0x3dd8e02c	0.105896324
130	0x3cb1de07	0.021712316
131	0xbe2eed64	-0.17082745
132	0x3d37edb1	0.044904415
133	0xbda37ca0	-0.07982755
134	0xbdadd0b8	-0.084870756
135	0xbbbf9e9d	-0.0058477656
136	0xb9f3fc40	-0.00046536513
137	0xbd82dc8a	-0.06389721
138	0x3ba44bc4	0.005013915
139	0x3be63820	0.0070257336
140	0xbd1dc91e	-0.03852188
141	0x3d6a31cb	0.057176393
142	0x3dec1c39	0.115288205
143	0x3cf4f5f3	0.029902434
144	0xbe0a6530	-0.13515162
145	0xbd80f154	-0.0629603
146	0x3ccecc24	0.025243826
147	0x3aa37747	0.001247146
148	0xbcdc0ca8	-0.026861504
149	0xbd841658	-0.06449574
150	0x3e58d2fb	0.21174233
151	0x3e08ae82	0.1334782
152	0x3cac24ef	0.021013705
153	0x3df3a992	0.11897577
154	0x3d701069	0.0586094
155	0xbc083632	-0.008313702
156	0xbd73f950	-0.059563935
157	0x3ce630b9	0.028099405
158	0xbca68381	-0.020326378
159	0x3d10487c	0.035225376
160	0xbd9d0201	-0.07666398
161	0x3dc35731	0.09538115
162	0xbd3cb29a	-0.046068765
163	0xbd012f46	-0.031539224
164	0x3daa24ee	0.08307825
165	0xbdbac070	-0.09118736
166	0xbd5ffc60	-0.054684043
167	0xbc567587	-0.013089544
168	0xbdd7a144	-0.10528806
169	0xbdca008e	-0.09863387
170	0xbd0c271e	-0.034216993
171	0x3d7a83bd	0.06116079
172	0xbd032797	-0.032020178
173	0xbe5d22bd	-0.21595283
174	0xbc0324a2	-0.008004339
175	0x3c9f24bb	0.019426694
176	0xbcba9306	-0.022775184
177	0xbd28db4e	-0.04122477
178	0xbdc90e8a	-0.09817226
179	0x3de77e85	0.113034286
180	0x3c0ac9ee	0.008470995
181	0xbc9283c1	-0.01788509
182	0xbda9216a	-0.08258326
183	0x3d9de4ae	0.07709633
184	0x3d83f9c6	0.06444125
185	0xbcfdf8ad	-0.031002367
186	0xbd49daf6	-0.049281083
187	0xbd56fea3	-0.052488934
188	0xbd8b05c4	-0.06788209
189	0xbe1d3a5f	-0.15354298
190	0xbe1cd091	-0.15313937
191	0x3cdd4520	0.0270105
192	0xbdc68164	-0.09692648
193	0xbe935b86	-0.28780764
194	0xbdf404aa	-0.11914952
195	0x3d3ad048	0.04560879
196	0xbd0578cb	-0.0325859
197	0xbc56b270	-0.013104066
198	0xbe323287	-0.17402087
199	0x3dc10a55	0.09425799
200	0xbc58dfcb	-0.01323695
201	0x3dba157e	0.090861306
202	0x3d3c976e	0.046042852
203	0x3dabe23f	0.083927624
204	0xbd4799a9	-0.048730526
205	0x3e1842f0	0.14869285
206	0xbd9ca791	-0.07649148
207	0xbe45b162	-0.19305947
208	0x3d0cf7fa	0.034416176
209	0x3b0838c6	0.0020785793
210	0xbce562cf	-0.028001217
211	0x3ce2c04f	0.02767959
212	0xbe450b2d	-0.19242544
213	0x3d5c2eda	0.05375562
214	0x3d64d6a3	0.055868756
215	0x3c2d64ff	0.010583161
216	0x3dc24915	0.094865955
217	0x3da3fbf2	0.08007039
218	0xbd751aa1	-0.05983985
219	0xbb301b10	-0.00268716
220	0x3d78487e	0.06061601
221	0xba91a364	-0.0011111316
222	0x3df019cf	0.117236726
223	0x3d88ae66	0.06673889
224	0xbd14930d	-0.03627305
225	0xbc1c8aa5	-0.00955454
226	0xbdddd575	-0.10831729
227	0xbc9b54f8	-0.018961415
228	0x3e6dfe0c	0.23241442
229	0xbcbcb36e	-0.023034777
230	0x3e1224cc	0.1427185
231	0xbd27f8c3	-0.041008722
232	0xbd7311ef	-0.059343275
233	0x3d8491fe	0.06473158
234	0xbc9b4dcd	-0.018957997
235	0x3d3cf819	0.046135042
236	0x3c0a2fbc	0.008434232
237	0xbdd9a2ee	-0.106267795
238	0x3dc9718b	0.0983611
239	0xbd6d863d	-0.057989348
240	0xbe58932a	-0.21149889
241	0x3ce2c64f	0.027682452
242	0xbe422169	-0.18958057
243	0xbcba1ff3	-0.022720313
244	0xbc8e8055	-0.017395178
245	0xbdef8db7	-0.11696952
246	0xbdeaccd6	-0.114648506
247	0x3e14f404	0.1454621
248	0x3d032be6	0.032024287
249	0x3dcb2078	0.09918302
250	0x3d09c80e	0.033638053
251	0x3e160b6f	0.14652799
252	0xbdce1d95	-0.10064236
253	0x3c1f8414	0.00973608
254	0xbde9a659	-0.114086814
255	0xbe359b09	-0.17734922

network_body._body_endoder.seq_layers.2.bias f4 [128]
0	0xbcbd5c40	-0.023115277
1	0xbc80f58b	-0.015742084
2	0xbb9de6b3	-0.0048187613
3	0xbc458463	-0.012055489
4	0xbcc1d478	-0.023660883
5	0xbc9eb624	-0.01937396
6	0xbc4e1ad5	-0.012579639
7	0xbc4011d8	-0.011723004
8	0xbc8a1586	-0.016855966
9	0xbcbe4e41	-0.023230674
10	0xbd0a8988	-0.033822566
11	0xbc4a744f	-0.012356832
12	0xbcf53809	-0.029933946
13	0xbb3011f9	-0.0026866181
14	0xbc697c83	-0.014250877
15	0xbd038840	-0.03211236
16	0xbc930e47	-0.017951144
17	0xbcc15429	-0.023599701
18	0x3c3d8a60	0.011568636
19	0xbcc1f823	-0.023677891
20	0xbc9a6179	-0.018845307
21	0xbc999bd9	-0.018751072
22	0xbc494d4d	-0.012286496
23	0xbcab3fc8	-0.020904437
24	0xbc1aa089	-0.009437689
25	0xbcadb267	-0.021203233
26	0xbc34e54f	-0.011041
27	0xbc8bb6e6	-0.017054986
28	0x3c169dc0	0.009192884
29	0xbc818122	-0.015808646
30	0x3b9e21bc	0.004825799
31	0xbb254c42	-0.0025222455
32	0xbcaf4fda	-0.02140038
33	0xba852321	-0.0010157564
34	0xbcc399a7	-0.023876978
35	0xbc3c5860	-0.01149568
36	0x3ca1c6a4	0.01974804
37	0xbc8fe33d	-0.01756441
38	0xbb8fc7df	-0.00438784
39	0xbc3c9a0e	-0.011511339
40	0xbca467ac	-0.020068966
41	0xbcb0be2a	-0.021575052
42	0xb8f837aa	-0.0001183593
43	0xbca1836f	-0.019715993
44	0xbc40c5fd	-0.011765954
45	0xbc55c1af	-0.013046666
46	0xbc9b064d	-0.018923903
47	0xbcdad1a5	-0.026711294
48	0xbc9524c2	-0.018206004
49	0xbc930e35	-0.01795111
50	0xbacc343c	-0.0015579532
51	0xbca07e68	-0.019591525
52	0xbcb3a22d	-0.021927917
53	0xbcbad301	-0.022805693
54	0xbc4d00b8	-0.012512378
55	0xbbece5fd	-0.007229565
56	0xbc3ec643	-0.011643949
57	0xbc048207	-0.008087642
58	0xbce32777	-0.02772878
59	0xbc898f21	-0.016791882
60	0xbc7b4372	-0.015335904
61	0xbd045aa5	-0.032313008
62	0xbcd3ec5b	-0.025869539
63	0xbc6c62db	-0.014427866
64	0xbcb8514a	-0.0224997
65	0xbcd8bdf1	-0.026457759
66	0xbc9cf847	-0.019161357
67	0xbc5ecb38	-0.013598256
68	0xbabce881	-0.0014412553
69	0xbc92fad7	-0.017941875
70	0xbc2556d0	-0.0100914985
71	0xbca196a5	-0.019725153
72	0xbc80913a	-0.01569425
73	0xbcb55195	-0.022133628
74	0xbc27e87e	-0.010248302
75	0xbbdff6f9	-0.0068348614
76	0xbc45ed71	-0.012080536
77	0xbb56d6b4	-0.0032781782
78	0xbcca3c3b	-0.024686923
79	0xbbf9ccbc	-0.007623283
80	0xbc9ef8b9	-0.01940571
81	0xbc71c3a9	-0.014756122
82	0x3c6cf9e9	0.01446388
83	0xbc88b7dc	-0.016689233
84	0xbc72cd34	-0.014819432
85	0xbc3d76f9	-0.01156401
86	0xbca6c443	-0.020357257
87	0xbc9b2892	-0.018940244
88	0xbc55a652	-0.013040142
89	0x3c389d92	0.011268036
90	0xbbd21ac3	-0.0064118817
91	0xbcd39557	-0.025828047
92	0xbc86b3c1	-0.016443135
93	0xbc541d23	-0.0129464
94	0xbc98c54d	-0.018648768
95	0xbcce122a	-0.025155146
96	0x3c11e484	0.00890458
97	0xbc27c933	-0.010240841
98	0xbc927ace	-0.017880823
99	0xbc973425	-0.018457482
100	0xbcbc905f	-0.02301806
101	0xbc8f331f	-0.017480431
102	0xbc7cd3b9	-0.015431338
103	0xbc506724	-0.012719903
104	0xbc758aa4	-0.014986668
105	0xbcaaf0c2	-0.020866755
106	0xbbdfe10c	-0.0068322476
107	0x39a5eee7	0.0003164925
108	0xbce244af	-0.027620642
109	0xbc110331	-0.008850859
110	0xbc315d65	-0.01082549
111	0xbc87f7b8	-0.016597614
112	0xbcb15534	-0.021647073
113	0xbc9a2d78	-0.01882051
114	0xbc159c5e	-0.009131519
115	0xbcca67fa	-0.024707783
116	0xbc405ae5	-0.011740421
117	0xbc95ca46	-0.018284928
118	0xbcb4090a	-0.021976966
119	0xbc976560	-0.018480957
120	0xbca69666	-0.020335387
121	0xbbc1f090	-0.00591857
122	0xbcbc8ca9	-0.02301629
123	0xbcc65347	-0.024209632
124	0xbca8d360	-0.020608604
125	0xbc861e63	-0.016371911
126	0xbcba89f7	-0.022770865
127	0xbc900d77	-0.017584546

action_model._continuous_distribution.log_sigma f4 [1, 2]
0	0xbdf48a91	-0.11940492
1	0xbdcac3b3	-0.09900608

action_model._continuous_distribution.mu.weight f4 [2, 128]
0	0x3c0604b8	0.008179836
1	0x3c08e94c	0.008356404
2	0xbc02f8eb	-0.007993917
3	0x3ca1fcc5	0.01977385
4	0x3c081e0b	0.008307944
5	0x3bbd8c3b	0.005784539
6	0x3c813289	0.015771167
7	0xbc98ca25	-0.018651078
8	0xbbdf35c6	-0.00681183
9	0x3bd8db5c	0.0066179466
10	0xbb5b864b	-0.0033496793
11	0x3cdb280a	0.02675249
12	0xba641fdc	-0.0008702257
13	0x3b2b59e4	0.0026146108
14	0x3c62af7e	0.013835786
15	0x3c0c2653	0.008554059
16	0x3cc55483	0.02408815
17	0x3b4993c2	0.0030758237
18	0x3d482370	0.04886192
19	0x3b9bdf78	0.004756864
20	0x3b37fbc4	0.0028073648
21	0xbb3faa6f	-0.0029245873
22	0xbc17988f	-0.009252681
23	0x3bafb641	0.0053623025
24	0x3c299fd6	0.010353049
25	0x3c5e8bd4	0.013583142
26	0xbc06f12a	-0.008236209
27	0xbb80b393	-0.003927657
28	0x3d3e4d72	0.046460576
29	0xbb6dc09c	-0.0036278134
30	0x3d758283	0.05993892
31	0xbbc52a5d	-0.006017013
32	0xbce7b7a2	-0.028285805
33	0x3b186e26	0.0023259013
34	0xbb4cbef1	-0.003124174
35	0x3a50aef6	0.00079606415
36	0xbd060fe4	-0.03273
37	0xbb011343	-0.0019695319
38	0x3cd0c726	0.025485586
39	0xbc8d985c	-0.017284565
40	0xbc9ec362	-0.019380275
41	0x3b85ee42	0.0040872404
42	0x3c84080c	0.016117118
43	0xbc484392	-0.012223141
44	0x3ce110d5	0.027473846
45	0x3c03dde0	0.008048505
46	0x3c8d4588	0.01724507
47	0x3aa9718d	0.0012927518
48	0x3b0b8237	0.002128733
49	0x3ca98681	0.02069402
50	0xbd00e117	-0.031464662
51	0xbb403533	-0.0029328584
52	0x3bab1029	0.0052204323
53	0x3a8455b1	0.0010096339
54	0x3ba22aad	0.004948935
55	0x3c2e9e42	0.010657849
56	0xbb884416	-0.004158507
57	0x3d079dc1	0.03310943
58	0xba865c8a	-0.0010250967
59	0x3d12d17f	0.035844322
60	0x3c6b90ea	0.014377812
61	0x3b20b4e4	0.0024521882
62	0x3a82de1f	0.000998441
63	0x3bd3bf16	0.006461988
64	0x3bd62e06	0.006536248
65	0x39eb5ba7	0.0004489098
66	0x3a715b30	0.00092070084
67	0x3c4546b4	0.012040783
68	0x3d8fddec	0.0702475
69	0xbc4d9de7	-0.012549854
70	0x3c6a5d27	0.014304436
71	0xbb095540	-0.0020955354
72	0xbc5d0992	-0.013491051
73	0xbaf37ca8	-0.0018576579
74	0x3cd1cca8	0.025610283
75	0xbb6f457f	-0.0036509929
76	0x3ccd7259	0.02507894
77	0xba69f46d	-0.0008924667
78	0xbb4b8b6c	-0.0031058444
79	0x3ca7c129	0.020477848
80	0x3c5d5c4c	0.013510775
81	0x3c9dafb1	0.019248815
82	0xbc948e4a	-0.018134255
83	0x3c1c2279	0.009529703
84	0x3ad95a9b	0.0016582789
85	0x3cd6db4d	0.026227618
86	0x3c861603	0.016367918
87	0x3c86b7cf	0.016445069
88	0xbb3ef1d4	-0.002913584
89	0xbbd19d00	-0.0063968897
90	0xbc069346	-0.008213824
91	0xbb963c46	-0.004584822
92	0xbb141183	-0.0022593446
93	0x3aebb88c	0.0017984076
94	0xb8e4cbf3	-0.00010909876
95	0x3a9eaffe	0.0012106893
96	0xbd1b26cb	-0.037878793
97	0xbc9e4f71	-0.01932499
98	0x3c0d1d43	0.008612934
99	0x3bc98ba0	0.006150678
100	0xbc29db32	-0.010367202
101	0xbb7786ca	-0.003776955
102	0x3bb02fe6	0.0053768037
103	0xbc32ee21	-0.010921032
104	0xbcb9dbff	-0.02268791
105	0x3c6920a5	0.0142289745
106	0xbba6a452	-0.0050855065
107	0x3b46be6e	0.0030325907
108	0xb9fb4ee1	-0.0004793322
109	0x3cead510	0.02866605
110	0xbb8465da	-0.004040462
111	0x3ca75297	0.020425124
112	0x3c8c37a1	0.01711637
113	0x3c7f56cf	0.015584662
114	0x3cd5614d	0.026047373
115	0x3bef230a	0.007297878
116	0x3c3127d1	0.010812716
117	0x3a77a2bc	0.00094465516
118	0x3b324351	0.0027200768
119	0x3acc07c4	0.0015566279
120	0xbb52b93e	-0.003215387
121	0x3d0bb707	0.034110095
122	0x3c2f0881	0.01068318
123	0x3b98469a	0.0046470882
124	0x3c9c5261	0.01908225
125	0x3be5c059	0.007011455
126	0x3a35fe48	0.0006942493
127	0xbb04f5de	-0.002028815
128	0x3a2e4b49	0.00066487916
129	0x39a48f29	0.0003138718
130	0xbcfc49f2	-0.030796979
131	0xbca187f5	-0.01971815
132	0xb9a2780b	-0.00030988487
133	0xbb9d5d5d	-0.0048023895
134	0xbcaaeddb	-0.020865371
135	0xbc9d766e	-0.01922151
136	0xbc0bbdf9	-0.00852918
137	0x3b6290a5	0.0034571078
138	0xbb737d3d	-0.0037153505
139	0xbaa7aade	-0.0012792011
140	0x3bdd09a5	0.0067455345
141	0x3cf91422	0.030405108
142	0xba136e96	-0.00056240836
143	0x3a999ba9	0.0011719364
144	0x3c80c4f1	0.015718909
145	0x3a50c566	0.0007963985
146	0x3bc950b5	0.006143654
147	0xbb5efe25	-0.0034025994
148	0x3b1f555e	0.0024312357
149	0xbb801472	-0.0039086873
150	0xbbd41603	-0.0064723506
151	0xbb74aa95	-0.003733312
152	0x3cec71c8	0.028862849
153	0xbb927094	-0.0044689868
154	0x3c76121f	0.015018969
155	0x3b0b81ea	0.0021287152
156	0xbc4bd6a2	-0.012441309
157	0xb8c1b81d	-9.237251e-05
158	0xbc53c9f3	-0.012926566
159	0xbcf76d62	-0.030203525
160	0xbc621401	-0.013798715
161	0xbcab5352	-0.020913754
162	0xb9d9d9ac	-0.00041551644
163	0xbc44ee69	-0.012019732
164	0x3c25a2c7	0.01010961
165	0x3b275d8a	0.0025537931
166	0xbc75cbee	-0.015002234
167	0x3c057d84	0.008147601
168	0x3c48f3e2	0.012265177
169	0x3b527cb6	0.003211779
170	0xba81a1ca	-0.0009890136
171	0xbbe6f38e	-0.007048077
172	0x3c2ff855	0.010740359
173	0x3c492f0e	0.012279285
174	0xbb1fd2d8	-0.0024387147
175	0x3a5d12f7	0.0008433307
176	0xbc981636	-0.018565279
177	0xbcdff87c	-0.027340166
178	0xbc2c6cc6	-0.0105239805
179	0x3c17bdea	0.009261588
180	0x3c17d0c9	0.009266087
181	0xb9aab76e	-0.00032561593
182	0xbcd76226	-0.026291918
183	0x3bea9d0b	0.0071598343
184	0xbcab81e5	-0.020935962
185	0xbc2a32d9	-0.0103881
186	0xbc1e3bc9	-0.009657809
187	0xbbec43e0	-0.00721024
188	0x3b9f0fed	0.0048541934
189	0xbaef1f93	-0.0018243663
190	0xbad4b160	-0.0016227178
191	0x3d433954	0.047662094
192	0x3bd36c94	0.0064521525
193	0x3a58964c	0.0008262142
194	0xbb881ccb	-0.004153823
195	0x3b2631cc	0.002535927
196	0xbd2ea961	-0.042642
197	0xbc8599c8	-0.01630868
198	0x3c7bc839	0.015367561
199	0xbaa17e80	-0.0012321025
200	0x3b1d7798	0.0024027582
201	0x3b422f3a	0.00296302
202	0xbb65336d	-0.003497328
203	0x3ad9a330	0.001660442
204	0x3be330f2	0.006933325
205	0x3c1e3d0c	0.009658109
206	0xbc98820c	-0.018616699
207	0x3c711b36	0.01471596
208	0xbb6cbf6e	-0.0036124843
209	0xb9c46c7b	-0.00037464857
210	0xb9220071	-0.00015449688
211	0x3ba562ae	0.005047164
212	0x3a190dc5	0.00058385386
213	0xbcbd8c3e	-0.023138162
214	0x3a35e7cc	0.00069391425
215	0x3c427ee6	0.011871075
216	0x3c5f7db4	0.01364081
217	0xbb171bbe	-0.0023057307
218	0x3d21a9b3	0.03946848
219	0xb9a5a313	-0.00031592752
220	0x3bcf6f83	0.006330432
221	0x3bbd6316	0.005779634
222	0xbbedcdae	-0.007257185
223	0xbb9d0f22	-0.0047930637
224	0xbc33b5e5	-0.01096866
225	0xbbe9ac32	-0.007131123
226	0xbb9cdf8a	-0.00478739
227	0xbbd98512	-0.0066381777
228	0xba947d0f	-0.0011328774
229	0x3c8f8f84	0.017524488
230	0xbcda5391	-0.026651176
231	0x3c42b7a5	0.011884605
232	0xbbf15671	-0.007365041
233	0x3bd36a95	0.0064519146
234	0x3ca3eda8	0.020010784
235	0xbc9e6350	-0.019334465
236	0x3b9011eb	0.0043966672
237	0xbc717bce	-0.01473899
238	0xbc3b288d	-0.011423242
239	0xbcdb53cd	-0.026773358
240	0xbc128396	-0.008942505
241	0x3c30146b	0.0107470555
242	0xbc37232b	-0.011177818
243	0xba6f0e16	-0.00091192254
244	0x3cbba973	0.022907948
245	0x3c0132e6	0.00788567
246	0xbc20ac03	-0.009806636
247	0xbc286f6c	-0.010280471
248	0xbbf86108	-0.0075799264
249	0x3b41c562	0.0029567112
250	0xbb46d1cf	-0.0030337458
251	0x3aacc635	0.0013181629
252	0x3c1ca22a	0.009560147
253	0x3a46f0ef	0.00075890025
254	0x3ada7595	0.0016667122
255	0x3c91de76	0.017806273

action_model._continuous_distribution.mu.bias f4 [2]
0	0xbaa9c552	-0.0012952483
1	0x3ab1f1cc	0.0013576089
