MLAgentDevProject/results/BreadCrumb7/MoveToGoal/MoveToGoal-32809.pt (torch, 441305 bytes, 36 tensors)

network_body._body_endoder.seq_layers.0.weight f4 [128, 6]
000000 7e 04 d9 3d 6b 5e 0c 3f b1 9d 7f 3e d4 e9 01 be
       0.1059656 0.5483157 0.24962498 -0.12686855
000010 cd be 25 3e 52 2e 22 3f 37 dd 09 be 25 32 16 bf
       0.16186066 0.6335193 -0.13463293 -0.58670264
000020 30 49 8c bc 05 c6 9b bf 12 20 1e bf 64 45 93 3e
       -0.017124742 -1.2169806 -0.61767685 0.28763878
000030 89 81 e6 3e 54 6f ad 3e 8a ec 47 bf 39 59 d0 3e
       0.45020702 0.33874 -0.78095305 0.4069307
000040 09 28 4e be 22 35 ee bb da ae 06 bf fb 3a d6 3e
       -0.2013246 -0.0072695175 -0.5261055 0.41841874
000050 22 45 31 bf 9d 4a 7d 3e a1 5a aa 3e bb 13 1c 3e
       -0.69246113 0.24735494 0.3327227 0.15241902
000060 c5 b0 aa be 32 e1 41 be 75 b9 11 bf 83 72 27 be
       -0.3333799 -0.18933561 -0.5692361 -0.16352277
000070 00 be 0f bf c6 c8 86 3f 2f d0 4a 3d 24 c8 5e be
       -0.5614929 1.0530021 0.049514946 -0.21756035
000080 4a 39 08 be a0 64 02 3e d8 49 81 bd bd e8 5e bd
       -0.13303104 0.12733698 -0.06312913 -0.054421175
000090 ff 26 b1 3d bf 64 a5 3e a4 1a b3 3d 12 5b c7 bd
       0.08650016 0.32303426 0.08745316 -0.09734167
0000a0 dd 1b 59 be 2d 99 40 bf 22 33 90 be ff bd 4f be
       -0.21202035 -0.7523373 -0.2816401 -0.20287322
0000b0 c7 50 2e 3e cb 3b b2 3d 16 70 a2 3e 59 3d 87 be
       0.17023002 0.08702811 0.3172614 -0.26413992
0000c0 a7 f0 a9 3e 28 50 b5 be 7e 19 47 3e 20 8f 4d 3f
       0.33191416 -0.35412717 0.19443318 0.80296516
0000d0 91 88 d9 3e aa e5 61 3f 3c 3c ab 3c 67 03 90 3e
       0.42487004 0.88241065 0.020902745 0.28127596
0000e0 d8 6b 2d 3e 78 1b f5 bc fd c5 ed be 1c 03 3e bf
       0.1693567 -0.029920325 -0.46440116 -0.74223495
0000f0 bb d0 e2 3e f8 ed 26 3c 3c c0 86 3e f2 9e a1 3f
       0.44299874 0.010188572 0.26318538 1.2626631
000100 fb e6 c5 be e6 be e5 be e1 8b 8c 3c 83 4a 10 3e
       -0.38652787 -0.44872206 0.017156543 0.14090924
000110 9f 9a 99 be 76 6c d7 3e 0c 43 12 3f 63 1f 7e 3f
       -0.3000078 0.42074937 0.57133555 0.9926664
000120 92 27 0f bf 44 a4 7f 3f c1 bb 04 bf bb 3a e6 be
       -0.55919755 0.99860024 -0.5184899 -0.44966683
000130 1c 38 41 3e 58 51 08 bf 83 17 0b 3f bc 00 d4 bd
       0.1886906 -0.5324912 0.5433275 -0.103517026
000140 c4 53 75 bf 4d 3c 08 3f bf 1e 24 3f 1b 61 aa be
       -0.9583094 0.5321701 0.64109415 -0.3327721
000150 7b 86 70 be a1 0c 0a 3f c0 3b e7 bd b6 f8 31 bf
       -0.234888 0.5392552 -0.11290693 -0.6952013
000160 c0 8f ea 3e fb 18 15 bd 44 c7 0f 3f 7c 4c b0 3d
       0.45812798 -0.036400776 0.5616343 0.08608338
000170 02 d7 4c 3f 8d 8a 92 be f3 24 14 bf d0 4d 1c bf
       0.80015576 -0.2862133 -0.5786888 -0.6105623
000180 88 62 f3 be cf 7b 66 bc 10 b7 14 3d d2 02 2f bf
       -0.4753611 -0.014067604 0.036307395 -0.6836368
000190 9f bf 60 bd 4f 8e ea 3e fe b0 21 bf 8d 7a c4 be
       -0.054870244 0.45811698 -0.63160694 -0.3837475
0001a0 d5 7c 6b bf 91 4e 39 3e d9 08 9a 3e 58 09 b1 be
       -0.91987354 0.18096377 0.30084875 -0.3457744
0001b0 42 e1 bb be e1 a2 f2 bc 19 e5 83 3e d3 9d 21 bf
       -0.36695296 -0.029618682 0.25760725 -0.63131446
0001c0 ab f9 83 be 39 8f ec bd 8e 79 45 be 28 25 84 be
       -0.2577642 -0.11550755 -0.1928465 -0.25809598
0001d0 ac 6d 6a 3f e2 f7 0a bf a0 29 b0 bd ca 97 8a 3e
       0.91573596 -0.5428449 -0.08601689 0.2706893
0001e0 3e 24 87 3e f1 45 4c be 8f 72 8b 3d ce 22 5c be
       0.26394838 -0.19948556 0.0680896 -0.21497652
0001f0 aa 60 55 be 3b 79 8c 3a c1 9b e2 3e 9b 49 d0 3e
       -0.20837656 0.0010717282 0.44259456 0.40681157
000200 42 eb c1 3e eb be 1b 3f 97 4c cd bd 78 5e 02 bf
       0.378748 0.6083819 -0.10024374 -0.509254
000210 12 2c 13 3f d4 00 3e bd 45 42 40 3e 8d 91 26 3c
       0.5748912 -0.04638751 0.1877528 0.010166538
000220 5d 56 37 3f c3 13 1d bf df 7a 9c 3e 2c 72 1d 3e
       0.71616155 -0.6135828 0.30562493 0.15375584
000230 72 45 10 bf e5 62 d1 bd 6c e0 29 3e ad 6b 94 be
       -0.56355965 -0.10223941 0.16589516 -0.289884
000240 ed 83 08 bf ba b2 27 3f e1 6d 91 3e ce df 2f be
       -0.533263 0.6550709 0.28404143 -0.17175218
000250 9b 1a 07 bd 7c f7 0e be 2c fc 17 3d 2a 6f a9 be
       -0.032984357 -0.13961595 0.037105724 -0.33092624
000260 4f 97 67 be ca ba d6 3d 41 c0 d6 be 1f 99 12 be
       -0.22616313 0.10484846 -0.41943553 -0.14316224
000270 fa ba 03 3f 76 53 0d 3f 11 19 96 be cf 7a 0e 3e
       0.5145718 0.55205476 -0.29316 0.13914035
000280 48 9a a4 bd 7c c5 1c 3d 26 ad 65 3f 95 6b 46 3f
       -0.08037239 0.038274273 0.8971733 0.7750791
000290 15 c6 2e 3e c8 30 e8 3e 72 ce 3d bf 7f 11 2d 3e
       0.1706775 0.45349717 -0.74143136 0.16901205
0002a0 18 ef de be 75 21 1c be 19 17 4e bc f9 41 2a bc
       -0.4354179 -0.15247138 -0.012578749 -0.010391706
0002b0 88 76 af be 51 c1 5c 3e 3c 04 c8 be 15 db 66 be
       -0.3427012 0.2155812 -0.3906573 -0.2254451
0002c0 cd 61 2d bf e7 2c a4 3e 57 7a d9 3e 22 ca 6c be
       -0.6772736 0.32065508 0.4247615 -0.23123983
0002d0 0e c2 bc be ea a9 f8 be 1e b4 d9 bd 73 35 89 bd
       -0.36866802 -0.48567134 -0.10630058 -0.06699648
0002e0 87 d9 4b 3e 3b 00 26 3d fd ac 4c bd 76 a6 45 3e
       0.19907199 0.040527564 -0.049969662 0.19301781
0002f0 9a 09 27 bf 25 3f a4 be 6c 84 04 3a 6a 76 38 bf
       -0.65249026 -0.32079425 0.0005055133 -0.72055686
000300 89 b0 47 be 9b b0 06 bf 29 37 ab be bd b0 1f bd
       -0.19500937 -0.5261323 -0.3344052 -0.03898691
000310 0c 1b cd 3e d9 ce e0 be cb 82 79 be d3 5e a0 be
       0.40059698 -0.43907812 -0.243663 -0.31322345
000320 47 27 aa be 10 a1 85 bf 8b 33 da be 0b 0a b6 bd
       -0.3323309 -1.0439777 -0.4261745 -0.08888634
000330 d5 ce f7 3e 9a 19 df 3d e5 44 b2 3e 7f 2b 16 3f
       0.48399988 0.10893555 0.34818187 0.5866012
000340 85 22 5c 3c 67 14 41 3f f1 db 0c bf 6b bd b1 be
       0.0134359645 0.75421757 -0.55023104 -0.34714827
000350 f9 97 b9 be 24 08 fd be 0c 2b 3d bf ca 35 db bd
       -0.36248758 -0.49420273 -0.7389381 -0.10703619
000360 b6 e2 f5 3d 3b 61 71 3e c2 79 86 3e 7d 59 c4 3e
       0.12006132 0.23572247 0.2626477 0.38349524
000370 12 c1 e4 bc 51 9c b2 be 92 64 72 be 66 5e 8f 3e
       -0.027924094 -0.34884885 -0.23671177 0.28001708
000380 ee 67 b8 be 63 7f 0c 3e 94 f2 01 3f cb 2d c0 3e
       -0.36016792 0.13720469 0.5076077 0.37534937
000390 18 83 2f bf ec 54 96 be 82 97 30 bf 45 06 86 bd
       -0.6855941 -0.29361665 -0.6898118 -0.065441646
0003a0 72 bf cd 3e 5f 9c d9 3d 8c d4 93 bd 42 74 a2 be
       0.40185124 0.106255285 -0.072182745 -0.31729323
0003b0 bd b8 2c 3e 50 da 82 3e 43 ae 39 bd 76 bb 8a be
       0.16867347 0.25557184 -0.045332205 -0.27096146
0003c0 dc 39 ce bd c9 59 f3 3e 2f c1 01 3e 0f 7b 2a bd
       -0.100696295 0.47529438 0.1267135 -0.041621264
0003d0 23 3a f4 be cd 7f 80 3e 3d 2c c1 be 7e 7d e6 3d
       -0.47700605 0.25097504 -0.37729064 0.112544045
0003e0 7a 2d 3e be 67 fb 94 3e b2 48 90 be 2d d4 c8 bc
       -0.18572035 0.29098055 -0.28180462 -0.024515236
0003f0 02 34 fd bd 51 14 dd be b3 ab c9 3e 7e c4 fd 3e
       -0.12363435 -0.43179563 0.3938881 0.49563974

network_body._body_endoder.seq_layers.0.bias f4 [128]
000000 ae 37 e9 bc 88 af 85 bc 59 8c 77 3d e2 52 27 ba
       -0.028468933 -0.016319051 0.06043658 -0.0006382895
000010 1c 42 7c bd 48 d5 b5 bb 64 b9 2e bc fd a2 3f bc
       -0.061586484 -0.0055491067 -0.010664318 -0.011696574
000020 d4 d2 e5 bc 02 59 a7 ba cb ea b6 bb 37 21 ff bc
       -0.028054632 -0.0012767615 -0.0055821887 -0.031143768
000030 3e 84 9d bc 7c 44 01 3d 77 3e 38 3d 85 53 ac 3b
       -0.019228097 0.031559452 0.044981446 0.0052589797
000040 f1 9e 19 bd 5a f9 b7 3c 95 ca a4 bc d0 0e c2 bc
       -0.037505094 0.022457767 -0.02011613 -0.023688704
000050 ce 53 c3 3b e4 f4 0b bc 44 7e 9c bc 46 b3 cd 39
       0.005960918 -0.008542273 -0.019103177 0.00039234216
000060 4e 73 3e 3c b5 ca 36 3a 0b df 65 3c 21 69 93 3c
       0.0116241705 0.0006972955 0.014030228 0.017994465
000070 13 7b 90 bd ee 23 b3 3c e7 cc e4 3b 8f f8 08 bd
       -0.070547245 0.021867719 0.006982434 -0.03344017
000080 1c 12 d7 bc 01 09 a5 3c ae 6a e8 3a be 9e c1 3b
       -0.026253752 0.020145895 0.0017731988 0.005908816
000090 c6 3f 51 bc 4e fe 16 bd 83 63 c6 bb 78 fd bf bb
       -0.012771552 -0.036863618 -0.006054343 -0.0058590733
0000a0 e7 dd 83 bc ab 61 a7 3c c5 0e c1 3c ee a6 3e 3c
       -0.016097022 0.020432314 0.023566613 0.011636479
0000b0 64 b3 17 3b 58 93 f8 3c f9 4f 41 3c 78 e3 70 bc
       0.0023147697 0.030343696 0.011798852 -0.01470267
0000c0 6c fc 9e bb 7d 83 d3 bc 06 4b 18 bd 00 23 ac 3a
       -0.0048518684 -0.025819534 -0.037180923 0.0013132989
0000d0 8c b8 58 bb 29 5a 9c bc 91 00 a7 bc 2a db 61 bd
       -0.0033068983 -0.01908596 -0.020386012 -0.05514065
0000e0 33 0c 11 3d 89 f7 88 bd c9 6d 15 3d 04 7a a1 3c
       0.035412025 -0.066878386 0.036481652 0.019711502
0000f0 73 88 d8 3a 07 a5 40 bd 7c 0e b8 3b 6f e8 39 3d
       0.0016520157 -0.047032382 0.005616961 0.04538768
000100 a4 85 7c bd 93 43 da bc f5 c0 88 bc dd f9 b8 3c
       -0.061650887 -0.02664355 -0.016693572 0.022580082
000110 bd 17 b6 bb bd be 9f bc d6 2e 5c 3c 4a 6f 47 3d
       -0.005557029 -0.01950013 0.013438901 0.048690118
000120 58 f1 13 bd 18 cd a1 3b 50 25 35 bd 97 15 90 bc
       -0.036118835 0.004937779 -0.044225037 -0.01758842
000130 5d 18 97 3b a3 fd 09 3a 58 ef 82 3c ba fb 50 bc
       0.0046110586 0.000526393 0.015983269 -0.012755329
000140 5a 83 99 3d 30 1e 8e bc 79 c8 fe 3b ca 15 19 bc
       0.074957564 -0.017348379 0.007775363 -0.009343574
000150 67 2f aa bd a9 57 67 3d e2 d3 14 3b 32 7b 46 3c
       -0.083098225 0.056480084 0.00227093 0.012114333
000160 48 f4 83 bc 0e 4c bc bc 44 af 02 bc e4 68 d2 3b
       -0.016107693 -0.022985484 -0.007976357 0.0064211953
000170 b8 65 b9 bd f5 25 1b bd b9 96 72 3d a9 82 64 bc
       -0.090526044 -0.037877996 0.05922577 -0.013947167
000180 2b 73 be bc 87 4c c5 bc 47 9a 88 3a 33 1f 0e 3d
       -0.023248276 -0.024084343 0.0010421955 0.034697723
000190 ee ce 6d ba a9 8e de bd f3 90 5a 3c b3 83 3b bd
       -0.00090716674 -0.10867054 0.013340223 -0.045779895
0001a0 3f 2a c5 3c 29 dd c0 3c a7 6b fb bc f2 39 56 bc
       0.024067996 0.023542957 -0.030690981 -0.013075339
0001b0 0b 24 83 bc b4 14 a2 bc b0 bf 2f bd ae 58 25 3d
       -0.016008398 -0.019785263 -0.042907417 0.040367775
0001c0 d8 a0 69 3c a9 a8 01 bd c8 18 15 bd 07 7e a0 bb
       0.01425954 -0.031654987 -0.036400586 -0.004897836
0001d0 67 0b a0 3b c1 10 c4 ba 5c 3e e7 b9 44 f2 59 bc
       0.0048841718 -0.0014958606 -0.00044106215 -0.0133023895
0001e0 c2 dc 19 3c 1f 6e 91 bb c8 7c 80 bc 25 11 0a bd
       0.009391012 -0.0044381763 -0.0156845 -0.033707757
0001f0 65 e5 26 bb c2 2d b9 3a 00 16 68 bc 49 f7 2f 3c
       -0.002546632 0.0014128017 -0.014165401 0.01074011

network_body._body_endoder.seq_layers.2.weight f4 [128, 128]
000000 25 18 b5 3d 11 b4 be 3d ae 1a 6f 3c 01 b3 a1 bd
       0.08842496 0.09311689 0.014593763 -0.078954704
000010 8b 71 bf bd 63 cd 91 3d cf e8 43 bd d3 70 40 3d
       -0.093478285 0.071192525 -0.047829445 0.046982598
000020 90 49 d5 bd c4 13 e5 bd d7 45 e2 3c 40 5c 18 bc
       -0.104144216 -0.111854106 0.027621193 -0.009299338
000030 86 e7 0d be fe e7 6c 3c 8d 0f 71 3d 09 6e c2 bd
       -0.1385785 0.014459608 0.05885272 -0.09493644
000040 80 93 c6 bd 99 ae 5e bd 92 cf d3 3d 46 9d e9 3b
       -0.09696102 -0.054365728 0.10342325 0.007129344
000050 bf 2a 26 3e c9 19 d5 bc c3 8e 92 3c f1 10 e9 bd
       0.16227244 -0.026013272 0.01789034 -0.113801844
000060 90 72 ac 3d c6 31 89 bd 2a 99 4d bd 6d a0 a1 bb
       0.084202886 -0.06698947 -0.050194897 -0.0049324543
000070 8d eb d1 bd 49 84 33 3e bf 93 fe bd 3f bd 94 bb
       -0.10250006 0.17530932 -0.12430524 -0.0045391615
000080 96 7c 5d 3d 8e 0b 25 3e e9 cd f2 bc 23 13 7f bd
       0.054073893 0.16117689 -0.029639201 -0.06227411
000090 d2 31 70 3d f3 a8 8a bd 5c 26 a7 3a 74 d3 59 3d
       0.058641262 -0.06770506 0.0012752521 0.053180173
0000a0 fe 8a 36 bc 2c 2f 61 3d e0 fa 77 bd bc 04 83 bd
       -0.011141537 0.054976627 -0.060541987 -0.063973874
0000b0 ef 8c 4f bd 15 3f 11 3e ea 12 1d 3d 6c 8a 05 3b
       -0.050671514 0.1418422 0.038348116 0.0020376695
0000c0 11 83 ea bc 30 ee 20 bd ae 12 d5 3d 02 85 04 3e
       -0.02862695 -0.039289653 0.104039535 0.12941363
0000d0 d2 d5 e4 bc 92 83 94 3b f6 81 e7 bc 5f ce da bc
       -0.027933989 0.004532286 -0.028260212 -0.026709734
0000e0 6d 4e 2c be d8 80 4e bd 2d 5e 6d be db 74 ca bc
       -0.16826792 -0.050415844 -0.23180456 -0.024713924
0000f0 b7 1a 9b 3c ca 7d 88 3d fa 59 a9 3c 18 8a 6e 3d
       0.018933637 0.06664617 0.020672787 0.058237165
000100 61 dd 6a bd ec e8 d1 bd df 40 4f 3d e2 42 40 3d
       -0.05734003 -0.102495044 0.050598975 0.046938784
000110 b2 88 97 bd 7d 49 63 bd 9c b9 c1 bc 53 f9 d2 3c
       -0.073991194 -0.055490006 -0.023648076 0.025753653
000120 6f 15 0d 3e b4 7a ca bc 1d 36 60 3d 75 32 b2 bb
       0.13777708 -0.024716713 0.054739106 -0.005438144
000130 71 ff a1 3c ed 26 d9 bd a4 b4 1c be 35 5f 48 3c
       0.019775124 -0.10603128 -0.15303284 0.01222973
000140 6a e7 99 3d ab a4 1e 3d f8 d1 86 bd 9a dd 2f 3c
       0.07514842 0.03873126 -0.06583017 0.010733986
000150 d1 83 a0 3d 0e 2e 31 3b 6e 45 8a 3c ee 83 86 bd
       0.07837642 0.0027035507 0.01687881 -0.06568132
000160 ab f0 f7 3d e5 b5 4e 3e 75 7c 76 3c 60 57 13 3d
       0.12106451 0.20186575 0.015044321 0.035972
000170 47 53 38 3d 41 a1 b4 3b 49 65 90 bc 65 04 a9 bd
       0.045001294 0.005512387 -0.017626422 -0.08252791
000180 08 8d 45 3d 22 f9 e4 bd 9e 97 35 be 8c fd bf bd
       0.0482302 -0.11180331 -0.17733619 -0.09374532
000190 b1 c8 38 be 11 97 29 3e bf c4 25 be 94 d2 51 be
       -0.18045308 0.16561534 -0.16188334 -0.20490485
0001a0 93 e1 ec 3d 11 1a c7 3d 7b 3c 2d be fd 23 e0 bd
       0.11566462 0.09721769 -0.16917603 -0.10944364
0001b0 23 d2 0e 3d af b3 dd 3d 41 db fa bd 59 46 c3 bc
       0.03486837 0.108252876 -0.122488506 -0.023837255
0001c0 d3 7d ed bd 84 62 42 b8 84 d3 0f bd af 30 1c be
       -0.11596265 -4.6344954e-05 -0.035113826 -0.15252946
0001d0 89 4d da bb f1 70 ae bc 82 a4 3a 3d 77 15 f9 bd
       -0.006662075 -0.021294089 0.045567043 -0.12162297
0001e0 57 3c 0b 3d d8 bd bf bd c3 9d 13 3e 60 56 af bd
       0.03399309 -0.09362382 0.1441565 -0.085613966
0001f0 ea 0f 76 3d 64 c8 4e be ec 04 12 3e d6 8b e6 bc
       0.06007377 -0.2019363 0.1425969 -0.02814285
000200 61 14 0e 3e 2c e0 d8 3d 07 de b1 3c 64 ed 2e be
       0.13874961 0.105896324 0.021712316 -0.17082745
000210 b1 ed 37 3d a0 7c a3 bd b8 d0 ad bd 9d 9e bf bb
       0.044904415 -0.07982755 -0.084870756 -0.0058477656
000220 40 fc f3 b9 8a dc 82 bd c4 4b a4 3b 20 38 e6 3b
       -0.00046536513 -0.06389721 0.005013915 0.0070257336
000230 1e c9 1d bd cb 31 6a 3d 39 1c ec 3d f3 f5 f4 3c
       -0.03852188 0.057176393 0.115288205 0.029902434
000240 30 65 0a be 54 f1 80 bd 24 cc ce 3c 47 77 a3 3a
       -0.13515162 -0.0629603 0.025243826 0.001247146
000250 a8 0c dc bc 58 16 84 bd fb d2 58 3e 82 ae 08 3e
       -0.026861504 -0.06449574 0.21174233 0.1334782
000260 ef 24 ac 3c 92 a9 f3 3d 69 10 70 3d 32 36 08 bc
       0.021013705 0.11897577 0.0586094 -0.008313702
000270 50 f9 73 bd b9 30 e6 3c 81 83 a6 bc 7c 48 10 3d
       -0.059563935 0.028099405 -0.020326378 0.035225376
000280 01 02 9d bd 31 57 c3 3d 9a b2 3c bd 46 2f 01 bd
       -0.07666398 0.09538115 -0.046068765 -0.031539224
000290 ee 24 aa 3d 70 c0 ba bd 60 fc 5f bd 87 75 56 bc
       0.08307825 -0.09118736 -0.054684043 -0.013089544
0002a0 44 a1 d7 bd 8e 00 ca bd 1e 27 0c bd bd 83 7a 3d
       -0.10528806 -0.09863387 -0.034216993 0.06116079
0002b0 97 27 03 bd bd 22 5d be a2 24 03 bc bb 24 9f 3c
       -0.032020178 -0.21595283 -0.008004339 0.019426694
0002c0 06 93 ba bc 4e db 28 bd 8a 0e c9 bd 85 7e e7 3d
       -0.022775184 -0.04122477 -0.09817226 0.113034286
0002d0 ee c9 0a 3c c1 83 92 bc 6a 21 a9 bd ae e4 9d 3d
       0.008470995 -0.01788509 -0.08258326 0.07709633
0002e0 c6 f9 83 3d ad f8 fd bc f6 da 49 bd a3 fe 56 bd
       0.06444125 -0.031002367 -0.049281083 -0.052488934
0002f0 c4 05 8b bd 5f 3a 1d be 91 d0 1c be 20 45 dd 3c
       -0.06788209 -0.15354298 -0.15313937 0.0270105
000300 64 81 c6 bd 86 5b 93 be aa 04 f4 bd 48 d0 3a 3d
       -0.09692648 -0.28780764 -0.11914952 0.04560879
000310 cb 78 05 bd 70 b2 56 bc 87 32 32 be 55 0a c1 3d
       -0.0325859 -0.013104066 -0.17402087 0.09425799
000320 cb df 58 bc 7e 15 ba 3d 6e 97 3c 3d 3f e2 ab 3d
       -0.01323695 0.090861306 0.046042852 0.083927624
000330 a9 99 47 bd f0 42 18 3e 91 a7 9c bd 62 b1 45 be
       -0.048730526 0.14869285 -0.07649148 -0.19305947
000340 fa f7 0c 3d c6 38 08 3b cf 62 e5 bc 4f c0 e2 3c
       0.034416176 0.0020785793 -0.028001217 0.02767959
000350 2d 0b 45 be da 2e 5c 3d a3 d6 64 3d ff 64 2d 3c
       -0.19242544 0.05375562 0.055868756 0.010583161
000360 15 49 c2 3d f2 fb a3 3d a1 1a 75 bd 10 1b 30 bb
       0.094865955 0.08007039 -0.05983985 -0.00268716
000370 7e 48 78 3d 64 a3 91 ba cf 19 f0 3d 66 ae 88 3d
       0.06061601 -0.0011111316 0.117236726 0.06673889
000380 0d 93 14 bd a5 8a 1c bc 75 d5 dd bd f8 54 9b bc
       -0.03627305 -0.00955454 -0.10831729 -0.018961415
000390 0c fe 6d 3e 6e b3 bc bc cc 24 12 3e c3 f8 27 bd
       0.23241442 -0.023034777 0.1427185 -0.041008722
0003a0 ef 11 73 bd fe 91 84 3d cd 4d 9b bc 19 f8 3c 3d
       -0.059343275 0.06473158 -0.018957997 0.046135042
0003b0 bc 2f 0a 3c ee a2 d9 bd 8b 71 c9 3d 3d 86 6d bd
       0.008434232 -0.106267795 0.0983611 -0.057989348
0003c0 2a 93 58 be 4f c6 e2 3c 69 21 42 be f3 1f ba bc
       -0.21149889 0.027682452 -0.18958057 -0.022720313
0003d0 55 80 8e bc b7 8d ef bd d6 cc ea bd 04 f4 14 3e
       -0.017395178 -0.11696952 -0.114648506 0.1454621
0003e0 e6 2b 03 3d 78 20 cb 3d 0e c8 09 3d 6f 0b 16 3e
       0.032024287 0.09918302 0.033638053 0.14652799
0003f0 95 1d ce bd 14 84 1f 3c 59 a6 e9 bd 09 9b 35 be
       -0.10064236 0.00973608 -0.114086814 -0.17734922

network_body._body_endoder.seq_layers.2.bias f4 [128]
000000 40 5c bd bc 8b f5 80 bc b3 e6 9d bb 63 84 45 bc
       -0.023115277 -0.015742084 -0.0048187613 -0.012055489
000010 78 d4 c1 bc 24 b6 9e bc d5 1a 4e bc d8 11 40 bc
       -0.023660883 -0.01937396 -0.012579639 -0.011723004
000020 86 15 8a bc 41 4e be bc 88 89 0a bd 4f 74 4a bc
       -0.016855966 -0.023230674 -0.033822566 -0.012356832
000030 09 38 f5 bc f9 11 30 bb 83 7c 69 bc 40 88 03 bd
       -0.029933946 -0.0026866181 -0.014250877 -0.03211236
000040 47 0e 93 bc 29 54 c1 bc 60 8a 3d 3c 23 f8 c1 bc
       -0.017951144 -0.023599701 0.011568636 -0.023677891
000050 79 61 9a bc d9 9b 99 bc 4d 4d 49 bc c8 3f ab bc
       -0.018845307 -0.018751072 -0.012286496 -0.020904437
000060 89 a0 1a bc 67 b2 ad bc 4f e5 34 bc e6 b6 8b bc
       -0.009437689 -0.021203233 -0.011041 -0.017054986
000070 c0 9d 16 3c 22 81 81 bc bc 21 9e 3b 42 4c 25 bb
       0.009192884 -0.015808646 0.004825799 -0.0025222455
000080 da 4f af bc 21 23 85 ba a7 99 c3 bc 60 58 3c bc
       -0.02140038 -0.0010157564 -0.023876978 -0.01149568
000090 a4 c6 a1 3c 3d e3 8f bc df c7 8f bb 0e 9a 3c bc
       0.01974804 -0.01756441 -0.00438784 -0.011511339
0000a0 ac 67 a4 bc 2a be b0 bc aa 37 f8 b8 6f 83 a1 bc
       -0.020068966 -0.021575052 -0.0001183593 -0.019715993
0000b0 fd c5 40 bc af c1 55 bc 4d 06 9b bc a5 d1 da bc
       -0.011765954 -0.013046666 -0.018923903 -0.026711294
0000c0 c2 24 95 bc 35 0e 93 bc 3c 34 cc ba 68 7e a0 bc
       -0.018206004 -0.01795111 -0.0015579532 -0.019591525
0000d0 2d a2 b3 bc 01 d3 ba bc b8 00 4d bc fd e5 ec bb
       -0.021927917 -0.022805693 -0.012512378 -0.007229565
0000e0 43 c6 3e bc 07 82 04 bc 77 27 e3 bc 21 8f 89 bc
       -0.011643949 -0.008087642 -0.02772878 -0.016791882
0000f0 72 43 7b bc a5 5a 04 bd 5b ec d3 bc db 62 6c bc
       -0.015335904 -0.032313008 -0.025869539 -0.014427866
000100 4a 51 b8 bc f1 bd d8 bc 47 f8 9c bc 38 cb 5e bc
       -0.0224997 -0.026457759 -0.019161357 -0.013598256
000110 81 e8 bc ba d7 fa 92 bc d0 56 25 bc a5 96 a1 bc
       -0.0014412553 -0.017941875 -0.0100914985 -0.019725153
000120 3a 91 80 bc 95 51 b5 bc 7e e8 27 bc f9 f6 df bb
       -0.01569425 -0.022133628 -0.010248302 -0.0068348614
000130 71 ed 45 bc b4 d6 56 bb 3b 3c ca bc bc cc f9 bb
       -0.012080536 -0.0032781782 -0.024686923 -0.007623283
000140 b9 f8 9e bc a9 c3 71 bc e9 f9 6c 3c dc b7 88 bc
       -0.01940571 -0.014756122 0.01446388 -0.016689233
000150 34 cd 72 bc f9 76 3d bc 43 c4 a6 bc 92 28 9b bc
       -0.014819432 -0.01156401 -0.020357257 -0.018940244
000160 52 a6 55 bc 92 9d 38 3c c3 1a d2 bb 57 95 d3 bc
       -0.013040142 0.011268036 -0.0064118817 -0.025828047
000170 c1 b3 86 bc 23 1d 54 bc 4d c5 98 bc 2a 12 ce bc
       -0.016443135 -0.0129464 -0.018648768 -0.025155146
000180 84 e4 11 3c 33 c9 27 bc ce 7a 92 bc 25 34 97 bc
       0.00890458 -0.010240841 -0.017880823 -0.018457482
000190 5f 90 bc bc 1f 33 8f bc b9 d3 7c bc 24 67 50 bc
       -0.02301806 -0.017480431 -0.015431338 -0.012719903
0001a0 a4 8a 75 bc c2 f0 aa bc 0c e1 df bb e7 ee a5 39
       -0.014986668 -0.020866755 -0.0068322476 0.0003164925
0001b0 af 44 e2 bc 31 03 11 bc 65 5d 31 bc b8 f7 87 bc
       -0.027620642 -0.008850859 -0.01082549 -0.016597614
0001c0 34 55 b1 bc 78 2d 9a bc 5e 9c 15 bc fa 67 ca bc
       -0.021647073 -0.01882051 -0.009131519 -0.024707783
0001d0 e5 5a 40 bc 46 ca 95 bc 0a 09 b4 bc 60 65 97 bc
       -0.011740421 -0.018284928 -0.021976966 -0.018480957
0001e0 66 96 a6 bc 90 f0 c1 bb a9 8c bc bc 47 53 c6 bc
       -0.020335387 -0.00591857 -0.02301629 -0.024209632
0001f0 60 d3 a8 bc 63 1e 86 bc f7 89 ba bc 77 0d 90 bc
       -0.020608604 -0.016371911 -0.022770865 -0.017584546

action_model._continuous_distribution.log_sigma f4 [1, 2]
000000 91 8a f4 bd b3 c3 ca bd
       -0.11940492 -0.09900608

action_model._continuous_distribution.mu.weight f4 [2, 128]
000000 b8 04 06 3c 4c e9 08 3c eb f8 02 bc c5 fc a1 3c
       0.008179836 0.008356404 -0.007993917 0.01977385
000010 0b 1e 08 3c 3b 8c bd 3b 89 32 81 3c 25 ca 98 bc
       0.008307944 0.005784539 0.015771167 -0.018651078
000020 c6 35 df bb 5c db d8 3b 4b 86 5b bb 0a 28 db 3c
       -0.00681183 0.0066179466 -0.0033496793 0.02675249
000030 dc 1f 64 ba e4 59 2b 3b 7e af 62 3c 53 26 0c 3c
       -0.0008702257 0.0026146108 0.013835786 0.008554059
000040 83 54 c5 3c c2 93 49 3b 70 23 48 3d 78 df 9b 3b
       0.02408815 0.0030758237 0.04886192 0.004756864
000050 c4 fb 37 3b 6f aa 3f bb 8f 98 17 bc 41 b6 af 3b
       0.0028073648 -0.0029245873 -0.009252681 0.0053623025
000060 d6 9f 29 3c d4 8b 5e 3c 2a f1 06 bc 93 b3 80 bb
       0.010353049 0.013583142 -0.008236209 -0.003927657
000070 72 4d 3e 3d 9c c0 6d bb 83 82 75 3d 5d 2a c5 bb
       0.046460576 -0.0036278134 0.05993892 -0.006017013
000080 a2 b7 e7 bc 26 6e 18 3b f1 be 4c bb f6 ae 50 3a
       -0.028285805 0.0023259013 -0.003124174 0.00079606415
000090 e4 0f 06 bd 43 13 01 bb 26 c7 d0 3c 5c 98 8d bc
       -0.03273 -0.0019695319 0.025485586 -0.017284565
0000a0 62 c3 9e bc 42 ee 85 3b 0c 08 84 3c 92 43 48 bc
       -0.019380275 0.0040872404 0.016117118 -0.012223141
0000b0 d5 10 e1 3c e0 dd 03 3c 88 45 8d 3c 8d 71 a9 3a
       0.027473846 0.008048505 0.01724507 0.0012927518
0000c0 37 82 0b 3b 81 86 a9 3c 17 e1 00 bd 33 35 40 bb
       0.002128733 0.02069402 -0.031464662 -0.0029328584
0000d0 29 10 ab 3b b1 55 84 3a ad 2a a2 3b 42 9e 2e 3c
       0.0052204323 0.0010096339 0.004948935 0.010657849
0000e0 16 44 88 bb c1 9d 07 3d 8a 5c 86 ba 7f d1 12 3d
       -0.004158507 0.03310943 -0.0010250967 0.035844322
0000f0 ea 90 6b 3c e4 b4 20 3b 1f de 82 3a 16 bf d3 3b
       0.014377812 0.0024521882 0.000998441 0.006461988
000100 06 2e d6 3b a7 5b eb 39 30 5b 71 3a b4 46 45 3c
       0.006536248 0.0004489098 0.00092070084 0.012040783
000110 ec dd 8f 3d e7 9d 4d bc 27 5d 6a 3c 40 55 09 bb
       0.0702475 -0.012549854 0.014304436 -0.0020955354
000120 92 09 5d bc a8 7c f3 ba a8 cc d1 3c 7f 45 6f bb
       -0.013491051 -0.0018576579 0.025610283 -0.0036509929
000130 59 72 cd 3c 6d f4 69 ba 6c 8b 4b bb 29 c1 a7 3c
       0.02507894 -0.0008924667 -0.0031058444 0.020477848
000140 4c 5c 5d 3c b1 af 9d 3c 4a 8e 94 bc 79 22 1c 3c
       0.013510775 0.019248815 -0.018134255 0.009529703
000150 9b 5a d9 3a 4d db d6 3c 03 16 86 3c cf b7 86 3c
       0.0016582789 0.026227618 0.016367918 0.016445069
000160 d4 f1 3e bb 00 9d d1 bb 46 93 06 bc 46 3c 96 bb
       -0.002913584 -0.0063968897 -0.008213824 -0.004584822
000170 83 11 14 bb 8c b8 eb 3a f3 cb e4 b8 fe af 9e 3a
       -0.0022593446 0.0017984076 -0.00010909876 0.0012106893
000180 cb 26 1b bd 71 4f 9e bc 43 1d 0d 3c a0 8b c9 3b
       -0.037878793 -0.01932499 0.008612934 0.006150678
000190 32 db 29 bc ca 86 77 bb e6 2f b0 3b 21 ee 32 bc
       -0.010367202 -0.003776955 0.0053768037 -0.010921032
0001a0 ff db b9 bc a5 20 69 3c 52 a4 a6 bb 6e be 46 3b
       -0.02268791 0.0142289745 -0.0050855065 0.0030325907
0001b0 e1 4e fb b9 10 d5 ea 3c da 65 84 bb 97 52 a7 3c
       -0.0004793322 0.02866605 -0.004040462 0.020425124
0001c0 a1 37 8c 3c cf 56 7f 3c 4d 61 d5 3c 0a 23 ef 3b
       0.01711637 0.015584662 0.026047373 0.007297878
0001d0 d1 27 31 3c bc a2 77 3a 51 43 32 3b c4 07 cc 3a
       0.010812716 0.00094465516 0.0027200768 0.0015566279
0001e0 3e b9 52 bb 07 b7 0b 3d 81 08 2f 3c 9a 46 98 3b
       -0.003215387 0.034110095 0.01068318 0.0046470882
0001f0 61 52 9c 3c 59 c0 e5 3b 48 fe 35 3a de f5 04 bb
       0.01908225 0.007011455 0.0006942493 -0.002028815
000200 49 4b 2e 3a 29 8f a4 39 f2 49 fc bc f5 87 a1 bc
       0.00066487916 0.0003138718 -0.030796979 -0.01971815
000210 0b 78 a2 b9 5d 5d 9d bb db ed aa bc 6e 76 9d bc
       -0.00030988487 -0.0048023895 -0.020865371 -0.01922151
000220 f9 bd 0b bc a5 90 62 3b 3d 7d 73 bb de aa a7 ba
       -0.00852918 0.0034571078 -0.0037153505 -0.0012792011
000230 a5 09 dd 3b 22 14 f9 3c 96 6e 13 ba a9 9b 99 3a
       0.0067455345 0.030405108 -0.00056240836 0.0011719364
000240 f1 c4 80 3c 66 c5 50 3a b5 50 c9 3b 25 fe 5e bb
       0.015718909 0.0007963985 0.006143654 -0.0034025994
000250 5e 55 1f 3b 72 14 80 bb 03 16 d4 bb 95 aa 74 bb
       0.0024312357 -0.0039086873 -0.0064723506 -0.003733312
000260 c8 71 ec 3c 94 70 92 bb 1f 12 76 3c ea 81 0b 3b
       0.028862849 -0.0044689868 0.015018969 0.0021287152
000270 a2 d6 4b bc 1d b8 c1 b8 f3 c9 53 bc 62 6d f7 bc
       -0.012441309 -9.237251e-05 -0.012926566 -0.030203525
000280 01 14 62 bc 52 53 ab bc ac d9 d9 b9 69 ee 44 bc
       -0.013798715 -0.020913754 -0.00041551644 -0.012019732
000290 c7 a2 25 3c 8a 5d 27 3b ee cb 75 bc 84 7d 05 3c
       0.01010961 0.0025537931 -0.015002234 0.008147601
0002a0 e2 f3 48 3c b6 7c 52 3b ca a1 81 ba 8e f3 e6 bb
       0.012265177 0.003211779 -0.0009890136 -0.007048077
0002b0 55 f8 2f 3c 0e 2f 49 3c d8 d2 1f bb f7 12 5d 3a
       0.010740359 0.012279285 -0.0024387147 0.0008433307
0002c0 36 16 98 bc 7c f8 df bc c6 6c 2c bc ea bd 17 3c
       -0.018565279 -0.027340166 -0.0105239805 0.009261588
0002d0 c9 d0 17 3c 6e b7 aa b9 26 62 d7 bc 0b 9d ea 3b
       0.009266087 -0.00032561593 -0.026291918 0.0071598343
0002e0 e5 81 ab bc d9 32 2a bc c9 3b 1e bc e0 43 ec bb
       -0.020935962 -0.0103881 -0.009657809 -0.00721024
0002f0 ed 0f 9f 3b 93 1f ef ba 60 b1 d4 ba 54 39 43 3d
       0.0048541934 -0.0018243663 -0.0016227178 0.047662094
000300 94 6c d3 3b 4c 96 58 3a cb 1c 88 bb cc 31 26 3b
       0.0064521525 0.0008262142 -0.004153823 0.002535927
000310 61 a9 2e bd c8 99 85 bc 39 c8 7b 3c 80 7e a1 ba
       -0.042642 -0.01630868 0.015367561 -0.0012321025
000320 98 77 1d 3b 3a 2f 42 3b 6d 33 65 bb 30 a3 d9 3a
       0.0024027582 0.00296302 -0.003497328 0.001660442
000330 f2 30 e3 3b 0c 3d 1e 3c 0c 82 98 bc 36 1b 71 3c
       0.006933325 0.009658109 -0.018616699 0.01471596
000340 6e bf 6c bb 7b 6c c4 b9 71 00 22 b9 ae 62 a5 3b
       -0.0036124843 -0.00037464857 -0.00015449688 0.005047164
000350 c5 0d 19 3a 3e 8c bd bc cc e7 35 3a e6 7e 42 3c
       0.00058385386 -0.023138162 0.00069391425 0.011871075
000360 b4 7d 5f 3c be 1b 17 bb b3 a9 21 3d 13 a3 a5 b9
       0.01364081 -0.0023057307 0.03946848 -0.00031592752
000370 83 6f cf 3b 16 63 bd 3b ae cd ed bb 22 0f 9d bb
       0.006330432 0.005779634 -0.007257185 -0.0047930637
000380 e5 b5 33 bc 32 ac e9 bb 8a df 9c bb 12 85 d9 bb
       -0.01096866 -0.007131123 -0.00478739 -0.0066381777
000390 0f 7d 94 ba 84 8f 8f 3c 91 53 da bc a5 b7 42 3c
       -0.0011328774 0.017524488 -0.026651176 0.011884605
0003a0 71 56 f1 bb 95 6a d3 3b a8 ed a3 3c 50 63 9e bc
       -0.007365041 0.0064519146 0.020010784 -0.019334465
0003b0 eb 11 90 3b ce 7b 71 bc 8d 28 3b bc cd 53 db bc
       0.0043966672 -0.01473899 -0.011423242 -0.026773358
0003c0 96 83 12 bc 6b 14 30 3c 2b 23 37 bc 16 0e 6f ba
       -0.008942505 0.0107470555 -0.011177818 -0.00091192254
0003d0 73 a9 bb 3c e6 32 01 3c 03 ac 20 bc 6c 6f 28 bc
       0.022907948 0.00788567 -0.009806636 -0.010280471
0003e0 08 61 f8 bb 62 c5 41 3b cf d1 46 bb 35 c6 ac 3a
       -0.0075799264 0.0029567112 -0.0030337458 0.0013181629
0003f0 2a a2 1c 3c ef f0 46 3a 95 75 da 3a 76 de 91 3c
       0.009560147 0.00075890025 0.0016667122 0.017806273

action_model._continuous_distribution.mu.bias f4 [2]
000000 52 c5 a9 ba cc f1 b1 3a
       -0.0012952483 0.0013576089

exp_avg f4 [128, 6]
000000 3c 32 ef b8 00 00 00 00 92 d0 0e 38 30 0b 13 37
       -0.00011405765 0.0 3.4049684e-05 8.764488e-06
000010 00 00 00 00 d4 2c 00 3a a0 be 18 b9 00 00 00 00
       0.0 0.00048894924 -0.00014566863 0.0
000020 89 85 d1 37 2c 0f c1 b7 00 00 00 00 0b 2e 24 ba
       2.4976924e-05 -2.3014458e-05 0.0 -0.00062629645
000030 34 ee ed 39 00 00 00 00 e4 c6 b3 b8 cb 34 b4 38
       0.00045381638 0.0 -8.5724314e-05 8.592902e-05
000040 00 00 00 00 4d 8f 0b 3b f9 6b 78 39 00 00 00 00
       0.0 0.002129513 0.00023691346 0.0
000050 6a ab a9 b7 e8 ce 8e b6 00 00 00 00 9c df 0b ba
       -2.022619e-05 -4.256017e-06 0.0 -0.00053357496
000060 99 32 8c b7 00 00 00 00 a0 08 23 37 20 7a 7d 37
       -1.6712862e-05 0.0 9.717565e-06 1.510841e-05
000070 00 00 00 00 e6 4f 17 3a bf 02 b0 37 00 00 00 00
       0.0 0.00057720987 2.0982114e-05 0.0
000080 3e bf 9a b6 c9 f5 99 36 00 00 00 00 c6 da f5 38
       -4.611821e-06 4.5883685e-06 0.0 0.0001172326
000090 76 5a 1d 2e 00 00 00 00 93 f6 4a af a8 12 14 2e
       3.5778012e-11 0.0 -1.8459394e-10 3.3667874e-11
0000a0 00 00 00 00 d8 07 8a 30 24 56 c8 b5 00 00 00 00
       0.0 1.0043051e-09 -1.4926231e-06 0.0
0000b0 9a 8b 8f 35 ea 4a 1b 35 00 00 00 00 82 a7 b5 37
       1.069496e-06 5.7851014e-07 0.0 2.1654883e-05
0000c0 36 b9 a7 b9 00 00 00 00 8b 9f 8b 38 8c 84 42 b8
       -0.00031990715 0.0 6.657754e-05 -4.637665e-05
0000d0 00 00 00 00 94 25 85 ba ba 98 e7 af 00 00 00 00
       0.0 -0.0010158294 -4.2127174e-10 0.0
0000e0 b1 e4 0a 2f 24 c3 e3 ae 00 00 00 00 72 41 65 b1
       1.2632274e-10 -1.0357429e-10 0.0 -3.3361087e-09
0000f0 78 67 d7 b4 00 00 00 00 db e2 f6 33 c6 57 f5 b3
       -4.0122154e-07 0.0 1.14965324e-07 -1.14246674e-07
000100 00 00 00 00 89 61 5f b6 b8 f0 89 39 00 00 00 00
       0.0 -3.3286362e-06 0.00026310026 0.0
000110 20 69 71 b8 2c d7 4b 37 00 00 00 00 00 e8 da 37
       -5.7556783e-05 1.21498415e-05 0.0 2.6095659e-05
000120 c0 f4 58 30 00 00 00 00 ac 13 5a 31 12 2c cf b0
       7.8928153e-10 0.0 3.1734357e-09 -1.5073758e-09
000130 00 00 00 00 8f a5 4f b3 e6 92 de 36 00 00 00 00
       0.0 -4.8346518e-08 6.633217e-06 0.0
000140 b0 35 5f b5 f8 d3 98 35 00 00 00 00 bc 20 db 37
       -8.31521e-07 1.1386574e-06 0.0 2.6122078e-05
000150 85 8e 26 b8 00 00 00 00 a0 99 01 35 42 53 08 b7
       -3.9710216e-05 0.0 4.82798e-07 -8.125617e-06
000160 00 00 00 00 e1 97 6b b9 2e d8 15 b2 00 00 00 00
       0.0 -0.00022467926 -8.722095e-09 0.0
000170 06 4e 17 31 ea 97 47 31 00 00 00 00 e2 c6 fa 33
       2.2017743e-09 2.9044664e-09 0.0 1.1677709e-07
000180 dc 3b d2 b7 00 00 00 00 fc fc e7 37 9c 85 d8 37
       -2.5061825e-05 0.0 2.7655151e-05 2.5811423e-05
000190 00 00 00 00 20 5b 74 3a 12 c2 46 34 00 00 00 00
       0.0 0.000932144 1.851079e-07 0.0
0001a0 a8 0e 7a b3 f7 04 49 b4 00 00 00 00 68 fd d1 b6
       -5.822099e-08 -1.872139e-07 0.0 -6.2581857e-06
0001b0 e5 08 c5 b6 00 00 00 00 ca 47 2c 36 c0 a6 c8 33
       -5.872093e-06 0.0 2.5671784e-06 9.3435574e-08
0001c0 00 00 00 00 70 07 1d 37 cc 23 cb b7 00 00 00 00
       0.0 9.359661e-06 -2.4216155e-05 0.0
0001d0 00 39 40 35 58 52 37 b6 00 00 00 00 80 19 aa b7
       7.160852e-07 -2.7317055e-06 0.0 -2.0277454e-05
0001e0 02 10 8b 39 00 00 00 00 00 47 79 b8 9a 5b 3b 38
       0.00026524073 0.0 -5.943235e-05 4.4669585e-05
0001f0 00 00 00 00 16 ad 8e 3a 42 ae c7 b2 00 00 00 00
       0.0 0.0010885324 -2.3245892e-08 0.0
000200 e0 71 cb b1 6c be a2 32 00 00 00 00 ae 30 46 35
       -5.9210237e-09 1.8945876e-08 0.0 7.3831586e-07
000210 34 64 97 b1 00 00 00 00 62 a3 30 31 fa 9b 93 af
       -4.40607e-09 0.0 2.5704243e-09 -2.6849972e-10
000220 00 00 00 00 d4 93 87 b1 06 0f 0a 36 00 00 00 00
       0.0 -3.9458232e-09 2.0572347e-06 0.0
000230 d0 48 8b b4 f8 ef 30 b4 00 00 00 00 18 f7 24 b7
       -2.5943746e-07 -1.6478577e-07 0.0 -9.832693e-06
000240 b3 b5 c6 b5 00 00 00 00 56 ff 28 36 7e a4 68 36
       -1.4805031e-06 0.0 2.5182576e-06 3.466644e-06
000250 00 00 00 00 00 fc fb 38 8f d8 8b 37 00 00 00 00
       0.0 0.00012015551 1.6670934e-05 0.0
000260 d8 ee 7a b6 70 a7 8d 35 00 00 00 00 00 15 40 36
       -3.7391928e-06 1.0554049e-06 0.0 2.8622453e-06
000270 ce 99 03 39 00 00 00 00 92 e8 13 b8 d8 5c c3 b6
       0.0001255043 0.0 -3.526413e-05 -5.8222613e-06
000280 00 00 00 00 a0 00 dd b9 a8 43 b2 38 00 00 00 00
       0.0 -0.0004215287 8.5003034e-05 0.0
000290 fc 31 d2 b7 f0 b1 9c b7 00 00 00 00 24 be 5a ba
       -2.5057227e-05 -1.8679508e-05 0.0 -0.0008344373
0002a0 12 af 85 38 00 00 00 00 a0 b4 99 b5 48 ce 85 37
       6.3745436e-05 0.0 -1.1451957e-06 1.5950893e-05
0002b0 00 00 00 00 c8 02 03 3a 4d f1 a6 b4 00 00 00 00
       0.0 0.0004997668 -3.109548e-07 0.0
0002c0 a1 c1 d1 b5 20 f4 54 b5 00 00 00 00 1c 0d ee b7
       -1.5628067e-06 -7.9331403e-07 0.0 -2.8377915e-05
0002d0 e4 6d a6 37 00 00 00 00 40 b7 1a 35 8a af b1 b7
       1.9839914e-05 0.0 5.7636134e-07 -2.1181786e-05
0002e0 00 00 00 00 5c 72 3e ba bb ed aa 2f 00 00 00 00
       0.0 -0.00072649657 3.1091738e-10 0.0
0002f0 17 e4 2d 2f ee df aa 2f 00 00 00 00 5d ec 31 32
       1.5815292e-10 3.1081931e-10 0.0 1.0356499e-08
000300 f6 68 71 b3 00 00 00 00 c2 39 50 32 5c dc 53 b1
       -5.6207647e-08 0.0 1.2120326e-08 -3.08298e-09
000310 00 00 00 00 f0 c5 b0 b3 b2 d6 02 b7 00 00 00 00
       0.0 -8.231643e-08 -7.7985915e-06 0.0
000320 44 30 42 36 b8 0f e7 b5 00 00 00 00 60 95 26 b8
       2.8936347e-06 -1.7215416e-06 0.0 -3.97166e-05
000330 1e 79 9d b7 00 00 00 00 20 44 2c 36 8e fc 07 b8
       -1.8772258e-05 0.0 2.5669651e-06 -3.2421718e-05
000340 00 00 00 00 dc ae 94 ba f0 a4 1e b6 00 00 00 00
       0.0 -0.0011343616 -2.363984e-06 0.0
000350 08 a6 27 36 70 65 ef 35 00 00 00 00 80 5a 9a 38
       2.4981582e-06 1.783641e-06 0.0 7.360149e-05
000360 64 39 f5 b4 00 00 00 00 5a 4f 90 34 70 d2 b1 34
       -4.5676563e-07 0.0 2.6879826e-07 3.3121933e-07
000370 00 00 00 00 28 9e 54 37 93 c3 87 b8 00 00 00 00
       0.0 1.2673008e-05 -6.47373e-05 0.0
000380 f9 5d 9b 37 4e fb 32 b7 00 00 00 00 a4 e7 8f b9
       1.85212e-05 -1.0668138e-05 0.0 -0.0002744767
000390 a4 d9 f8 38 00 00 00 00 0c 3f 89 37 ec 91 98 37
       0.000118661 0.0 1.6361031e-05 1.8187762e-05
0003a0 00 00 00 00 10 8a 04 3a f1 d2 0e b6 00 00 00 00
       0.0 0.00050559733 -2.1282433e-06 0.0
0003b0 a7 f4 f1 34 e6 f7 40 35 00 00 00 00 a5 d9 ee 37
       4.5067756e-07 7.1886313e-07 0.0 2.847316e-05
0003c0 54 94 43 b9 00 00 00 00 e9 8c ef 37 20 f6 e8 b7
       -0.00018651906 0.0 2.8556637e-05 -2.7771166e-05
0003d0 00 00 00 00 69 25 34 ba 1e e4 2b b6 00 00 00 00
       0.0 -0.00068720296 -2.5613767e-06 0.0
0003e0 b7 59 a1 b5 1e 13 9b b5 00 00 00 00 d9 02 27 b8
       -1.2021545e-06 -1.1553964e-06 0.0 -3.9818555e-05
0003f0 a1 d4 aa 2e 00 00 00 00 c0 92 1b 2e 00 e9 29 2f
       7.7684754e-11 0.0 3.537326e-11 1.5453239e-10

exp_avg_sq f4 [128, 6]
000000 06 06 cd 35 00 00 00 00 a8 a4 83 35 06 a2 65 36
       1.5275443e-06 0.0 9.808182e-07 3.421797e-06
000010 00 00 00 00 2c 4b b5 39 2a c8 28 36 00 00 00 00
       0.0 0.00034579018 2.5150462e-06 0.0
000020 5e be 91 35 83 cf 29 37 00 00 00 00 71 a8 1b 3a
       1.0858746e-06 1.01215e-05 0.0 0.00059378805
000030 20 c2 ff 36 00 00 00 00 9f e8 88 36 08 67 8f 37
       7.6221913e-06 0.0 4.0801965e-06 1.7094906e-05
000040 00 00 00 00 b4 e1 ad 3a 00 c9 54 37 00 00 00 00
       0.0 0.0013266117 1.2682984e-05 0.0
000050 75 f7 ae 36 85 95 f0 37 00 00 00 00 ae 7d 1a 3b
       5.214412e-06 2.8679855e-05 0.0 0.0023573446
000060 5d db 0a 36 00 00 00 00 dd 04 a7 35 6e 38 54 36
       2.0691289e-06 0.0 1.2443885e-06 3.1623308e-06
000070 00 00 00 00 1d af ad 39 0c a7 c4 33 00 00 00 00
       0.0 0.000331276 9.157347e-08 0.0
000080 a2 38 1c 33 ad e1 78 34 00 00 00 00 e8 68 63 37
       3.6373088e-08 2.31789e-07 0.0 1.355468e-05
000090 d2 ad d6 24 00 00 00 00 65 58 0b 25 94 01 51 25
       9.310217e-17 0.0 1.2086277e-16 1.8128395e-16
0000a0 00 00 00 00 80 51 8e 28 92 a2 8d 31 00 00 00 00
       0.0 1.5800512e-14 4.122122e-09 0.0
0000b0 4f f4 af 30 4b 3c f1 31 00 00 00 00 f8 6f 10 35
       1.2802363e-09 7.0208777e-09 0.0 5.3807116e-07
0000c0 36 9d b6 36 00 00 00 00 a9 a6 28 36 02 36 d4 36
       5.4423244e-06 0.0 2.513096e-06 6.3243797e-06
0000d0 00 00 00 00 68 ab 5e 3a 25 2b 40 25 00 00 00 00
       0.0 0.00084941695 1.6667963e-16 0.0
0000e0 bf 6d eb 24 bd 53 c9 25 00 00 00 00 19 21 ce 28
       1.0210092e-16 3.4924685e-16 0.0 2.2884948e-14
0000f0 bb fa 11 30 00 00 00 00 3a db 90 2e c9 3f bc 30
       5.3107e-10 0.0 6.587304e-11 1.3696929e-09
000100 00 00 00 00 0f 7f 58 33 46 98 e3 36 00 00 00 00
       0.0 5.0406978e-08 6.782854e-06 0.0
000110 91 58 48 36 0f 04 87 37 00 00 00 00 37 b4 ab 3a
       2.9853875e-06 1.6095144e-05 0.0 0.0013099973
000120 42 be 17 2d 00 00 00 00 a3 e2 16 2d 71 ab 83 2d
       8.625602e-12 0.0 8.576836e-12 1.4969111e-11
000130 00 00 00 00 6c 35 91 30 85 cd 22 32 00 00 00 00
       0.0 1.0565322e-09 9.476371e-09 0.0
000140 7f 7b a8 31 68 85 77 32 00 00 00 00 de 28 93 35
       4.9034834e-09 1.4407625e-08 0.0 1.0964247e-06
000150 d3 13 99 35 00 00 00 00 61 df 29 35 e1 e5 3c 36
       1.1405158e-06 0.0 6.3282465e-07 2.814799e-06
000160 00 00 00 00 ae 95 30 39 a6 4c 04 2a 00 00 00 00
       0.0 0.00016840428 1.1750548e-13 0.0
000170 d9 d8 0f 29 a6 bb d1 29 00 00 00 00 3c 9f 28 2d
       3.1940464e-14 9.314016e-14 0.0 9.5850515e-12
000180 3d fa a9 36 00 00 00 00 d1 96 23 36 5d 9b 24 37
       5.065724e-06 0.0 2.437668e-06 9.811335e-06
000190 00 00 00 00 6b 82 71 3a dc a2 ff 30 00 00 00 00
       0.0 0.0009212854 1.8599979e-09 0.0
0001a0 23 1f a5 30 c8 45 b9 30 00 00 00 00 9b 9e 26 34
       1.201418e-09 1.3480355e-09 0.0 1.5517655e-07
0001b0 e8 8c 74 33 00 00 00 00 42 75 9a 32 a1 06 3c 34
       5.693883e-08 0.0 1.7981282e-08 1.7511276e-07
0001c0 00 00 00 00 02 42 03 37 ed d6 48 36 00 00 00 00
       0.0 7.823577e-06 2.9927426e-06 0.0
0001d0 06 00 bf 35 5a c5 a6 36 00 00 00 00 d0 d2 00 3a
       1.4230616e-06 4.9701603e-06 0.0 0.0004914226
0001e0 66 0f 03 37 00 00 00 00 e8 04 1d 36 63 1c cc 36
       7.811794e-06 0.0 2.339768e-06 6.0829784e-06
0001f0 00 00 00 00 c2 9d 67 3a cf 2f 33 2d 00 00 00 00
       0.0 0.00088354584 1.0185588e-11 0.0
000200 84 9f 0a 2c 22 ee 21 2e 00 00 00 00 44 56 af 30
       1.9699528e-12 3.6818666e-11 0.0 1.2757444e-09
000210 ce 8e 1e 29 00 00 00 00 7b 51 8e 28 66 00 56 29
       3.520691e-14 0.0 1.5800503e-14 4.751789e-14
000220 00 00 00 00 38 9c 57 2c e4 a6 bc 31 00 00 00 00
       0.0 3.0640056e-12 5.4904934e-09 0.0
000230 13 38 74 31 8e 96 da 31 00 00 00 00 45 01 07 35
       3.5538548e-09 6.361751e-09 0.0 5.0293266e-07
000240 ec 15 9c 32 00 00 00 00 82 31 80 32 f5 9e 12 33
       1.817076e-08 0.0 1.4923675e-08 3.4137845e-08
000250 00 00 00 00 59 17 77 36 69 2c 37 33 00 00 00 00
       0.0 3.6819458e-06 4.26484e-08 0.0
000260 d5 65 c7 32 01 0f 88 33 00 00 00 00 4d ff e6 36
       2.3212957e-08 6.335723e-08 0.0 6.884255e-06
000270 2c 42 f1 35 00 00 00 00 04 68 d3 35 27 d1 5f 36
       1.7975158e-06 0.0 1.5750998e-06 3.3351332e-06
000280 00 00 00 00 b2 25 e1 39 0b 91 b6 36 00 00 00 00
       0.0 0.0004294343 5.440908e-06 0.0
000290 ab cd 48 36 45 e1 16 37 00 00 00 00 81 62 77 3a
       2.9922037e-06 8.993146e-06 0.0 0.00094369805
0002a0 5c bc 3f 35 00 00 00 00 0d d0 c8 34 90 54 95 35
       7.1427144e-07 0.0 3.740428e-07 1.1125976e-06
0002b0 00 00 00 00 57 24 e4 38 2a 2d 67 32 00 00 00 00
       0.0 0.00010878656 1.3456239e-08 0.0
0002c0 54 7c 1d 32 5b 31 ea 32 00 00 00 00 dc 37 1c 36
       9.166872e-09 2.726363e-08 0.0 2.3278326e-06
0002d0 de 28 86 36 00 00 00 00 26 d7 1d 36 91 3e 27 37
       3.9982688e-06 0.0 2.3520056e-06 9.968543e-06
0002e0 00 00 00 00 3b 15 5d 3a 0a 32 59 28 00 00 00 00
       0.0 0.00084336445 1.205677e-14 0.0
0002f0 d6 08 6f 29 81 1e 24 29 00 00 00 00 3d bb 43 2c
       5.3076325e-14 3.6441773e-14 0.0 2.7815105e-12
000300 ff fa 39 2d 00 00 00 00 78 54 4e 2d da f5 c8 2d
       1.0571765e-11 0.0 1.17285e-11 2.2846548e-11
000310 00 00 00 00 51 af e9 30 8c dd 63 35 00 00 00 00
       0.0 1.7002809e-09 8.4886483e-07 0.0
000320 ae 3f 59 35 02 28 3a 36 00 00 00 00 4d 80 1e 39
       8.0931466e-07 2.7739447e-06 0.0 0.0001511585
000330 07 55 38 36 00 00 00 00 9f 0a a4 35 e9 16 96 36
       2.746763e-06 0.0 1.2222043e-06 4.4730155e-06
000340 00 00 00 00 61 1c e6 39 22 92 e8 34 00 00 00 00
       0.0 0.00043890162 4.3319693e-07 0.0
000350 41 fb 91 34 4b fc a9 35 00 00 00 00 89 91 84 38
       2.7191166e-07 1.2664908e-06 0.0 6.3213585e-05
000360 d5 18 d0 2f 00 00 00 00 3b 53 22 2f a9 1d b4 30
       3.7852624e-10 0.0 1.4763384e-10 1.3105154e-09
000370 00 00 00 00 0a 05 a7 33 c4 15 b3 35 00 00 00 00
       0.0 7.77746e-08 1.3342874e-06 0.0
000380 65 96 1a 35 79 c5 1b 36 00 00 00 00 c0 09 53 39
       5.7588323e-07 2.3211744e-06 0.0 0.0002012616
000390 41 62 5a 37 00 00 00 00 95 11 d0 36 d6 0e c5 37
       1.3016689e-05 0.0 6.20093e-06 2.3491139e-05
0003a0 00 00 00 00 a1 e4 13 3b b5 89 88 31 00 00 00 00
       0.0 0.0022566693 3.9737764e-09 0.0
0003b0 99 84 00 31 13 74 5d 32 00 00 00 00 09 61 6e 35
       1.8701825e-09 1.2890285e-08 0.0 8.8803114e-07
0003c0 97 c9 a5 36 00 00 00 00 35 33 1d 36 f1 18 41 37
       4.9408513e-06 0.0 2.342463e-06 1.1509504e-05
0003d0 00 00 00 00 43 d5 71 3a 8c 31 3d 35 00 00 00 00
       0.0 0.0009225199 7.0480087e-07 0.0
0003e0 0c 0e 67 34 2f 17 89 35 00 00 00 00 96 13 b1 38
       2.1518662e-07 1.0214043e-06 0.0 8.443666e-05
0003f0 00 a0 65 25 00 00 00 00 5c 5e e8 24 c4 71 12 27
       1.9916794e-16 0.0 1.0077381e-16 2.0323243e-15

exp_avg f4 [128]
000000 d0 fd 0a 38 e2 b9 da b7 20 2e 9e 38 5a a5 33 b8
       3.3138145e-05 -2.6074184e-05 7.5426186e-05 -4.283092e-05
000010 4a 7b 08 38 ec 5d 90 36 18 65 48 2e 60 36 a0 35
       3.253975e-05 4.3024684e-06 4.5564524e-11 1.1936754e-06
000020 58 60 ce b7 f9 a6 40 af 64 05 24 b4 58 49 81 b7
       -2.4601977e-05 -1.7521619e-10 -1.5275651e-07 -1.5412152e-05
000030 c8 1b 26 b1 18 1c 4b 35 18 81 1a b7 bb e7 e2 31
       -2.417197e-09 7.5664275e-07 -9.209172e-06 6.6038104e-09
000040 9c ca 5a 38 57 5f ac b4 c8 77 60 35 00 42 2c b4
       5.2163945e-05 -3.2106865e-07 8.362081e-07 -1.6042759e-07
000050 34 86 0b 38 20 6e 33 33 78 17 ab ae d0 93 3e b5
       3.326517e-05 4.1776843e-08 -7.7803486e-11 -7.099561e-07
000060 49 50 d3 36 18 b2 b5 b5 56 1e 04 b8 e2 42 5c b8
       6.2976364e-06 -1.3537383e-06 -3.1499505e-05 -5.2514377e-05
000070 24 c2 cc 37 da a1 c4 b5 35 a4 17 b8 d4 c9 11 30
       2.4409099e-05 -1.4650243e-06 -3.6154135e-05 5.303751e-10
000080 c0 9e 85 b1 10 3a 7f b5 85 4a 79 b8 e8 28 9a 36
       -3.8888572e-09 -9.5079395e-07 -5.9435628e-05 4.5943198e-06
000090 48 ad 45 35 16 b7 1f b7 e8 70 cf 37 49 43 d3 35
       7.3640376e-07 -9.5197665e-06 2.4728899e-05 1.5740308e-06
0000a0 7a 92 db b7 11 db 05 b6 68 55 93 2f 38 b2 bc b5
       -2.6175043e-05 -1.9946058e-06 2.679983e-10 -1.405896e-06
0000b0 c8 a7 65 37 36 48 79 38 12 1b 86 b4 30 b6 09 30
       1.3688528e-05 5.9433478e-05 -2.497914e-07 5.0099214e-10
0000c0 d0 35 e4 b6 da 12 82 b7 f7 98 36 33 28 ca bb 38
       -6.801194e-06 -1.5505986e-05 4.2514298e-08 8.9545094e-05
0000d0 b0 ee fd 34 68 f8 25 34 48 0f 8f b7 00 c2 df 34
       4.729859e-07 1.5457192e-07 -1.7054044e-05 4.167814e-07
0000e0 82 aa 98 b8 e9 10 1e b8 0e 16 d4 b7 2b ff 0e b8
       -7.279684e-05 -3.7685884e-05 -2.528264e-05 -3.4093082e-05
0000f0 70 58 e6 37 3c 85 af b6 ea 4a 01 31 de 7e 9b b6
       2.7459319e-05 -5.230917e-06 1.8814554e-09 -4.6341293e-06
000100 50 ae 0f 37 11 bb 05 39 21 d0 83 b8 87 18 11 b6
       8.5640495e-06 0.00012753556 -6.285334e-05 -2.162096e-06
000110 dd c5 51 ad 56 09 84 b4 80 2e 0b b8 de 9c 31 34
       -1.1924209e-11 -2.459371e-07 -3.318349e-05 1.6541478e-07
000120 fa 65 89 b7 1a 59 89 38 aa 25 80 38 2c 91 97 31
       -1.637916e-05 6.5492655e-05 6.110531e-05 4.4111825e-09
000130 a0 4d bd 37 d4 85 20 b6 5e ef 33 38 b4 9f c3 32
       2.2566703e-05 -2.3919756e-06 4.2899854e-05 2.2773612e-08
000140 8e 62 f1 37 a9 a7 58 32 f8 b1 33 36 74 97 52 b6
       2.8775332e-05 1.2610976e-08 2.677667e-06 -3.1380596e-06
000150 59 05 ec 37 48 b7 0e 38 54 38 cd b7 91 8b 08 b7
       2.8135883e-05 3.4026132e-05 -2.4464134e-05 -8.138727e-06
000160 9a b5 bf 2e 8a 91 4f 34 b9 f9 ac b8 a2 81 31 38
       8.717933e-11 1.9331324e-07 -8.2481136e-05 4.232082e-05
000170 f8 15 ff 37 73 7e 20 b7 23 b5 14 38 0e e8 85 37
       3.0408599e-05 -9.566184e-06 3.5454646e-05 1.5962894e-05
000180 80 17 d9 b5 25 97 09 b4 44 1d ac 38 78 2b a1 35
       -1.6174599e-06 -1.2814105e-07 8.20705e-05 1.2008086e-06
000190 dc 6c bd 37 90 41 a3 37 aa b6 b8 b7 b0 fc 09 38
       2.2581247e-05 1.9461644e-05 -2.2019569e-05 3.289868e-05
0001a0 d8 20 ae 36 48 c6 55 b5 84 f8 a0 b8 ba 3e d6 b7
       5.1894276e-06 -7.963722e-07 -7.675684e-05 -2.5539997e-05
0001b0 2c 81 28 b0 40 ee 0f b6 84 a3 80 b7 50 5b 28 b2
       -6.130161e-10 -2.144734e-06 -1.5334932e-05 -9.799649e-09
0001c0 b1 96 87 38 78 63 5b 37 2c f7 ef ae 95 6e 84 38
       6.46537e-05 1.3076577e-05 -1.0912368e-10 6.314848e-05
0001d0 98 3c ea 33 c6 61 4f 38 80 6f 92 34 ec a7 95 b7
       1.0907496e-07 4.9443704e-05 2.7275746e-07 -1.7840379e-05
0001e0 10 79 a0 b5 9d 0f ad b6 4c 80 23 b0 b0 51 86 b6
       -1.1956163e-06 -5.1576194e-06 -5.9481375e-10 -4.003021e-06
0001f0 d3 e0 50 37 c6 05 e1 b4 4f ce 94 35 26 da 8a 34
       1.2450112e-05 -4.1913717e-07 1.1086903e-06 2.5863227e-07

exp_avg_sq f4 [128]
000000 88 16 5e 35 2a 36 b4 35 04 aa 4b 36 02 98 bb 36
       8.273423e-07 1.3426809e-06 3.034832e-06 5.5907303e-06
000010 9a fc 54 35 c0 38 10 33 47 2c 60 24 c5 f4 c2 30
       7.934374e-07 3.3579227e-08 4.8609762e-17 1.4184925e-09
000020 6f a8 0a 36 20 88 9e 24 da 5d 11 2f ec cc 4a 36
       2.0661644e-06 6.875218e-17 1.3221016e-10 3.0219626e-06
000030 8f e7 61 2c 23 b3 44 31 ee f8 f5 34 97 5d f5 28
       3.2102964e-12 2.8623581e-09 4.5815926e-07 2.7241052e-14
000040 07 88 12 36 e3 65 df 2f 08 3d 9f 32 45 d4 9d 35
       2.1834874e-06 4.0635859e-10 1.853779e-08 1.175919e-06
000050 bd 4b 0b 36 94 e1 82 2c 2c b6 21 28 a9 f6 c0 30
       2.07567e-06 3.7198664e-12 8.976798e-15 1.4039944e-09
000060 7b 7b 1d 32 76 cf 92 32 5d d3 87 35 14 00 17 36
       9.166679e-09 1.709098e-08 1.0119799e-06 2.25008e-06
000070 10 50 8d 34 5a 3b c9 31 6b 64 06 36 cf 04 1e 28
       2.632155e-07 5.8566174e-09 2.0026007e-06 8.771805e-15
000080 4f cd b3 2c ee 87 cb 34 cf 51 8e 35 2b 1c 20 34
       5.11028e-12 3.7910598e-07 1.0603634e-06 1.4911409e-07
000090 d7 ec 69 2f 79 a4 02 35 fc 24 b4 36 d5 0e 23 31
       2.1275369e-10 4.8668113e-07 5.3687236e-06 2.3728053e-09
0000a0 a5 87 0f 36 de 6e 50 34 a2 8a 41 25 d5 0a a5 31
       2.1387616e-06 1.9411843e-07 1.6787052e-16 4.8033635e-09
0000b0 77 38 99 34 de d7 0e 35 6d 4a 1f 30 37 44 6f 2c
       2.8539554e-07 5.321325e-07 5.794963e-10 3.400181e-12
0000c0 fc 63 b9 35 8d 83 e8 34 85 ca 32 2e 36 5b 29 36
       1.3812673e-06 4.3309083e-07 4.0652388e-11 2.5236054e-06
0000d0 dd 2e e4 31 78 8b e8 2e 2b 86 15 36 c2 1d d5 34
       6.641001e-09 1.0574913e-10 2.2280826e-06 3.9695993e-07
0000e0 75 04 c7 36 be ca d6 35 db 0e 76 36 d1 b5 37 35
       5.931181e-06 1.6003248e-06 3.6665504e-06 6.843739e-07
0000f0 87 e0 c9 35 ce 59 b5 34 b1 37 d0 28 50 b1 a8 34
       1.5041013e-06 3.377922e-07 2.3116791e-14 3.142145e-07
000100 db 63 a0 35 65 77 ad 35 3d 72 cc 35 06 31 a8 34
       1.1949991e-06 1.2924253e-06 1.5232432e-06 3.1328108e-07
000110 00 df 4d 22 59 d5 77 30 78 20 8f 36 48 49 95 2f
       2.7900736e-18 9.016126e-10 4.265512e-06 2.7155012e-10
000120 fa 36 54 36 e8 76 e8 35 31 5b 9b 35 e0 20 15 29
       3.1622462e-06 1.7319953e-06 1.157494e-06 3.311316e-14
000130 6e 5f 85 36 0b 44 6b 31 25 7d 7c 36 4f b7 de 2c
       3.9748184e-06 3.4235679e-09 3.762377e-06 6.329971e-12
000140 e9 d5 c7 34 8c c7 ac 2b 0d 19 81 35 94 62 8b 31
       3.722228e-07 1.227672e-12 9.61854e-07 4.0566395e-09
000150 73 44 32 35 35 a1 31 36 74 48 33 36 9a ac 1f 32
       6.6409774e-07 2.646889e-06 2.6715252e-06 9.294263e-09
000160 ba 92 b0 26 41 68 8a 2d f8 d6 ab 35 c2 55 03 37
       1.2252224e-15 1.5735082e-11 1.2803057e-06 7.8281755e-06
000170 4b e9 10 35 9d f4 93 33 0e 68 91 35 64 5b 89 35
       5.3983666e-07 6.889716e-08 1.0833626e-06 1.0233894e-06
000180 2b 81 46 36 d2 a1 3a 2f 40 a2 8c 36 0c 62 96 31
       2.9579485e-06 1.6974092e-10 4.1912135e-06 4.376721e-09
000190 0d 51 37 36 b2 d6 79 35 80 1c 3e 35 06 a0 0a 35
       2.7316303e-06 9.307215e-07 7.082199e-07 5.164187e-07
0001a0 29 79 4e 35 94 33 5a 32 da 14 09 36 2f 98 7b 35
       7.691729e-07 1.2700998e-08 2.0426728e-06 9.372624e-07
0001b0 2c a2 7c 27 56 0c 1d 35 66 f2 1a 36 d5 6c 27 2c
       3.5059939e-15 5.850501e-07 2.3088883e-06 2.3792541e-12
0001c0 a8 75 80 35 36 0e 63 36 37 ee 8e 24 79 dc e9 35
       9.570986e-07 3.3833908e-06 6.1986235e-17 1.7424019e-06
0001d0 7e f6 39 30 8a 54 91 35 5b 9b 3e 32 06 3e 07 36
       6.7652894e-10 1.0827946e-06 1.1094779e-08 2.015267e-06
0001e0 4d ea 02 30 c0 a6 02 31 c0 6a 32 29 1c 50 01 32
       4.7626686e-10 1.9012276e-09 3.961653e-14 7.527003e-09
0001f0 c4 8a db 34 0d a1 0a 30 34 bb 21 33 d2 f4 bf 2e
       4.0892894e-07 5.0432974e-10 3.7655994e-08 8.729163e-11
