MLAgentDevProject/results/MoveToGoal2/MoveToGoal/MoveToGoal-132321.pt (torch, 441366 bytes, 36 tensors)

network_body._body_endoder.seq_layers.0.weight f4 [128, 6]
00000000: cf5e 99bd ce3b 37be a133 3d3f d096 d8be
00000010: 6ac3 d13e 7c18 f2bd efaa fabe e4c2 b6be
00000020: 1e98 22bf 3c9b 27bd 98f3 9fbd 3795 0c3e
00000030: d81b d83e a31c d5be e603 7ebd 0ae1 323e
00000040: 8e3a 0cbf 5b80 383d 130a 043f 1ebb 62be
00000050: 0765 b9be e8d0 88be 0329 36be 1170 1b3f
00000060: 0db2 1dbf d09d 383e 99c8 d13e aed6 e2bc
00000070: f7c9 883e a212 883e 9c89 d73e aa0e 82be
00000080: 469d d13e 4458 fa3e df5a a9be c425 12bf
00000090: 4797 9dbd 55b0 d93e e06d 4cbe 56e1 173c
000000a0: 3f83 643e a4b6 14be 6e9a 8d3d 0012 0a3e
000000b0: 2ece 5dbe 8076 63bc 4301 65be 57a1 b43e
000000c0: cb7e 123f 3889 1dbf 2a4c 30bf 979a d6bd
000000d0: 45a7 29bd 2a84 6b3e d854 e03e 7845 c23e
000000e0: dd23 263f 9a45 493f 5929 29be db10 a8be
000000f0: 0ccb 133e 8fa1 413e 125d 5e3e d025 453e
00000100: 4191 8f3d 0967 9cbd ac08 70be 9cfa 14bf
00000110: 0d63 02bf de8e 833f c4e9 cc3e 0666 193e
00000120: 766a bf3e 169e 59bf 07f4 95be 8653 d03d
00000130: e704 f3bc 1fa4 873e f3c9 193e 0619 1c3f
00000140: 982f 953e 626c 013f 7618 31be 401e c4be
00000150: af21 8dbe fcb5 02bf 1aa0 113e 24cc 853e
00000160: e1eb 243f 7105 65be 3d5e 91bf 79a2 55bf
00000170: b233 b5be 0ff0 24bf f1d8 45be 658f 5e3c
00000180: fb5f cd3d d591 bc3e c2e4 a3be 9ac5 01bf
00000190: 85d2 94bd 48d4 0dbe 9ef9 a7be 4ce6 0e3f
000001a0: b0fc 86bd e46c 7b3e 1347 003f 4588 c9be
000001b0: af9c a23b 6d8c d63e 58a7 533e 6ed5 033f
000001c0: b845 99be 6a06 03ba 8b73 56be 105d 443e
000001d0: 4fee afbd 2e1a 1e3e 8882 ce3a e055 09bf
000001e0: 3fbb ed3e d43f 113f 7642 2a3f b736 49be
000001f0: 8dc1 403e bb10 7ebe a585 383d ea85 a63f
00000200: e58a ce3e 876b 4fbe 56be bf3e e328 78be
00000210: bcd5 1a3f afaf 87be 3530 0b3e 320d 33bf
00000220: 6eb5 7f3e f36e 003f ae65 403d e5be 37bf
00000230: dbe9 64bd 45f0 01bf d10a 00bd 30af 23bf
00000240: d1b8 9ebe 4e72 1e3e 49cc 963e 0ece b9be
00000250: 5602 273e f8d1 b83e a2d8 4b3e 4ef0 3dbe
00000260: ea94 f3bd e3fe 50bd d6b9 9b3e 05fc 9bbe
00000270: ae6e 5ebe 5d53 7e3e 6a66 1f3f c1ba a2be
00000280: 8b9e 34bd 4ca4 393f c172 bc3d 02f2 d2be
00000290: 4ae0 b7be e48a adbe 0a96 00bd 4571 a33e
000002a0: e92f 26be 7476 063f d554 d0bb 58e5 cabe
000002b0: e905 9ebe 0762 57be 5b89 afbd a493 27be
000002c0: 022d 48be 30ad 21be 9ced 4cbf d43d 9a3e
000002d0: 54e0 04bf 3aba cb3d ae4f 1f3e a207 8fbe
000002e0: 81ce 74be b3ec f23e e0d1 69bf 0e47 143f
000002f0: 2c35 a63e 14dc 68be dab5 9ebd 14b8 be3e
00000300: 7f99 083e 3a6a a63e 8537 dc3e 0cae 3b3d
00000310: 36d9 383c 0284 92bd 0d0d 43be 0ff2 203f
00000320: fd6b 193f 8a3b e53e d7d4 9c3e 8be9 4c3d
00000330: 5257 9dbe 0844 08bf 14ed f8bd 75d2 403e
00000340: c79f ca3e 7b05 ebbc 58db 04bf 3a5c 053d
00000350: 9508 f63e 2de5 ac39 fd6d 793e bcd0 abbe
00000360: 53e3 2bbf 5a59 993d 0460 c8be 91fe 673f
00000370: c0e9 7abe 7e2b ba3e c05a bd3d 3863 2abe
00000380: afb2 063e e196 073d c9da e6be 9e32 383e
00000390: 5f5a 1cbe 4f30 68bd b55b a03e 9f01 5abf
000003a0: 84f0 373e 57bd 70bf f01f 193f 888c 703e
000003b0: 9b98 a53e 7d61 a73d 5152 40bd ab12 8cbd
000003c0: 6fed be3e 93e0 ca3e c0da e03e 6955 063f
000003d0: 4af2 433e ea1b 45bd a503 ebbc cf58 733e
000003e0: 0028 4cbf 7187 c1be 9ce5 743e 8fb1 abbd
000003f0: 9041 883f 983b 143f 4622 053f d6a1 1c3e
-0.074887864 -0.17893907 0.73906904 -0.4230256 0.40969402 -0.11821076 -0.48958537 -0.35695565
-0.6351336 -0.040919527 -0.07810134 0.13728796 0.42208743 -0.4162341 -0.062015437 0.17468658
-0.5477685 0.045044284 0.5157787 -0.22141692 -0.3620989 -0.26721883 -0.17789082 0.60717875
-0.6159981 0.1802895 0.40973356 -0.027690258 0.26716587 0.26576716 0.42097175 -0.25401813
0.40940303 0.48895466 -0.33077142 -0.57088876 -0.076948695 0.42517343 -0.19963789 0.009270033
0.22315691 -0.14522797 0.06914221 0.13483429 -0.21660683 -0.013883233 -0.22363763 0.35279343
0.5722472 -0.61537504 -0.6886622 -0.104787044 -0.041419286 0.22999635 0.4381473 0.37943625
0.64898473 0.7862183 -0.16519679 -0.3282536 0.14432925 0.18909286 0.21715191 0.19252706
0.07010127 -0.0763684 -0.23440808 -0.581949 -0.5093239 1.0277975 0.400221 0.14980325
0.3738591 -0.85006845 -0.2928774 0.10172181 -0.029665424 0.26492402 0.15018444 0.6097568
0.29137874 0.50556004 -0.17294487 -0.3830433 -0.2756476 -0.51058936 0.1422123 0.2613231
0.6442242 -0.22365357 -1.1356884 -0.8345104 -0.35391003 -0.644288 -0.19321038 0.013583993
0.100280724 0.3683001 -0.32010466 -0.5069214 -0.07266716 -0.1385051 -0.3280763 0.55820155
-0.06591165 0.24553257 0.5010845 -0.39361778 0.004962526 0.4190401 0.20669305 0.5149754
-0.29936004 -0.0004998209 -0.20942514 0.19176126 -0.08590376 0.15439674 0.0015755454 -0.5364666
0.4643192 0.5673802 0.6650766 -0.19649778 0.18823834 -0.2481107 0.04504933 1.3009617
0.40340343 -0.20255862 0.37449902 -0.24234347 0.6048238 -0.26501223 0.13592608 -0.6994201
0.24971554 0.50169295 0.04697197 -0.71775657 -0.055887084 -0.5075725 -0.031260315 -0.6393919
-0.3100038 0.15473291 0.29452732 -0.3629002 0.16309485 0.36097693 0.19906858 -0.185487
-0.118936375 -0.05102433 0.3041522 -0.30465713 -0.21721908 0.24836488 0.62265646 -0.31783107
-0.04409651 0.7251632 0.09201575 -0.41200262 -0.35913306 -0.33895028 -0.03139309 0.31922355
-0.16229214 0.52524495 -0.006357769 -0.396281 -0.30863884 -0.21033488 -0.0857112 -0.16364914
-0.19548419 -0.15788722 -0.80050063 0.30125296 -0.519048 0.09947629 0.15557739 -0.2793551
-0.239069 0.47446212 -0.9133587 0.5792092 0.32462442 -0.22740203 -0.07749529 0.37249815
0.13339804 0.3250292 0.43011108 0.04582028 0.011282256 -0.07154085 -0.19047947 0.6286935
0.599304 0.44771987 0.30631134 0.05002741 -0.30730683 -0.5322881 -0.12154594 0.18830283
0.39575025 -0.028689137 -0.5189719 0.032558657 0.48053423 0.00032977146 0.24358363 -0.3355769
-0.67143744 0.074877456 -0.39135754 0.9062281 -0.24503231 0.36361307 0.09245825 -0.16639411
0.131541 0.033102874 -0.45088795 0.17988059 -0.15268849 -0.056686696 0.31319967 -0.85158724
0.17962843 -0.9403891 0.5981436 0.23491108 0.3234299 0.08172891 -0.046953503 -0.06839498
0.37290522 0.39624462 0.43916893 0.52474076 0.19135395 -0.048122324 -0.028688261 0.23764347
-0.79748535 -0.37798646 0.23915714 -0.08383476 1.0645008 0.5790343 0.5200542 0.1529611

network_body._body_endoder.seq_layers.0.bias f4 [128]
00000000: 02c0 bebc eaa6 edbc 1a8b 113d d7e6 de3d
00000010: 9f21 a03c 2c81 5dbd 2339 2ebd 3e03 db3d
00000020: 3f8f 123d 0b8c a03d dd82 b0bd fe92 05bc
00000030: 2742 1c3d 4ba8 13bd 72c0 55bd 5dce a43d
00000040: ad19 6d3c c6ef 10bd f49e e0bc 5f0f 96bd
00000050: 6504 7f3d 3f0d 52bc db63 813d a987 afbd
00000060: 53d9 31bd 4143 bbbd 207c 8cbd 353a 0d3e
00000070: b2ad 8ebd 43a0 f73c 766b 5f3d 3d04 23bb
00000080: 5f59 70ba 386f 673d 6d01 59bd 54f1 09bd
00000090: 99b1 ba3d 1a24 373c 346c 63bd 4118 4c3c
000000a0: e08f 88bd a5ee 39bc 028a c83d 4be4 9ebd
000000b0: 3cbc ebbc 6fbf ec3c 5b83 0a3e 961a 583a
000000c0: c61b 083d f207 153d f662 2ebe 893a 523d
000000d0: f272 48bd bab9 1fbd a334 a3bd 030a 9cbc
000000e0: 864b 8bbd 23ce eebd 175a e0bb 2e34 6cbd
000000f0: ca17 243c cb87 b9bd 7408 d4bc 8bb7 0e3e
00000100: 9be0 fdbc e49f b23c aa23 dd3d 8eb8 c8bc
00000110: b347 a1bc ccaa b13d 7174 d0bc b01f b73d
00000120: 7a8b f13c f0d0 a1bd b28b cebd 6d25 b3bd
00000130: 479f d63d 1a8f 79bd 55f2 f63c bfb4 efbc
00000140: c2f9 8e3d ac9d 8f3d 5851 513d 0ba7 81bd
00000150: c759 0bbd dd45 883c ff03 3bbd ac72 61bc
00000160: 477e d23c a6e6 16be 8fc2 c3bd 7080 61bd
00000170: 2ed3 99bb fe2f 303c 584c 2abd 52a9 bcbd
00000180: 5014 c5bd c160 fa3c f3fd 063d 8afe 69bd
00000190: f554 dfbd 7457 5b3d 81db 973c 4417 ae3b
000001a0: 2b19 493c c480 92bd f828 293d 1c52 5e3d
000001b0: 060b 0bbd 0125 ac3d 0c78 0fbc 5006 1ebd
000001c0: 43d3 273d 4e43 a0bc 5ac5 713d eddf 35bb
000001d0: 7c60 50bc 0025 2d3d a526 6c3d d72d 16bd
000001e0: d4a4 5bbd 2a8a bd3b f5f8 48bd a88b 8fbd
000001f0: 8747 8dbc 1e75 5ebd 4007 26bd 3864 ad3d
-0.023284916 -0.029010255 0.03553305 0.10883873 0.019547282 -0.054078266 -0.04253496 0.10693978
0.03578114 0.07839211 -0.0861871 -0.008152721 0.038149025 -0.03604917 -0.052185483 0.08047173
0.014471454 -0.035384916 -0.027419545 -0.073271506 0.06226005 -0.012820541 0.06317874 -0.08570797
-0.043420147 -0.09143687 -0.068596125 0.13791735 -0.069667235 0.030227786 0.054545842 -0.0024874352
-0.0009168591 0.05650255 -0.052979875 -0.033677414 0.09115905 0.011178041 -0.055523112 0.012456954
-0.06668067 -0.011348401 0.09791948 -0.07758387 -0.02877628 0.028899876 0.1352667 0.00082437077
0.03322961 0.03638453 -0.17029938 0.051325355 -0.048937745 -0.038995482 -0.07969024 -0.019047743
-0.06801514 -0.11660411 -0.006846677 -0.05766695 0.010015437 -0.090591036 -0.025882937 0.13937204
-0.03099089 0.021804757 0.10797818 -0.024502065 -0.01968751 0.08675155 -0.025446149 0.08941591
0.029485453 -0.0790118 -0.100852385 -0.08747373 0.104795985 -0.060927488 0.03014485 -0.029260991
0.06981231 0.070124954 0.051102966 -0.06330689 -0.034021165 0.016634876 -0.045658108 -0.01376025
0.02569498 -0.14736423 -0.095585935 -0.05505413 -0.004694364 0.01075363 -0.041576713 -0.09211983
-0.09623015 0.030563714 0.03295703 -0.057127513 -0.10904876 0.0535502 0.018537285 0.005312832
0.012274067 -0.07153466 0.041298836 0.054277524 -0.03394606 0.084054954 -0.008756649 -0.03858024
0.04097296 -0.019563343 0.0590261 -0.0027751878 -0.012718316 0.042271614 0.05765404 -0.03666481
-0.05362399 0.0057842927 -0.04906555 -0.07009059 -0.017246021 -0.05431091 -0.040534258 0.08466381

network_body._body_endoder.seq_layers.2.weight f4 [128, 128]
00000000: d5f1 e53d 4f2d 13be 497b a2bc 975b 86bb
00000010: 2797 a63d 7596 60bd ce81 1e3d 24cc 8bbd
00000020: 07ac ac3c 7e83 42bd 23a1 823d 9d77 cbbd
00000030: 9b73 eabd c2c4 eebc 1bb2 203e a2c0 abbe
00000040: da3a b3bd 2db6 39bd 0b6d 77bd 5c5e 7f3c
00000050: 5152 abbd 4542 b9bd 43ae 8b3d 258c 493e
00000060: 0b3c 23be 21ca 443a c02f 23bd d7ff d0bc
00000070: 8c0e 91bb 9c86 22be da7e 01bc 15ad 0dbc
00000080: e00c b9bd e1c7 70bd 46d7 0e3d 1465 8e3c
00000090: a8cc 31bd c20b e13c 9347 903d c72f 3dbe
000000a0: c6da fdbd 6c4f 04be 1afd 4dbe 7c63 0cbc
000000b0: b4ff b2bd 4886 353d 92da c8bd 5422 91bb
000000c0: a2a7 b9bc f11b 913e bf3e 5b3c e8c6 36bd
000000d0: 6540 933d fb3d 20be 967f f8bd 6cc3 893d
000000e0: 2c93 9a3c 8ac0 bbbd 390c 533c d62c 11be
000000f0: 0937 8c3d 0480 633d b1fd 45bd 961d bebd
00000100: 0164 233d 7308 1cbd 6c68 e7bd 8002 f03d
00000110: a92b 71bc e3f6 03bd 7f83 b33b 2e68 fa3b
00000120: c8a8 9fbd 4bf9 dd3d e68b 4a3d 5aa6 0c3e
00000130: e081 013e a25b 08be 4b8f 42bd a10a 503e
00000140: ae16 89bd 4387 7bbd 4a0f 7dbe b000 ddb8
00000150: 345c 0cbd d7a6 0abe 13dc be3c 477c 683c
00000160: 728a 87bd 6ac2 19be af51 0d3d 561a 423e
00000170: 1d66 5dbe e4d5 04be b71d 943b abab 35be
00000180: 489d 503c 63e6 293d 21fc 683e 032b 9a3c
00000190: 689a ab3d c285 573d ff5e 0dbe b6d2 4bbd
000001a0: d869 b53d a595 1fbe 90b7 bfbd e66d 89bc
000001b0: 0a7d 1d3e 2b3a 1cbe b33f dfbd fbeb 90be
000001c0: 9382 babd dca4 573d 19bb 31be c16c bbbc
000001d0: b542 2fbc 391b be3d f831 8fbd c51e 89bd
000001e0: 7510 e1bc c164 92bd ddbc b93d c1d3 f13d
000001f0: dd75 58bc 9651 9b3c c46d a63d 6d97 193d
00000200: 13df 773b 246b 3e3d 3d34 3e3e 9926 70bd
00000210: 11fb 453e 819a d8bd 061b a53c fac7 b73b
00000220: ff61 17be 9f20 b33c 3da5 0fbc 0c81 753c
00000230: 7fb9 e23d 8057 fd3d 29a7 673e 7a86 1cbe
00000240: 9761 53be 9a7b 783d 0854 553d 0790 153e
00000250: b73f 3ebe fc3b 08be 65b3 c1bd b180 6cbe
00000260: 9aab 91bd b377 98bd d0ff 843d 5c99 19be
00000270: 7576 27be 7033 11be a723 85bd a94a e13d
00000280: 4162 af3d e365 003e bf0d 873d b0e1 983d
00000290: 4e2e 0b3e 1172 783d 5072 88be 063c 113e
000002a0: 55b1 883e a577 c93d 1461 5d3e 26d2 443d
000002b0: ed53 093e cc1b 033d ef01 21bd d51e d83d
000002c0: 4dab 4e3d 866d 393d 2fc6 88bd 1515 bbbd
000002d0: 3855 a93d 281b 823b 0d99 483d 3508 d03d
000002e0: d04d 02bd 3632 e53d 80f4 603d fc2c 3cbc
000002f0: 2025 cbbc 8a1b a7bd 09bc 283e f74c 5d3d
00000300: c584 16be 45ea 40be 0278 fd3d 805b 49be
00000310: b701 3fbe ed45 a7bd b6bd 0fbd 212c 173e
00000320: c103 09be 2f48 a9bd 5fee e5bd 2491 64be
00000330: be20 793d 6902 19bd 2f59 a03c 6cb7 1abd
00000340: 7c3f 023e f934 76bd 51c8 253e 1b53 2fbe
00000350: 86a6 b53d e66a f13c 19b4 9ebd d615 a93d
00000360: 2227 92bc a39b 8b3d b125 42be ee34 923c
00000370: 19ce 79be e65d fdba 4613 a23b 3e54 19be
00000380: 854f 39bd 91ba 5e3d e458 ff3c 6ff9 fb3d
00000390: fd28 72bc 160e 793a d033 30bd 3044 0bbc
000003a0: 0436 9e3d 4ecc a0be 966f 153e f703 d1bd
000003b0: de1d 24be ec49 203e 46f4 7fbd ba32 c8bd
000003c0: 6ebb 463e 2f71 4abc 417a 053c f077 10be
000003d0: d4d4 e0bc a591 5fbe a543 9cbc f843 44be
000003e0: c504 26bd 3e4c 433e 70ba 443c fbbc 3e3d
000003f0: e56f 05bb 6398 3e3d 1ce2 dfbc eda9 d83d
0.112277664 -0.14372753 -0.019834178 -0.004100274 0.08134299 -0.054830987 0.03869801 -0.06826046
0.021078123 -0.047488682 0.06378391 -0.09934924 -0.11447831 -0.029146556 0.15692942 -0.33545405
-0.087514594 -0.045339752 -0.060406726 0.015586462 -0.0836531 -0.09045843 0.06820347 0.19682367
-0.15940873 0.0007506926 -0.03984046 -0.025512619 -0.004426783 -0.15871662 -0.007903779 -0.008647223
-0.09035659 -0.05878437 0.03487327 0.017382182 -0.043408066 0.027471427 0.07044902 -0.18475257
-0.12395243 -0.12920922 -0.20116082 -0.008568641 -0.08740178 0.044317514 -0.09807314 -0.004429141
-0.022662941 0.2834163 0.013381659 -0.044623286 0.07190017 -0.15648644 -0.1213371 0.06726727
0.018869005 -0.09167583 0.012881332 -0.1417726 0.068464346 0.055542007 -0.048337642 -0.09282987
0.039890293 -0.038093995 -0.11299214 0.11719227 -0.014719882 -0.03221787 0.005478322 0.0076418137
-0.07795864 0.108385645 0.049449824 0.13735333 0.126472 -0.13316205 -0.047499936 0.20316555
-0.06693779 -0.061408293 -0.24712864 -0.00010538229 -0.03426762 -0.13540207 0.023298299 0.014189786
-0.06618203 -0.1501557 0.034501728 0.18955359 -0.21620984 -0.12972218 0.004520144 -0.17741267
0.012732811 0.04147948 0.2275243 0.018819338 0.0837906 0.052617796 -0.1380577 -0.049761496
0.08858079 -0.15584429 -0.09361184 -0.016776036 0.1537973 -0.15256564 -0.109008215 -0.2830504
-0.09106936 0.052647457 -0.17356528 -0.022879006 -0.010697057 0.09282536 -0.06991953 -0.06695322
-0.027473668 -0.071481235 0.09069226 0.11807967 -0.013211695 0.018959802 0.08126405 0.037497927
0.0037822172 0.046488896 0.18574615 -0.05863056 0.19334055 -0.10576344 0.020154487 0.005608556
-0.14783476 0.02186614 -0.008767423 0.01498438 0.11070537 0.12370205 0.2262236 -0.15285674
-0.20642696 0.06066475 0.05208209 0.14605723 -0.18578993 -0.13304132 -0.09458045 -0.23095967
-0.071128085 -0.07444706 0.06494105 -0.14999908 -0.16353782 -0.14179778 -0.06500941 0.110005684
0.08563662 0.12538867 0.06594419 0.074649215 0.13591883 0.060655657 -0.26649714 0.14183053
0.26697794 0.098372735 0.21619064 0.048051976 0.13410921 0.03200893 -0.039308485 0.10552756
0.050456334 0.045270465 -0.066784255 -0.091348805 0.08268207 0.0039705224 0.048974086 0.10157815
-0.03181249 0.111912176 0.054920673 -0.0114853345 -0.024797976 -0.081595495 0.1647798 0.054028478
-0.14699085 -0.18839367 0.12376405 -0.1966381 -0.18652998 -0.08167634 -0.03509303 0.14762928
-0.13380338 -0.08265721 -0.11227106 -0.22320992 0.06082224 -0.037355814 0.019573776 -0.03777258
0.1271953 -0.060109112 0.16189696 -0.17121546 0.088696525 0.029469918 -0.07749195 0.08256118
-0.017840926 0.06816795 -0.1895969 0.017847504 -0.24395026 -0.0019330352 0.004946145 -0.14973542
-0.04524185 0.054377142 0.031170316 0.12303435 -0.01478028 0.0009500695 -0.043018162 -0.008500144
0.077251464 -0.31405872 0.14593348 -0.10205834 -0.16027018 0.15653199 -0.062488817 -0.097753
0.19407436 -0.012356087 0.008146823 -0.14108253 -0.027445234 -0.21832903 -0.019075224 -0.19166553
-0.040531892 0.19072053 0.012007341 0.046566945 -0.0020360884 0.046532046 -0.027329497 0.10579286

network_body._body_endoder.seq_layers.2.bias f4 [128]
00000000: f0b1 13bd 586d af3d 1d37 0c3d 89ca 5dbd
00000010: c180 323d 726e a6bd c42b 7d3c 5d52 33bd
00000020: 1311 a7bd fd29 48bd b38f 0bbd c6b5 f93c
00000030: 8e46 223d 5f93 2b3a 7096 52bc 6779 de3c
00000040: 5bbe 5cbd ef8e 79bd 2ea9 dfbd a7b1 efbc
00000050: 6060 cf3c ee97 09bd 0c36 42bd 0044 b43c
00000060: ed02 acbc ca2a 203c dec9 59bd 4bd3 42bd
00000070: e5d0 c6bc aa40 ccbc 73cd 0abd d4e6 10bd
00000080: 029f a73c 7283 b23a 4ff4 1ebd b164 6a3d
00000090: ed02 a5bd 2258 0ebb 4baf 3bbd 2d1d 8aba
000000a0: 02d6 c83c 7b87 60bd aa27 6ebc cc4f 19bd
000000b0: 969d 64bd 0045 f83c 5748 d3bc 5733 f23c
000000c0: 297c 56bd 2438 61bd 30d0 a1bc c65e 203d
000000d0: 6934 ce3c 7b1e 5cbd 20a6 5bbd 684c 4d3d
000000e0: abd6 d5bc d130 d2bc 196b 793b 1afe 18bd
000000f0: 8ccc 563d 2ba7 cd3d 3908 2abd c674 3ebd
00000100: 1230 a13d c679 a6bc 693f cdbc 6e82 6c3b
00000110: 2a15 0dbd 9206 3fbd eb65 e93b 387c 17bd
00000120: 640b 50bc 0a75 80bd 9d5d 5abd d234 1abd
00000130: 8239 16bd 28a5 10bd 903e 3fbd b128 12bd
00000140: 2283 843d 2c50 523d dd10 7abd 2c6b 20bd
00000150: 85bc febc e614 283d 942c 43bd c449 2bbd
00000160: a241 d93d 8f42 b8bc bfc3 39bd 6818 733c
00000170: c179 b4bb 7972 c2bc e8a6 2ebd 7f5c 5e3d
00000180: 6a9e a73c e4d8 d5bc 2915 0dbd 29eb 65bd
00000190: 08b9 52bd 7081 06bd 2b19 3ebd 00ce 32bd
000001a0: 87cc 9d3c ca77 50bd 51b8 96bb 79ad b4bb
000001b0: fd72 cd3b 4c43 55bc af60 2cbd 2169 82bc
000001c0: ec13 04bc 4bd6 1abd 7aaf 66bd 30b0 49bd
000001d0: 20f0 73bd dda5 7fbd 2792 ae3d fb31 783c
000001e0: c9d2 16bd d9b5 9bbc 1cf8 95bd 9037 85bc
000001f0: e3af 07bd 2e46 30bc c597 80bd 01c0 bd3b
-0.036058366 0.085657775 0.034232248 -0.05414823 0.04357982 -0.081265345 0.015452329 -0.04377972
-0.081575535 -0.04886817 -0.03407259 0.030482184 0.039618067 0.00065450923 -0.01285325 0.027157499
-0.053892475 -0.060927328 -0.1092094 -0.029259516 0.02531451 -0.033592157 -0.047414824 0.022005081
-0.020997489 0.009775827 -0.05317103 -0.047564786 -0.02426953 -0.024933178 -0.033887338 -0.035376385
0.020461563 0.0013619496 -0.03880721 0.057224933 -0.08057199 -0.0021720012 -0.04582147 -0.001053726
0.02451611 -0.054816704 -0.014535824 -0.037429616 -0.05581435 0.03030634 -0.02579133 0.029565496
-0.052364502 -0.05498518 -0.019752592 0.039152883 0.025171475 -0.053740006 -0.053625226 0.050121695
-0.026103338 -0.025658043 0.003805822 -0.037351705 0.052441165 0.100416504 -0.041511748 -0.046498083
0.07870497 -0.020321738 -0.02505465 0.0036088484 -0.03444401 -0.046637125 0.0071227453 -0.0369837
-0.012698028 -0.062723234 -0.053311933 -0.03764803 -0.036675937 -0.035313755 -0.046690524 -0.035683338
0.06470324 0.05134599 -0.06105124 -0.039164707 -0.031095752 0.041035555 -0.047649935 -0.041818395
0.106082216 -0.022492675 -0.045352694 0.014837362 -0.0055076783 -0.023736225 -0.042639643 0.05428743
0.02046128 -0.026104398 -0.034444008 -0.05613247 -0.05144599 -0.032838285 -0.04641072 -0.04365349
0.019262565 -0.05089549 -0.004599609 -0.0055138436 0.006269811 -0.013016533 -0.042084392 -0.01591927
-0.00806139 -0.037802022 -0.05631969 -0.04924029 -0.059555173 -0.06241404 0.0852397 0.015148635
-0.036822114 -0.01900761 -0.07322714 -0.016261846 -0.033126723 -0.01075892 -0.06278948 0.005790711

action_model._continuous_distribution.log_sigma f4 [1, 2]
00000000: b9be 2ebe 2cd8 86be
-0.17064942 -0.263368

action_model._continuous_distribution.mu.weight f4 [2, 128]
00000000: 2f61 b8bd fd1c 5c3d b8c0 3d3d a122 4cbc
00000010: 42db 993d f8c8 b3bd 7da4 8a3c 53ba b3bd
00000020: ef0a 07be 239e 1ebd a19b 98bd 0259 803d
00000030: 6fb4 7ebb 482b c5bd bc4e 913b 2845 423d
00000040: 66e8 21bd 3fde d0bd d376 5abd 8a08 24bc
00000050: 1396 803d ca4b 75bd 5172 d2bd 40a6 103d
00000060: 179c d0bd 7609 22bd fba6 63bd 1b8f 0bbe
00000070: f125 9fbd 81a2 dbbd d1ba b9bd e128 b0bd
00000080: a614 8abc 5e62 46bd 0013 94bd 967a c43d
00000090: 496c 87bd 98bc 93bb ce67 173b 53cf b73c
000000a0: 7cda f63c 76a1 30bd 8ebb b2bd f7ab d8bd
000000b0: bff1 8ebd ba07 553d fa96 c6bd 96c3 953d
000000c0: a0ed dabd ec2d a6bd 48e1 d3bd 561c 3f3d
000000d0: a483 d43c af86 9ebd b9b0 c4bd 0a41 e1bc
000000e0: 4b43 cabd ec5f eabd 5701 c83c 054b c3bd
000000f0: eb7c 4f3d 4422 c43d 3e6f fbbd 4c6e d1bd
00000100: 6e97 a13d 0997 00bd 3257 e2bd a2b4 d93c
00000110: 519a 05be dc45 f5bd 5af8 0ebe eb98 cbbd
00000120: e274 a9bc 0c31 acbd 1524 b7bd 8594 113c
00000130: 2729 46bd c20e 08be 9f2c 9dbd 40fb d2bd
00000140: 68e9 863d 303c 9e3d 0a25 86bd d3c3 d0bd
00000150: 473f 95bd 4fc8 b53c 36ca 69bd 5371 aebb
00000160: 7ed5 9c3d 52be e6bd ee87 e6bd 4563 fab9
00000170: ae86 d1bd 739b d7bd 8a9d a3bd 73ec 163d
00000180: fce7 493d 1f1c 0bbe 9dc7 d0bd 9376 98bd
00000190: a7dc aebd 3599 b7bc 29da 7cbd 5d8c 86bd
000001a0: df5c 633c a4bd f4bd c7a8 f43b b94e caba
000001b0: 7943 88bc 81ce c2bc 0dd9 a4bd aebd ebbd
000001c0: 1df7 09be 836c 07be eec0 c0bd 23f0 b9bd
000001d0: 4ac0 c9bd 5942 93bd 9b85 1d3d 5a66 333c
000001e0: b6d3 7bbd bf80 c4bd e5e0 12bc 8847 23bb
000001f0: c8bd 54bd dea2 1dbd b045 97bc 0a0c da3b
00000200: 4cb4 9d3b c80d 253c c1d3 ddbc 59f0 793d
00000210: 42b7 39bd c28c 193d df9e b7bd 561e 1c3d
00000220: 53f8 eebb 9d92 30bd ee79 6d3d 3db7 89bd
00000230: 1d44 a03d 1ce8 de3b 421a acbb a915 d0bd
00000240: c311 033b dbf7 0a3d b226 963d 42f7 9a3c
00000250: 9b8a 4b3d 0194 2f3d e7cd 163d 85be e5bd
00000260: 913e 123c 8be9 a33d 4d47 c1bb b9a6 49ba
00000270: 1fd5 713c 2e39 193c e88f d13b 0bb3 65bd
00000280: 444e 5f3d 3453 543d e4f9 96bd 97d7 3dbd
00000290: 8f53 983c 1ff6 6b3d f1cf 923c a217 f13c
000002a0: 7f6c 693d b7ac 7c3c 2b74 bf3c 89e6 b43c
000002b0: ebc0 c43c 1540 6ebd 9de8 43bb ef75 11bd
000002c0: f3cc 02bb b44c ad3c 43b6 203c 1c04 d0bd
000002d0: e718 373d ce57 93bb 49a8 3f3c a90b 6a3d
000002e0: 2cf3 893c beef 0a3d f311 033d 4d83 e43c
000002f0: 3e5b 153d e8e8 33bb bbed cb3c bcd3 093d
00000300: 0d2a d63c e044 993d 11b7 1e3d 193e 8a3d
00000310: 506a a93b f03f 233d 6567 ad3c e8d6 8e3c
00000320: 77e0 5f3d 78cf 213d 78b3 a23c b8a5 1a3c
00000330: 54da b0bc 5a34 c639 2697 003d 01f1 fa3c
00000340: 06c0 e73c 7e04 43bc 62c2 2a3a 0456 fd3c
00000350: 4257 713b e1e3 023d a4ec 7b3c 5dbb 23bc
00000360: bffc 3d3d 201c 103d d09f 073d 0b1e 6a3d
00000370: a525 c93c 1de5 063c 8a54 ad3c 71e9 513d
00000380: d5ed 91bd bfa0 613c fbae 263d 40d4 22bb
00000390: 51eb 9b3c b33b ad39 bff1 8e3c 529c 8c3d
000003a0: a69c 9f3d eb11 f0bc b358 603d 19ed bf3d
000003b0: 4ff9 8b3d e372 b13d 7bd3 f83b 13d3 0d3d
000003c0: 1e38 053d e2cd 95bd 7612 943c d9a7 1e3d
000003d0: ad05 493c b09f b03c 2e35 953d 1957 853c
000003e0: 5b5c babc c099 ea3c 40d4 c8bc 1c32 5c3d
000003f0: 4725 94bc 2724 a73c 2bd6 b4ba 513b 693d
-0.09002911 0.053738583 0.04632637 -0.012459428 0.07512523 -0.08778566 0.016924137 -0.08775773
-0.13187765 -0.03872503 -0.07451559 0.06266977 -0.003886487 -0.09627396 0.0044344347 0.047429234
-0.039528273 -0.1019864 -0.053335976 -0.0100118015 0.062786244 -0.05988673 -0.102757104 0.0353148
-0.10186022 -0.039559804 -0.055579167 -0.13628809 -0.077709086 -0.107243545 -0.090688355 -0.08601547
-0.016855549 -0.048433654 -0.072301865 0.09593694 -0.06612451 -0.004508566 0.0023102644 0.022437727
0.030133478 -0.04312273 -0.087271795 -0.10579675 -0.06979703 0.05200932 -0.09696765 0.07312696
-0.106898546 -0.08114228 -0.10345703 0.046657883 0.025941677 -0.077405326 -0.0960402 -0.027496833
-0.09876116 -0.11444077 0.024414701 -0.09535793 0.05065624 0.09576848 -0.12277077 -0.102261156
0.07890211 -0.03139404 -0.110517874 0.02657539 -0.13047148 -0.11976215 -0.13961926 -0.09941276
-0.020685617 -0.084077924 -0.08942429 0.0088855075 -0.04837909 -0.1328688 -0.076745264 -0.103018284
0.065874875 0.077263236 -0.065500334 -0.101936005 -0.0728746 0.022190241 -0.05707761 -0.005323568
0.07657908 -0.112667695 -0.11256395 -0.00047757677 -0.10230766 -0.105276965 -0.079890326 0.03684659
0.049293503 -0.13584946 -0.10194323 -0.07444491 -0.0853818 -0.022411922 -0.06173149 -0.06569741
0.013877123 -0.119502336 0.007466409 -0.0015434838 -0.016633736 -0.02378011 -0.08049212 -0.11510788
-0.13473172 -0.13224988 -0.094117984 -0.090790056 -0.09851129 -0.07190389 0.038457494 0.0109496955
-0.0614812 -0.09594869 -0.008964752 -0.0024914462 -0.051938802 -0.0384854 -0.018465847 0.006654267
0.004812753 0.0100740865 -0.027078511 0.06102023 -0.045340784 0.037487753 -0.08965849 0.038114868
-0.007292786 -0.04310857 0.05797761 -0.06724403 0.078254916 0.006802572 -0.0052521536 -0.10160381
0.00199996 0.03392778 0.07331599 0.01891673 0.04969273 0.042865757 0.036817458 -0.11217979
0.00892605 0.08003529 -0.0058983923 -0.0007692385 0.014760285 0.009352012 0.006395329 -0.05607895
0.054518 0.05183716 -0.073718816 -0.04634818 0.018594531 0.057607766 0.01792142 0.029430214
0.056988236 0.015422038 0.023370823 0.022082584 0.024017772 -0.058166582 -0.0029893287 -0.03551286
-0.0019958585 0.021154739 0.00980908 -0.10157034 0.044701483 -0.004496551 0.011697837 0.057140026
0.016839586 0.033920042 0.03199954 0.02789464 0.03646397 -0.0027452055 0.024893632 0.03364919
0.026143098 0.0748384 0.038748804 0.067501254 0.005170144 0.039855897 0.021167466 0.01743646
0.054657426 0.0395045 0.019860968 0.0094389245 -0.021588482 0.00037804508 0.031394146 0.030632498
0.028289806 -0.0119029265 0.00065139506 0.030924805 0.0036825691 0.031955604 0.015376244 -0.009993401
0.046383616 0.035183072 0.033111393 0.057157557 0.024554083 0.008233336 0.021158475 0.051248018
-0.07125441 0.013771235 0.040694218 -0.002484575 0.019033106 0.0003304161 0.017449258 0.06865753
0.0779355 -0.029305419 0.05477209 0.09371395 0.06834661 0.08664491 0.00759357 0.034625124
0.03252422 -0.0731466 0.01807521 0.03873429 0.01226942 0.02156052 0.07285534 0.016276883
-0.022749117 0.028637767 -0.024515271 0.053758726 -0.018084181 0.020402981 -0.0013796737 0.056941334

action_model._continuous_distribution.mu.bias f4 [2]
00000000: 6647 d83d 9705 23bd
0.10560493 -0.039800253

exp_avg f4 [128, 6]
00000000: 6be8 033a 0000 0000 ef42 1fba e4cd d6ba
00000010: 0000 0000 3d5c d6b9 9c19 11ba 0000 0000
00000020: c67a 8e39 62e7 073b 0000 0000 cbf2 193b
00000030: 4be7 f3ba 0000 0000 122a 933b b890 36bb
00000040: 0000 0000 5945 fa3a 6133 d8bb 0000 0000
00000050: 9e41 993a cd89 0dbc 0000 0000 eaa8 78bb
00000060: dc24 5438 0000 0000 3537 baba 081f 813a
00000070: 0000 0000 2b6a a139 f90c 03bb 0000 0000
00000080: 6a9c 0d3a 28d3 4a3b 0000 0000 f8dc bcba
00000090: d67a 0a3b 0000 0000 570e fe3a 671d dcba
000000a0: 0000 0000 a76c 7d39 3d45 11bb 0000 0000
000000b0: eca1 b538 cc3e 2ebb 0000 0000 e267 1dba
000000c0: 5133 9bbb 0000 0000 5ce9 b03a cdd5 00bc
000000d0: 0000 0000 96d9 3bbb 7abe 91ba 0000 0000
000000e0: 8026 583b caa1 4f3b 0000 0000 40fb ba37
000000f0: 5b15 eab9 0000 0000 d942 d83a 9301 373b
00000100: 0000 0000 00a1 ab3a 3f1c b53b 0000 0000
00000110: b68b b23b 5c6b ee39 0000 0000 21ca 023b
00000120: 3ca5 a7bb 0000 0000 7c6f 573b 658a 16bc
00000130: 0000 0000 3ade 4dbb c8e9 1f38 0000 0000
00000140: 659a fd3a cb65 973b 0000 0000 f4c4 94b9
00000150: 4243 643b 0000 0000 9ede 63b9 db14 023b
00000160: 0000 0000 104b 6d3a 2fea aabb 0000 0000
00000170: 1ea9 1cba 3bb6 d73a 0000 0000 3285 533a
00000180: ec8a 6a38 0000 0000 484c dcb6 1feb 6c3a
00000190: 0000 0000 268f 5039 2fc0 3d3b 0000 0000
000001a0: d137 103b 1b4a 02bb 0000 0000 6eea aeb9
000001b0: c517 473b 0000 0000 53f0 3a3b 40ca 0a3b
000001c0: 0000 0000 0ce2 503a e62e 4739 0000 0000
000001d0: fef7 833a 384d 893a 0000 0000 09d0 50ba
000001e0: d82e 02bb 0000 0000 3097 bcb9 ac5f 90ba
000001f0: 0000 0000 92ce f5ba 4e7e 073a 0000 0000
00000200: 1f5d c1ba c6dd cdba 0000 0000 eb12 e8ba
00000210: fffd 36bb 0000 0000 62eb ad3a cf9e a0bb
00000220: 0000 0000 0e67 40bb 823b 483a 0000 0000
00000230: da92 4d39 4283 a23a 0000 0000 819f 1cba
00000240: 0914 4fba 0000 0000 776a 2abb c707 a5ba
00000250: 0000 0000 458e b339 9694 e1b9 0000 0000
00000260: 4e2f a3b9 76b1 9fb8 0000 0000 4c7a c2b9
00000270: 6cb3 10ba 0000 0000 59b8 18bb d0b7 8ebb
00000280: 0000 0000 b4cb 9eba b850 f1ba 0000 0000
00000290: a972 59ba 336f 6fb9 0000 0000 3c1b 90b9
000002a0: 7c9f 3339 0000 0000 e83e b1b9 6618 0738
000002b0: 0000 0000 493c 7f39 25df d6ba 0000 0000
000002c0: 5529 47bb 7693 b83a 0000 0000 fd87 b63a
000002d0: f2bb 63ba 0000 0000 9a70 bcbb 938b 453a
000002e0: 0000 0000 7d28 153b 8b7a 84ba 0000 0000
000002f0: e57c 5dbb 4f8f 4039 0000 0000 bac6 cc37
00000300: f04f 0bbb 0000 0000 2376 333b 4162 8c3b
00000310: 0000 0000 f6ea a03a b0d4 823b 0000 0000
00000320: ffd9 9e3b 99de 6c3b 0000 0000 e190 6c3b
00000330: c586 2f3b 0000 0000 b6b7 45ba 36cd 2fba
00000340: 0000 0000 5516 c63a 9842 0aba 0000 0000
00000350: 980a 40bb 96de 23bb 0000 0000 0bb8 5fba
00000360: 0ddc d33b 0000 0000 ae00 ce3b 6585 c93a
00000370: 0000 0000 5c11 cc3b 75be 33bb 0000 0000
00000380: 4660 6539 5658 27bb 0000 0000 a67c 13bb
00000390: 2d36 013a 0000 0000 ca3f 4b3a 82e6 80b8
000003a0: 0000 0000 5873 a039 6bf8 a3bb 0000 0000
000003b0: 218d 023b 99ae 83bb 0000 0000 cb98 2abb
000003c0: d282 15bb 0000 0000 f781 4e3b 2659 513b
000003d0: 0000 0000 a2ff 8cb8 96e4 073a 0000 0000
000003e0: 122f 763a 87c0 abba 0000 0000 cd87 ad3a
000003f0: 658d 85bb 0000 0000 313d e738 d13d 47bb
0.00050318864 0.0 -0.00060753425 -0.0016388264 0.0 -0.00040885984 -0.0005535127 0.0
0.00027175824 0.002073728 0.0 0.0023490663 -0.0018608359 0.0 0.004491099 -0.0027857255
0.0 0.0019094154 -0.0065979217 0.0 0.0011692529 -0.008638811 0.0 -0.0037942478
5.0579067e-05 0.0 -0.0014207127 0.0009851167 0.0 0.00030787414 -0.0019996746 0.0
0.00054020307 0.0030948613 0.0 -0.0014409116 0.0021130345 0.0 0.0019382936 -0.001679343
0.0 0.00024168436 -0.0022166513 0.0 8.660913e-05 -0.0026587723 0.0 -0.00060045545
-0.004736342 0.0 0.0013497281 -0.007863474 0.0 -0.0028663627 -0.0011119389 0.0
0.0032981932 0.0031682127 0.0 2.2289925e-05 -0.0004464787 0.0 0.0016499414 0.0027924522
0.0 0.0013094246 0.005527049 0.0 0.0054487837 0.00045474886 0.0 0.0019956904
-0.005116133 0.0 0.0032872846 -0.009188269 0.0 -0.0031412975 3.812628e-05 0.0
0.0019348381 0.004620289 0.0 -0.000283755 0.0034830128 0.0 -0.00021731338 0.0019848857
0.0 0.00090520177 -0.005215905 0.0 -0.0005976128 0.0016457507 0.0 0.0008068859
5.591933e-05 0.0 -6.5653912e-06 0.00090377213 0.0 0.00019889753 0.0028953662 0.0
0.0022005925 -0.0019880596 0.0 -0.0003336253 0.0030379158 0.0 0.0028524592 0.002117768
0.0 0.0007968254 0.0001899559 0.0 0.0010068414 0.0010475283 0.0 -0.000796557
-0.0019864347 0.0 -0.00035970798 -0.001101484 0.0 -0.0018753579 0.0005168662 0.0
-0.0014752484 -0.0015706352 0.0 -0.0017705833 -0.002792239 0.0 0.0013269002 -0.004901744
0.0 -0.00293583 0.0007638262 0.0 0.0001960503 0.0012398737 0.0 -0.00059746957
-0.0007899409 0.0 -0.00260034 -0.0012590819 0.0 0.0003424754 -0.0004302605 0.0
-0.00031125027 -7.6147655e-05 0.0 -0.00037093682 -0.00055199 0.0 -0.002330324 -0.0043554083
0.0 -0.0012115152 -0.0018410897 0.0 -0.0008294979 -0.00022834241 0.0 -0.00027486112
0.00017130183 0.0 -0.0003380694 3.220923e-05 0.0 0.00024341153 -0.0016393407 0.0
-0.0030389626 0.0014082033 0.0 0.0013926026 -0.0008687369 0.0 -0.005750728 0.0007535752
0.0 0.0022759729 -0.0010107321 0.0 -0.0033796367 0.00018363933 0.0 2.4411234e-05
-0.0021257363 0.0 0.0027383647 0.0042841737 0.0 0.0012277055 0.0039926395 0.0
0.0048477645 0.003614342 0.0 0.0036097097 0.002678321 0.0 -0.00075423287 -0.0006706299
0.0 0.0015112857 -0.00052742055 0.0 -0.002930319 -0.0025004498 0.0 -0.00085341994
0.006465441 0.0 0.006286702 0.0015374838 0.0 0.0062276553 -0.0027426754 0.0
0.00021875006 -0.002553483 0.0 -0.0022504716 0.00049290323 0.0 0.0007753341 -6.146451e-05
0.0 0.00030603516 -0.005003979 0.0 0.0019920545 -0.0040186164 0.0 -0.0026031013
-0.002281357 0.0 0.003151057 0.0031944006 0.0 -6.7233355e-05 0.0005183903 0.0
0.00093911693 -0.0013103642 0.0 0.0013239324 -0.0040756934 0.0 0.00011026336 -0.0030401836

exp_avg_sq f4 [128, 6]
00000000: 2713 6b38 0000 0000 0fab 0939 9700 2739
00000010: 0000 0000 acde 2639 3af4 3a38 0000 0000
00000020: 40b4 df38 22b5 9b39 0000 0000 f7dc 2839
00000030: 00eb a839 0000 0000 ceae cc39 0907 d23a
00000040: 0000 0000 fbd0 623a 5554 583b 0000 0000
00000050: 0c8a 333b b654 0c3c 0000 0000 9085 c23b
00000060: 7b05 9b38 0000 0000 92d0 3739 73eb e039
00000070: 0000 0000 990a ae39 880b 2b3a 0000 0000
00000080: a68d 0b3a dba7 023b 0000 0000 d797 903a
00000090: be3e 9f38 0000 0000 4523 6e38 9c5d 4739
000000a0: 0000 0000 0fec fb38 0e32 283a 0000 0000
000000b0: 9a0f 383a 7f72 193b 0000 0000 2afb c53a
000000c0: 7a3e ea3a 0000 0000 8f74 4c3a 5ee4 473b
000000d0: 0000 0000 9c37 0b3b 192f bb39 0000 0000
000000e0: 53b3 c539 5182 b13a 0000 0000 5c14 6f3a
000000f0: d7a9 4039 0000 0000 ccbe 4039 237f 283a
00000100: 0000 0000 5b1e d439 f70b aa3a 0000 0000
00000110: d137 663a 2327 413b 0000 0000 1556 053b
00000120: 50fc f13a 0000 0000 1960 9d3a f882 993b
00000130: 0000 0000 a831 4b3b 1c5e 7e3a 0000 0000
00000140: f62f 623a 9bee 3f3b 0000 0000 a094 df3a
00000150: 69f8 4a3a 0000 0000 d10f f039 7b1a c33a
00000160: 0000 0000 517d 8c3a 9c8a aa38 0000 0000
00000170: 1ae5 dd38 a153 6639 0000 0000 2076 eb38
00000180: f808 8738 0000 0000 a7d8 2438 94be a938
00000190: 0000 0000 a224 bb38 bdbd 7b3a 0000 0000
000001a0: 6fff cd39 aac8 ac3a 0000 0000 17bf 8d3a
000001b0: 63fb 1c3a 0000 0000 3627 e739 0bf1 ab3a
000001c0: 0000 0000 ddb5 7d3a b9ff 0c3a 0000 0000
000001d0: 4a42 a739 542e 963a 0000 0000 3985 4e3a
000001e0: ebae a739 0000 0000 cf2f b739 65ea 6f3a
000001f0: 0000 0000 97d2 253a 2284 c738 0000 0000
00000200: 851c 0339 00db ad39 0000 0000 7abc 5939
00000210: ffd1 743a 0000 0000 ebfd 6e3a 60ca e83a
00000220: 0000 0000 dd13 f73a f0cf b838 0000 0000
00000230: 4116 c238 5649 9639 0000 0000 253b aa39
00000240: 02a0 7d38 0000 0000 67b8 e338 ead3 3039
00000250: 0000 0000 d9f6 2c39 3c71 3e39 0000 0000
00000260: b752 7838 cbfe 8039 0000 0000 d7ac 6639
00000270: ff00 a439 0000 0000 a196 083a 8f7e 603a
00000280: 0000 0000 a1fc 5a3a a239 8a38 0000 0000
00000290: 39db 4138 5d89 3f39 0000 0000 2cf9 2139
000002a0: aaef 7137 0000 0000 7ec1 6137 52cf 2f38
000002b0: 0000 0000 a9ff 3038 006f 9638 0000 0000
000002c0: 53e4 f238 4aa2 b639 0000 0000 f6d8 6b39
000002d0: bc28 eb38 0000 0000 32ea 5f39 83d3 0b3a
000002e0: 0000 0000 4f2f 003a 140a ed38 0000 0000
000002f0: 244b 9f39 1518 423a 0000 0000 e42b 353a
00000300: 0e62 103a 0000 0000 5af4 333a acec 053b
00000310: 0000 0000 a501 9e3a 3dcf ae3a 0000 0000
00000320: 081f 863a dbf9 7d3b 0000 0000 e311 1e3b
00000330: 16b2 1139 0000 0000 4f0a dc38 220f f639
00000340: 0000 0000 fcf4 a439 1660 4e38 0000 0000
00000350: 4d13 cd38 9c99 8e39 0000 0000 613a 3b39
00000360: acd0 093b 0000 0000 9404 d53a 9506 bb3b
00000370: 0000 0000 0f5a 723b 5cfe 4c39 0000 0000
00000380: 951c 1d39 4e47 0c3a 0000 0000 7849 d039
00000390: 2aeb 0a39 0000 0000 5c41 0039 61a1 003a
000003a0: 0000 0000 dcfa 163a 7a56 0c3a 0000 0000
000003b0: d63c 7b39 fa51 873a 0000 0000 136a 6a3a
000003c0: e572 c639 0000 0000 62e2 a939 f402 a33a
000003d0: 0000 0000 e98c 503a 4ae1 c838 0000 0000
000003e0: 2f5d 0739 689b 6f39 0000 0000 3bc5 2f39
000003f0: 45ac 453a 0000 0000 66ea 9239 9770 b13a
5.6046203e-05 0.0 0.00013129062 0.00015926581 0.0 0.00015913945 4.457331e-05 0.0
0.00010667043 0.00029698858 0.0 0.00016104044 0.00032218546 0.0 0.00039040152 0.0016023825
0.0 0.00086523563 0.003300925 0.0 0.0027395515 0.008565119 0.0 0.005936332
7.391997e-05 0.0 0.00017529938 0.00042900033 0.0 0.00033195762 0.00065248506 0.0
0.00053235365 0.0019936475 0.0 0.001103158 7.5933975e-05 0.0 5.677647e-05 0.00019012991
0.0 0.00012012582 0.000641615 0.0 0.0007021368 0.0023414192 0.0 0.001510476
0.0017871403 0.0 0.0007799351 0.0030501108 0.0 0.0021242863 0.0003570251 0.0
0.00037708375 0.0013542866 0.0 0.000912016 0.00018373817 0.0 0.00018381624 0.0006427636
0.0 0.00040458408 0.0012973537 0.0 0.0008782121 0.002947279 0.0 0.0020345498
0.0018462036 0.0 0.0012006789 0.004684802 0.0 0.003100494 0.00097033544 0.0
0.00086283626 0.0029286507 0.0 0.0017057844 0.00077427045 0.0 0.0004578815 0.0014885211
0.0 0.00107185 8.13205e-05 0.0 0.00010580775 0.00021965663 0.0 0.00011227676
6.438972e-05 0.0 3.930242e-05 8.094046e-05 0.0 8.923678e-05 0.00096031633 0.0
0.0003929096 0.0013182361 0.0 0.0010814396 0.0005988387 0.0 0.00044088968 0.0013118101
0.0 0.0009678284 0.0005378682 0.0 0.0003190211 0.0011457899 0.0 0.0007878128
0.00031983046 0.0 0.000349401 0.0009152054 0.0 0.0006325631 9.513671e-05 0.0
0.00012503758 0.000331603 0.0 0.00020764946 0.0009339153 0.0 0.0009116816 0.0017760508
0.0 0.0018850524 8.812535e-05 0.0 9.254786e-05 0.0002866487 0.0 0.00032468993
6.046892e-05 0.0 0.00010858551 0.00016863612 0.0 0.00016495156 0.00018161995 0.0
5.920484e-05 0.00024603898 0.0 0.00021998897 0.0003128126 0.0 0.0005210434 0.00085637806
0.0 0.00083536847 6.591088e-05 0.0 4.6218953e-05 0.00018266351 0.0 0.0001544698
1.44205205e-05 0.0 1.3456096e-05 4.1916333e-05 0.0 4.2199772e-05 7.173233e-05 0.0
0.00011581988 0.0003483466 0.0 0.0002249217 0.000112132606 0.0 0.00021354182 0.0005333947
0.0 0.0004889862 0.00011302918 0.0 0.00030382827 0.0007404101 0.0 0.0006911142
0.00055077753 0.0 0.00068647193 0.0020435257 0.0 0.0012054933 0.0013336908 0.0
0.0010232637 0.0038753662 0.0 0.0024119548 0.0001389462 0.0 0.000104923376 0.0004693205
0.0 0.00031463045 4.9203714e-05 0.0 9.778757e-05 0.00027198798 0.0 0.00017855458
0.002102892 0.0 0.0016251975 0.0057075717 0.0 0.0036979949 0.00019549712 0.0
0.00014983334 0.00053512014 0.0 0.0003972759 0.00013248311 0.0 0.0001223138 0.000490686
0.0 0.0005759427 0.0005353462 0.0 0.00023959888 0.0010324114 0.0 0.0008942198
0.00037851106 0.0 0.0003240286 0.0012436793 0.0 0.00079555676 9.5787065e-05 0.0
0.00012909317 0.0002285071 0.0 0.00016762775 0.0007540624 0.0 0.0002802193 0.0013537583

exp_avg f4 [128]
00000000: 9364 22ba 1c98 423a 4acc 4dba 1650 42bb
00000010: fc5f c139 524e 9f3a 8657 29ba 6bae 85ba
00000020: b8bd 34bb 55ac 983a c103 853a 929e 09b9
00000030: 5b40 52bb 58f7 e13a 653d 293a f2a6 1d3a
00000040: 8a37 ad39 f19d 44ba 7291 2f3a 780b cc39
00000050: 9cc0 b5b9 69b6 2fba 30d6 c0ba 885b d739
00000060: 81ca e7b9 e864 5fb7 0c52 c3ba 081e 4eb8
00000070: 3218 2737 88f9 023a 8143 8939 20bc f738
00000080: e19f d13a 29dc 983a 2912 9bb9 45cf 65ba
00000090: bee2 0739 a156 5eba 4815 1b37 71d6 90ba
000000a0: 9f29 9e3a 02b0 34ba 7085 5eba 0723 52ba
000000b0: 9b63 0fbb 0826 723a 6891 af39 7013 15ba
000000c0: 9368 adba 1323 27ba f488 5339 c7e0 05bb
000000d0: 0a38 c43a b9d2 c8b8 9f87 7cb9 fc71 5a38
000000e0: 6308 3d3a c36c e939 3d8f 10bb 1c48 49b9
000000f0: dc38 61bb 24e9 b73a 975d 0dba 83c5 91ba
00000100: 49fd 76ba 1fce 4cb8 94f3 3338 2ae9 edb9
00000110: 0510 4eba d02e 0d39 f0b0 1c3a 12cd 89ba
00000120: 2047 97ba faf4 343a 16ce 563a fc65 1239
00000130: 6b9a 4d3a ab9d 7fba 4247 21b9 b6c9 02ba
00000140: 8080 7aba 3241 d1ba aba9 63bb 2004 27ba
00000150: 990d 503a 7437 d93a 7384 57b9 072e b039
00000160: c418 30b9 8b55 3c3a 65aa 013a 302d 92ba
00000170: 3abe 8eb8 472b e73a 73ca d738 3f5a 1c3a
00000180: a206 5038 091f 08bb 5e84 d638 55d9 8539
00000190: 8771 38b9 dc09 b13a 0d84 c5ba e46a 1dbb
000001a0: 2523 173b 84d3 a039 dff9 9bba 3b74 01bb
000001b0: d475 173a f354 89b9 81d8 2a3a 41c0 9d39
000001c0: 5573 84ba 199b d4b9 0810 f738 0e0c ae38
000001d0: a007 d239 f02d 33b7 990e 8b3a c325 5a3a
000001e0: f87f ce38 010c 12bb 507f 3a37 aaf7 9839
000001f0: be30 cf3a e035 d23a f538 8bba 2044 16ba
-0.00061947963 0.0007423179 -0.0007850571 -0.0029649786 0.00036883343 0.0012154079 -0.00064598804 -0.0010199075
-0.0027578901 0.0011648039 0.0010148213 -0.0001312441 -0.0032081816 0.0017239852 0.0006455987 0.00060139515
0.0003303851 -0.0007500342 0.0006697393 0.00038918457 -0.00034666515 -0.00067029014 -0.001471227 0.00041076192
-0.0004421063 -1.331533e-05 -0.0014901771 -4.9142196e-05 9.959609e-06 0.00049962895 0.0002618097 0.00011812919
0.0015993082 0.0011662293 -0.00029577434 -0.00087665423 0.00012959071 -0.00084815366 9.243675e-06 -0.0011050237
0.0012066847 -0.0006892682 -0.00084885117 -0.0008016084 -0.0021879438 0.00092372345 0.00033486937 -0.00056867953
-0.0013230018 -0.0006375771 0.00020173547 -0.0020428167 0.0014970314 -9.575993e-05 -0.00024083116 5.2081406e-05
0.00072110276 0.00044522257 -0.0022058033 -0.00019195717 -0.0034366166 0.0014031273 -0.0005392669 -0.0011121485
-0.00094218977 -4.8829355e-05 4.2903775e-05 -0.00045377883 -0.00078606635 0.00013464247 0.00059772935 -0.0010513386
-0.0011541583 0.00069029594 0.00081941613 0.00013961637 0.00078431395 -0.00097509724 -0.00015380702 -0.0004989164
-0.0009555891 -0.0015964864 -0.003473858 -0.0006371159 0.00079365965 0.0016572312 -0.00020553339 0.0003360363
-0.00016793894 0.0007184378 0.000494635 -0.0011152383 -6.80652e-05 0.0017636799 0.00010289708 0.00059643755
4.959724e-05 -0.0020770452 0.000102289705 0.00025529662 -0.000175899 0.0013506967 -0.0015069261 -0.002402001
0.002306172 0.0003067517 -0.0011900029 -0.0019753117 0.00057777506 -0.00026193968 0.0006517247 0.00030088614
-0.0010105172 -0.00040551348 0.00011780864 8.299212e-05 0.00040060002 -1.0679927e-05 0.0010609209 0.0008321667
9.8466815e-05 -0.0022284987 1.1116106e-05 0.00029176223 0.0015807373 0.0016037785 -0.0010621833 -0.00057321973

exp_avg_sq f4 [128]
00000000: a534 a437 89f5 1538 d171 4639 04f3 883a
00000010: 768e 5e38 ea0e 7a39 ff7b bc37 beb1 9339
00000020: 3ae0 bc39 b35e 3239 a708 a638 e5d7 bd39
00000030: 7b19 113a 5eee b739 af14 3839 6462 ea37
00000040: 2606 2637 0cb3 1e39 6871 2839 f7c6 0d39
00000050: a47b e538 0d1f 2b38 0098 7139 94b1 1e38
00000060: 568c b937 c89e ef37 3b96 e138 39c9 c937
00000070: 2612 be36 85a5 3b38 aa8a 8f38 a1af c638
00000080: 7c0a 8139 2b59 fa39 1034 6938 98be 0a38
00000090: 6b73 353a 1033 8938 5e0a 8c38 f51f 0439
000000a0: a1a8 1f39 7d12 e037 7c22 2a39 2eba 0538
000000b0: 0008 d639 0e4b b839 54b1 8538 873a 3239
000000c0: 8581 8f38 08a0 3a38 9d0e 7537 3b5d c839
000000d0: 9ccd b939 c24d 4c38 035c 1339 d5d0 9637
000000e0: 3918 ba38 92f3 b937 aaef 563a 0529 1e37
000000f0: b6b2 0b3a 03a2 fc39 54c5 7239 a704 3939
00000100: 0f7d 7939 f2ba 2736 0201 4e38 ff1b 2238
00000110: c206 6738 c6eb 0339 dea6 b638 8d90 bb38
00000120: 016a 2a3a f513 8738 3efb 2839 88ab 2937
00000130: 72f6 2437 a64c 2837 b758 8739 7bd1 0338
00000140: 37e7 3339 634e 133a 40d7 9939 2609 0037
00000150: 180c 1b39 68ac a939 a297 1837 10e4 8e37
00000160: 94ce 0639 924e 4138 5e45 8338 80ac 4339
00000170: fb1a e536 a43c e439 9992 0039 758d 8b37
00000180: cdff 6e38 6ac5 a839 9bf2 0c39 133e d337
00000190: dab6 a337 053c 3739 206a 9b39 3c25 7d3a
000001a0: f4e7 603a 8363 8037 6f7d 6b39 80d4 ac39
000001b0: 4174 8539 4ae1 9039 644b ce39 e65f 6938
000001c0: dbd2 d938 d474 bd39 015d 2138 93de 3636
000001d0: 528a b039 07d4 0137 f33e b637 30b3 a438
000001e0: 447d b538 ae35 7f39 41cf 0c39 2369 5f38
000001f0: 986a 0a38 bf92 e239 7bea e438 96f5 ba39
1.9574838e-05 3.575304e-05 0.00018925151 0.0010448401 5.30616e-05 0.00023847414 2.2469087e-05 0.00028170453
0.00036025216 0.00017010681 7.9171085e-05 0.00036209743 0.0005535108 0.00035082077 0.00017555313 2.794079e-05
9.895803e-06 0.00015134754 0.00016063976 0.00013520928 0.00010942601 4.0798495e-05 0.00023040175 3.7835518e-05
2.2119068e-05 2.8564958e-05 0.00010756819 2.4054769e-05 5.664554e-06 4.4738426e-05 6.8445996e-05 9.474089e-05
0.0002461261 0.0004775015 5.5600016e-05 3.3079268e-05 0.00069218007 6.54218e-05 6.677651e-05 0.00012600406
0.00015226241 2.671149e-05 0.0001622531 3.1883064e-05 0.0004082322 0.00035151135 6.374964e-05 0.00016997206
6.842896e-05 4.4494896e-05 1.460654e-05 0.00038216435 0.0003543914 4.8709808e-05 0.0001405329 1.7978638e-05
8.873683e-05 2.216714e-05 0.0008199165 9.4270845e-06 0.0005329059 0.00048185894 0.00023152429 0.00017644708
0.00023793078 2.4993756e-06 4.9115166e-05 3.8649883e-05 5.5080985e-05 0.00012580966 8.709518e-05 8.9437795e-05
0.0006500781 6.441019e-05 0.00016115324 1.0113123e-05 9.832542e-06 1.0031426e-05 0.00025815304 3.1427928e-05
0.00017156905 0.00056192855 0.00029342808 7.631525e-06 0.00014786457 0.00032362645 9.095211e-06 1.7033919e-05
0.00012856192 4.608796e-05 6.2594874e-05 0.0001866091 6.8278728e-06 0.0004353273 0.00012261643 1.6635962e-05
5.6981855e-05 0.00032190542 0.00013441818 2.5182066e-05 1.9516261e-05 0.00017474599 0.00029642973 0.00096567324
0.00085794856 1.5305128e-05 0.00022458074 0.0003296472 0.00025454353 0.00027633674 0.00039347552 5.564084e-05
0.00010386641 0.00036135933 3.8472008e-05 2.7249669e-06 0.00033672393 7.738366e-06 2.1725404e-05 7.853506e-05
8.654085e-05 0.00024338692 0.00013428649 5.326526e-05 3.3001037e-05 0.00043215413 0.000109155626 0.0003565966
