MLAgentDevProject/results/BreadCrumb12/BreadCrumb2.onnx (onnx, 75061 bytes, 7 tensors)

network_body._body_endoder.seq_layers.0.weight f4 [128, 6]
0.039782826 -0.65683424 0.4370933 0.24538003 0.5128651 -0.38956574 -0.07317617 0.26839635
0.13040295 -0.049200114 -0.7777248 0.5134329 -0.2883865 0.3391619 -0.26836613 0.69875187
-0.13766749 0.8849566 1.2523289 -0.083023675 -0.09236389 -0.24746367 -0.2976738 0.18156692
-0.75237197 0.54549086 -0.2621655 0.41613245 -0.8742884 0.5607767 0.25964248 -0.3686853
-0.09908042 0.17323065 0.3343834 0.27092764 0.7535297 0.07472945 -0.19530216 -0.07585113
-0.3995874 -0.110875785 -0.25019062 0.020226227 0.21020912 0.5257769 0.39948818 -0.27199653
-0.5350945 0.20381057 0.099050164 0.16095948 -0.28609514 0.04524218 0.1857208 0.795119
-0.04137196 -0.13977864 -0.97224313 0.2775178 -0.14460424 0.24698648 0.22208562 0.7253961
-0.0155942235 0.07871729 0.9355483 0.42800176 0.3232304 0.48009324 -0.19061524 -0.15009122
-0.65459204 -0.13604791 0.5835911 -0.20551646 0.2757428 0.030447325 0.4493557 0.28651527
-0.6668792 0.15471439 -0.5658583 0.5399471 -0.5578375 0.24698739 0.065607935 0.2511837
-0.7452607 0.052505914 0.22414057 0.43136737 0.3607433 0.5572986 -0.19877839 -0.13167138
-0.35986438 -0.00097179227 0.1537214 0.20473984 -0.31986815 0.15038373 0.0019148128 0.47135785
0.31194595 -0.13795581 0.69216967 0.288334 -0.4257696 -0.97497386 0.35877678 -0.43235365
-0.32598838 0.2022134 0.5709567 -0.82239604 -0.14353772 0.2538718 0.51399964 0.29641724
0.28784516 -0.7712243 0.1730078 -0.05752783 -0.030682415 0.48669958 0.40540797 -0.0985943
-0.19542333 0.4072754 0.6639978 -0.19113933 -0.6988643 -0.23331475 -0.26257533 0.53968763
-0.39066845 0.6759314 0.100958325 0.32818717 0.24321744 -0.3350685 0.15528648 0.29565296
0.57167274 0.3494943 -0.55849105 0.19818267 0.36949527 -0.44584873 -0.19151548 0.23569423
-1.2673724 0.3818475 0.14753042 0.39927366 -0.46938172 -0.2630603 0.7850904 -0.21350655
0.6220737 -0.73823553 0.22616777 0.34520864 -0.17124881 -0.09086287 -0.13653246 -0.12354706
-0.1823136 0.34814888 -0.112968 -0.26282534 0.18148772 0.104322314 0.29694092 0.30633482
-0.38919273 0.87622577 0.1167785 0.082687065 0.31827408 0.17799403 0.41260824 0.27590486
0.12027931 -0.7904172 0.17260522 0.03173594 0.26827917 0.09081476 0.44421554 0.612128
-0.9275197 0.19442095 0.45113382 0.06910702 0.44437823 0.15079878 -0.4513534 0.17332336
0.1481438 0.90029556 -0.1306441 0.36420253 0.10809281 -0.42607993 -0.39242205 -0.27493462
-0.09574742 -0.6030066 0.6501321 -0.25544968 0.1573234 -0.5062635 0.29253367 0.07253572
-0.20634574 0.18247072 -0.015322382 -0.65173733 0.15266961 -0.4343534 -0.091495775 0.11393582
0.4367747 0.044630855 0.6450171 0.0320029 0.09556121 0.18316388 0.31572062 -0.16055097
0.27648547 0.5354044 -0.3577157 0.039457038 -0.09528804 0.10653494 -0.41508085 -0.6209111
0.28282532 0.3670223 0.17611083 -0.19547822 -0.55938685 -0.13175973 0.20231248 -0.6277648
0.54893064 0.9218149 -0.1490177 0.12328062 -0.87082464 0.9533361 0.40486872 0.29460827
00000000: 51f3 223d 4a26 28bf b1ca df3e e744 7b3e
00000010: 214b 033f 2975 c7be 63dd 95bd 3f6b 893e
00000020: 5a88 053e 0f86 49bd f918 47bf 5770 033f
00000030: 65a7 93be a1a6 ad3e 4967 89be 67e1 323f
00000040: b5f8 0cbe 848c 623f 504c a03f 5108 aabd
00000050: 4729 bdbd 1e67 7dbe b368 98be aeec 393e
00000060: 739b 40bf 4aa5 0b3f 8e3a 86be 500f d53e
00000070: 5dd1 5fbf 108f 0f3f dcef 843e 52c4 bcbe
00000080: adea cabd 6063 313e 4d34 ab3e 07b7 8a3e
00000090: 53e7 403f c10b 993d 4afd 47be d657 9bbd
000000a0: b896 ccbe d812 e3bd fc18 80be 79b1 a53c
000000b0: 0f41 573e 5199 063f b789 cc3e 2143 8bbe
000000c0: f4fb 08bf b8b3 503e d0da ca3d 90d2 243e
000000d0: 107b 92be dd4f 393d 982d 3e3e eb8c 4b3f
000000e0: a575 29bd 2222 0fbe ede4 78bf d016 8e3e
000000f0: 2213 14be 06ea 7c3e 6a6a 633e 8fb3 393f
00000100: ea7e 7fbc 8836 a13d 1880 6f3f 0c23 db3e
00000110: 747e a53e c8ce f53e a430 43be 83b1 19be
00000120: 5893 27bf 2550 0bbe 3a66 153f e872 52be
00000130: 292e 8d3e ab6c f93c f311 e63e 21b2 923e
00000140: 98b8 2abf 736d 1e3e 17dc 10bf f939 0a3f
00000150: 70ce 0ebf 43ea 7c3e 745d 863d 269b 803e
00000160: 68c9 3ebf 7110 573d 1b85 653e 2fdc dc3e
00000170: 59b3 b83e 1fab 0e3f 908c 4bbe ddd4 06be
00000180: 2540 b8be e0bf 7eba 2569 1d3e 52a7 513e
00000190: c2c5 a3be 31fe 193e 75fa fa3a d155 f13e
000001a0: 61b7 9f3e 4a44 0dbe 0832 313f 84a0 933e
000001b0: 79fe d9be e397 79bf 97b1 b73e 755d ddbe
000001c0: f3e7 a6be 0811 4f3e 382a 123f 8c88 52bf
000001d0: 8dfb 12be 7cfb 813e 7b95 033f 00c4 973e
000001e0: 7160 933e f56e 45bf f528 313e 4da2 6bbd
000001f0: b059 fbbc b030 f93e a291 cf3e cfeb c9bd
00000200: 0e1d 48be 6786 d03e c3fb 293f 07ba 43be
00000210: c5e8 32bf 10ea 6ebe 4670 86be f828 0a3f
00000220: b205 c8be d709 2d3f 3dc3 ce3d 2608 a83e
00000230: fe0d 793e 198e abbe 6b03 1f3e d35f 973e
00000240: 2559 123f ebf0 b23e 45f9 0ebf 66f0 4a3e
00000250: 7c2e bd3e 4946 e4be a21c 44be d459 713e
00000260: 4239 a2bf 8481 c33e 3712 173e 996d cc3e
00000270: cd52 f0be d7af 86be affb 483f 76a1 5abe
00000280: 3940 1f3f 01fd 3cbf 8698 673e 30bf b03e
00000290: d95b 2fbe 5016 babd 2acf 0bbe 3e06 fdbd
000002a0: 6bb0 3abe 9240 b23e c45b e7bd 0b91 86be
000002b0: ebd7 393e f0a6 d53d a408 983e ebd7 9c3e
000002c0: 4544 c7be 5550 603f 9129 ef3d d657 a93d
000002d0: d2f4 a23e 1144 363e 6341 d33e 6743 8d3e
000002e0: 0055 f63d c858 4abf 6cbf 303e 8cfd 013d
000002f0: e35b 893e 17fd b93d 3870 e33e 6cb4 1c3f
00000300: ee71 6dbf 4916 473e 03fb e63e fb87 8d3d
00000310: 8b85 e33e ff6a 1a3e cb17 e7be ae7b 313e
00000320: 02b3 173e c579 663f 91c7 05be c178 ba3e
00000330: c35f dd3d 2627 dabe 8beb c8be 3bc4 8cbe
00000340: 3917 c4bd a45e 1abf 0f6f 263f 4dca 82be
00000350: 6319 213e 7c9a 01bf f9c6 953e 9c8d 943d
00000360: 4c4c 53be 9bd9 3a3e ba0a 7bbc 42d8 26bf
00000370: 6c55 1c3e 9263 debe 2362 bbbd 2f57 e93d
00000380: efa0 df3e d8ce 363d d71f 253f 7915 033d
00000390: 98b5 c33d 508f 3b3e 22a6 a13e 7967 24be
000003a0: 818f 8d3e 4310 093f 8326 b7be b49d 213d
000003b0: 6026 c3bd fe2e da3d 7a85 d4be 08f4 1ebf
000003c0: 7bce 903e 59ea bb3e 6656 343e 712b 48be
000003d0: fa33 0fbf 06ec 06be 012b 4f3e 32b5 20bf
000003e0: b886 0c3f 10fc 6b3f 1998 18be 8d7a fc3d
000003f0: 5dee 5ebf d60d 743f f44a cf3e e5d6 963e

network_body._body_endoder.seq_layers.0.bias f4 [128]
0.03335507 -0.07536834 -0.021470796 -0.003552885 0.007796635 -0.014505118 -0.013106629 -0.04249156
0.041760582 -0.05920216 0.047338728 0.017022647 -0.041570935 -0.026939133 -0.0007256757 -0.025565369
-0.01598986 -0.039278388 -0.040882003 -0.03469968 -0.067853965 -0.066037774 -0.018260788 -0.011408194
0.045846842 -0.016049614 0.08746488 -0.08388903 -0.010766724 -0.005110328 -0.03134383 -0.026120102
-0.025216201 -0.011279627 0.030634716 0.023108304 -0.009322532 -0.016509391 -0.033336353 -0.015803935
-0.012618437 -0.087601796 -0.0961236 0.019950924 0.018370247 -0.05021824 0.08861105 -0.0071416236
-0.043099444 -0.009104413 -0.05955679 0.09709961 -0.10915097 -0.0007598627 0.10640962 -0.06580253
0.01259618 -0.014213234 -0.0665901 0.08651317 0.06562212 -0.066951975 0.013205042 -0.044136856
0.044034857 0.010299143 -0.07983432 -0.053888295 0.08287083 -0.001652746 -0.005665089 0.08938444
-0.064613305 0.06379645 -0.018022303 -0.00095311913 -0.035199493 -0.09527251 -0.05763565 -0.06570148
0.033410262 -0.101468086 -0.06579308 0.10910655 -0.060965978 0.00946543 -0.07621429 -0.13252534
0.020090906 -0.0137720425 0.05018971 0.05266267 -0.06415457 0.0722799 -0.03710786 -0.031016022
0.08179165 -0.0038182235 -0.07989674 -0.0044792388 -0.09560593 0.009653521 0.07779646 -0.010718098
-0.07259355 -0.04143586 -0.019656835 -0.012994771 -0.047784094 0.04933537 -0.04515802 -0.017282465
-0.061757397 -0.03709751 0.06080704 -0.042753145 -0.0049755694 0.0045401 0.0026403836 0.016252495
-0.057836562 -0.08136769 -0.09446319 -0.09857274 -0.01968564 -0.09546389 0.038025413 -0.03432447
00000000: 539f 083d b75a 9abd 86e3 afbc 85d7 68bb
00000010: ea7a ff3b e0a6 6dbc 30bd 56bc a10b 2ebd
00000020: 250d 2b3d f77d 72bd 41e6 413d 1473 8b3c
00000030: 4946 2abd 75af dcbc 463b 3eba 776e d1bc
00000040: 2bfd 82bc 60e2 20bd e373 27bd 4021 0ebd
00000050: 05f7 8abd d03e 87bd a697 95bc 6fe9 3abc
00000060: e6c9 3b3d 7b7a 83bc c920 b33d 03ce abbd
00000070: ea66 30bc 8a74 a7bb 6362 00bd d3f9 d5bc
00000080: 3592 cebc 2fce 38bc a8f5 fa3c a04d bd3c
00000090: 89bd 18bc b43e 87bc b38b 08bd 4177 81bc
000000a0: 90bd 4ebc 9268 b3bd 73dc c4bd 1f70 a33c
000000b0: 337d 963c a4b1 4dbd b679 b53d 4804 eabb
000000c0: 0b89 30bd ad2a 15bc d2f1 73bd 29dc c63d
000000d0: 8b8a dfbd 8631 47ba 49ed d93d 7ac3 86bd
000000e0: 3560 4e3c a0de 68bc 6460 88bd d12d b13d
000000f0: e464 863d 1e1e 89bd f659 583c d9c8 34bd
00000100: e55d 343d bdbd 283c 2d80 a3bd f9b9 5cbd
00000110: 2fb8 a93d f4a0 d8ba 36a2 b9bb 300f b73d
00000120: fb53 84bd b7a7 823d 82a3 93bc beda 79ba
00000130: 582d 10bd 3c1e c3bd 5c13 6cbd 7f8e 86bd
00000140: 33d9 083d 80ce cfbd 86be 86bd 4173 df3d
00000150: 76b7 79bd e414 1b3c 3d16 9cbd b9b4 07be
00000160: af95 a43c 22a4 61bc ba93 4d3d d0b4 573d
00000170: 7963 83bd 7c07 943d 69fe 17bd 5015 febc
00000180: 6182 a73d 293b 7abb e7a0 a3bd 94c6 92bb
00000190: 0bcd c3bd cd29 1e3c c053 9f3d f69a 2fbc
000001a0: edab 94bd a6b8 29bd 5f07 a1bc 05e8 54bc
000001b0: 41b9 43bd e313 4a3d 9ef7 38bd f593 8dbc
000001c0: 53f5 7cbd 8ff3 17bd ce10 793d ec1d 2fbd
000001d0: 1a0a a3bb 1fc5 943b 490a 2d3b f423 853c
000001e0: 08e6 6cbd 1aa4 a6bd eb75 c1bd 81e0 c9bd
000001f0: c843 a1bc 9282 c3bd 89c0 1b3d d197 0cbd

network_body._body_endoder.seq_layers.2.weight f4 [128, 128]
0.13924694 0.07541994 -0.16606939 0.054091826 -0.0041823857 -0.02368289 0.066418245 -0.0031287512
-0.013800081 -0.042111743 -0.084458835 -0.043888826 0.15014501 -0.05144503 0.06947737 -0.00945321
-0.12845205 0.20041959 0.15239559 0.019118834 0.09495534 -0.013257845 -0.059100028 0.01158526
-0.012859201 0.007902133 0.06286878 0.10163346 -0.07991325 -0.021674305 -0.0039764917 0.021990363
0.083841 0.0081641525 0.009759012 0.16180012 -0.03308497 0.056442045 0.050859354 0.017749956
0.02351446 -0.127984 0.035802286 -0.15796642 0.17753835 -0.098061405 -0.043279976 0.0074412185
0.029505167 0.14706285 0.029836457 0.23259981 0.027863007 -0.09935985 0.095307745 -0.009906708
-0.19039144 0.07706758 0.07072849 -0.10718385 -0.09470925 -0.038661394 -0.13968967 0.20759219
0.018269513 -0.064451255 0.049597923 -0.043065622 -0.092466205 -0.15413067 -0.08423756 0.07446805
-0.09323443 -0.13416843 0.03770204 -0.11106117 0.006856494 -0.1836971 0.017895004 -0.035213407
0.02266901 0.10063638 -0.11948557 -0.105834715 0.123214334 -0.0011407274 0.108388975 0.038297042
0.06109569 -0.0025406065 0.0074650436 -0.021412617 -0.088485435 0.14442521 -0.0019234706 0.107357964
-0.07554517 -0.0030668364 -0.051160544 0.1311689 -0.09216422 -0.09144998 0.13749702 -0.036767077
-0.039022226 0.12074565 0.0055203005 -0.04720136 0.036300614 -0.058853906 0.008055704 0.053829007
-0.0060210386 -0.02970415 0.00609435 0.12220872 -0.03590525 0.1946409 -0.1537105 -0.020024834
0.0652467 -0.07231793 0.17992404 -0.051777624 0.024021402 0.035312884 0.029738503 0.08826871
-0.072553374 0.03466202 -0.08326188 0.12760226 -0.18964157 -0.0037338093 -0.06571498 0.1523619
-0.15292518 -0.099689916 -0.05208704 -0.087671265 -0.02658189 -0.047479387 0.12495647 -0.11792075
-0.0155406045 0.05504074 0.053406205 0.020874124 0.0037667113 0.19764367 -0.07456151 0.10614739
0.06317577 0.022171905 0.017816924 -0.010710137 0.036736984 -0.059480112 -0.056032322 -0.08886175
0.09013484 -0.005770647 0.015320118 -0.024264872 0.067913644 -0.19562651 0.007464377 0.07498536
0.13290809 0.010992966 0.06035692 -0.0512203 -0.11487901 0.048483185 0.019301888 -0.10758745
-0.14907213 -0.07463093 0.042697262 -0.00994952 -0.1120061 0.021042611 -0.19766378 0.109114565
0.08138457 -0.024776394 -0.21356365 -0.031879812 -0.09044984 -0.2167143 -0.20025113 -0.07596009
-0.015758833 -0.058003485 0.17127371 -0.006337951 0.08603508 -0.14400187 0.07642975 0.133295
0.00284 -0.20888323 -0.24432787 0.106423005 -0.03676036 0.10626177 -0.06079557 0.03299578
0.016481875 0.0754544 0.120134085 0.14611742 -0.07548089 -0.0713145 -0.03738604 0.17875463
0.1064268 -0.108347654 0.20940232 -0.07308787 -0.017430358 0.03262606 -0.0128978565 0.08227556
0.26617217 0.09600418 -0.06890967 0.13004349 -0.008913176 0.08461574 0.092043795 -0.03439212
-0.0035534063 -0.035170306 0.09093961 -0.16401933 -0.07782451 0.01432953 -0.011803882 0.04419581
-0.010724101 -0.08161058 -0.033284348 0.01377386 0.032120638 0.16704333 -0.08129227 0.012686867
-0.077809826 0.03640889 0.047939498 0.040345084 -0.11913186 0.07207273 0.10696167 -0.07338608
00000000: c096 0e3e c575 9a3d 180e 2abe 648f 5d3d
00000010: 650c 89bb 9f02 c2bc 4a06 883d bc0b 4dbb
00000020: bc19 62bc 5d7d 2cbd c1f8 acbd c5c4 33bd
00000030: 9dbf 193e 06b8 52bd 274a 8e3d a3e1 1abc
00000040: ef88 03be cb3a 4d3e 970d 1c3e 1a9f 9c3c
00000050: f277 c23d 6f37 59bc df12 72bd 1ad0 3d3c
00000060: 66af 52bc f377 013c 59c1 803d 3425 d03d
00000070: 8fa9 a3bd 508e b1bc 3b4d 82bb 2225 b43c
00000080: d5b4 ab3d f0c2 053c 43e4 1f3c eeae 253e
00000090: 1b84 07bd c62f 673d e651 503d 5b68 913c
000000a0: 66a1 c03c 3d0e 03be 6ba5 123d f3c1 21be
000000b0: 9dcc 353e 6bd4 c8bd 5846 31bd 77d5 f33b
000000c0: d2b4 f13c a597 163e 966b f43c a52e 6e3e
000000d0: f640 e43c 2d7d cbbd b530 c33d bf4f 22bc
000000e0: f9f5 42be 9bd5 9d3d 19da 903d 3583 dbbd
000000f0: ecf6 c1bd 695b 1ebd cf0a 0fbe 0c93 543e
00000100: f2a9 953c 05ff 83bd 3127 4b3d 9465 30bd
00000110: ec5e bdbd 6ed4 1dbe be84 acbd b482 983d
00000120: b1f1 bebd 7363 09be 746d 1a3d 0a74 e3bd
00000130: 71ac e03b 181b 3cbe 8b98 923c ef3b 10bd
00000140: 5cb4 b93c 721a ce3d dab4 f4bd dfbf d8bd
00000150: cc57 fc3d 7684 95ba 0afb dd3d 5cdd 1c3d
00000160: 793f 7a3d 4e80 26bb 539d f43b 8369 afbc
00000170: da37 b5bd 34e4 133e f71c fcba 7ede db3d
00000180: 6db7 9abd fafc 48bb b88d 51bd 2451 063e
00000190: 98c0 bcbd 214a bbbd 05cc 0c3e 1399 16bd
000001a0: c5d5 1fbd 7f49 f73d a3e3 b43b 3756 41bd
000001b0: f4af 143d cb10 71bd 12fc 033c ce7b 5c3d
000001c0: 224c c5bb 1e56 f3bc 1db3 c73b 9148 fa3d
000001d0: 6211 13bd f24f 473e 4966 1dbe 1f0b a4bc
000001e0: 10a0 853d 6c1b 94bd 023e 383e c614 54bd
000001f0: 88c8 c43c 3ea4 103d 299e f33c 3ac6 b43d
00000200: dd96 94bd c3f9 0d3d 3485 aabd 2baa 023e
00000210: 6631 42be edb2 74bb 9395 86bd c204 1c3e
00000220: 6b98 1cbe 3a2a ccbd 3859 55bd fe8c b3bd
00000230: 44c2 d9bc bf79 42bd 2ee9 ff3d 6f80 f1bd
00000240: 059e 7ebc 6672 613d 77c0 5a3d 3600 ab3c
00000250: eeda 763b 1a63 4a3e b4b3 98bd ce63 d93d
00000260: 4c62 813d dba1 b53c ccf4 913c 9279 2fbc
00000270: 8579 163d 6ba1 73bd 2682 65bd 26fd b5bd
00000280: 9d98 b83d b217 bdbb 3b01 7b3c 20c7 c6bc
00000290: 4f16 8b3d 5152 48be bc97 f43b ed91 993d
000002a0: 0f19 083e d71b 343c d138 773d 61cc 51bd
000002b0: b045 ebbd 4e96 463d fe1e 9e3c cf56 dcbd
000002c0: 5da6 18be 1ad8 98bd 53e3 2e3d 5003 23bc
000002d0: 7463 e5bd 8e61 ac3c 6068 4abe 7577 df3d
000002e0: f4ac a63d ddf7 cabc 6eb0 5abe 6894 02bd
000002f0: c43d b9bd 5aea 5dbe a20e 4dbe f790 9bbd
00000300: ab18 81bc 1095 6dbd 6062 2f3e 96ae cfbb
00000310: 2933 b03d 3a75 13be 3387 9c3d 7c7e 083e
00000320: 4b1f 3a3b 7ce5 55be 1631 7abe 4ef4 d93d
00000330: 0892 16bd c59f d93d c704 79bd 9526 073d
00000340: ff04 873c d687 9a3d dc08 f63d ce9f 153e
00000350: ba95 9abd 560d 92bd 1b22 19bd 740b 373e
00000360: 4bf6 d93d 60e5 ddbd 906d 563e 18af 95bd
00000370: 1cca 8ebc e7a2 053d 8851 53bc 1780 a83d
00000380: b847 883e d79d c43d 8320 8dbd 1f2a 053e
00000390: 9208 12bc 044b ad3d 7581 bc3d c0de 0cbd
000003a0: 44e0 68bb bd0e 10bd 8c3e ba3d aff4 27be
000003b0: 7562 9fbd 68c6 6a3c 1265 41bc aa06 353d
000003c0: 24b4 2fbc 7323 a7bd 2b55 08bd c2ab 613c
000003d0: ee90 033d 680d 2b3e 907c a6bd 94dc 4f3c
000003e0: c25a 9fbd 7d21 153d 355c 443d e340 253d
000003f0: 68fb f3bd de9a 933d b80e db3d 714b 96bd

network_body._body_endoder.seq_layers.2.bias f4 [128]
-0.014968694 -0.026211845 -0.04785194 -0.04399102 0.0064747073 -0.0322645 -0.022403963 -0.019067042
-0.029898379 0.0009267977 -0.031134378 -0.02828288 0.026172588 0.015440614 -0.03304006 -0.019195123
-0.029108457 -0.028817687 -0.023542827 -0.01634729 -0.038885966 -0.032452244 -0.02556445 -0.01744511
-0.027573919 -0.01167953 -0.009239028 -0.041825753 -0.048180692 -0.033185087 -0.01708805 -0.03244386
-0.04382249 -0.017118124 -0.04653479 -0.060287792 -0.05288874 -0.025200145 -0.040757164 -0.021910021
-0.016434103 -0.016101597 -0.029360864 -0.009034874 0.0065516927 -0.050849963 -0.030227855 0.022622855
-0.004419081 0.009818478 0.0075123766 -0.0198742 -0.037385367 -0.029477034 -0.018860627 -0.017030377
-0.011594042 -0.02097328 -0.030068407 -0.015169728 -0.029560272 0.005828143 -0.009675682 -0.012349354
-0.03807998 -0.04600545 -0.010184682 -0.021001235 -0.005460879 -0.0054030353 -0.0114467805 -0.01195995
0.010799425 0.031728942 -0.034387976 0.020459546 -0.035440635 -0.0032256746 -0.0074207354 -0.042970445
-0.039351042 -0.03522207 -0.024433356 -0.006296796 -0.017593648 -0.036294788 -0.041456155 -0.028403679
-0.0321962 -0.024385246 -0.03115674 -0.025111726 -0.019433683 0.014261801 -0.024885407 -0.017035196
-0.01644693 -0.032603968 -0.02931866 -0.01825156 0.01507849 -0.020420047 -0.011601109 0.02695716
-0.016469019 -0.046077363 -0.0039329436 -0.049067814 0.013787988 -0.01964799 -0.027003715 -0.05419467
0.003954934 -0.03665549 -0.013830175 -0.009141819 -0.028433746 0.0017804176 0.0018053458 -0.061252028
-0.018318642 -0.038200058 0.0076697157 -0.02697466 -0.004892111 -0.058343027 -0.038039416 -0.042525038
00000000: 413f 75bc 39ba d6bc 6500 44bd ee2f 34bd
00000010: c829 d43b c827 04bd 8488 b7bc 7c32 9cbc
00000020: 72ed f4bc 57f4 723a 860d ffbc 80b1 e7bc
00000030: e567 d63c a1fa 7c3c 0455 07bd 173f 9dbc
00000040: dc74 eebc 1213 ecbc e3dc c0bc c0ea 85bc
00000050: e446 1fbd a5ec 04bd 8a6c d1bc 0ce9 8ebc
00000060: b3e2 e1bc 805b 3fbc 4b5f 17bc 7b51 2bbd
00000070: 1e59 45bd 16ed 07bd 3dfc 8bbc dae3 04bd
00000080: 367f 33bd 4f3b 8cbc 449b 3ebd 55f0 76bd
00000090: dda1 58bd 8970 cebc fcf0 26bd a57c b3bc
000000a0: d0a0 86bc 7fe7 83bc 3286 f0bc 0207 14bc
000000b0: 95af d63b 0d48 50bd 68a0 f7bc 9153 b93c
000000c0: f0cd 90bb aedd 203c 622a f63b 38cf a2bc
000000d0: 6621 19bd d279 f1bc 9a81 9abc 4a83 8bbc
000000e0: f0f4 3dbc 28d0 abbc 0552 f6bc 738a 78bc
000000f0: 6228 f2bc 02fa be3b c086 1ebc f254 4abc
00000100: c1f9 1bbd 3670 3cbd a7dd 26bc c80a acbc
00000110: 2cf1 b2bb f20b b1bb 478b 3bbc abf3 43bc
00000120: 12f0 303c 35f6 013d 68da 0cbd c79a a73c
00000130: 332a 11bd d765 53bb a429 f3bb c701 30bd
00000140: 8f2e 21bd 0445 10bd 7628 c8bc 5a55 cebb
00000150: 8e20 90bc d8a9 14bd eecd 29bd d5ae e8bc
00000160: 2ae0 03bd 91c3 c7bc 6b3c ffbc 1bb7 cdbc
00000170: 6333 9fbc 54aa 693c 7bdc cbbc 658d 8bbc
00000180: b6bb 86bc bd8b 05bd b02d f0bc 4c84 95bc
00000190: c50b 773c f147 a7bc 9412 3ebc 43d5 dc3c
000001a0: 09ea 86bc 9ebb 3cbd ecdf 80bb 55fb 48bd
000001b0: 03e7 613c d2f4 a0bc e536 ddbc 3bfb 5dbd
000001c0: 6498 813b 1124 16bd f597 62bc 91c7 15bc
000001d0: e3ed e8bc e75c e93a 5aa1 ec3a 68e3 7abd
000001e0: fa10 96bc aa77 1cbd 3d52 fb3b f6f9 dcbc
000001f0: 004e a0bb 19f9 6ebd 38cf 1bbd bc2e 2ebd

action_model._continuous_distribution.log_sigma f4 [1, 2]
-0.111686096 -0.21484639
00000000: aebb e4bd b100 5cbe

action_model._continuous_distribution.mu.weight f4 [2, 128]
0.030786244 0.03096652 0.046531122 0.015905079 0.007337414 0.04864497 -0.009474121 0.036911372
0.027338078 0.034499947 0.016158111 0.056907166 0.048229553 -0.07563859 -0.015445068 0.007239553
0.03633384 0.033268757 -0.025463251 0.045495424 -0.011167814 0.005307225 0.043643616 -0.019355163
-0.017564885 0.027719336 0.023126453 -0.013686163 0.0009732199 0.026089897 0.037002433 0.021200182
0.004512216 0.020648403 -0.0040197936 0.008138799 -0.002296748 -0.038589526 -0.018373534 -0.02169693
0.03565401 0.054864798 0.014078881 0.040145736 0.026942424 0.006629365 -0.0147825675 -0.027168354
0.0734589 -0.050578006 -0.042724274 0.04060979 0.013644131 0.007677197 0.042703334 0.044767186
0.059601065 0.01123464 0.023882754 0.04830843 0.019407619 0.008879504 -0.07377501 0.0432953
0.00454739 0.013450799 0.05649078 0.016433997 0.08064522 -0.0347437 0.061886813 0.040653605
0.030210376 -0.05699487 0.024219137 0.049122237 0.025901813 0.06373858 0.004364043 0.011479768
0.003288739 0.0071387645 0.04149161 0.05476138 0.03907639 -0.047641635 -0.0006012096 0.03221581
0.040053856 0.028724596 0.010945495 0.023512835 0.072957285 0.040505897 -0.027032638 -0.045057062
-0.019909058 -0.018344013 -0.02016747 0.044448573 0.05483905 0.012420929 0.042688947 -0.0063821357
0.029070308 -0.008392674 0.099840805 -0.0022939986 0.11594792 0.021641873 -0.045989636 -0.012751116
0.06401405 0.010833968 0.060208037 0.05227446 0.017963612 0.041667644 0.061130635 0.0016219247
-0.05596295 -0.012249038 -0.052823085 -0.03491944 -0.07100186 -0.00062940735 -0.0041563436 0.02334475
-0.060809225 -0.0008368412 -0.07325838 -0.003989944 0.029286256 -0.010344904 -0.031755265 -0.013745235
0.012259655 -0.028954541 0.020462323 0.01501362 -0.015996566 0.0013903058 -0.008262435 0.04302896
0.0054740454 0.0025547224 0.02313061 -0.017888967 0.033075392 0.019168278 -0.023135561 -0.007948967
0.012132212 0.0052746297 0.013591723 -0.0050714808 0.003421685 -0.00960234 0.015472478 -0.004458994
-0.0039438824 0.064142995 -0.007912166 -0.009668322 0.010781761 -0.008444029 0.008150546 0.014439189
-0.011342932 -0.023666233 0.032044668 -0.032474604 0.0073016714 -0.004983845 0.0020017456 0.056519598
-0.012402766 0.012111918 -0.028456254 0.032617997 -0.020586949 0.018272003 0.034988135 0.0046187616
-0.022668973 0.0065465686 0.0023703766 -0.025514912 -0.0036661334 0.009976099 0.0351093 -0.03642648
0.0040748017 -0.0031063412 -0.00550364 0.018105552 0.008080537 0.025219714 0.016480526 -0.038764946
0.08488314 0.026991645 -0.0127280895 -0.005307267 0.010400035 0.053975366 -0.0057837833 -0.008723549
0.0008980752 0.0023958418 0.009665459 0.020846905 0.04016221 -0.003874902 0.010780245 -0.017723342
-0.013069829 0.019573756 -0.019733738 0.05887007 -0.007814298 0.008152921 0.027963256 0.022552999
0.013941974 0.02199418 0.029542586 -0.0018305157 0.08075498 -0.02862115 0.013511765 -0.08055544
0.029128328 0.0012665652 0.02969273 5.2569067e-06 -0.003621084 -0.03068184 -0.005207695 0.012271698
-0.022473086 -0.009078275 0.0040860237 -0.009806365 0.021939477 -0.036070183 -0.0050168615 0.0024799374
0.05057563 0.005925413 -0.038429417 0.0076913806 -0.018567936 0.0101335505 0.00045362438 -0.01982176
00000000: 6f33 fc3c 80ad fd3c 6b97 3e3d 5e4b 823c
00000010: b16e f03b f33f 473d 5839 1bbc 6130 173d
00000020: 1bf4 df3c d14f 0d3d 045e 843c 7d17 693d
00000030: 5a8c 453d 68e8 9abd 4f0d 7dbc c639 ed3b
00000040: cbd2 143d d244 083d 4f98 d0bc 6959 3a3d
00000050: 35f9 36bc 3be8 ad3b a6c3 323d b88e 9ebc
00000060: 3ce4 8fbc a913 e33c b073 bd3c ee3b 60bc
00000070: af1f 7f3a 7bba d53c dd8f 173d 01ac ad3c
00000080: 36db 933b d726 a93c 79b8 83bb 9958 053c
00000090: 0a85 16bb 0d10 1ebd 1884 96bc c3bd b1bc
000000a0: f009 123d e9b9 603d 1bab 663c db6f 243d
000000b0: 5cb6 dc3c 253b d93b 9532 72bc 2b90 debc
000000c0: 9f71 963d e22a 4fbd a6ff 2ebd 7356 263d
000000d0: a28b 5f3c ff90 fb3b b1e9 2e3d cc5d 373d
000000e0: 3f20 743d 7f11 383c c4a5 c33c 0fdf 453d
000000f0: bafc 9e3c 577b 113c 5a17 97bd 6a56 313d
00000100: 4602 953b bd60 5c3c e062 673d 97a0 863c
00000110: 5229 a53d 694f 0ebd 077d 7d3d 6584 263d
00000120: c07b f73c 7473 69bd 3667 c63c 6634 493d
00000130: 0a30 d43c 5f89 823d 3f00 8f3b a315 3c3c
00000140: e287 573b 4cec e93b 1bf3 293d 784d 603d
00000150: 910e 203d e023 43bd 7e9a 1dba baf4 033d
00000160: 830f 243d d84f eb3c bc54 333c fd9d c03c
00000170: a16a 953d 83e9 253d 8d73 ddbc c18d 38bd
00000180: 5218 a3bc 2f46 96bc 4036 a5bc b50f 363d
00000190: e99e 603d 2781 4b3c 9bda 2e3d 3c21 d1bb
000001a0: db24 ee3c 6d81 09bc 5679 cc3d e956 16bb
000001b0: 1a76 ed3d 4c4a b13c a15f 3cbd 0fea 50bc
000001c0: cc19 833d f580 313c b49c 763d bf1d 563d
000001d0: 6d28 933c b1ab 2a3d 1e64 7a3d c396 d43a
000001e0: 6839 65bd 30b0 48bc 055d 58bd b007 0fbd
000001f0: 6c69 91bd d0fe 24ba f031 88bb 7d3d bf3c
00000200: 1813 79bd 765f 5bba 7d08 96bd 13be 82bb
00000210: bbe9 ef3c ac7d 29bc cf11 02bd b233 61bc
00000220: b8dc 483c 1332 edbc 9aa0 a73c b0fb 753c
00000230: 3b0b 83bc ec3a b63a 2a5f 07bc 223f 303d
00000240: 9f5f b33b 216d 273b 687c bd3c e28b 92bc
00000250: 107a 073d cb06 9d3c ca86 bdbc 623c 02bc
00000260: 2fc6 463c cdd6 ac3b d1af 5e3c aa2e a6bb
00000270: 593e 603b 2253 1dbc 4780 7d3c c11c 92bb
00000280: af3b 81bb 675d 833d 08a2 01bc e267 1ebc
00000290: fca5 303c d358 0abc de89 053c 5992 6c3c
000002a0: b4d7 39bc b0df c1bc 4541 033d 1704 05bd
000002b0: dc42 ef3b 864f a3bb b82f 033b 1881 673d
000002c0: f934 4bbc 1171 463c 171d e9bc 739a 053d
000002d0: f6a5 a8bc 2baf 953c b84f 0f3d fb58 973b
000002e0: 48b4 b9bc 9984 d63b 5258 1b3b a604 d1bc
000002f0: 8343 70bb cb72 233c c5ce 0f3d ef33 15bd
00000300: ea85 853b c293 4bbb e157 b4bb 1852 943c
00000310: 3b64 043c 9399 ce3c 2b02 873c fec7 1ebd
00000320: 36d7 ad3d 951d dd3c 7a89 50bc 95e8 adbb
00000330: e964 2a3c 4615 5d3d e485 bdbb 37ed 0ebc
00000340: ce6c 6b3a 8e03 1d3b e05b 1e3c 21c7 aa3c
00000350: 2181 243d 11f2 7dbb a09f 303c 8b30 91bc
00000360: d622 56bc 2459 a03c a6a8 a1bc be21 713d
00000370: 8b07 00bc d493 053c 3313 e53c 11c1 b83c
00000380: e16c 643c 232d b43c 4b03 f23c eaed efba
00000390: de62 a53d e776 eabc 7360 5d3c 40fa a4bd
000003a0: 889e ee3c e002 a63a 2b3e f33c 7c64 b036
000003b0: b54f 6dbb 7b58 fbbc 50a5 aabb 3b0f 493c
000003c0: 7a19 b8bc 0cbd 14bc 0de4 853b e0aa 20bc
000003d0: 6bba b33c 54be 13bd 7c64 a4bb 7286 223b
000003e0: 6428 4f3d f829 c23b 2a68 1dbd fa07 fc3b
000003f0: c91b 98bc 3107 263c 6fd4 ed39 3e61 a2bc

action_model._continuous_distribution.mu.bias f4 [2]
-0.026151232 0.052045695
00000000: 1c3b d6bc de2d 553d
