MLAgentDevProject/results/TestParameters/MoveToGoal/MoveToGoal-2186.pt (torch, 441244 bytes, 36 tensors)

network_body._body_endoder.seq_layers.0.weight f4 [128, 6]
000000 6b 5d 3b be 47 8e c3 be c4 7e 3b 3f ba d8 da bc
       -0.18297355 -0.38194486 0.73240304 -0.026714671
000010 e8 63 09 bf e4 12 8c 3d 4d ed e2 3b 99 7b 20 bf
       -0.5366807 0.068395406 0.006925261 -0.62688595
000020 68 67 f4 bd 61 3c de 3d 4d 85 66 be 30 31 e6 bd
       -0.11933786 0.1085136 -0.22511788 -0.112398505
000030 42 38 f8 3d b6 62 ea be d2 46 0e bb 33 ec 88 be
       0.12120105 -0.45778435 -0.0021709693 -0.26742706
000040 a2 a9 1e bf cf e5 2b bd 03 62 a8 3d 62 3d bc be
       -0.6197759 -0.04196721 0.08221819 -0.3676558
000050 f0 30 d0 be b8 ee 4f be 80 f9 87 3f 64 57 29 3e
       -0.40662336 -0.20305908 1.0623016 0.16537243
000060 24 12 c0 3e f1 e5 c8 bd c0 46 93 bf 53 55 b9 be
       0.3751384 -0.09809483 -1.1505966 -0.3619791
000070 4e 96 64 3e 12 ed 28 3f 79 3d f6 be b2 44 ce be
       0.22322962 0.6598674 -0.48093775 -0.40286785
000080 af 3d 22 be a8 21 9b be b5 68 b1 be e4 d1 15 3f
       -0.15843843 -0.30299115 -0.34650198 0.5852339
000090 f9 50 dc 3e e7 e4 e8 3d 85 84 d5 3e 87 dd b8 bd
       0.43030527 0.11371785 0.41702667 -0.09026628
0000a0 b3 a8 c2 bd bb 86 6f 3d 0e 1e 95 be dc c6 ec bc
       -0.09504833 0.0584781 -0.29124492 -0.028903417
0000b0 cf 1f 62 3e 78 b0 47 3e 07 e4 fb 3c 1c cc db be
       0.22082447 0.19500911 0.03074838 -0.4292916
0000c0 d0 bf 05 bf 68 fe 07 bf 86 5c 36 3f df 9e 17 3c
       -0.5224581 -0.5312257 0.7123493 0.009254186
0000d0 a4 3f 08 3f 4b 6e ea be 1a f6 a6 3d 58 9d 92 be
       0.5322211 -0.45787272 0.08152409 -0.2863567
0000e0 ad 23 93 bd 4a 48 bb be 43 17 b2 3d 92 14 1e 3e
       -0.07184539 -0.3657859 0.08695843 0.15437534
0000f0 eb 59 10 3d 4a 7f ce bc d3 3c f1 be 79 9e 24 be
       0.035242002 -0.02520718 -0.47116718 -0.16076078
000100 9a af 98 3e 62 ed b1 3e 91 57 17 3f de 42 70 3d
       0.29821473 0.3475142 0.5911799 0.05865752
000110 15 65 cc bd c1 0e dd 3e 9b 13 71 be 6f 66 cb 3e
       -0.09980217 0.4317532 -0.23542635 0.39726588
000120 43 41 56 3e a6 cf 7a 3e 73 20 90 bd ab 2a 32 be
       0.20923333 0.24493274 -0.07037439 -0.17399089
000130 10 fe 79 3e 50 aa 4e 3e 27 dd 86 bc 88 f5 16 be
       0.24413323 0.20182157 -0.016462876 -0.147421
000140 6e d7 49 bf e3 36 ff bd 60 31 c1 3e 24 67 e8 3e
       -0.78844345 -0.12461641 0.37732983 0.4539119
000150 37 d2 2c 3e ff 87 15 3f 47 d9 bc 3e 9d 69 6f be
       0.16877066 0.5841064 0.3688452 -0.23380132
000160 dd 09 33 3f a9 39 d1 be ce d6 09 bf 78 fa 17 3f
       0.69936925 -0.40864304 -0.5384339 0.5936656
000170 85 78 9c 3e 4e ac 3a 3f b5 a2 ed bd 87 b5 b7 3e
       0.305607 0.72919166 -0.116032995 0.35880682
000180 e4 95 04 3f a4 c5 05 bf e2 70 fd be 2f 15 45 be
       0.51791215 -0.522547 -0.49500185 -0.19246362
000190 12 47 0e bd d8 de 2f 3f 40 0b 90 bd 4f 87 40 3e
       -0.034735747 0.6869941 -0.07033396 0.18801616
0001a0 d0 94 49 bd d0 38 1a bf e2 f6 8c be d6 a5 88 3d
       -0.049214184 -0.6024294 -0.27532107 0.06672256
0001b0 b5 b3 c7 be da cd 9b be b9 1c 0d 3e bf 13 6a bf
       -0.39004293 -0.3043049 0.13780488 -0.9143638
0001c0 c5 b8 f9 be 80 ce 24 3f 27 dc 78 be f0 ea 8e be
       -0.4877378 0.64377594 -0.24302731 -0.27913618
0001d0 ed ce 12 be 18 7c a5 3f 23 31 59 be 14 03 12 bf
       -0.14336748 1.2928495 -0.2121015 -0.57035947
0001e0 bc 92 d9 bd 4a e7 13 3f bc 6e 25 be 0a 15 64 3e
       -0.106236905 0.57774794 -0.16155523 0.22273651
0001f0 b2 87 94 3e 84 b7 c5 bc 63 4f ac 3e 6c f1 e2 3d
       0.29009777 -0.024135359 0.33654317 0.11081204
000200 5b 5d 06 3f 16 3f 56 3f 84 4e 2e 3e 01 30 0f 3e
       0.524862 0.8369001 0.17022139 0.13983156
000210 a0 f4 d6 3e d9 40 e2 3e 77 d6 dc be 58 be 50 3e
       0.4198351 0.441901 -0.43132374 0.2038511
000220 0f 83 73 bd a6 f1 93 3d a7 c9 c1 be 47 16 c6 3d
       -0.05945116 0.07223825 -0.3784916 0.09672218
000230 13 12 83 bd cf 5b be 3d 32 46 32 be bd d6 37 be
       -0.06399932 0.09294855 -0.1740959 -0.1795301
000240 7b 0b f3 3c 26 53 95 bf 47 c9 28 bf 31 0d 84 be
       0.02966856 -1.1666 -0.65932125 -0.25791314
000250 5d 41 1c bf 3d 1a 04 bf 2f f4 6a 3f bc b3 ea 3e
       -0.61037236 -0.51602536 0.91778845 0.4584025
000260 b2 8e 22 bf a8 b9 25 3e 54 e2 d5 3e 07 8d 2e be
       -0.63498986 0.16184103 0.41774237 -0.17045985
000270 16 b8 a8 be 15 fc 21 3e b3 a8 e3 bd 23 6a 6f 3d
       -0.32952946 0.15818818 -0.11116161 0.05845083
000280 f2 35 d6 3c ea b9 1a 3f 7b b3 cf be e7 ad 0a 3f
       0.02614877 0.6043993 -0.4056662 0.54171604
000290 55 d3 0c bf eb ff 8f 3f 25 95 8e bd 22 0d cc bb
       -0.5500997 1.1249975 -0.06962041 -0.0062271515
0002a0 51 0a ba 3e 16 00 37 3e c8 94 14 3e 3a 24 e9 bd
       0.36335996 0.17871127 0.1450988 -0.11383863
0002b0 a0 06 69 3d af b6 36 bd a6 d7 56 bd 54 5c 0d bf
       0.056891084 -0.044607814 -0.052451752 -0.55219007
0002c0 8c ef 84 3e ea a2 e6 bd f8 ca 3b 3e df 16 26 bd
       0.2596401 -0.11261542 0.18339145 -0.040549155
0002d0 e9 7c bc 3e 4e b6 38 3e a3 a2 b0 bd fc 9b d2 3e
       0.3681405 0.18038294 -0.086247705 0.41134632
0002e0 17 fc a0 bd b2 f8 cb 3e 90 8e 0e bf 61 5b 22 3e
       -0.07860582 0.39838177 -0.55686283 0.15855171
0002f0 51 28 ce 3d ab b3 23 3e 0b 58 26 be dd 84 f1 3e
       0.100662835 0.15986507 -0.16244523 0.4717168
000300 08 6a 44 3e 2f 3b 5f bd a5 a9 c7 3d 1f f0 a1 3c
       0.19181073 -0.0544998 0.09749154 0.019767819
000310 b2 1a bf 3e d8 78 40 3e 1a 3f 68 3e ca 2e c1 be
       0.37325054 0.18796098 0.22680321 -0.3773101
000320 9e 9f b5 3e 2f 67 95 3d 0c fe 30 be 90 4b 88 be
       0.3547334 0.07295071 -0.17284411 -0.2662015
000330 54 a0 d9 3e 4c 2d 08 bf ac b3 91 bc b9 43 c2 3e
       0.42505133 -0.5319412 -0.01778587 0.37942293
000340 35 f5 61 3f e5 49 22 3f c7 54 55 bf ce 7a db be
       0.8826478 0.63394004 -0.83332485 -0.4286713
000350 a9 85 8d be ee 52 f9 bd 27 8b 23 bf 73 17 9c 3f
       -0.27641037 -0.12174021 -0.63884205 1.2194656
000360 e9 37 17 3f f3 fa 9c 3e e0 54 65 3f 6e 6d a7 3d
       0.5906969 0.3066021 0.89582634 0.08175169
000370 be 7d 36 3e d5 81 1e be 7a 2f 13 bf c1 fd cf 3e
       0.17821404 -0.15479214 -0.5749432 0.40623286
000380 f5 d3 89 3e d7 e0 81 3e 78 33 b5 bd ef 75 41 be
       0.26919523 0.25366852 -0.088477075 -0.18892644
000390 04 b1 b1 be 38 b0 9e be 9b 85 03 be bf 39 92 be
       -0.34705365 -0.3099382 -0.12843935 -0.28559682
0003a0 c2 76 b0 be 78 17 8c be 46 8c a8 be 9b 6d c0 3e
       -0.34465605 -0.27361655 -0.3291952 0.37583622
0003b0 f1 44 7e 3e 07 4a 9f 3d ea 0f 81 3c 86 c9 21 bf
       0.24830987 0.077777915 0.015754659 -0.63198125
0003c0 9a 74 f9 3e 02 71 ad 3e 6f 1c 1d bd 11 76 4d be
       0.48721772 0.3387528 -0.038357195 -0.2006457
0003d0 73 a4 6a 3e 0a 78 4f bd db 19 e4 3e 86 9a 4a 3e
       0.22914295 -0.050651588 0.44550976 0.19785509
0003e0 b8 88 e4 bd 85 73 22 3f f5 92 c1 3d f0 14 c4 3e
       -0.111588895 0.6345752 0.09451858 0.38297224
0003f0 e8 b1 47 3e db 05 59 bd 7a 50 af bc be cb 9a be
       0.1950146 -0.0529841 -0.021400679 -0.30233568

network_body._body_endoder.seq_layers.0.bias f4 [128]
000000 2b a1 dc 3c 03 0d eb 3c da 96 9a bc 99 0b 36 3c
       0.02693232 0.028692728 -0.01887076 0.0111111635
000010 db f1 d3 3a 3b a8 92 bc bd 71 8c 3c 38 d8 0e 3d
       0.0016170101 -0.017902484 0.017144078 0.03487417
000020 6a 01 07 bd bf bd a9 bc 30 cf 2d bc 5f f2 c5 3c
       -0.032960333 -0.02072036 -0.010608479 0.024163423
000030 39 15 8a 3c db fb 3a bc eb 40 99 bc 10 4a d2 39
       0.016855823 -0.011412586 -0.018707713 0.00040109502
000040 91 ca ec ba 96 b6 a5 bc f4 56 03 bb d9 54 14 3d
       -0.0018065741 -0.020228665 -0.0020040842 0.03621373
000050 01 2d 6b 3b b0 aa 77 3c 73 64 4e 3c 54 dc 01 3d
       0.0035884979 0.015116379 0.012597191 0.031704262
000060 45 12 98 bc 2a 72 dd 3b 2c 2e 9d 3c f1 0d a9 ba
       -0.0185634 0.006757994 0.019187056 -0.0012897832
000070 17 dc 7e 3c f8 ba 02 bd 5c 87 07 3d 3a ea 48 3b
       0.015555403 -0.03191659 0.033088073 0.0030657188
000080 5b d0 69 3b 95 5b e6 3c 08 aa c6 3c f9 d1 d9 bc
       0.0035677168 0.028119842 0.024251 -0.02658938
000090 99 62 b8 3c c5 85 1c 3d 92 80 cc 3c d1 86 a1 bb
       0.022507953 0.03821351 0.02496365 -0.0049294014
0000a0 ff fe d5 3b 2e 78 08 3d 87 56 d4 bc 92 6b 04 3c
       0.006530642 0.033317737 -0.025920166 0.008082287
0000b0 84 1f d2 3b 76 02 83 3c 71 74 94 3c d8 35 08 3d
       0.0064124484 0.015992384 0.01812193 0.033254474
0000c0 ad 46 5c 3c 7e bc 12 3b 70 b5 21 bd b9 08 a1 3c
       0.013444585 0.0022390182 -0.039479673 0.01965748
0000d0 0d d8 e6 bc ee 29 fc bc 72 f6 ce 3b 6e 79 fd bc
       -0.028179193 -0.030781712 0.0063159997 -0.030941691
0000e0 e8 c2 ea 3c 56 12 a9 3c 30 7e 1f 3b 3d c7 e2 bc
       0.028657392 0.020638626 0.0024336688 -0.027682895
0000f0 77 a8 42 3c f4 a5 b7 3c 00 c4 ac 3c bc 64 dc 3c
       0.011880985 0.022418 0.021089554 0.026903503
000100 4f a7 28 bc cc df d2 bb bc ba f7 bc 1b b0 b7 3c
       -0.010293796 -0.00643537 -0.03024041 0.02242284
000110 77 93 88 bc 5f 79 45 3c 0a f1 7f 3c 54 ab a1 3c
       -0.01667188 0.012052863 0.015621433 0.019735016
000120 b8 0b a0 bb 07 dc da 3c a1 79 9d bb d2 38 d4 3c
       -0.0048842095 0.026716245 -0.004805759 0.025906
000130 ff bb 70 3b 9d f0 d3 3c 88 15 13 3d 9f 98 9f 3c
       0.0036733148 0.02587157 0.035909206 0.019481955
000140 ab 40 05 3d 2c ad da bc 81 c7 42 3c e9 be 0c 3c
       0.032532375 -0.026693903 0.011888386 0.008590438
000150 e5 e6 d6 3c 69 22 e4 bb a9 b9 36 bc 0f 23 8c 3c
       0.026233146 -0.00696211 -0.011152663 0.017106561
000160 d7 28 12 3c cf a7 1f bc 61 6d d9 3b 53 cd 98 3c
       0.00892087 -0.0097445985 0.0066353534 0.018652594
000170 86 c5 86 3c 93 63 f6 3c 66 73 d1 bc 85 35 d1 bc
       0.016451608 0.030076778 -0.025567722 -0.025538215
000180 a1 c5 96 bb 3c e6 cc 3c bc 10 e9 3c 3d fb 9b 3c
       -0.004601196 0.025012128 0.028450362 0.019040698
000190 52 4a be 3b 84 c5 1e bb ba 16 11 3d ff 92 ce 3b
       0.0058071995 -0.0024226615 0.035422064 0.0063041444
0001a0 95 3e 8d bc 37 2d 84 3a 91 ce ae bb ce 15 e7 3c
       -0.017241756 0.0010084276 -0.005334683 0.02820864
0001b0 72 4e fa bc 7c 08 11 bc 6a 1a a9 3b 87 20 02 3d
       -0.030554984 -0.0088521205 0.0051606195 0.0317693
0001c0 0f cd 9e bc b1 b7 f0 bc 1e 4c ed ba 98 98 03 3d
       -0.019384889 -0.029384466 -0.001810435 0.032127947
0001d0 a3 57 b9 bc 98 eb cc 3c 63 cc 08 bd bc d9 3a 3c
       -0.022624796 0.025014684 -0.033398043 0.011404451
0001e0 00 c2 01 3d 11 9f 6b 3c 32 a5 e1 3c a8 0e 7a 3c
       0.031679153 0.014381186 0.027544592 0.015262283
0001f0 1a b6 8a bc bf bf 0c bd 4e 50 26 bc 3a 3e c4 3c
       -0.016932536 -0.03436255 -0.010150982 0.023955453

network_body._body_endoder.seq_layers.2.weight f4 [128, 128]
000000 50 72 8d bd 84 71 33 3c 7d 57 d9 bd 56 b2 52 3d
       -0.06906569 0.010952357 -0.1061239 0.051439606
000010 56 05 77 3d d4 54 82 bd e5 b0 49 3b 69 f2 a6 3d
       0.060307823 -0.06363836 0.0030775603 0.08151705
000020 81 19 84 bc f3 7e e8 bb 98 99 a5 3d 13 c4 b5 bd
       -0.016125442 -0.0070952117 0.08085936 -0.08875289
000030 d2 ae 4d 3d dc c7 22 bb a5 1e d0 bc 29 59 10 3d
       0.05021555 -0.0024838364 -0.025405237 0.03524128
000040 00 fb 81 bd 79 e4 19 be dd 59 e2 3c eb 5e c8 bc
       -0.063467026 -0.15028562 0.02763074 -0.024459323
000050 e4 03 c6 3d e3 e0 8e 3d 11 6d 94 3c b1 47 b0 bd
       0.09668711 0.069764875 0.018118413 -0.08607424
000060 a8 b3 92 bc 56 06 19 3d 02 9c 9c 3d f8 67 da bd
       -0.017907932 0.037359558 0.07646944 -0.10664362
000070 51 68 09 be 98 0e 7a bc ed 7b 6e bb 96 70 0b bc
       -0.134187 -0.0152622685 -0.0036389783 -0.008510729
000080 22 23 23 be 98 0c 9d 3d 10 61 51 be c4 2c 9f bd
       -0.15931371 0.07668418 -0.20447183 -0.0777221
000090 97 df 55 be f5 d8 9b bd 50 c5 00 3d 75 3d c1 3d
       -0.20886074 -0.07609741 0.031438172 0.0943555
0000a0 b1 fd e6 3d 6c 6b ba 3d 56 7e b9 3d 01 fe b7 bc
       0.112788565 0.0910252 0.090573 -0.022459986
0000b0 6d 8e 76 3d 29 09 c8 bc 20 63 b6 bc 2b 7f 29 bd
       0.06019442 -0.02441843 -0.022264063 -0.041381042
0000c0 f5 a3 1a bc bd 75 b8 3d 74 8a 5b 3d 57 e2 35 be
       -0.009438504 0.09006832 0.053598836 -0.17762123
0000d0 29 3b 46 3c 84 5d 0b 3e 11 44 f4 3b 6e 83 f2 3d
       0.012099066 0.13609892 0.007454403 0.118414745
0000e0 50 5d 2a bd 84 8d 13 3e d4 6b e8 3d 29 d6 19 3e
       -0.041592896 0.14409453 0.113486916 0.15023102
0000f0 6f 50 88 3c 86 db 15 3e da 74 48 be 90 10 69 3d
       0.016639916 0.14634523 -0.19575825 0.05690056
000100 d7 68 0e bd cb 95 0f bd 4d f2 ed bd 5a 8e 50 3d
       -0.03476795 -0.035054963 -0.11618481 0.050917007
000110 7e b1 ec ba e3 4e 46 bd 21 8e 27 3d 0b b0 25 ba
       -0.0018058268 -0.048415076 0.04090703 -0.0006320483
000120 8b 51 32 bd c5 77 45 3b f1 0f 03 be 11 ed 19 3d
       -0.043534797 0.0030131203 -0.1279905 0.0375796
000130 03 55 43 3c c8 04 30 3e 60 d4 96 3d 13 b6 78 3d
       0.011922124 0.17189324 0.07364726 0.060720515
000140 45 0a bc bd dd bf 63 3d 66 3c 1a 3e b3 03 34 bd
       -0.09181646 0.055602897 0.15062103 -0.04394884
000150 05 ef 81 bd 37 cf 23 3e 7d 77 08 be 04 3b 12 3e
       -0.063444175 0.15997015 -0.13326831 0.14280325
000160 bc 38 09 3d 83 0c 4a 3d 51 88 a1 3d 24 ce 70 be
       0.03350137 0.04932834 0.078873284 -0.23516136
000170 11 05 c6 3c 45 ec da bc 37 52 8a 3d b0 06 3d bd
       0.024172338 -0.02672399 0.067539625 -0.046148956
000180 b8 e5 74 bd 91 fb da 3d 05 66 b0 bb d1 15 7c bd
       -0.05978939 0.10692514 -0.0053832554 -0.061544243
000190 e7 dc c4 3d 94 01 83 bd be e6 29 3d 38 25 d6 bd
       0.09612446 -0.063967854 0.04147982 -0.10456318
0001a0 55 ac 6b 3d f4 6b 5e 3d d5 46 95 bd ac cb 1c bd
       0.057537396 0.05430217 -0.07288901 -0.038280174
0001b0 8a 48 93 bd 85 84 15 3c e3 54 17 be 68 30 2c 3d
       -0.0719157 0.009125833 -0.14778475 0.04203835
0001c0 ef 25 84 3d 10 f4 bf bd 46 d2 f9 3c 03 48 06 bd
       0.06452548 -0.09372723 0.030495774 -0.03278352
0001d0 47 c3 b3 3d 60 8b 26 be 46 52 7d 3d b2 0f f5 3d
       0.087774806 -0.16264105 0.06184604 0.11965884
0001e0 6b 73 00 3e d0 49 0d 3e 4d c6 3a bd b3 92 99 3d
       0.12544028 0.13797688 -0.04559927 0.07498684
0001f0 89 38 88 bb 7f b7 36 bd 1a ab 88 3d 09 35 6c 3d
       -0.00415713 -0.04460859 0.0667326 0.057667766
000200 23 e0 45 bc 3b 41 2c 3d b0 65 c1 bd 10 24 5e 3d
       -0.012077364 0.042054396 -0.094432235 0.05423361
000210 00 98 cd 3d 11 da f2 bc cb 71 bb ba f8 d1 36 3d
       0.10038757 -0.029644998 -0.0014300881 0.044633836
000220 9c fc 98 3d cb fb 82 3c 4d 12 0a bd ea 31 9d bc
       0.074700564 0.015989205 -0.03370886 -0.01918884
000230 a3 ab 50 bd 9e 61 fa 3c 41 4c 24 bd 26 b4 e7 3d
       -0.050944936 0.030564126 -0.040111784 0.113136575
000240 e6 ea 0c be f8 1a a1 bc a0 69 62 bc 8c a0 28 3b
       -0.13761482 -0.01966618 -0.013819128 0.002573046
000250 3e a2 eb bc e9 2b 80 bd d1 f9 81 3d 09 b9 43 be
       -0.028763887 -0.06258375 0.06346477 -0.19113554
000260 6b 64 91 3d f4 e7 7e bd 2b 8e 8f 3d 74 c1 a7 3c
       0.07099231 -0.062232926 0.07009538 0.020477988
000270 1d d5 b1 3c 2c 13 2b 3d db b4 98 bd b2 6f 26 be
       0.021708066 0.04176633 -0.074563704 -0.16253546
000280 30 45 78 3d e2 08 92 3d ab 4e 86 3d 13 05 dc bc
       0.060612857 0.071306005 0.065579735 -0.026857888
000290 cc c5 83 bd c9 8b 65 3d 95 ba db 3a e3 e1 56 3c
       -0.06434211 0.056041513 0.001676398 0.013115379
0002a0 ee 39 0d bd 59 56 44 3d af 9d d2 bd 66 09 e8 3d
       -0.034479074 0.04793391 -0.10283982 0.113299176
0002b0 7c 6d 1c 3e 82 40 e5 bc f5 dc d0 3d b8 83 4b bd
       0.1527614 -0.027984861 0.10198394 -0.049686164
0002c0 3e b8 9e bc 36 12 2d 3d d3 87 e6 bd c6 c0 95 bd
       -0.019374963 0.042253695 -0.11256375 -0.07312159
0002d0 25 4a f2 3d 22 59 41 3d 0e 51 70 bd 41 b5 80 3d
       0.11830548 0.047204144 -0.05867105 0.062845714
0002e0 5c 05 dc 3d 9a 61 80 3d 72 bd 2f 3d f4 70 9a bd
       0.1074321 0.06268616 0.04290528 -0.07541075
0002f0 59 ec b2 3c 15 ca e9 3d 4e 56 f0 bc c9 3f bb 3c
       0.021841215 0.11415497 -0.029338028 0.022857564
000300 9b f0 eb 3d 77 bf 86 3d 4c 74 d5 bd 53 35 82 bd
       0.11520501 0.06579488 -0.104225725 -0.06357827
000310 b4 e1 48 be a9 76 e3 bc 17 af 20 3d f3 7f 9e bd
       -0.19617349 -0.027766543 0.03922948 -0.07739248
000320 db e7 c5 bd b5 ee 78 3d 69 ea 9d 3d 32 38 9a 3d
       -0.096633635 0.060774524 0.07710726 0.0753025
000330 e8 e0 4b 3e 84 67 52 3d 56 63 05 3d 13 b2 db bc
       0.19910014 0.05136825 0.032565437 -0.02681831
000340 46 a9 50 3e 4f 58 1d 3c 38 04 c1 3d 86 db d6 3d
       0.20377073 0.009603574 0.09424633 0.104910895
000350 5b e9 36 3d a1 13 2d bd 2b 89 ca bc f2 6c a9 bc
       0.04465614 -0.042255048 -0.02472361 -0.020681832
000360 60 77 9e bd 5d 87 b0 bd 80 7c 3b bd e2 00 0f 3d
       -0.07737613 -0.086195685 -0.04577303 0.03491295
000370 a0 ed a9 3d 9d 19 5d 3d 9f 19 b1 bc 73 ce 0d bd
       0.082972765 0.053979505 -0.021618662 -0.034620713
000380 bb af 5b be 46 76 7d 3d af d6 d1 bd 59 91 67 bd
       -0.21453755 0.061880372 -0.10246026 -0.0565351
000390 b9 df 47 3d cf e5 97 bc ba b2 ce bc c9 0c dc 3d
       0.048797343 -0.018542198 -0.025231708 0.10744626
0003a0 c2 b1 bc bd 79 d7 bb bd c0 5c 51 bd 92 6e 86 3c
       -0.09213592 -0.091719575 -0.051113844 0.016410146
0003b0 24 81 44 bd 80 7a 50 bd 23 f6 98 bd 85 7b 07 be
       -0.04797472 -0.050898075 -0.07468822 -0.13230713
0003c0 21 2a 2a bd ab 74 51 3d 90 81 21 be b4 7c 5c bc
       -0.041544084 0.051136654 -0.1577208 -0.013457466
0003d0 13 04 a8 bc fe 92 58 39 3a 28 a4 bc e8 b0 8f bb
       -0.020509755 0.00020654124 -0.020038713 -0.0043851025
0003e0 03 84 23 3e c3 60 68 bc 67 43 88 3d 8d 18 d3 bc
       0.15968327 -0.014183226 0.06653481 -0.025768543
0003f0 dc c2 d2 bd e6 f1 7b bc 98 50 06 bc 1c 59 94 bb
       -0.10291073 -0.015377497 -0.008197926 -0.004527224

network_body._body_endoder.seq_layers.2.bias f4 [128]
000000 d9 90 65 3c a8 8f ee 3c 7c e6 9c 3c 38 0a ed 3c
       0.014011585 0.029121235 0.019152872 0.028935537
000010 ee 50 9a bc 66 09 e7 3c 22 a5 dd 3c 28 89 74 bc
       -0.018837418 0.028202724 0.02705628 -0.014925279
000020 f6 9f b7 bc 5d 47 7c bc 63 18 74 3c 59 5e ec bb
       -0.022415143 -0.015397874 0.014898392 -0.0072133956
000030 50 ab f2 3c a9 a7 0e 3a ac cd 01 bc c2 30 a1 bc
       0.029622704 0.00054418534 -0.007922571 -0.01967657
000040 2a f3 e7 3c b6 7e 99 bc bc ab 30 bc f7 83 93 3c
       0.028314192 -0.018737178 -0.010783132 0.018007262
000050 40 1c e2 3c 8f 55 84 3c a0 4a a1 bc 24 21 ad 3c
       0.027601361 0.016154079 -0.019688904 0.021133967
000060 d4 f9 ad 3b 1b 56 69 bc af f6 c0 bc fb 84 a0 bc
       0.005309323 -0.014241721 -0.023555128 -0.01959466
000070 a6 9f e8 3c 8c 3a 4a 3c 89 c0 01 3d 8d be 85 3b
       0.028396439 0.01234306 0.031677756 0.0040815533
000080 a3 5e a3 bc 84 0f 5b bc 95 5e 62 3b c2 1d d3 3c
       -0.019942587 -0.013370398 0.0034541239 0.025771026
000090 5e fa fb 3c 10 fc ef 3c 02 73 ae 3c ae 31 8e 3c
       0.030759033 0.029294997 0.021295074 0.017357673
0000a0 3b 18 c0 3c d5 51 bf bb 28 27 94 b8 7a 06 39 bc
       0.023449054 -0.0058386126 -7.064483e-05 -0.011293048
0000b0 2a 82 25 3c ff e5 78 3c a6 56 c2 3c b5 57 78 3c
       0.010101834 0.015191554 0.023722958 0.01515763
0000c0 f9 10 a0 bb 75 de 07 3d 95 b0 ae bc 1a 45 01 3d
       -0.004884836 0.033171136 -0.021324435 0.03156004
0000d0 bb 82 05 3d e6 41 4c bc 25 06 c7 3c 49 93 64 bc
       0.032595377 -0.012466883 0.024294922 -0.013951131
0000e0 d9 7e 4d bc 3c b3 83 bc 43 31 06 3d 0e 5c d9 bc
       -0.01254245 -0.016076677 0.032761823 -0.026533153
0000f0 a4 01 38 3b 59 ff a0 bc 88 42 20 3c 1b 02 af ba
       0.002807715 -0.01965301 0.009781487 -0.0013352068
000100 7b fc 9b 3c 3a 99 99 bc 2f 1c bb bc b1 6d 0b bc
       0.01904129 -0.018749822 -0.022840587 -0.008510039
000110 bc e7 d7 3c f0 12 02 b7 af ff 77 bc 4f 62 07 3d
       0.026355617 -7.753013e-06 -0.015136643 0.03305274
000120 9c 4f 85 3c 24 33 b6 3c 1e 04 96 bc d8 66 c2 bc
       0.016273312 0.022241183 -0.01831251 -0.02373068
000130 23 6b f6 3c 00 32 6b 3c 61 90 d4 ba 3a 2c b5 bb
       0.030080384 0.014355183 -0.0016217345 -0.005528954
000140 75 5e d9 bc 13 f7 6d 3c 8d df 0d 3b 01 05 cb bb
       -0.026534298 0.014524239 0.002164814 -0.006195665
000150 0a db bf 3c 55 e5 5b bb 1d f8 de 3c a5 b3 73 3c
       0.023419876 -0.003355344 0.027217919 0.014874374
000160 81 69 c1 bc c5 5d ec 3b ab 59 c7 bc 9b 80 fe 3c
       -0.023609878 0.0072133266 -0.02433475 0.031067183
000170 7c d1 78 bc 29 e7 e3 3c 74 29 83 bc 5d 05 89 3c
       -0.015186664 0.027820187 -0.016010977 0.01672619
000180 8f 21 65 bc fc 0a 2e 3b b8 af 8d bc 5f a0 a4 bc
       -0.013985052 0.002655684 -0.017295703 -0.020096002
000190 25 54 7a bc 45 c1 11 3b a3 8e af 3b c0 ba d9 bb
       -0.015278851 0.0022240442 0.00535758 -0.006644577
0001a0 a5 6a a3 3b fe 59 b9 bb 43 32 11 bc a0 84 ce 3c
       0.0049870783 -0.00565648 -0.008862081 0.025209725
0001b0 1e 38 8a 3a 70 4a c6 bc 8e d1 44 bc 15 78 5e 3c
       0.0010545289 -0.024205416 -0.012012852 0.0135784345
0001c0 32 0c 00 3d 9d d1 85 bc c9 fe b3 3c a8 9f d7 3c
       0.03126163 -0.016335303 0.021972077 0.026321247
0001d0 ea 2c d5 3c fd 0f e9 3c 4b 4a 97 bc d5 da 8a 3c
       0.026022393 0.028450007 -0.018468043 0.01695005
0001e0 78 a4 10 3b be ef 9b bc 0e 96 69 bc 2b 35 3d bc
       0.0022070687 -0.019035216 -0.014256967 -0.011548321
0001f0 44 bc 03 bc 33 dd 38 bb 5f ba cf bc 0a bd a6 3c
       -0.0080404915 -0.0028208017 -0.025357423 0.020353813

action_model._continuous_distribution.log_sigma f4 [1, 2]
000000 23 7d 16 bc ab d4 38 3b
       -0.009185108 0.0028202932

action_model._continuous_distribution.mu.weight f4 [2, 128]
000000 06 28 f3 3c 41 97 0e 3d 5d 86 26 3d 92 bb 13 3d
       0.02968217 0.034812216 0.040655483 0.036067553
000010 d3 49 01 bd 04 d0 51 3d 11 4f 0d 3d a4 27 87 bc
       -0.031564545 0.05122377 0.03449923 -0.016498394
000020 92 0a 05 bd 41 18 5f bd f6 3f b6 3c 93 75 06 bd
       -0.032480784 -0.05446649 0.022247296 -0.03282697
000030 49 7f 0e 3d 9b a1 73 bc 43 d0 9a bc 80 ce 73 bd
       0.034789357 -0.014870073 -0.018898135 -0.059523106
000040 26 91 0e 3d 3f 92 3d bd fc 1d 1c bd d8 97 48 3c
       0.034806393 -0.04628205 -0.038114533 0.012243234
000050 ad 3a 99 3c c9 7c 29 3c d6 3c 26 bd 8c 98 41 3c
       0.018704737 0.0103446925 -0.04058536 0.011816155
000060 34 2b 81 bb bb f4 b5 bc 5f bb 1a bd c4 20 27 bd
       -0.003941918 -0.022211423 -0.037776347 -0.040802732
000070 a8 c8 2b 3d 1e 11 9f 3c a0 1b 27 3d 95 77 2f 3c
       0.041939408 0.019417342 0.04079783 0.010709663
000080 49 94 3f bd 38 5d 1a bd a1 79 ff 3a a1 c8 17 3d
       -0.046772275 -0.037686557 0.0019491204 0.03705657
000090 f0 9a 26 3d 79 72 1b 3d f9 a9 f3 3c 16 32 0c bb
       0.040675104 0.037950967 0.029744135 -0.0021392158
0000a0 6d 34 be 3c 6d 57 11 bd 17 31 a8 bb 77 4f de bc
       0.023218358 -0.035483766 -0.005132805 -0.027137501
0000b0 4f 3a 89 3c 46 69 be 3c 48 8c 47 3d 4e 5f c7 3c
       0.016751437 0.023243558 0.048717767 0.024337437
0000c0 76 db 3b 3c de c4 de 3c 83 2c cc bc f1 c8 40 3d
       0.011465898 0.027193483 -0.024923569 0.047066633
0000d0 76 d7 85 3d 90 db a9 bc 46 b6 90 3d a4 54 f6 bc
       0.065352365 -0.020734578 0.07066016 -0.030069657
0000e0 35 ce 60 bd cc 5d 2d bb 1c 33 31 3d 0d 1b 14 bd
       -0.054884154 -0.0026453612 0.043261632 -0.03615861
0000f0 72 39 69 bb 78 ee 38 bd b4 84 3d ba 22 bf 00 bd
       -0.0035587219 -0.045149297 -0.0007229552 -0.03143228
000100 5b 22 f9 3c 2e 3f cb bc 72 0c aa bc 25 4b 9b bc
       0.03041189 -0.0248104 -0.020757888 -0.01895673
000110 eb d6 da 3c 58 c3 05 3c d8 46 10 bd 19 06 5a 3d
       0.026713809 0.008164249 -0.035223812 0.05322847
000120 61 2a bf 3c 6b 43 62 3d 17 14 39 bd be a1 4d bd
       0.023335638 0.055240076 -0.045185175 -0.050203077
000130 18 76 d2 3c 91 51 dd b9 a6 29 85 bd 5e 54 c2 bb
       0.025691077 -0.00042213176 -0.065020844 -0.0059304675
000140 27 1c 0a bd 0d ee ff 3c 68 36 4f bc 14 8f bf bc
       -0.033718254 0.031241441 -0.012647249 -0.023383655
000150 0e 97 07 3d 2e 00 e1 bb 3d 75 17 3d 44 80 85 3b
       0.03310304 -0.0068664765 0.03697704 0.0040741283
000160 c1 05 1a bd 30 86 a7 3c 6d 16 05 bd fd 4b 73 3d
       -0.037603144 0.020449728 -0.03249209 0.05939864
000170 c6 95 f9 bc b1 72 ef 3c 92 19 e9 bc 0b 5f d3 3c
       -0.030466925 0.029229494 -0.028454576 0.025802156
000180 78 d0 89 b9 57 a1 c4 ba 3d 62 08 bd 77 05 2f bd
       -0.00026285998 -0.0015001696 -0.033296812 -0.04272982
000190 f8 d8 b7 bc aa df 9c 3b 6e 9d f9 3b e9 38 b3 bc
       -0.022442326 0.004787405 0.007617644 -0.021877723
0001a0 44 a6 0d 3c 3a 58 66 3c 11 98 15 bd 3e 79 56 3d
       0.008645598 0.014059121 -0.036521975 0.05236172
0001b0 f0 ec 21 3c de 27 03 bd 33 14 1a bd 87 09 02 3d
       0.00988315 -0.032020442 -0.03761692 0.031747367
0001c0 83 b6 f5 3c a6 ba da bc 20 9c a7 3c 53 7e 73 3d
       0.029994255 -0.026700329 0.020460188 0.059446644
0001d0 c4 9c 49 3d e9 e0 fb 3c 03 1a d7 bc e8 4d 2e 3d
       0.04922177 0.030746894 -0.02625752 0.042554766
0001e0 59 3e 21 bb 2f 75 d4 bc 84 3c de bc 6c 69 b1 bb
       -0.0024603812 -0.025934784 -0.027128465 -0.0054141786
0001f0 42 e9 6d bc 45 fb 39 3c 8d ff 00 bd 86 7b cb 3c
       -0.014520945 0.011351411 -0.031493712 0.024839174
000200 fa 88 73 3c 71 2d 61 3a 36 12 04 bd 05 1c 2e 3c
       0.014864201 0.000858984 -0.03224393 0.010626798
000210 c4 a2 25 bb c1 39 a7 3b 0a 7b a3 ba d0 48 26 bc
       -0.0025274018 0.0051033203 -0.0012472582 -0.010149196
000220 52 64 d5 ba e5 a6 09 bd 0b b4 a3 3b ed 87 79 ba
       -0.0016280508 -0.03360643 0.004995828 -0.0009518851
000230 58 07 4a bb e4 2f a9 3c c9 20 20 3d f2 a6 a4 bc
       -0.003082713 0.020652719 0.039093766 -0.020099137
000240 16 fd 3a bc 7c 61 4e 3b 11 65 ec bb d5 fe 05 bc
       -0.011412879 0.003149121 -0.0072141965 -0.0081784325
000250 35 5c c5 ba 52 6e 41 bb 99 b9 23 bc 85 2f 61 bc
       -0.0015057387 -0.002951522 -0.00999298 -0.01374424
000260 01 ac 5e bb 12 d7 f7 3c 01 ad 10 3c 01 0f 7b 3c
       -0.0033977034 0.03025392 0.00883031 0.015323401
000270 1f 6f 19 bb 06 a8 2a 3d 48 22 2a bb 62 f6 d6 bc
       -0.002341218 0.041664146 -0.0025960375 -0.026240531
000280 4b 14 e8 3b 92 73 a3 bb 6c 54 0a 3d 13 9c 44 bc
       0.0070824972 -0.0049881423 0.033771917 -0.012000102
000290 6c 75 1b bb d3 31 d0 3a 49 86 c6 3c 71 85 f1 bb
       -0.0023721112 0.0015883989 0.024233954 -0.007370644
0002a0 b1 c6 12 bc cf 0e aa 3c 6e 2f 02 bd 35 31 f5 bc
       -0.008958505 0.020759014 -0.031783514 -0.02993069
0002b0 b9 9b 10 bd 98 df 83 bc 8a 17 ba bc 9d 98 a0 bc
       -0.03530476 -0.016097829 -0.022716302 -0.019604022
0002c0 ab a2 f4 3c 44 13 90 3a 9e 88 af 3a ff de c2 3c
       0.029862722 0.001099207 0.0013392156 0.023787973
0002d0 25 79 b4 bb 7b 59 bb bb ca c9 1f bd 73 ae ae bc
       -0.0055076056 -0.005717454 -0.0390108 -0.021323418
0002e0 dd 89 01 3b 98 3d e1 3b 42 00 0b 3c 78 2d 89 bb
       0.001976601 0.0068737976 0.008483948 -0.0041863285
0002f0 5e e1 ee bc 28 47 b0 bc eb 17 08 bc db 9b ec 3c
       -0.029160198 -0.021518305 -0.008306484 0.028882911
000300 21 05 b0 bc c8 98 bc bb 5c 59 6a 3b 2d 53 08 3a
       -0.02148682 -0.0057555176 0.0035758829 0.00052003824
000310 09 2e e3 bb e2 ce 9d bc 49 4e 14 3d a2 5d 06 3c
       -0.006932978 -0.019263688 0.03620747 0.008201035
000320 6c 1a ac 3c ba 61 0c bd e3 27 a0 bc 02 2d 25 3c
       0.021008693 -0.034272887 -0.01955027 0.0100815315
000330 1e 7b ab ba 0a 59 c4 bb 7e 5a a2 bc 35 2a 97 3c
       -0.0013082956 -0.0059920596 -0.01981854 0.018452743
000340 1d 64 0f 3b de 04 05 bd 27 58 da bb b2 0b 10 bd
       0.002187974 -0.032475345 -0.0066633406 -0.035167404
000350 cd be a6 3c 7b 42 88 bc 0d dc 76 3c 28 31 6f 3c
       0.020354653 -0.016633263 0.015067113 0.014599122
000360 15 6c d6 bb a1 ad bb bc 33 db bc bb a3 9c 53 3c
       -0.006543646 -0.022909941 -0.0057634353 0.012915763
000370 ed 1e 86 bc 9f 1f ce bb 9c 12 17 bd 8f 64 eb bb
       -0.016372168 -0.0062903906 -0.03688298 -0.0071836184
000380 9f 94 3e 3c 1c ef ec 3b 0e 32 ca 3c ad 0d a3 3c
       0.011632114 0.0072306525 0.024682071 0.019903982
000390 4d b0 9d bc 1a 43 46 3c 19 71 87 3c 8e 02 ab bc
       -0.019249106 0.012100959 0.016533421 -0.020875242
0003a0 1d 58 d2 3c 27 b4 03 3c 92 bd fc bc d1 c3 90 bc
       0.025676781 0.008038557 -0.030852113 -0.017671498
0003b0 c0 ab 5c bc 57 73 8e bb fc 8c 52 3c 6e d2 fd bc
       -0.013468683 -0.0043472457 0.012850996 -0.03098413
0003c0 84 21 d8 3b 72 13 d9 b9 34 ec 27 3c 54 25 f4 bc
       0.0065957922 -0.00041403953 0.010249186 -0.029802956
0003d0 da 21 68 bc 80 fb 46 3c 14 9f b7 3c db 98 08 bd
       -0.014168227 0.012144923 0.022414722 -0.0333489
0003e0 6b 31 97 bc c3 bc 5b bc c0 64 09 3d e0 06 76 bc
       -0.018456182 -0.0134117035 0.03354335 -0.015016288
0003f0 53 88 ac 3c c1 99 82 3c 2a 63 ba bb 26 c2 00 bb
       0.021061098 0.015942456 -0.005688091 -0.0019646971

action_model._continuous_distribution.mu.bias f4 [2]
000000 86 d5 d7 3c be 10 8e 39
       0.026346933 0.00027096824

exp_avg f4 [128, 6]
000000 22 90 12 39 00 00 00 00 72 ec 04 38 29 1b b3 3a
       0.00013977339 0.0 3.169146e-05 0.001366471
000010 00 00 00 00 00 00 00 00 3e 8d 93 39 00 00 00 00
       0.0 0.0 0.00028143259 0.0
000020 f2 a3 46 b7 49 5c 2a 3b 00 00 00 00 00 00 00 00
       -1.1839891e-05 0.0025994948 0.0 0.0
000030 95 32 50 b9 00 00 00 00 1e b9 94 b7 4a b8 ea ba
       -0.00019855269 0.0 -1.7729177e-05 -0.0017907706
000040 00 00 00 00 00 00 00 00 6d 5a b1 b8 00 00 00 00
       0.0 0.0 -8.456861e-05 0.0
000050 67 bf af b7 76 68 5e ba 00 00 00 00 00 00 00 00
       -2.0950754e-05 -0.0008484194 0.0 0.0
000060 30 b5 88 b7 00 00 00 00 0e ae 8b b7 7f a6 88 b9
       -1.6296835e-05 0.0 -1.6651142e-05 -0.0002606399
000070 00 00 00 00 00 00 00 00 a2 c8 1f b8 00 00 00 00
       0.0 0.0 -3.8095408e-05 0.0
000080 66 2d 69 b6 b8 d8 15 ba 00 00 00 00 00 00 00 00
       -3.474613e-06 -0.00057161925 0.0 0.0
000090 9e d6 83 38 00 00 00 00 d3 e7 3c 38 0f b8 11 3a
       6.286542e-05 0.0 4.5038596e-05 0.0005558738
0000a0 00 00 00 00 00 00 00 00 54 7d f5 39 00 00 00 00
       0.0 0.0 0.00046823418 0.0
0000b0 be a8 2a 38 88 03 9f 3b 00 00 00 00 00 00 00 00
       4.0688312e-05 0.004852716 0.0 0.0
0000c0 c5 aa 83 b9 00 00 00 00 fd 37 15 b8 ba ff 43 bb
       -0.000251135 0.0 -3.557651e-05 -0.0029907064
0000d0 00 00 00 00 00 00 00 00 6e 23 c5 b8 00 00 00 00
       0.0 0.0 -9.400291e-05 0.0
0000e0 d1 1e 4a b7 5a 19 58 ba 00 00 00 00 00 00 00 00
       -1.2047313e-05 -0.0008243524 0.0 0.0
0000f0 c8 85 1b b9 00 00 00 00 5e 57 dd b7 61 55 ce ba
       -0.0001483179 0.0 -2.6385937e-05 -0.0015741998
000100 00 00 00 00 00 00 00 00 f6 6c 01 3a 00 00 00 00
       0.0 0.0 0.0004937196 0.0
000110 11 74 20 38 82 ec 9c 3b 00 00 00 00 00 00 00 00
       3.8255068e-05 0.004788936 0.0 0.0
000120 9e cb 83 b8 00 00 00 00 f9 e0 92 b7 6c d0 13 ba
       -6.2844934e-05 0.0 -1.7509317e-05 -0.0005638662
000130 00 00 00 00 00 00 00 00 f3 0a 64 b8 00 00 00 00
       0.0 0.0 -5.4369633e-05 0.0
000140 19 e1 89 37 5e c8 8d b9 00 00 00 00 00 00 00 00
       1.6436492e-05 -0.000270429 0.0 0.0
000150 40 24 9e b9 00 00 00 00 49 c7 8f b8 c5 98 21 bb
       -0.00030163117 0.0 -6.855891e-05 -0.0024657708
000160 00 00 00 00 00 00 00 00 31 8c 00 3a 00 00 00 00
       0.0 0.0 0.00049037026 0.0
000170 53 1d 88 38 33 60 a1 3b 00 00 00 00 00 00 00 00
       6.4904474e-05 0.004924798 0.0 0.0
000180 7a be 2b b9 00 00 00 00 00 8f 74 b8 b4 f5 b1 ba
       -0.00016378789 0.0 -5.8307312e-05 -0.0013577254
000190 00 00 00 00 00 00 00 00 4e 26 b6 b5 00 00 00 00
       0.0 0.0 -1.3571205e-06 0.0
0001a0 7c 64 b8 b3 5a 78 4e b8 00 00 00 00 00 00 00 00
       -8.586446e-08 -4.9226313e-05 0.0 0.0
0001b0 42 d8 0e 38 00 00 00 00 f0 81 7f b4 92 04 8e 39
       3.4056844e-05 0.0 -2.3795997e-07 0.00027087756
0001c0 00 00 00 00 00 00 00 00 3f b0 7c 3a 00 00 00 00
       0.0 0.0 0.00096393 0.0
0001d0 20 22 34 b6 60 dc 10 3c 00 00 00 00 00 00 00 00
       -2.6841954e-06 0.008841604 0.0 0.0
0001e0 88 dc af 39 00 00 00 00 e6 92 ee 37 c8 14 53 3b
       0.0003354291 0.0 2.8440216e-05 0.0032208432
0001f0 00 00 00 00 00 00 00 00 f9 a1 5a 3a 00 00 00 00
       0.0 0.0 0.0008340176 0.0
000200 1f 71 9c 38 d3 24 00 3c 00 00 00 00 00 00 00 00
       7.45973e-05 0.00782128 0.0 0.0
000210 c0 9b 1f b8 00 00 00 00 4e dd 26 b8 7b 33 cd b9
       -3.8053608e-05 0.0 -3.978359e-05 -0.00039139003
000220 00 00 00 00 00 00 00 00 d1 6d a0 39 00 00 00 00
       0.0 0.0 0.00030599398 0.0
000230 e6 f1 9b 37 4f 28 46 3b 00 00 00 00 00 00 00 00
       1.8590083e-05 0.0030236428 0.0 0.0
000240 61 3a 13 b9 00 00 00 00 48 92 12 37 ea 6c 8f ba
       -0.0001404076 0.0 8.736337e-06 -0.0010942493
000250 00 00 00 00 00 00 00 00 9e 51 3b b7 00 00 00 00
       0.0 0.0 -1.1165072e-05 0.0
000260 c6 00 ac b6 e0 9a 37 b7 00 00 00 00 00 00 00 00
       -5.1260895e-06 -1.094371e-05 0.0 0.0
000270 fa ab 21 39 00 00 00 00 98 cf 3c 37 76 6b e0 3a
       0.00015418223 0.0 1.1254007e-05 0.001712187
000280 00 00 00 00 00 00 00 00 fa 64 0b 3a 00 00 00 00
       0.0 0.0 0.0005317476 0.0
000290 ad c4 d6 38 08 d9 aa 3b 00 00 00 00 00 00 00 00
       0.00010240949 0.0052138604 0.0 0.0
0002a0 ea 6d 40 39 00 00 00 00 78 77 9f 38 81 c5 b8 3a
       0.00018351493 0.0 7.6039636e-05 0.0014096947
0002b0 00 00 00 00 00 00 00 00 9e 47 aa b9 00 00 00 00
       0.0 0.0 -0.00032478286 0.0
0002c0 0a 06 dc b7 0f 52 4c bb 00 00 00 00 00 00 00 00
       -2.6228856e-05 -0.003117684 0.0 0.0
0002d0 9c 28 e9 39 00 00 00 00 7c 03 85 b7 33 4c 73 3b
       0.0004447148 0.0 -1.5856458e-05 0.0037124276
0002e0 00 00 00 00 00 00 00 00 14 e3 26 39 00 00 00 00
       0.0 0.0 0.00015915587 0.0
0002f0 f4 d5 2c 38 b4 e0 0f 3b 00 00 00 00 00 00 00 00
       4.1207255e-05 0.0021954002 0.0 0.0
000300 1f 11 fa 38 00 00 00 00 02 92 5f 38 5e 67 7b 3a
       0.00011924118 0.0 5.3303324e-05 0.0009590293
000310 00 00 00 00 00 00 00 00 f7 87 24 3a 00 00 00 00
       0.0 0.0 0.0006276364 0.0
000320 dc c4 c8 38 7c de b3 3b 00 00 00 00 00 00 00 00
       9.573411e-05 0.0054891687 0.0 0.0
000330 e3 f5 cb 39 00 00 00 00 b0 3f f7 36 66 7e 56 3b
       0.00038902377 0.0 7.368588e-06 0.0032729148
000340 00 00 00 00 00 00 00 00 0b 22 e2 b8 00 00 00 00
       0.0 0.0 -0.00010782861 0.0
000350 02 e7 38 b7 80 0f db ba 00 00 00 00 00 00 00 00
       -1.102104e-05 -0.0016712993 0.0 0.0
000360 50 81 c1 39 00 00 00 00 60 78 b6 38 5e b4 3a 3b
       0.00036908174 0.0 8.700858e-05 0.0028488855
000370 00 00 00 00 00 00 00 00 08 c3 cb 39 00 00 00 00
       0.0 0.0 0.00038864487 0.0
000380 24 da 2e 38 3e 66 8f 3b 00 00 00 00 00 00 00 00
       4.1687992e-05 0.004376202 0.0 0.0
000390 4a fb 39 37 00 00 00 00 a0 6d a8 36 4d 32 77 39
       1.1085367e-05 0.0 5.019552e-06 0.00023574494
0003a0 00 00 00 00 00 00 00 00 9d 13 dd 38 00 00 00 00
       0.0 0.0 0.000105417545 0.0
0003b0 0b 1a 0e 38 96 ce a7 3a 00 00 00 00 00 00 00 00
       3.3879693e-05 0.0012802656 0.0 0.0
0003c0 5d 41 bc b8 00 00 00 00 9a 2d e2 b7 10 43 33 ba
       -8.9767134e-05 0.0 -2.6962534e-05 -0.0006838301
0003d0 00 00 00 00 00 00 00 00 e9 91 58 3a 00 00 00 00
       0.0 0.0 0.00082614884 0.0
0003e0 00 b7 ed 35 c2 ce ec 3b 00 00 00 00 00 00 00 00
       1.7711136e-06 0.007226796 0.0 0.0
0003f0 34 bc 8e b9 00 00 00 00 4a 35 1e b7 69 90 11 bb
       -0.00027224573 0.0 -9.429941e-06 -0.002221132

exp_avg_sq f4 [128, 6]
000000 6d 25 90 35 00 00 00 00 9d 75 d9 34 f9 e3 8b 36
       1.0739728e-06 0.0 4.0504975e-07 4.1690623e-06
000010 00 00 00 00 00 00 00 00 02 f7 4c 36 00 00 00 00
       0.0 0.0 3.0542146e-06 0.0
000020 41 0a f5 35 f7 70 52 37 00 00 00 00 00 00 00 00
       1.8256907e-06 1.2543277e-05 0.0 0.0
000030 51 46 95 36 00 00 00 00 d9 1f 3b 36 53 bb 00 37
       4.448732e-06 0.0 2.788371e-06 7.673009e-06
000040 00 00 00 00 00 00 00 00 58 ef 8e 36 00 00 00 00
       0.0 0.0 4.259793e-06 0.0
000050 57 c2 86 36 60 24 4e 36 00 00 00 00 00 00 00 00
       4.0161353e-06 3.0717565e-06 0.0 0.0
000060 08 96 b2 36 00 00 00 00 f8 ee 3f 36 b0 72 43 36
       5.3222793e-06 0.0 2.8600316e-06 2.9124021e-06
000070 00 00 00 00 00 00 00 00 3c c3 cc 32 00 00 00 00
       0.0 0.0 2.3837508e-08 0.0
000080 59 af 78 32 39 31 ac 34 00 00 00 00 00 00 00 00
       1.4475369e-08 3.207331e-07 0.0 0.0
000090 79 a2 d0 35 00 00 00 00 7b 95 4c 35 09 e8 7b 36
       1.5544493e-06 0.0 7.6213445e-07 3.7536977e-06
0000a0 00 00 00 00 00 00 00 00 b8 da 71 36 00 00 00 00
       0.0 0.0 3.603911e-06 0.0
0000b0 55 ac 89 35 2f 1b fb 37 00 00 00 00 00 00 00 00
       1.0257451e-06 2.993419e-05 0.0 0.0
0000c0 9c b9 c9 35 00 00 00 00 a8 86 80 35 87 10 8e 37
       1.5029686e-06 0.0 9.575933e-07 1.6935415e-05
0000d0 00 00 00 00 00 00 00 00 ae 4d 94 35 00 00 00 00
       0.0 0.0 1.1049467e-06 0.0
0000e0 39 ff 25 35 28 c4 e7 35 00 00 00 00 00 00 00 00
       6.183869e-07 1.726793e-06 0.0 0.0
0000f0 99 cb 01 36 00 00 00 00 53 8d ac 35 12 dd b6 36
       1.9341007e-06 0.0 1.2856129e-06 5.4497586e-06
000100 00 00 00 00 00 00 00 00 75 36 4a 37 00 00 00 00
       0.0 0.0 1.20528175e-05 0.0
000110 25 17 fd 36 96 84 29 38 00 00 00 00 00 00 00 00
       7.542682e-06 4.041622e-05 0.0 0.0
000120 12 1c d0 36 00 00 00 00 9d d2 85 36 f3 5f 54 36
       6.202151e-06 0.0 3.9882275e-06 3.1646312e-06
000130 00 00 00 00 00 00 00 00 12 ab 0a 35 00 00 00 00
       0.0 0.0 5.1657946e-07 0.0
000140 a3 9e 25 35 5d a3 85 35 00 00 00 00 00 00 00 00
       6.1698137e-07 9.956817e-07 0.0 0.0
000150 6c 25 4d 36 00 00 00 00 0c 88 8a 35 11 50 38 37
       3.0569163e-06 0.0 1.0321396e-06 1.0985897e-05
000160 00 00 00 00 00 00 00 00 59 d7 6b 36 00 00 00 00
       0.0 0.0 3.5143078e-06 0.0
000170 0a 75 8f 35 ff 19 cc 37 00 00 00 00 00 00 00 00
       1.0688393e-06 2.43308e-05 0.0 0.0
000180 4d 16 85 37 00 00 00 00 a4 1b 1c 37 52 bb 70 37
       1.586522e-05 0.0 9.30476e-06 1.4348729e-05
000190 00 00 00 00 00 00 00 00 1b 08 01 31 00 00 00 00
       0.0 0.0 1.8776578e-09 0.0
0001a0 33 89 bd 30 7a ea 04 32 00 00 00 00 00 00 00 00
       1.3790554e-09 7.736725e-09 0.0 0.0
0001b0 09 5c e9 32 00 00 00 00 62 bf 17 32 bc 83 fe 33
       2.7166623e-08 0.0 8.832872e-09 1.1851759e-07
0001c0 00 00 00 00 00 00 00 00 bb 9b b4 37 00 00 00 00
       0.0 0.0 2.153019e-05 0.0
0001d0 96 2c ec 36 b0 ee 12 39 00 00 00 00 00 00 00 00
       7.0385386e-06 0.00014012563 0.0 0.0
0001e0 7f 13 26 36 00 00 00 00 f3 4d ab 35 a0 c5 37 37
       2.4747276e-06 0.0 1.2763179e-06 1.0953663e-05
0001f0 00 00 00 00 00 00 00 00 65 7f 80 37 00 00 00 00
       0.0 0.0 1.5318112e-05 0.0
000200 7d e5 a6 36 e7 26 ac 38 00 00 00 00 00 00 00 00
       4.9739015e-06 8.208845e-05 0.0 0.0
000210 20 d1 8f 35 00 00 00 00 5a 35 54 35 29 19 5d 36
       1.0715194e-06 0.0 7.905379e-07 3.2946211e-06
000220 00 00 00 00 00 00 00 00 77 47 4b 35 00 00 00 00
       0.0 0.0 7.572739e-07 0.0
000230 c3 17 0e 34 e1 0d 33 37 00 00 00 00 00 00 00 00
       1.3233425e-07 1.0672463e-05 0.0 0.0
000240 24 a9 dd 36 00 00 00 00 68 f3 d8 36 f3 07 bc 36
       6.606004e-06 0.0 6.465638e-06 5.603762e-06
000250 00 00 00 00 00 00 00 00 2f ee 0a 36 00 00 00 00
       0.0 0.0 2.0702244e-06 0.0
000260 97 df 0a 36 ea 4c 3b 36 00 00 00 00 00 00 00 00
       2.069375e-06 2.7909941e-06 0.0 0.0
000270 e2 2f 98 34 00 00 00 00 33 4d 24 34 ec db 54 36
       2.8347046e-07 0.0 1.5301775e-07 3.1718473e-06
000280 00 00 00 00 00 00 00 00 3f 9c 2b 37 00 00 00 00
       0.0 0.0 1.0228773e-05 0.0
000290 c3 12 bc 36 91 ca 03 38 00 00 00 00 00 00 00 00
       5.6050208e-06 3.142149e-05 0.0 0.0
0002a0 76 0a 8f 37 00 00 00 00 aa f5 1b 37 b8 a5 a1 37
       1.70518e-05 0.0 9.295918e-06 1.9269864e-05
0002b0 00 00 00 00 00 00 00 00 07 73 3f 36 00 00 00 00
       0.0 0.0 2.8528173e-06 0.0
0002c0 5c 32 9a 35 f4 e8 99 37 00 00 00 00 00 00 00 00
       1.1488551e-06 1.8347499e-05 0.0 0.0
0002d0 45 9a f8 36 00 00 00 00 84 25 6e 36 ff 35 f3 37
       7.4089353e-06 0.0 3.54866e-06 2.8993001e-05
0002e0 00 00 00 00 00 00 00 00 05 e6 be 34 00 00 00 00
       0.0 0.0 3.555762e-07 0.0
0002f0 e6 b2 3d 34 b0 a0 bd 36 00 00 00 00 00 00 00 00
       1.766708e-07 5.6513454e-06 0.0 0.0
000300 31 5d 67 36 00 00 00 00 68 a4 eb 35 c4 f1 a5 36
       3.4475927e-06 0.0 1.7556713e-06 4.9455284e-06
000310 00 00 00 00 00 00 00 00 ec 2e 9a 37 00 00 00 00
       0.0 0.0 1.838008e-05 0.0
000320 29 93 d7 36 d1 7f 8c 38 00 00 00 00 00 00 00 00
       6.424631e-06 6.699528e-05 0.0 0.0
000330 48 7f 2a 37 00 00 00 00 7c c8 cc 36 b1 8e da 37
       1.0162425e-05 0.0 6.103013e-06 2.6054071e-05
000340 00 00 00 00 00 00 00 00 79 c6 c8 33 00 00 00 00
       0.0 0.0 9.349328e-08 0.0
000350 9f 7c 70 33 f6 1e 45 36 00 00 00 00 00 00 00 00
       5.5992697e-08 2.937331e-06 0.0 0.0
000360 77 7a 0e 37 00 00 00 00 32 3e 46 36 5e 6f cc 37
       8.492373e-06 0.0 2.9540502e-06 2.4370554e-05
000370 00 00 00 00 00 00 00 00 fd ac de 35 00 00 00 00
       0.0 0.0 1.6590635e-06 0.0
000380 54 2b cf 34 ee 17 a8 37 00 00 00 00 00 00 00 00
       3.858828e-07 2.0038304e-05 0.0 0.0
000390 78 36 14 33 00 00 00 00 b1 92 2c 33 26 8b 0a 35
       3.4508474e-08 0.0 4.0180286e-08 5.1611494e-07
0003a0 00 00 00 00 00 00 00 00 8c b8 8b 34 00 00 00 00
       0.0 0.0 2.6025043e-07 0.0
0003b0 2f 81 7e 34 83 49 72 36 00 00 00 00 00 00 00 00
       2.370259e-07 3.61036e-06 0.0 0.0
0003c0 0e bb df 36 00 00 00 00 98 ad 6f 36 b7 c9 85 36
       6.667694e-06 0.0 3.571482e-06 3.9871916e-06
0003d0 00 00 00 00 00 00 00 00 b7 66 b2 37 00 00 00 00
       0.0 0.0 2.1267084e-05 0.0
0003e0 7f 31 04 37 03 1e d0 38 00 00 00 00 00 00 00 00
       7.879337e-06 9.923803e-05 0.0 0.0
0003f0 b6 ae 92 36 00 00 00 00 a3 5b 04 36 dc 2a 4b 37
       4.371478e-06 0.0 1.9722872e-06 1.2109722e-05

exp_avg f4 [128]
000000 27 1b 33 3a 49 5c aa 3a 4b b8 6a ba 78 68 de b9
       0.0006832354 0.0012997474 -0.00089538534 -0.00042420975
000010 7e a6 08 b9 b8 d8 95 b9 10 b8 91 39 88 03 1f 3b
       -0.00013031994 -0.00028580963 0.00027793692 0.002426358
000020 ba ff c3 ba 5b 19 d8 b9 60 55 4e ba 82 ec 1c 3b
       -0.0014953532 -0.00041217622 -0.0007870998 0.002394468
000030 6c d0 93 b9 5e c8 0d b9 c4 98 a1 ba 34 60 21 3b
       -0.0002819331 -0.0001352145 -0.0012328853 0.0024623992
000040 b3 f5 31 ba 5a 78 ce b7 92 04 0e 39 60 dc 90 3b
       -0.0006788626 -2.4613157e-05 0.00013543878 0.004420802
000050 c8 14 d3 3a d3 24 80 3b 7b 33 4d b9 50 28 c6 3a
       0.0016104216 0.00391064 -0.00019569501 0.0015118215
000060 ea 6c 0f ba e0 9a b7 b6 76 6b 60 3a 0a d9 2a 3b
       -0.00054712465 -5.471855e-06 0.0008560935 0.0026069307
000070 82 c5 38 3a 0e 52 cc ba 33 4c f3 3a b5 e0 8f 3a
       0.0007048474 -0.0015588419 0.0018562138 0.0010977002
000080 5e 67 fb 39 7e de 33 3b 66 7e d6 3a 7e 0f 5b ba
       0.00047951465 0.0027445848 0.0016364574 -0.00083564955
000090 5e b4 ba 3a 40 66 0f 3b 4e 32 f7 38 96 ce 27 3a
       0.0014244427 0.0021881014 0.00011787248 0.0006401328
0000a0 10 43 b3 b9 c2 ce 6c 3b 69 90 91 ba 7e 6a c6 38
       -0.00034191506 0.003613398 -0.001110566 9.4612114e-05
0000b0 57 d6 19 3a 08 8f 2f 3a b2 ff 99 39 4c 19 4b 3b
       0.0005868426 0.00066970335 0.00029372942 0.003099042
0000c0 34 f0 6d b9 1f f1 31 39 54 3c 60 ba d6 41 92 3a
       -0.00022691564 0.0001696986 -0.00085539115 0.0011158537
0000d0 4c 1c 42 ba 96 99 76 ba 9d 9e 9f 38 0a 80 91 b9
       -0.0007404729 -0.00094070414 7.611255e-05 -0.00027751952
0000e0 ff 2c 5b 3b 54 6f 26 3b 2d a8 34 b9 f0 32 b0 ba
       0.0033443568 0.0025395947 -0.00017228788 -0.0013442915
0000f0 c3 a3 03 3a 6b 08 16 3b a6 eb 94 3a bc 4f 7c 3b
       0.0005021656 0.00228932 0.0011361733 0.0038499674
000100 61 ca 53 ba 45 d2 24 ba cc 6e d6 b9 c1 cf 8d 3b
       -0.0008079168 -0.0006287436 -0.0004089981 0.0043277447
000110 35 a5 c1 b9 41 7d 2b b9 8a ab 0c 3b 8e 9a ea 3a
       -0.00036934917 -0.00016354492 0.002146455 0.0017898844
000120 7a 65 a2 3a af 13 3d 3b 88 4a 6b b9 ec 69 90 3a
       0.0012389862 0.0028850844 -0.00022439111 0.0011017895
000130 0c 03 a7 3a 8e 66 4a 3b ba f8 48 3b 37 84 73 3a
       0.0012741997 0.0030883881 0.003066583 0.0009289416
000140 fa 27 9b 3b bb 24 00 ba ff d8 a1 3a 64 15 c0 3a
       0.00473499 -0.0004888286 0.0012347995 0.0014654812
000150 c0 c8 1d 3b b7 dc 96 3a f9 c5 a1 b9 5e 17 24 3b
       0.0024075955 0.001150987 -0.00030855814 0.0025038342
000160 45 dc 9e b8 47 79 68 3a 2d 3c d6 39 96 7e 76 3a
       -7.5750555e-05 0.00088681694 0.00040862095 0.0009403018
000170 3e c6 29 3b 48 56 88 3b 68 3b 36 3a 4a 14 aa ba
       0.0025905515 0.004160676 0.0006951601 -0.0012976017
000180 ef 1d 67 38 e6 34 89 3b f8 51 c9 3a 92 ab 91 3b
       5.510257e-05 0.004187214 0.0015359512 0.0044455016
000190 c1 de 3a 3a 3f 53 bc b8 68 e5 30 3b c3 7c a8 b9
       0.000712853 -8.9800444e-05 0.0026992206 -0.00032136412
0001a0 75 fb df ba d4 a2 b9 39 ec ee a7 b9 2f 36 2d 3b
       -0.001708849 0.00035407266 -0.00032030733 0.002643
0001b0 28 c0 40 ba 8c 9e e5 b9 dc 4c 52 3a 88 f3 e2 3a
       -0.0007352852 -0.0004379641 0.0008022317 0.001731501
0001c0 e0 98 e1 b9 9c 5f 11 ba f5 e2 3a b9 d0 ac 95 3b
       -0.00043029245 -0.0005545558 -0.0001782289 0.00456772
0001d0 49 93 00 39 a9 d1 35 b8 5e bf de b9 78 9a 65 b7
       0.00012261899 -4.3349024e-05 -0.0004248572 -1.3685429e-05
0001e0 5a 0c 8f 3b 00 e4 03 39 28 cb 1c 3a 6a ed 7e 3a
       0.004365486 0.0001257807 0.00059812004 0.00097247085
0001f0 dc d8 43 ba bc 5a 17 ba b2 9a 8e b8 ce ac 05 3b
       -0.0007470974 -0.00057737133 -6.799902e-05 0.002039719

exp_avg_sq f4 [128]
000000 f8 e3 8b 35 f9 70 52 36 53 bb 00 36 60 24 4e 35
       1.0422655e-06 3.1358197e-06 1.9182523e-06 7.679391e-07
000010 b0 72 43 35 39 31 ac 33 0a e8 7b 35 2f 1b fb 36
       7.2810053e-07 8.018328e-08 9.384245e-07 7.4835475e-06
000020 87 10 8e 36 28 c4 e7 34 0f dd b6 35 96 84 29 37
       4.233854e-06 4.3169825e-07 1.3624393e-06 1.0104055e-05
000030 f4 5f 54 35 5d a3 85 34 10 50 38 36 fe 19 cc 36
       7.9115785e-07 2.4892043e-07 2.746474e-06 6.0826997e-06
000040 52 bb 70 36 7a ea 04 31 bc 83 fe 32 b0 ee 12 38
       3.5871822e-06 1.9341813e-09 2.9629398e-08 3.5031408e-05
000050 9e c5 37 36 e6 26 ac 37 29 19 5d 35 e1 0d 33 36
       2.7384153e-06 2.0522111e-05 8.236553e-07 2.6681157e-06
000060 f3 07 bc 35 e9 4c 3b 35 ec db 54 35 92 ca 03 37
       1.4009405e-06 6.977485e-07 7.929618e-07 7.855373e-06
000070 b6 a5 a1 36 f3 e8 99 36 ff 35 f3 36 ae a0 bd 35
       4.817465e-06 4.586874e-06 7.2482503e-06 1.4128361e-06
000080 c4 f1 a5 35 d1 7f 8c 37 b0 8e da 36 f7 1e 45 35
       1.2363821e-06 1.674882e-05 6.5135173e-06 7.343328e-07
000090 60 6f cc 36 ef 17 a8 36 26 8b 0a 34 82 49 72 35
       6.0926395e-06 5.0095764e-06 1.2902873e-07 9.0258993e-07
0000a0 b7 c9 85 35 03 1e d0 37 db 2a 4b 36 79 ec 29 34
       9.967979e-07 2.4809508e-05 3.0274302e-06 1.582538e-07
0000b0 b6 7e fb 34 a0 5f 12 36 d9 30 b9 34 40 0c 8d 37
       4.6844588e-07 2.1811356e-06 3.4494477e-07 1.6814214e-05
0000c0 16 e1 52 35 f3 22 11 35 2d 69 ca 35 8a 44 8f 36
       7.855864e-07 5.4067567e-07 1.5080783e-06 4.269711e-06
0000d0 26 32 f8 35 3a 1b 93 35 0b 80 a3 33 25 a0 19 34
       1.8492035e-06 1.0960277e-06 7.61357e-08 1.4307496e-07
0000e0 91 8e b9 37 36 a0 02 37 28 da c8 33 9e 4b aa 36
       2.2120106e-05 7.785906e-06 9.352908e-08 5.075198e-06
0000f0 6f 54 0d 36 8f 4c fe 36 7a 3a ec 36 a4 50 e3 37
       2.1059784e-06 7.5787025e-06 7.0401557e-06 2.709806e-05
000100 8a 07 21 36 79 25 05 35 c0 67 84 34 36 ee dc 37
       2.3995258e-06 4.960089e-07 2.4662404e-07 2.633697e-05
000110 8a 00 c4 35 80 c5 5c 34 f9 50 bb 36 0a ce ba 36
       1.4603295e-06 2.0560947e-07 5.5824607e-06 5.567218e-06
000120 b3 b7 ea 35 53 7b 21 37 4c 09 1d 34 99 2d 81 36
       1.7487822e-06 9.6250615e-06 1.4625147e-07 3.849808e-06
000130 ef 92 fd 35 f4 04 62 37 94 d7 ab 37 63 ee b7 35
       1.8892732e-06 1.3471803e-05 2.0485175e-05 1.3703942e-06
000140 07 18 09 38 5e 6f 84 34 f5 ad 04 36 70 10 98 36
       3.2685723e-05 2.4667946e-07 1.977079e-06 4.5318666e-06
000150 2a 61 23 37 3b 81 64 36 ec 68 01 35 99 f9 2e 37
       9.73818e-06 3.404987e-06 4.8208926e-07 1.0429322e-05
000160 a6 0e 83 32 f3 f6 5b 35 e9 19 5a 34 9c 47 bd 35
       1.5257068e-08 8.1943216e-07 2.0312258e-07 1.4102438e-06
000170 02 7a 2c 37 22 e6 a9 37 9e 5b 8f 36 59 a7 1c 36
       1.0280406e-05 2.0253534e-05 4.2723977e-06 2.334322e-06
000180 46 6c 95 32 2c 8d e5 37 46 53 c2 36 0f 7a f3 37
       1.739512e-08 2.7364666e-05 5.791345e-06 2.9024695e-05
000190 0f 09 06 37 06 83 34 35 85 8a 17 37 15 aa 4c 35
       7.9891315e-06 6.724589e-07 9.032553e-06 7.6243424e-07
0001a0 9d 0b 02 37 b1 bb a5 35 bc 14 87 35 fb f3 54 37
       7.751308e-06 1.2348083e-06 1.0064318e-06 1.2692991e-05
0001b0 f2 61 54 35 8d 85 42 34 64 e8 3b 35 40 e0 c5 36
       7.9118684e-07 1.8116243e-07 7.00011e-07 5.8971636e-06
0001c0 6f 11 51 35 61 c9 03 35 1a 50 01 34 56 3f f8 37
       7.7883936e-07 4.909435e-07 1.2043202e-07 2.9593397e-05
0001d0 30 23 5d 36 0a fa 28 35 f9 8f 49 34 f3 45 6f 35
       3.2952048e-06 6.294873e-07 1.877196e-07 8.913623e-07
0001e0 f6 d8 39 38 c1 a1 79 35 c0 35 03 36 33 b7 b6 36
       4.4309498e-05 9.299511e-07 1.9551808e-06 5.44535e-06
0001f0 aa 7e d4 35 d8 08 dc 34 a0 ca 71 35 d5 87 d4 36
       1.5832095e-06 4.0984628e-07 9.0074354e-07 6.3339053e-06
