MLAgentDevProject/results/MoveToGoal1/MoveToGoal.onnx (onnx, 75061 bytes, 7 tensors)

network_body._body_endoder.seq_layers.0.weight f4 [128, 6]
00000000: d773 8dbd eb4b e8be 0feb 243f 6a73 e93e
00000010: 0908 243e 3b9a 96bc 1e26 473e d438 723e
00000020: 9154 563e 8e7e 3fbe dc65 16bf a387 123f
00000030: b97d 223f 9fbc 063e f4da e6bd dcaa ea3d
00000040: e559 adbb 2401 79be 8680 d1be a7c3 043f
00000050: 460a cbbd 99fd b63c 6ada e63e 7558 713e
00000060: 6373 233f 6523 8abe 1a38 0e3d 65e7 5dbe
00000070: f99b a63d 7f8b 33be 8970 883e ad6d 84be
00000080: 2d92 2bbf 1212 8abe cfa2 04bf f792 e43e
00000090: 0bb1 ee3e d05c 1ebe fb53 15bd 8933 903f
000000a0: 98b1 60be 895c 093f fe2d 6e3e d86f c6be
000000b0: fcae 143f 5f8f a23e 7e49 1ebf d6c4 163c
000000c0: 8270 cebe ce87 923e 5bb5 d73e 7d6e 603e
000000d0: e00d 04bf 93a0 363f 7a39 f53e 1b96 bbbd
000000e0: 9507 a23e 9486 3e3e c1a3 74be f466 e5be
000000f0: 0985 41bf bf43 fcbe 608c 29be a417 0a3f
00000100: dddc 64bf 4181 15be 6b2c 77be 5de6 1bbe
00000110: 2a1d 6cbe a2f8 493f 49ce 0f3e b77b 29bf
00000120: cdd0 9e3d 9af3 a2be cc34 0fbf 51c2 a3be
00000130: 2579 e0be d348 5a3e b3d1 d4be 925e 7e3d
00000140: 4317 413e 6e4d e63e b62e e53d b43c 18be
00000150: 2c03 773e 86a2 55bf f31b 213f 31cf 99bc
00000160: 6fb6 4a3e 8f63 633d ceff 2a3f 653a 7cbe
00000170: 842d d8be 9d40 893d e4bc a6be 975d a9bd
00000180: b511 fabd 6dce 9c3e 97b3 94be 48b0 3fbf
00000190: 046d 1a3f 3abb 4f3e e721 443e 1ee1 a03c
000001a0: a5cb a4be e1b0 febd bd15 85bf 8ac3 953d
000001b0: 774e 0abe fc42 223e cd72 363e ab60 6d3e
000001c0: 26f7 62bc 64d3 f83d 4f05 a03d c78f 0cbf
000001d0: d384 debe f969 f7be a670 d3bc 9aba ddbe
000001e0: 5987 fcbc 061e 62be 313f abbe d89d 093e
000001f0: 8fcc 983e d781 ae3d 6978 793d 97b2 8f3e
00000200: 1753 4abf 7cf6 b7bd 8163 dfbe d964 80be
00000210: b524 c43e 9f08 9bbe d49d 45be 3bfd 093d
00000220: cc54 f6be 190d 233e 0c56 31bf e823 54bd
00000230: 59ce d83d 1c91 69bf a01d 0dbe e228 71be
00000240: b5c6 3fbf f010 3b3f 1cde 9cbe 7f3c 1ebf
00000250: b5e6 023e 309c 543f 1d07 17be 772c 2c3f
00000260: 2a12 f3bd 05c1 533f 1403 de3d f2f4 e63d
00000270: ef9c ab3d c4f7 cb3d 8642 4c3f 34b6 b1bd
00000280: f0a6 65bf 9d94 f9be f2b0 82be 820a 58bd
00000290: 3ad1 98bd 9a60 b6bc 0d03 82be 80e5 72be
000002a0: 89cb 8c3e c32b c2bd 282b 2b3e 9cb8 05bf
000002b0: 374a 6a3e db52 be3d 8709 223e 9f47 8d3e
000002c0: fb0e 1c3f 60df d8be 87b2 78be 7f7c a63e
000002d0: 5e6b 31bf 31ba 2fbe 9446 093e 5c99 ddbd
000002e0: 5642 99be 4d64 b3bd 6cf4 59be 81fe 203e
000002f0: 62fd bbbc ac06 5f3e f74e 4bbf d14a fcbe
00000300: 29b1 f3be 82dc d13e b756 07bf 8c9f 983c
00000310: fabf 2e3e fed5 8c3e 4d03 31be f9be 433e
00000320: a430 52be 6390 34bf acce 0fbf 742b f2be
00000330: e3d1 a0be 9e59 01bf beb9 943c 4ddf 4d3e
00000340: 90ac d83d 241a 683e 26f1 123e b570 7d3f
00000350: f9db a2be bc8e 09be edc7 673b 14ec f1be
00000360: 6088 0c3f 2b0a cdbd 0bb5 8a3e e2db 96bf
00000370: ca35 953d 876d d8be 4c41 4bbd 511b fdba
00000380: da3c bb3d 8e95 553d 8cc7 6abf 63f0 80bd
00000390: dc40 b6bd be80 31bf c76f 73bf 24b1 cdbd
000003a0: 8da1 983e 2905 b63d 8aeb 043e 88f2 0c3f
000003b0: 62be 8cbe 76bf 98bd 4159 643d 6071 273f
000003c0: 879c 14be 4786 39bd 811f fb3e 095f 30be
000003d0: 1bb3 2e3f c58f 273e 4739 01be 2415 aa3d
000003e0: ab0a 47bf 6c8a 2a3f f628 033f 5927 4e3e
000003f0: 9f7d febd 884b bf3e 1e85 adbe face ccbd
-0.0690686 -0.4537042 0.6442117 0.45595866 0.1601869 -0.01838409 0.19448134 0.2365449
0.20930697 -0.1870062 -0.58749175 0.57238215 0.6347309 0.1315789 -0.11272231 0.1145837
-0.0052902573 -0.24316841 -0.40918368 0.5186104 -0.09914069 0.022337722 0.45088512 0.235689
0.6384794 -0.2698013 0.03472147 -0.21670301 0.08135218 -0.17533682 0.26648358 -0.25864926
-0.6701992 -0.26966912 -0.51810926 0.44643375 0.46619448 -0.15465093 -0.036457043 1.1265727
-0.21942747 0.5365682 0.23259732 -0.38757205 0.58079505 0.31750008 -0.6183089 0.009202203
-0.40320212 0.28619236 0.4213055 0.21917148 -0.5158367 0.71338767 0.47895414 -0.0915949
0.3164641 0.18606025 -0.23890592 -0.4480511 -0.7559362 -0.49270436 -0.16557455 0.5394232
-0.8939951 -0.14600088 -0.24138038 -0.15224595 -0.23058 0.7889501 0.14043535 -0.662044
0.07754669 -0.31826478 -0.55939937 -0.3198419 -0.43842426 0.21316843 -0.41566238 0.062101908
0.1885653 0.4498095 0.1119055 -0.14866906 0.24122304 -0.83451116 0.6293327 -0.018775554
0.19796155 0.05551487 0.66796577 -0.24631651 -0.42222226 0.06701777 -0.32565987 -0.08269804
-0.122104086 0.3062624 -0.29043266 -0.7487836 0.60322595 0.20286265 0.19153558 0.019638594
-0.32186618 -0.12436081 -1.0397259 0.07312687 -0.13506494 0.15845865 0.1781723 0.23181407
-0.01385287 0.121496946 0.078135125 -0.54906887 -0.43460712 -0.48323038 -0.02581055 -0.43306428
-0.030826258 -0.22081766 -0.3344665 0.13439119 0.29843566 0.08520859 0.060905848 0.2806594
-0.79033035 -0.0898256 -0.43630603 -0.2507694 0.38309255 -0.30280015 -0.19298488 0.033688765
-0.4811157 0.15922965 -0.6927192 -0.051792055 0.10586233 -0.91237044 -0.13780832 -0.23550752
-0.7491258 0.7307272 -0.30638206 -0.6181106 0.1278332 0.83050823 -0.14748807 0.6725535
-0.11868699 0.827164 0.10840431 0.11277188 0.08379542 0.09959367 0.79789007 -0.086773306
-0.8970785 -0.48746195 -0.25525624 -0.052744396 -0.07461782 -0.02226286 -0.25392953 -0.2372036
0.27499035 -0.09481003 0.16715682 -0.52234817 0.22879873 0.09293147 0.15823947 0.27593705
0.6096036 -0.42357922 -0.24286853 0.32516858 -0.69304454 -0.1716087 0.1340583 -0.108202666
-0.29933423 -0.08759365 -0.21284646 0.15722086 -0.02294797 0.21779889 -0.79417366 -0.4927583
-0.475961 0.40988547 -0.5286669 0.018630765 0.17065421 0.27507013 -0.17286415 0.19115819
-0.20526367 -0.70532817 -0.5617473 -0.47298777 -0.3141013 -0.5052737 0.018154975 0.20104714
0.10579789 0.22666222 0.14349803 0.990001 -0.3180845 -0.13433355 0.0035366968 -0.47250426
0.5489559 -0.10011705 0.2709125 -1.1785853 0.0728565 -0.42271063 -0.04962282 -0.0019310509
0.09142466 0.05214458 -0.91710734 -0.0629585 -0.0889909 -0.6933707 -0.95092434 -0.100435525
0.29810753 0.08887703 0.12980476 0.55057573 -0.27489 -0.07458393 0.05574918 0.6540737
-0.14512835 -0.045294072 0.49047473 -0.17223753 0.68242043 0.16363437 -0.12619506 0.083048135
-0.77750653 0.66617465 0.51234376 0.20132197 -0.12426304 0.37362313 -0.33890623 -0.10000415

network_body._body_endoder.seq_layers.0.bias f4 [128]
00000000: 9ce6 8f3b b152 2c3c 1c85 7ebb 5206 bf3b
00000010: d158 1abb 86bd 123c 7b55 b8bb c9ee 8dbb
00000020: 27df 3e3a 393b 8abb 5ccb c33a 1eb9 1cbb
00000030: 7321 dd3b 1206 433b 4c39 47bb fab7 d2bb
00000040: fe89 7239 42fa 62ba ae1c 183b b5f9 88bb
00000050: 72e5 a63b 370f cbba 2aff 32bb 1535 a83a
00000060: a01d 173c 8582 113a d9af 8ebb 950c a53a
00000070: f441 afba 1605 4a3b e660 71bb 252f a8bb
00000080: 8528 493b 7d14 d13b 054f 95bb 8a01 7bbb
00000090: 50d1 bf3b 5db0 5b3b 6fb2 bbbb a5a6 da3b
000000a0: 9530 133b 3e10 513b adcd 0c3b b892 703b
000000b0: 5967 86bb f20d 283a 7788 18bb 7f72 9d3b
000000c0: 6bd0 4fbb 1b8d a73b bf29 0ebb 4106 a33b
000000d0: 3704 903b 7eb2 623b 6fc2 753b ffe4 c4b9
000000e0: 3d91 c73b 48df 72bb a4f8 00bc 461f b03b
000000f0: 711a ae3b b013 81bb 0530 f4bb bd00 723b
00000100: ed97 163c 271e 8b3b 79cf 4d3b 4e10 f1bb
00000110: eaab 5e3b 732d bf3b 21d6 a0bb 4cbe 1dbb
00000120: 07bf e13b 1573 9d3b 9446 763b cce4 4ebb
00000130: 319b 10bb bcbf daba ba11 193c 7f1b 353b
00000140: d848 2fbb 3d36 76bb 46d3 b6bb 132e d13a
00000150: bf2a b1bb fed3 f83b a6a5 d4bb 9195 7e3b
00000160: 4208 b4ba 2dd8 a93b ed80 3c3b ceba 7cbb
00000170: 1e6c 6abb d352 96bb e262 8b3b 96f5 dc3b
00000180: eac8 ddbb 3f4d fb3a b123 f83b 3789 75bb
00000190: cd37 0b39 6f50 81bb 377e 323b 0966 da3a
000001a0: 5d06 5d3b 934a 483a aa89 453b c04d cd3a
000001b0: b12c bcbb 8843 0c3c 1568 933b 08ea 86bb
000001c0: 6144 bf3b 2a92 4b3b ef0c e53b 57d8 843b
000001d0: ece5 62bb af9d 033b d80b d03b 6c07 d93b
000001e0: 04d5 5dbb 84b3 9f3b db4d 54bb e393 97bb
000001f0: ccc6 83bb 5d7b 8ebb 994b 873b 045d 92bb
0.0043915045 0.010517762 -0.0038836664 0.005829611 -0.0023551474 0.008956319 -0.0056254244 -0.004331444
0.0007281177 -0.0042184857 0.0014937925 -0.002391405 0.006748372 0.0029758257 -0.0030399142 -0.006430623
0.00023130325 -0.0008658507 0.0023210454 -0.004180158 0.00509327 -0.0015492205 -0.0027312734 0.0012833202
0.009223372 0.000555076 -0.004354459 0.0012592251 -0.0013371096 0.0030825785 -0.0036831438 -0.005132573
0.0030694318 0.006380616 -0.004556539 -0.0038300478 0.0058538094 0.0033521869 -0.005728058 0.0066726976
0.0022459377 0.003190055 0.0021484897 0.0036708545 -0.0041016755 0.00064107694 -0.0023274699 0.0048049088
-0.003170992 0.0051132566 -0.0021692363 0.0049751108 0.0043950337 0.0034591253 0.0037499925 -0.0003755465
0.006090312 -0.0037059356 -0.007871781 0.005374822 0.0053132107 -0.0039391145 -0.0074520134 0.003692671
0.009191495 0.004245538 0.003140418 -0.00735668 0.003397698 0.0058342754 -0.0049083387 -0.0024069725
0.0068892273 0.0048049786 0.003757869 -0.003156948 -0.0022065158 -0.0016689221 0.009342605 0.0027634797
-0.00267463 -0.003756895 -0.005579385 0.0015959166 -0.005406707 0.007593631 -0.0064894734 0.0038846473
-0.0013735371 0.005183241 0.002876337 -0.0038563493 -0.003577001 -0.00458751 0.004253731 0.0067431433
-0.0067683356 0.0019172801 0.007572614 -0.003746582 0.0001327686 -0.003946356 0.0027235874 0.0016662489
0.0033725717 0.0007640507 0.0030141869 0.001566343 -0.0057426323 0.008561023 0.0044984915 -0.004117254
0.005837009 0.0031062462 0.006990067 0.00405411 -0.0034621907 0.0020083 0.006349068 0.006623199
-0.003384889 0.004873695 -0.0032395038 -0.004625784 -0.004021501 -0.004348202 0.004128885 -0.0044666547

network_body._body_endoder.seq_layers.2.weight f4 [128, 128]
00000000: 645f 38bd 7e0b d83c b1fb 0a3d ef58 d33d
00000010: 472c 57bd 755b d8bd 4414 843d b5d1 bc3d
00000020: f996 3d3e 3be7 943d 2697 d9bd 2514 eabc
00000030: 26ba 6bbd 3301 49bd 854f 0abc ed83 ffbc
00000040: 17b0 14be dabd dcbd 22f5 f43d 8abb c7bd
00000050: d49b 6cbb 94ee 11bd dcdf 003e d0f6 edbd
00000060: a4c9 84bd 8648 d7bc 09d3 a73c 36dd febc
00000070: e639 ee3c 5146 4b3d fd5d d63d 733d b5bb
00000080: 4e6b 1dbd 45d8 d6bd 85c8 f73c 7a3f 74bc
00000090: cb0d fabc 9112 ed3c 032a 29bd 3057 613e
000000a0: 265a ecbd 2ba1 8d3c 62c7 36bc 79f8 243d
000000b0: 3470 2c3d 1b60 04be b691 14bc e841 003d
000000c0: ebf1 cdbd fa66 d6bc 6080 77bd 5f33 b2bd
000000d0: ea62 d83d aaec 20bd 1f49 eabb 0c7c f53d
000000e0: 63b7 1d3e 4ed4 1fbb 8f83 fe3d 4208 ccbd
000000f0: 62e6 6abc f828 0d3d c52d 693c 5b0c ebbc
00000100: fb5e 663d bee6 8a3c 8fac 9c3d d31b 88bd
00000110: 45cd 70bd 9bf5 51bc 1ccc e73d 1357 a83d
00000120: 5217 5fbe 251d 333e 45fd c93d 8914 1e3d
00000130: 555b 12be 312e 4e3c 6ef9 cbbd 020f 193e
00000140: 5cef 05be 053d 2fbd 4b77 e5bd 58d3 1c3d
00000150: 35de cdbd 7608 b0bd cf6f 2e3d 2709 833c
00000160: e04b 0e3e 6d31 81bd d5d1 cc3d d8f2 6c3c
00000170: ad81 7bbd f484 22be ebc8 dcbc 20ba 82bb
00000180: d925 9dbd 2a9b 1dbe a6a1 38bd c1b7 99bd
00000190: 6cc1 7cbd e633 81bd dff1 14bd 4d8c e33c
000001a0: a961 2bbc 1533 33bc 10c8 033e 227f 2e3c
000001b0: 3007 04bd 5a61 ecbd b895 fabd a8e2 3cbe
000001c0: 5d39 89bd f6cc 023c 4071 1f3c 9bb4 a5bd
000001d0: 835e 7f3e c832 9bbc f4d7 0fbd a325 5e3d
000001e0: 709a 053d e888 15be 914b c23c 474d a1bd
000001f0: 2c1b e0bd e0c3 d33c 9074 b23d 24dd d83d
00000200: 7a1c cb3c f9a5 01be d255 e7bd 020c 203d
00000210: f992 f3bc 4d30 e7bc f840 36bd d51e f83d
00000220: 8103 32be 7ba0 76bd ab71 33bd db52 5fbc
00000230: f161 1abe 5c46 9d3d d1c3 083e d84e 103d
00000240: a98b 62bd 4efb ae3d cde3 16bc d7cd 813b
00000250: 5cb8 f1bd b9dc 3bbe e381 1e3d dca1 0fbb
00000260: 5342 c03d b6c2 9fbd 0124 3a3d 962a e8ba
00000270: 1a2a 753d 945b 193e 5d7b 81bd 036d 74bc
00000280: 0845 193d 8929 3b3c 141e 80bc 087b d8bc
00000290: 2dfc b23c 0308 d1bd 7cb9 a3bd 031e bb3d
000002a0: e908 70bb 9127 4ebe 4765 8d3d 818d fdba
000002b0: 9fbb 323d a78a 813e 07c5 91bd 0b25 babd
000002c0: f474 25be 726b d23d 1e6e 03be 409e 80bd
000002d0: 77df 81bc d0b2 9f3d f365 2a3d 89cb 28bc
000002e0: a886 0f3e 6d16 99bd cd09 83bd 6a3d 4a3d
000002f0: 5749 313d 27f2 51bd 306e 163d 7db8 0ebe
00000300: ecea 1ebe 9e71 363d fec4 c33c 258e 7bbd
00000310: 9f22 88bb 6658 1e3d e341 0f3d 0563 bbbd
00000320: ff7e 17bd 489b 2dbd d944 bdbd 374d fe3d
00000330: b442 843b 8702 fabd 2e08 bdbd cbeb 57bd
00000340: 15b1 93bd ac83 70bd 8e7f a9bd 71a9 323b
00000350: 111b a0bd 41f9 bdbd d685 983d e648 e3bc
00000360: f120 80bd 91fd 61bd e04d 003e 4fcb bb3c
00000370: 8a68 0e3d be1b 5a3d 2aee 47bd 658c 99bd
00000380: cb45 4f3d b02a 163c fd91 b2bd 1af1 98bc
00000390: 1749 1cbd c311 363d bee4 d03c 7c57 bcbc
000003a0: 6cad ca3d b0df 55bc 527a ef3c c4d3 9d3d
000003b0: 45b5 65be cd3a 9f3d 0a7c 3f3d 292f a93d
000003c0: 2b66 4b3d 6b40 9ebd 4e26 11bd 87ac 5d3d
000003d0: c84a 0e3d 4d2b 6abd 598b b43d d145 d33d
000003e0: 1f20 e93b 2f56 583b 901a 71bd d430 bb3d
000003f0: b3ee f1bd f79f 8fbd 0d25 bfbd 0a2b 6bbd
-0.045012847 0.026372667 0.033931438 0.10319697 -0.05253246 -0.10564319 0.06449178 0.09219686
0.18514623 0.07270666 -0.106245324 -0.028574059 -0.05755057 -0.04907341 -0.0084418105 -0.031190837
-0.14520298 -0.10778399 0.11960818 -0.09752567 -0.0036103623 -0.035627916 0.12585396 -0.116193414
-0.064837724 -0.026279699 0.020486372 -0.031111341 0.029080343 0.049627606 0.104671456 -0.005531007
-0.03843241 -0.10490469 0.030246982 -0.014907712 -0.030524155 0.028939517 -0.04129983 0.22005916
-0.11540632 0.017288765 -0.011155935 0.040276024 0.042099193 -0.12927286 -0.009067943 0.031312853
-0.10055908 -0.02617215 -0.060425162 -0.087012045 0.10565741 -0.0392882 -0.00714983 0.11986551
0.15401988 -0.0024388018 0.124274366 -0.099625126 -0.014337154 0.0344629 0.014232104 -0.028692415
0.056242924 0.01695573 0.076501004 -0.06645932 -0.05878951 -0.012814905 0.11318228 0.08219733
-0.2178624 0.17491587 0.098627605 0.038593803 -0.14292653 0.012584255 -0.09959684 0.14947131
-0.1307959 -0.042782802 -0.11204394 0.03828749 -0.10052148 -0.08595364 0.042587098 0.015995575
0.13896132 -0.06308255 0.1000096 0.014462195 -0.061402965 -0.1587103 -0.026951274 -0.003989473
-0.076732345 -0.15391222 -0.045076035 -0.075057514 -0.0617079 -0.06308727 -0.03636348 0.027776862
-0.010460296 -0.010937472 0.12869287 0.010650428 -0.032233417 -0.11542006 -0.12235588 -0.18445837
-0.06700394 0.007983437 0.009731591 -0.080910884 0.24938397 -0.018945113 -0.03511806 0.054235112
0.032617986 -0.14603007 0.023717673 -0.078760676 -0.109426826 0.025850236 0.08713639 0.10589054
0.024793852 -0.1266097 -0.11295666 0.03907395 -0.029733168 -0.028221274 -0.044495553 0.12115256
-0.17384149 -0.06021164 -0.043809574 -0.013630594 -0.15076424 0.076794356 0.13355948 0.03523144
-0.05530897 0.08544026 -0.009209585 0.0039613056 -0.11802742 -0.18345918 0.03869809 -0.0021916544
0.0938765 -0.0780081 0.045444492 -0.0017712887 0.059854604 0.1497634 -0.06322358 -0.014918569
0.03741935 0.011423477 -0.015639342 -0.026425853 0.021848762 -0.10206606 -0.07994363 0.09136584
-0.0036626405 -0.20132281 0.06904083 -0.001934454 0.04363596 0.25301096 -0.07117658 -0.09089097
-0.16157895 0.102744 -0.12834975 -0.06280184 -0.015853627 0.07797778 0.041601133 -0.010302433
0.14016211 -0.074749805 -0.06398354 0.049374975 0.043282833 -0.051256325 0.036726177 -0.13937564
-0.15519303 0.044541948 0.023897644 -0.061414856 -0.004154518 0.038658522 0.034974944 -0.09149746
-0.036986347 -0.042384416 -0.09241647 0.12417071 0.004036272 -0.12207513 -0.09230076 -0.052715104
-0.0721151 -0.058719322 -0.08276282 0.002726164 -0.078176625 -0.09276057 0.07447402 -0.027744722
-0.06256283 -0.05517346 0.12529707 0.022924094 0.034767665 0.053249113 -0.048811115 -0.07497481
0.05060367 0.009165451 -0.08719251 -0.018669654 -0.03815564 0.044450533 0.025499698 -0.022990935
0.09896359 -0.01305382 0.029233132 0.07706407 -0.2243243 0.07774887 0.046749152 0.08260948
0.04965798 -0.077271305 -0.03543692 0.054119613 0.034739286 -0.0571702 0.08815641 0.10316051
0.007114425 0.0033010354 -0.058863223 0.091401726 -0.118131064 -0.07012933 -0.09333239 -0.057414092

network_body._body_endoder.seq_layers.2.bias f4 [128]
00000000: 44b8 653b b2d5 aebb efcd a13b 4ad6 a4bb
00000010: 3c13 803a fa3b 123b 99b0 b1bb 57cb 643b
00000020: 29ef b0bb ba01 c13b f9e5 b1bb b335 c6bb
00000030: 138d 8e3b 526b a7b9 b36a 82bb d464 903b
00000040: a835 38bb 0102 20bc d5b9 94bb 21f3 743b
00000050: 68a9 8239 7646 043b 0150 e0ba 04f1 9d3b
00000060: 104e 6439 bbb3 45ba 0af2 c63a 53db 0dbb
00000070: 0bf0 f8ba dfa0 8abb a36f a23b ce6e 583b
00000080: 765c 36b9 f682 b6bb b560 6cbb 61fc 4bb8
00000090: 3a7a 0dbb 2276 afbb f08c b6bb c7af 39bb
000000a0: 7853 d13a 136a 483b 83c1 d83a 6157 8d3b
000000b0: 4074 9e39 8c0c 2bba 98d1 133b c6bd 91bb
000000c0: b1d0 843a e5f3 51ba 080d 0a3b 625c 0c3b
000000d0: e968 a6bb c7f0 9fbb cd29 04bb 0228 863b
000000e0: f87a 733b 7602 623b 1935 e63b f7e3 b1bb
000000f0: 0ed1 bcba e4f7 b7bb b650 143b 0576 ecba
00000100: 96cd 2d3b ebf7 693b 3fb1 96bb 2feb 5c3b
00000110: 174a 463b 3039 63bb 6661 743b 99b1 abbb
00000120: 66cd 833b a24b 793b 83d7 563b 9056 833b
00000130: 8cb3 54bb c8e9 79b9 02f1 91bb 5fc9 843b
00000140: bbf0 703a 220f 87bb c09d a93b d6ec ad3a
00000150: 60c9 3bba 10d8 0538 9ef8 393b a077 7abb
00000160: 2f62 25bb e861 aabb d6d0 823b 2096 ff3a
00000170: b13b 693b 3b31 7d3b 63c7 6e3b 233d 93bb
00000180: 4bc4 183b bd75 82bb 2924 c0bb 9a82 4abb
00000190: f4ca e7bb 6c62 ffba 66c3 38bb 5491 8c3b
000001a0: 12f3 50ba 0295 a2bb ae90 033b 4af3 37b9
000001b0: 3a40 62bb 1026 5d3b 8182 97bb d0e6 273b
000001c0: e479 5639 6a41 2e3b 6867 6d3b f294 aabb
000001d0: f9f2 883b 4f9b f2ba 6fe3 89bb 242e 273b
000001e0: 9553 9ebb 8d26 b4bb 197c 70bb 38ce 6d3b
000001f0: 5b3a 0b3b c1b0 a4bb a95d 83bb 414d 0d3b
0.0035052458 -0.005335533 0.0049378793 -0.005030428 0.0009771357 0.002231358 -0.0054226634 0.003491124
-0.005399604 0.0058900984 -0.005429026 -0.006048882 0.0043503135 -0.00031932682 -0.0039800047 0.004406551
-0.0028108153 -0.009766103 -0.0045387545 0.0037376361 0.0002492175 0.00201836 -0.0017113687 0.004819991
0.00021772855 -0.00075417355 0.0015178334 -0.002164562 -0.0018992437 -0.004230603 0.004957156 0.003302503
-0.00017391317 -0.005569811 -0.0036068384 -4.8634018e-05 -0.0021587745 -0.0053546587 -0.0055710003 -0.0028333531
0.001597031 0.0030580803 0.0016537163 0.004313395 0.0003022272 -0.0006525002 0.0022555348 -0.0044476716
0.0010132996 -0.00080090604 0.0021064896 0.002141737 -0.0050784242 -0.004880998 -0.0020166517 0.004094125
0.0037152153 0.003448633 0.0070253727 -0.005428787 -0.0014405565 -0.0056142677 0.0022631115 -0.0018040544
0.0026520244 0.003570075 -0.004598766 0.0033709516 0.0030256563 -0.0034671538 0.00372895 -0.005239677
0.004022288 0.0038039465 0.0032782264 0.004008122 -0.003245565 -0.00023833581 -0.004453779 0.0040523256
0.0009191145 -0.004121677 0.005176276 0.0013269435 -0.0007163491 3.1910895e-05 0.0028376947 -0.0038218275
-0.0025235524 -0.0051996596 0.0039921803 0.0019499697 0.0035588557 0.003863408 0.0036434762 -0.004493372
0.002331036 -0.0039813207 -0.0058636856 -0.0030900599 -0.0070737544 -0.0019484288 -0.0028192638 0.0042897854
-0.00079707906 -0.004961611 0.002007525 -0.00017542872 -0.0034523145 0.003374461 -0.0046237116 0.0025619753
0.00020454038 0.0026589283 0.0036224965 -0.005205744 0.004179355 -0.001850942 -0.0042080204 0.002550968
-0.004831741 -0.0054977597 -0.0036695062 0.0036286246 0.00212445 -0.0050259535 -0.004008968 0.002156094

action_model._continuous_distribution.log_sigma f4 [1, 2]
00000000: 4bfc c1ba 7821 14bb
-0.0014799921 -0.0022602957

action_model._continuous_distribution.mu.weight f4 [2, 128]
00000000: a344 563c 1060 9bbc 40c6 533d 5c25 90bc
00000010: a697 3cbb 3b07 223c 8431 9cbc 09da fd3c
00000020: bbd1 1bbd 2650 f238 3c90 d4bc 73aa e3bc
00000030: 530b 843c 90f3 0fbc dadb ddbc 0a97 2fbb
00000040: a3ae 96bc 6eeb d93a 8ee1 c6bb c68c cb3c
00000050: 768e 6abc ec2d c83b b183 25bc 163a 843c
00000060: 522f df3b f4a7 d33b 3467 4a3c c469 ebba
00000070: be2a 66bb da43 9ebc ce61 f33c 19a1 b03b
00000080: 7c30 2dbb 8a18 99bb 846f 3dbc 55f8 c6ba
00000090: 48a0 4abc bf8b c0bc a7cb 58bc e8a9 5ebc
000000a0: 45a9 9ebc 442f eab8 c463 d83b c2d9 093b
000000b0: 45cd 823b 0a9b 0a3c a37f d2ba ea46 79bc
000000c0: d54e 8ebb 2e6d bb3a 7963 8b3c 6d75 103c
000000d0: 6861 04bc 91b1 68bc 1f37 07bc b756 093c
000000e0: 7dd0 903c 867f e83c c20b 303c 7f7d b0bc
000000f0: 4039 82bc e7ae 9cbb 0ace 9fbb a560 34bc
00000100: d5a8 593c 43be 4f3c 1f4c c1bc cdf7 d13c
00000110: 57d9 963c 4285 8abc 29a9 ab3c cd23 0fbc
00000120: 5a0e 183d b15e 083c 3180 353c f925 c73c
00000130: 58f9 05bd e7ce fb39 e715 c6bc e670 9f3c
00000140: 2083 723c de9e e2bc 0c93 0f3c c801 0f3c
00000150: 64ad 32ba dcbe 4cbc 59c3 013c 3e31 42bc
00000160: e25b 2bbc fbbb aebc 7c17 2f3a d94d bdba
00000170: c2cf ee3b 89cb ba3c 08b2 0a3d 28ef 9bbc
00000180: c372 8c39 b959 e0bc b110 1dbd 28e5 f5bb
00000190: cbef 20bd dc52 6bbc 3bde a5bc 1f5a 3a3d
000001a0: 18a4 97bc fcf1 d1bb eaa3 da3b 4956 0139
000001b0: d6ad 44bb 7b6f bf3c 33a3 62bc a7cc a43c
000001c0: 584f f5b9 2140 683c 7a43 163d df0f 3bbc
000001d0: 1704 413c a473 043a 4525 1bbd 57ad 533c
000001e0: a1db 12bc ba7e f9bb 2819 ffbc 2543 923c
000001f0: 9318 1a3c 1c98 e3bb 9a53 46bc de34 0c3c
00000200: d901 4bbb 3396 1dbb 4223 063c 11d3 3d3c
00000210: 3a07 64bc d41b 3abd 1a33 02bc 2b75 bfbc
00000220: 8d98 dfbc 6199 583c cfd3 7dbb 4ad8 87bc
00000230: 8a8f 51bd ed7e 2dbc 8188 bdbc 3217 35ba
00000240: d689 8ebc 2c4e 30bb 9686 f23b ec05 2fbc
00000250: 6863 163c aad0 76bb f67c 69bc 1ef0 0cbb
00000260: 7a96 d8bb 34c9 8c3c 7f8f a9bc e5aa 9cbc
00000270: 0877 e23c e4b6 9c39 123e c43c 0bea 1d3d
00000280: 4023 a13c 654b edbb 1005 3c3c d0d7 f1bc
00000290: 7bbb 193d 4a52 d8bb 6703 3bbc 3493 b9bc
000002a0: ee64 e73c 1b6b fa3c aa0e 583c 5bcb 62bc
000002b0: 0bb4 073d 205a 883c f6c7 8ebc fe84 643c
000002c0: feda 5e3b 447c 3a3c de8f 203d 76bd c4bc
000002d0: 9879 043c d116 f43b 4588 e83c 39b2 883c
000002e0: 0481 1c3c 5ff7 9fbc 3b36 273c 0c22 24bc
000002f0: 4e27 4d3c 76e9 c93b bdc3 573d 2b47 90bc
00000300: 13c4 9bbc 2171 65bb 3751 3a3b 2361 ccbc
00000310: 09c8 833c d8ec 02bb d7e9 ce3b 2bd8 09bc
00000320: e596 b73c cfc8 d53c 297e 57ba f095 b5bb
00000330: 3633 ca3c d241 b53c d04b 95b5 b65f 18bd
00000340: 8634 a23c cc8b dc3b c395 933c f517 1cbc
00000350: 36a7 9bbc 72d9 d83c 1b98 ab3b faed ee3b
00000360: ee13 8c3c 6105 afbc c280 6f3c 5aba 123c
00000370: 2215 863c 0239 4fbb c8ba 70bc 865f 38bb
00000380: bd2f 7f3c 7507 9c3b 2d64 b3bc 1eda ec3c
00000390: 9891 d2b9 b295 9b3c cb2a c93c ba32 273c
000003a0: 5155 d43c 5440 013c f3d8 053a 5c03 99bc
000003b0: 7aea 403c a88b 08bb 191f 223c a9a5 c2bc
000003c0: ad39 16ba e923 f13c 9b00 67bc e219 7d3c
000003d0: 0f72 893c 2e9e bf3b 0fa9 3dbb 8a18 a83c
000003e0: cea2 023c 0f02 5cbc 3b1a 5a3c 0307 baba
000003f0: 9a4f 27bc b087 0f3c fba8 b3bb 4d95 e43b
0.013077888 -0.018966705 0.051702738 -0.01759594 -0.0028776913 0.009889419 -0.01906658 0.030987756
-0.03804181 0.00011554388 -0.025947683 -0.027791237 0.016118681 -0.008786097 -0.027082372 -0.0026792907
-0.01839382 0.001662595 -0.0060693687 0.0248474 -0.014316192 0.00610899 -0.010102198 0.016140979
0.006811061 0.0064592306 0.012353707 -0.0017960598 -0.0035120691 -0.019319464 0.029709723 0.005390298
-0.0026426604 -0.0046721147 -0.011562232 -0.001518021 -0.012367316 -0.023504136 -0.013232148 -0.0135903135
-0.019367823 -0.000111667934 0.00660369 0.0021034335 0.003991755 0.008459816 -0.0016059767 -0.015214661
-0.0043428936 0.0014299506 0.017015206 0.008817059 -0.008079864 -0.014202491 -0.008252888 0.008382491
0.01767754 0.02838112 0.010744991 -0.021544216 -0.01589644 -0.004781592 -0.0048768567 -0.01100937
0.013284882 0.012679639 -0.023595868 0.025630856 0.018414183 -0.016909245 0.020954685 -0.008736563
0.03712306 0.008323357 0.0110779265 0.024310099 -0.032708496 0.00048028605 -0.024180366 0.019463014
0.01480177 -0.027663644 0.008763086 0.008728452 -0.00068159983 -0.012496676 0.00792011 -0.011852561
-0.010458918 -0.02132987 0.00066792197 -0.0014442756 0.0072879503 0.022802131 0.03386119 -0.019034937
0.00026788385 -0.027386533 -0.038345996 -0.007504124 -0.039291184 -0.014363017 -0.02024757 0.045496102
-0.018510863 -0.0064070206 0.006672372 0.00012334542 -0.003001084 0.023368588 -0.013832855 0.020117117
-0.00046789157 0.014175446 0.036685444 -0.011417358 0.01178076 0.0005052632 -0.03787734 0.012919745
-0.008963496 -0.007613984 -0.031139925 0.017854283 0.009405273 -0.006945623 -0.012104893 0.008557526
-0.0030976443 -0.0024045825 0.008187117 0.011585967 -0.013917739 -0.045436695 -0.007946754 -0.0233713
-0.027294422 0.013220162 -0.0038730984 -0.016582627 -0.05116228 -0.0105893435 -0.02313638 -0.00069080584
-0.01739971 -0.0026902063 0.007401298 -0.010682564 0.009178974 -0.0037660995 -0.014250984 -0.0021505426
-0.006609735 0.017185785 -0.020698307 -0.019124458 0.02764465 0.00029890903 0.023955379 0.03855328
0.019670129 -0.0072416537 0.011475816 -0.029521853 0.03753231 -0.0066016065 -0.011414385 -0.0226532
0.02824637 0.03056865 0.01318709 -0.013842429 0.033130687 0.016644537 -0.017429333 0.013947723
0.0034005041 0.011382166 0.039199702 -0.024016123 0.008085631 0.007449009 0.02838529 0.016686546
0.009552244 -0.019527135 0.010205801 -0.010017883 0.012521578 0.006161864 0.052676905 -0.01761206
-0.019014394 -0.0035010057 0.0028429755 -0.024948662 0.016086595 -0.0019977596 0.006314497 -0.008413355
0.02241082 0.02609673 -0.00082203984 -0.0055415556 0.024682622 0.022126112 -1.1123429e-06 -0.037200652
0.019800436 0.0067305323 0.018015748 -0.009527196 -0.01900063 0.026470874 0.0052366382 0.0072915526
0.017099347 -0.02136487 0.014618101 0.0089555625 0.016367499 -0.0031619673 -0.01469297 -0.0028133108
0.015575347 0.004761631 -0.021898353 0.0289126 -0.00040162797 0.018992279 0.024556538 0.010204965
0.025919588 0.007888872 0.00051058753 -0.01867836 0.011774654 -0.0020835195 0.00989511 -0.023760634
-0.000573064 0.029436069 -0.014099265 0.0154480655 0.01677802 0.005847714 -0.0028939878 0.020519514
0.007973386 -0.013428225 0.013311918 -0.0014192763 -0.01021185 0.008760378 -0.0054827905 0.006975806

action_model._continuous_distribution.mu.bias f4 [2]
00000000: 4ffd 8c3b 58c8 b1b7
0.0043026577 -2.1193337e-05
