MLAgentDevProject/results/TestParameters/MoveToGoal.onnx (onnx, 75061 bytes, 7 tensors)

network_body._body_endoder.seq_layers.0.weight f4 [128, 6]
00000000: 6b5d 3bbe 478e c3be c47e 3b3f bad8 dabc
00000010: e863 09bf e412 8c3d 4ded e23b 997b 20bf
00000020: 6867 f4bd 613c de3d 4d85 66be 3031 e6bd
00000030: 4238 f83d b662 eabe d246 0ebb 33ec 88be
00000040: a2a9 1ebf cfe5 2bbd 0362 a83d 623d bcbe
00000050: f030 d0be b8ee 4fbe 80f9 873f 6457 293e
00000060: 2412 c03e f1e5 c8bd c046 93bf 5355 b9be
00000070: 4e96 643e 12ed 283f 793d f6be b244 cebe
00000080: af3d 22be a821 9bbe b568 b1be e4d1 153f
00000090: f950 dc3e e7e4 e83d 8584 d53e 87dd b8bd
000000a0: b3a8 c2bd bb86 6f3d 0e1e 95be dcc6 ecbc
000000b0: cf1f 623e 78b0 473e 07e4 fb3c 1ccc dbbe
000000c0: d0bf 05bf 68fe 07bf 865c 363f df9e 173c
000000d0: a43f 083f 4b6e eabe 1af6 a63d 589d 92be
000000e0: ad23 93bd 4a48 bbbe 4317 b23d 9214 1e3e
000000f0: eb59 103d 4a7f cebc d33c f1be 799e 24be
00000100: 9aaf 983e 62ed b13e 9157 173f de42 703d
00000110: 1565 ccbd c10e dd3e 9b13 71be 6f66 cb3e
00000120: 4341 563e a6cf 7a3e 7320 90bd ab2a 32be
00000130: 10fe 793e 50aa 4e3e 27dd 86bc 88f5 16be
00000140: 6ed7 49bf e336 ffbd 6031 c13e 2467 e83e
00000150: 37d2 2c3e ff87 153f 47d9 bc3e 9d69 6fbe
00000160: dd09 333f a939 d1be ced6 09bf 78fa 173f
00000170: 8578 9c3e 4eac 3a3f b5a2 edbd 87b5 b73e
00000180: e495 043f a4c5 05bf e270 fdbe 2f15 45be
00000190: 1247 0ebd d8de 2f3f 400b 90bd 4f87 403e
000001a0: d094 49bd d038 1abf e2f6 8cbe d6a5 883d
000001b0: b5b3 c7be dacd 9bbe b91c 0d3e bf13 6abf
000001c0: c5b8 f9be 80ce 243f 27dc 78be f0ea 8ebe
000001d0: edce 12be 187c a53f 2331 59be 1403 12bf
000001e0: bc92 d9bd 4ae7 133f bc6e 25be 0a15 643e
000001f0: b287 943e 84b7 c5bc 634f ac3e 6cf1 e23d
00000200: 5b5d 063f 163f 563f 844e 2e3e 0130 0f3e
00000210: a0f4 d63e d940 e23e 77d6 dcbe 58be 503e
00000220: 0f83 73bd a6f1 933d a7c9 c1be 4716 c63d
00000230: 1312 83bd cf5b be3d 3246 32be bdd6 37be
00000240: 7b0b f33c 2653 95bf 47c9 28bf 310d 84be
00000250: 5d41 1cbf 3d1a 04bf 2ff4 6a3f bcb3 ea3e
00000260: b28e 22bf a8b9 253e 54e2 d53e 078d 2ebe
00000270: 16b8 a8be 15fc 213e b3a8 e3bd 236a 6f3d
00000280: f235 d63c eab9 1a3f 7bb3 cfbe e7ad 0a3f
00000290: 55d3 0cbf ebff 8f3f 2595 8ebd 220d ccbb
000002a0: 510a ba3e 1600 373e c894 143e 3a24 e9bd
000002b0: a006 693d afb6 36bd a6d7 56bd 545c 0dbf
000002c0: 8cef 843e eaa2 e6bd f8ca 3b3e df16 26bd
000002d0: e97c bc3e 4eb6 383e a3a2 b0bd fc9b d23e
000002e0: 17fc a0bd b2f8 cb3e 908e 0ebf 615b 223e
000002f0: 5128 ce3d abb3 233e 0b58 26be dd84 f13e
00000300: 086a 443e 2f3b 5fbd a5a9 c73d 1ff0 a13c
00000310: b21a bf3e d878 403e 1a3f 683e ca2e c1be
00000320: 9e9f b53e 2f67 953d 0cfe 30be 904b 88be
00000330: 54a0 d93e 4c2d 08bf acb3 91bc b943 c23e
00000340: 35f5 613f e549 223f c754 55bf ce7a dbbe
00000350: a985 8dbe ee52 f9bd 278b 23bf 7317 9c3f
00000360: e937 173f f3fa 9c3e e054 653f 6e6d a73d
00000370: be7d 363e d581 1ebe 7a2f 13bf c1fd cf3e
00000380: f5d3 893e d7e0 813e 7833 b5bd ef75 41be
00000390: 04b1 b1be 38b0 9ebe 9b85 03be bf39 92be
000003a0: c276 b0be 7817 8cbe 468c a8be 9b6d c03e
000003b0: f144 7e3e 074a 9f3d ea0f 813c 86c9 21bf
000003c0: 9a74 f93e 0271 ad3e 6f1c 1dbd 1176 4dbe
000003d0: 73a4 6a3e 0a78 4fbd db19 e43e 869a 4a3e
000003e0: b888 e4bd 8573 223f f592 c13d f014 c43e
000003f0: e8b1 473e db05 59bd 7a50 afbc becb 9abe
-0.18297355 -0.38194486 0.73240304 -0.026714671 -0.5366807 0.068395406 0.006925261 -0.62688595
-0.11933786 0.1085136 -0.22511788 -0.112398505 0.12120105 -0.45778435 -0.0021709693 -0.26742706
-0.6197759 -0.04196721 0.08221819 -0.3676558 -0.40662336 -0.20305908 1.0623016 0.16537243
0.3751384 -0.09809483 -1.1505966 -0.3619791 0.22322962 0.6598674 -0.48093775 -0.40286785
-0.15843843 -0.30299115 -0.34650198 0.5852339 0.43030527 0.11371785 0.41702667 -0.09026628
-0.09504833 0.0584781 -0.29124492 -0.028903417 0.22082447 0.19500911 0.03074838 -0.4292916
-0.5224581 -0.5312257 0.7123493 0.009254186 0.5322211 -0.45787272 0.08152409 -0.2863567
-0.07184539 -0.3657859 0.08695843 0.15437534 0.035242002 -0.02520718 -0.47116718 -0.16076078
0.29821473 0.3475142 0.5911799 0.05865752 -0.09980217 0.4317532 -0.23542635 0.39726588
0.20923333 0.24493274 -0.07037439 -0.17399089 0.24413323 0.20182157 -0.016462876 -0.147421
-0.78844345 -0.12461641 0.37732983 0.4539119 0.16877066 0.5841064 0.3688452 -0.23380132
0.69936925 -0.40864304 -0.5384339 0.5936656 0.305607 0.72919166 -0.116032995 0.35880682
0.51791215 -0.522547 -0.49500185 -0.19246362 -0.034735747 0.6869941 -0.07033396 0.18801616
-0.049214184 -0.6024294 -0.27532107 0.06672256 -0.39004293 -0.3043049 0.13780488 -0.9143638
-0.4877378 0.64377594 -0.24302731 -0.27913618 -0.14336748 1.2928495 -0.2121015 -0.57035947
-0.106236905 0.57774794 -0.16155523 0.22273651 0.29009777 -0.024135359 0.33654317 0.11081204
0.524862 0.8369001 0.17022139 0.13983156 0.4198351 0.441901 -0.43132374 0.2038511
-0.05945116 0.07223825 -0.3784916 0.09672218 -0.06399932 0.09294855 -0.1740959 -0.1795301
0.02966856 -1.1666 -0.65932125 -0.25791314 -0.61037236 -0.51602536 0.91778845 0.4584025
-0.63498986 0.16184103 0.41774237 -0.17045985 -0.32952946 0.15818818 -0.11116161 0.05845083
0.02614877 0.6043993 -0.4056662 0.54171604 -0.5500997 1.1249975 -0.06962041 -0.0062271515
0.36335996 0.17871127 0.1450988 -0.11383863 0.056891084 -0.044607814 -0.052451752 -0.55219007
0.2596401 -0.11261542 0.18339145 -0.040549155 0.3681405 0.18038294 -0.086247705 0.41134632
-0.07860582 0.39838177 -0.55686283 0.15855171 0.100662835 0.15986507 -0.16244523 0.4717168
0.19181073 -0.0544998 0.09749154 0.019767819 0.37325054 0.18796098 0.22680321 -0.3773101
0.3547334 0.07295071 -0.17284411 -0.2662015 0.42505133 -0.5319412 -0.01778587 0.37942293
0.8826478 0.63394004 -0.83332485 -0.4286713 -0.27641037 -0.12174021 -0.63884205 1.2194656
0.5906969 0.3066021 0.89582634 0.08175169 0.17821404 -0.15479214 -0.5749432 0.40623286
0.26919523 0.25366852 -0.088477075 -0.18892644 -0.34705365 -0.3099382 -0.12843935 -0.28559682
-0.34465605 -0.27361655 -0.3291952 0.37583622 0.24830987 0.077777915 0.015754659 -0.63198125
0.48721772 0.3387528 -0.038357195 -0.2006457 0.22914295 -0.050651588 0.44550976 0.19785509
-0.111588895 0.6345752 0.09451858 0.38297224 0.1950146 -0.0529841 -0.021400679 -0.30233568

network_body._body_endoder.seq_layers.0.bias f4 [128]
00000000: 2ba1 dc3c 030d eb3c da96 9abc 990b 363c
00000010: dbf1 d33a 3ba8 92bc bd71 8c3c 38d8 0e3d
00000020: 6a01 07bd bfbd a9bc 30cf 2dbc 5ff2 c53c
00000030: 3915 8a3c dbfb 3abc eb40 99bc 104a d239
00000040: 91ca ecba 96b6 a5bc f456 03bb d954 143d
00000050: 012d 6b3b b0aa 773c 7364 4e3c 54dc 013d
00000060: 4512 98bc 2a72 dd3b 2c2e 9d3c f10d a9ba
00000070: 17dc 7e3c f8ba 02bd 5c87 073d 3aea 483b
00000080: 5bd0 693b 955b e63c 08aa c63c f9d1 d9bc
00000090: 9962 b83c c585 1c3d 9280 cc3c d186 a1bb
000000a0: fffe d53b 2e78 083d 8756 d4bc 926b 043c
000000b0: 841f d23b 7602 833c 7174 943c d835 083d
000000c0: ad46 5c3c 7ebc 123b 70b5 21bd b908 a13c
000000d0: 0dd8 e6bc ee29 fcbc 72f6 ce3b 6e79 fdbc
000000e0: e8c2 ea3c 5612 a93c 307e 1f3b 3dc7 e2bc
000000f0: 77a8 423c f4a5 b73c 00c4 ac3c bc64 dc3c
00000100: 4fa7 28bc ccdf d2bb bcba f7bc 1bb0 b73c
00000110: 7793 88bc 5f79 453c 0af1 7f3c 54ab a13c
00000120: b80b a0bb 07dc da3c a179 9dbb d238 d43c
00000130: ffbb 703b 9df0 d33c 8815 133d 9f98 9f3c
00000140: ab40 053d 2cad dabc 81c7 423c e9be 0c3c
00000150: e5e6 d63c 6922 e4bb a9b9 36bc 0f23 8c3c
00000160: d728 123c cfa7 1fbc 616d d93b 53cd 983c
00000170: 86c5 863c 9363 f63c 6673 d1bc 8535 d1bc
00000180: a1c5 96bb 3ce6 cc3c bc10 e93c 3dfb 9b3c
00000190: 524a be3b 84c5 1ebb ba16 113d ff92 ce3b
000001a0: 953e 8dbc 372d 843a 91ce aebb ce15 e73c
000001b0: 724e fabc 7c08 11bc 6a1a a93b 8720 023d
000001c0: 0fcd 9ebc b1b7 f0bc 1e4c edba 9898 033d
000001d0: a357 b9bc 98eb cc3c 63cc 08bd bcd9 3a3c
000001e0: 00c2 013d 119f 6b3c 32a5 e13c a80e 7a3c
000001f0: 1ab6 8abc bfbf 0cbd 4e50 26bc 3a3e c43c
0.02693232 0.028692728 -0.01887076 0.0111111635 0.0016170101 -0.017902484 0.017144078 0.03487417
-0.032960333 -0.02072036 -0.010608479 0.024163423 0.016855823 -0.011412586 -0.018707713 0.00040109502
-0.0018065741 -0.020228665 -0.0020040842 0.03621373 0.0035884979 0.015116379 0.012597191 0.031704262
-0.0185634 0.006757994 0.019187056 -0.0012897832 0.015555403 -0.03191659 0.033088073 0.0030657188
0.0035677168 0.028119842 0.024251 -0.02658938 0.022507953 0.03821351 0.02496365 -0.0049294014
0.006530642 0.033317737 -0.025920166 0.008082287 0.0064124484 0.015992384 0.01812193 0.033254474
0.013444585 0.0022390182 -0.039479673 0.01965748 -0.028179193 -0.030781712 0.0063159997 -0.030941691
0.028657392 0.020638626 0.0024336688 -0.027682895 0.011880985 0.022418 0.021089554 0.026903503
-0.010293796 -0.00643537 -0.03024041 0.02242284 -0.01667188 0.012052863 0.015621433 0.019735016
-0.0048842095 0.026716245 -0.004805759 0.025906 0.0036733148 0.02587157 0.035909206 0.019481955
0.032532375 -0.026693903 0.011888386 0.008590438 0.026233146 -0.00696211 -0.011152663 0.017106561
0.00892087 -0.0097445985 0.0066353534 0.018652594 0.016451608 0.030076778 -0.025567722 -0.025538215
-0.004601196 0.025012128 0.028450362 0.019040698 0.0058071995 -0.0024226615 0.035422064 0.0063041444
-0.017241756 0.0010084276 -0.005334683 0.02820864 -0.030554984 -0.0088521205 0.0051606195 0.0317693
-0.019384889 -0.029384466 -0.001810435 0.032127947 -0.022624796 0.025014684 -0.033398043 0.011404451
0.031679153 0.014381186 0.027544592 0.015262283 -0.016932536 -0.03436255 -0.010150982 0.023955453

network_body._body_endoder.seq_layers.2.weight f4 [128, 128]
00000000: 5072 8dbd 8471 333c 7d57 d9bd 56b2 523d
00000010: 5605 773d d454 82bd e5b0 493b 69f2 a63d
00000020: 8119 84bc f37e e8bb 9899 a53d 13c4 b5bd
00000030: d2ae 4d3d dcc7 22bb a51e d0bc 2959 103d
00000040: 00fb 81bd 79e4 19be dd59 e23c eb5e c8bc
00000050: e403 c63d e3e0 8e3d 116d 943c b147 b0bd
00000060: a8b3 92bc 5606 193d 029c 9c3d f867 dabd
00000070: 5168 09be 980e 7abc ed7b 6ebb 9670 0bbc
00000080: 2223 23be 980c 9d3d 1061 51be c42c 9fbd
00000090: 97df 55be f5d8 9bbd 50c5 003d 753d c13d
000000a0: b1fd e63d 6c6b ba3d 567e b93d 01fe b7bc
000000b0: 6d8e 763d 2909 c8bc 2063 b6bc 2b7f 29bd
000000c0: f5a3 1abc bd75 b83d 748a 5b3d 57e2 35be
000000d0: 293b 463c 845d 0b3e 1144 f43b 6e83 f23d
000000e0: 505d 2abd 848d 133e d46b e83d 29d6 193e
000000f0: 6f50 883c 86db 153e da74 48be 9010 693d
00000100: d768 0ebd cb95 0fbd 4df2 edbd 5a8e 503d
00000110: 7eb1 ecba e34e 46bd 218e 273d 0bb0 25ba
00000120: 8b51 32bd c577 453b f10f 03be 11ed 193d
00000130: 0355 433c c804 303e 60d4 963d 13b6 783d
00000140: 450a bcbd ddbf 633d 663c 1a3e b303 34bd
00000150: 05ef 81bd 37cf 233e 7d77 08be 043b 123e
00000160: bc38 093d 830c 4a3d 5188 a13d 24ce 70be
00000170: 1105 c63c 45ec dabc 3752 8a3d b006 3dbd
00000180: b8e5 74bd 91fb da3d 0566 b0bb d115 7cbd
00000190: e7dc c43d 9401 83bd bee6 293d 3825 d6bd
000001a0: 55ac 6b3d f46b 5e3d d546 95bd accb 1cbd
000001b0: 8a48 93bd 8584 153c e354 17be 6830 2c3d
000001c0: ef25 843d 10f4 bfbd 46d2 f93c 0348 06bd
000001d0: 47c3 b33d 608b 26be 4652 7d3d b20f f53d
000001e0: 6b73 003e d049 0d3e 4dc6 3abd b392 993d
000001f0: 8938 88bb 7fb7 36bd 1aab 883d 0935 6c3d
00000200: 23e0 45bc 3b41 2c3d b065 c1bd 1024 5e3d
00000210: 0098 cd3d 11da f2bc cb71 bbba f8d1 363d
00000220: 9cfc 983d cbfb 823c 4d12 0abd ea31 9dbc
00000230: a3ab 50bd 9e61 fa3c 414c 24bd 26b4 e73d
00000240: e6ea 0cbe f81a a1bc a069 62bc 8ca0 283b
00000250: 3ea2 ebbc e92b 80bd d1f9 813d 09b9 43be
00000260: 6b64 913d f4e7 7ebd 2b8e 8f3d 74c1 a73c
00000270: 1dd5 b13c 2c13 2b3d dbb4 98bd b26f 26be
00000280: 3045 783d e208 923d ab4e 863d 1305 dcbc
00000290: ccc5 83bd c98b 653d 95ba db3a e3e1 563c
000002a0: ee39 0dbd 5956 443d af9d d2bd 6609 e83d
000002b0: 7c6d 1c3e 8240 e5bc f5dc d03d b883 4bbd
000002c0: 3eb8 9ebc 3612 2d3d d387 e6bd c6c0 95bd
000002d0: 254a f23d 2259 413d 0e51 70bd 41b5 803d
000002e0: 5c05 dc3d 9a61 803d 72bd 2f3d f470 9abd
000002f0: 59ec b23c 15ca e93d 4e56 f0bc c93f bb3c
00000300: 9bf0 eb3d 77bf 863d 4c74 d5bd 5335 82bd
00000310: b4e1 48be a976 e3bc 17af 203d f37f 9ebd
00000320: dbe7 c5bd b5ee 783d 69ea 9d3d 3238 9a3d
00000330: e8e0 4b3e 8467 523d 5663 053d 13b2 dbbc
00000340: 46a9 503e 4f58 1d3c 3804 c13d 86db d63d
00000350: 5be9 363d a113 2dbd 2b89 cabc f26c a9bc
00000360: 6077 9ebd 5d87 b0bd 807c 3bbd e200 0f3d
00000370: a0ed a93d 9d19 5d3d 9f19 b1bc 73ce 0dbd
00000380: bbaf 5bbe 4676 7d3d afd6 d1bd 5991 67bd
00000390: b9df 473d cfe5 97bc bab2 cebc c90c dc3d
000003a0: c2b1 bcbd 79d7 bbbd c05c 51bd 926e 863c
000003b0: 2481 44bd 807a 50bd 23f6 98bd 857b 07be
000003c0: 212a 2abd ab74 513d 9081 21be b47c 5cbc
000003d0: 1304 a8bc fe92 5839 3a28 a4bc e8b0 8fbb
000003e0: 0384 233e c360 68bc 6743 883d 8d18 d3bc
000003f0: dcc2 d2bd e6f1 7bbc 9850 06bc 1c59 94bb
-0.06906569 0.010952357 -0.1061239 0.051439606 0.060307823 -0.06363836 0.0030775603 0.08151705
-0.016125442 -0.0070952117 0.08085936 -0.08875289 0.05021555 -0.0024838364 -0.025405237 0.03524128
-0.063467026 -0.15028562 0.02763074 -0.024459323 0.09668711 0.069764875 0.018118413 -0.08607424
-0.017907932 0.037359558 0.07646944 -0.10664362 -0.134187 -0.0152622685 -0.0036389783 -0.008510729
-0.15931371 0.07668418 -0.20447183 -0.0777221 -0.20886074 -0.07609741 0.031438172 0.0943555
0.112788565 0.0910252 0.090573 -0.022459986 0.06019442 -0.02441843 -0.022264063 -0.041381042
-0.009438504 0.09006832 0.053598836 -0.17762123 0.012099066 0.13609892 0.007454403 0.118414745
-0.041592896 0.14409453 0.113486916 0.15023102 0.016639916 0.14634523 -0.19575825 0.05690056
-0.03476795 -0.035054963 -0.11618481 0.050917007 -0.0018058268 -0.048415076 0.04090703 -0.0006320483
-0.043534797 0.0030131203 -0.1279905 0.0375796 0.011922124 0.17189324 0.07364726 0.060720515
-0.09181646 0.055602897 0.15062103 -0.04394884 -0.063444175 0.15997015 -0.13326831 0.14280325
0.03350137 0.04932834 0.078873284 -0.23516136 0.024172338 -0.02672399 0.067539625 -0.046148956
-0.05978939 0.10692514 -0.0053832554 -0.061544243 0.09612446 -0.063967854 0.04147982 -0.10456318
0.057537396 0.05430217 -0.07288901 -0.038280174 -0.0719157 0.009125833 -0.14778475 0.04203835
0.06452548 -0.09372723 0.030495774 -0.03278352 0.087774806 -0.16264105 0.06184604 0.11965884
0.12544028 0.13797688 -0.04559927 0.07498684 -0.00415713 -0.04460859 0.0667326 0.057667766
-0.012077364 0.042054396 -0.094432235 0.05423361 0.10038757 -0.029644998 -0.0014300881 0.044633836
0.074700564 0.015989205 -0.03370886 -0.01918884 -0.050944936 0.030564126 -0.040111784 0.113136575
-0.13761482 -0.01966618 -0.013819128 0.002573046 -0.028763887 -0.06258375 0.06346477 -0.19113554
0.07099231 -0.062232926 0.07009538 0.020477988 0.021708066 0.04176633 -0.074563704 -0.16253546
0.060612857 0.071306005 0.065579735 -0.026857888 -0.06434211 0.056041513 0.001676398 0.013115379
-0.034479074 0.04793391 -0.10283982 0.113299176 0.1527614 -0.027984861 0.10198394 -0.049686164
-0.019374963 0.042253695 -0.11256375 -0.07312159 0.11830548 0.047204144 -0.05867105 0.062845714
0.1074321 0.06268616 0.04290528 -0.07541075 0.021841215 0.11415497 -0.029338028 0.022857564
0.11520501 0.06579488 -0.104225725 -0.06357827 -0.19617349 -0.027766543 0.03922948 -0.07739248
-0.096633635 0.060774524 0.07710726 0.0753025 0.19910014 0.05136825 0.032565437 -0.02681831
0.20377073 0.009603574 0.09424633 0.104910895 0.04465614 -0.042255048 -0.02472361 -0.020681832
-0.07737613 -0.086195685 -0.04577303 0.03491295 0.082972765 0.053979505 -0.021618662 -0.034620713
-0.21453755 0.061880372 -0.10246026 -0.0565351 0.048797343 -0.018542198 -0.025231708 0.10744626
-0.09213592 -0.091719575 -0.051113844 0.016410146 -0.04797472 -0.050898075 -0.07468822 -0.13230713
-0.041544084 0.051136654 -0.1577208 -0.013457466 -0.020509755 0.00020654124 -0.020038713 -0.0043851025
0.15968327 -0.014183226 0.06653481 -0.025768543 -0.10291073 -0.015377497 -0.008197926 -0.004527224

network_body._body_endoder.seq_layers.2.bias f4 [128]
00000000: d990 653c a88f ee3c 7ce6 9c3c 380a ed3c
00000010: ee50 9abc 6609 e73c 22a5 dd3c 2889 74bc
00000020: f69f b7bc 5d47 7cbc 6318 743c 595e ecbb
00000030: 50ab f23c a9a7 0e3a accd 01bc c230 a1bc
00000040: 2af3 e73c b67e 99bc bcab 30bc f783 933c
00000050: 401c e23c 8f55 843c a04a a1bc 2421 ad3c
00000060: d4f9 ad3b 1b56 69bc aff6 c0bc fb84 a0bc
00000070: a69f e83c 8c3a 4a3c 89c0 013d 8dbe 853b
00000080: a35e a3bc 840f 5bbc 955e 623b c21d d33c
00000090: 5efa fb3c 10fc ef3c 0273 ae3c ae31 8e3c
000000a0: 3b18 c03c d551 bfbb 2827 94b8 7a06 39bc
000000b0: 2a82 253c ffe5 783c a656 c23c b557 783c
000000c0: f910 a0bb 75de 073d 95b0 aebc 1a45 013d
000000d0: bb82 053d e641 4cbc 2506 c73c 4993 64bc
000000e0: d97e 4dbc 3cb3 83bc 4331 063d 0e5c d9bc
000000f0: a401 383b 59ff a0bc 8842 203c 1b02 afba
00000100: 7bfc 9b3c 3a99 99bc 2f1c bbbc b16d 0bbc
00000110: bce7 d73c f012 02b7 afff 77bc 4f62 073d
00000120: 9c4f 853c 2433 b63c 1e04 96bc d866 c2bc
00000130: 236b f63c 0032 6b3c 6190 d4ba 3a2c b5bb
00000140: 755e d9bc 13f7 6d3c 8ddf 0d3b 0105 cbbb
00000150: 0adb bf3c 55e5 5bbb 1df8 de3c a5b3 733c
00000160: 8169 c1bc c55d ec3b ab59 c7bc 9b80 fe3c
00000170: 7cd1 78bc 29e7 e33c 7429 83bc 5d05 893c
00000180: 8f21 65bc fc0a 2e3b b8af 8dbc 5fa0 a4bc
00000190: 2554 7abc 45c1 113b a38e af3b c0ba d9bb
000001a0: a56a a33b fe59 b9bb 4332 11bc a084 ce3c
000001b0: 1e38 8a3a 704a c6bc 8ed1 44bc 1578 5e3c
000001c0: 320c 003d 9dd1 85bc c9fe b33c a89f d73c
000001d0: ea2c d53c fd0f e93c 4b4a 97bc d5da 8a3c
000001e0: 78a4 103b beef 9bbc 0e96 69bc 2b35 3dbc
000001f0: 44bc 03bc 33dd 38bb 5fba cfbc 0abd a63c
0.014011585 0.029121235 0.019152872 0.028935537 -0.018837418 0.028202724 0.02705628 -0.014925279
-0.022415143 -0.015397874 0.014898392 -0.0072133956 0.029622704 0.00054418534 -0.007922571 -0.01967657
0.028314192 -0.018737178 -0.010783132 0.018007262 0.027601361 0.016154079 -0.019688904 0.021133967
0.005309323 -0.014241721 -0.023555128 -0.01959466 0.028396439 0.01234306 0.031677756 0.0040815533
-0.019942587 -0.013370398 0.0034541239 0.025771026 0.030759033 0.029294997 0.021295074 0.017357673
0.023449054 -0.0058386126 -7.064483e-05 -0.011293048 0.010101834 0.015191554 0.023722958 0.01515763
-0.004884836 0.033171136 -0.021324435 0.03156004 0.032595377 -0.012466883 0.024294922 -0.013951131
-0.01254245 -0.016076677 0.032761823 -0.026533153 0.002807715 -0.01965301 0.009781487 -0.0013352068
0.01904129 -0.018749822 -0.022840587 -0.008510039 0.026355617 -7.753013e-06 -0.015136643 0.03305274
0.016273312 0.022241183 -0.01831251 -0.02373068 0.030080384 0.014355183 -0.0016217345 -0.005528954
-0.026534298 0.014524239 0.002164814 -0.006195665 0.023419876 -0.003355344 0.027217919 0.014874374
-0.023609878 0.0072133266 -0.02433475 0.031067183 -0.015186664 0.027820187 -0.016010977 0.01672619
-0.013985052 0.002655684 -0.017295703 -0.020096002 -0.015278851 0.0022240442 0.00535758 -0.006644577
0.0049870783 -0.00565648 -0.008862081 0.025209725 0.0010545289 -0.024205416 -0.012012852 0.0135784345
0.03126163 -0.016335303 0.021972077 0.026321247 0.026022393 0.028450007 -0.018468043 0.01695005
0.0022070687 -0.019035216 -0.014256967 -0.011548321 -0.0080404915 -0.0028208017 -0.025357423 0.020353813

action_model._continuous_distribution.log_sigma f4 [1, 2]
00000000: 237d 16bc abd4 383b
-0.009185108 0.0028202932

action_model._continuous_distribution.mu.weight f4 [2, 128]
00000000: 0628 f33c 4197 0e3d 5d86 263d 92bb 133d
00000010: d349 01bd 04d0 513d 114f 0d3d a427 87bc
00000020: 920a 05bd 4118 5fbd f63f b63c 9375 06bd
00000030: 497f 0e3d 9ba1 73bc 43d0 9abc 80ce 73bd
00000040: 2691 0e3d 3f92 3dbd fc1d 1cbd d897 483c
00000050: ad3a 993c c97c 293c d63c 26bd 8c98 413c
00000060: 342b 81bb bbf4 b5bc 5fbb 1abd c420 27bd
00000070: a8c8 2b3d 1e11 9f3c a01b 273d 9577 2f3c
00000080: 4994 3fbd 385d 1abd a179 ff3a a1c8 173d
00000090: f09a 263d 7972 1b3d f9a9 f33c 1632 0cbb
000000a0: 6d34 be3c 6d57 11bd 1731 a8bb 774f debc
000000b0: 4f3a 893c 4669 be3c 488c 473d 4e5f c73c
000000c0: 76db 3b3c dec4 de3c 832c ccbc f1c8 403d
000000d0: 76d7 853d 90db a9bc 46b6 903d a454 f6bc
000000e0: 35ce 60bd cc5d 2dbb 1c33 313d 0d1b 14bd
000000f0: 7239 69bb 78ee 38bd b484 3dba 22bf 00bd
00000100: 5b22 f93c 2e3f cbbc 720c aabc 254b 9bbc
00000110: ebd6 da3c 58c3 053c d846 10bd 1906 5a3d
00000120: 612a bf3c 6b43 623d 1714 39bd bea1 4dbd
00000130: 1876 d23c 9151 ddb9 a629 85bd 5e54 c2bb
00000140: 271c 0abd 0dee ff3c 6836 4fbc 148f bfbc
00000150: 0e97 073d 2e00 e1bb 3d75 173d 4480 853b
00000160: c105 1abd 3086 a73c 6d16 05bd fd4b 733d
00000170: c695 f9bc b172 ef3c 9219 e9bc 0b5f d33c
00000180: 78d0 89b9 57a1 c4ba 3d62 08bd 7705 2fbd
00000190: f8d8 b7bc aadf 9c3b 6e9d f93b e938 b3bc
000001a0: 44a6 0d3c 3a58 663c 1198 15bd 3e79 563d
000001b0: f0ec 213c de27 03bd 3314 1abd 8709 023d
000001c0: 83b6 f53c a6ba dabc 209c a73c 537e 733d
000001d0: c49c 493d e9e0 fb3c 031a d7bc e84d 2e3d
000001e0: 593e 21bb 2f75 d4bc 843c debc 6c69 b1bb
000001f0: 42e9 6dbc 45fb 393c 8dff 00bd 867b cb3c
00000200: fa88 733c 712d 613a 3612 04bd 051c 2e3c
00000210: c4a2 25bb c139 a73b 0a7b a3ba d048 26bc
00000220: 5264 d5ba e5a6 09bd 0bb4 a33b ed87 79ba
00000230: 5807 4abb e42f a93c c920 203d f2a6 a4bc
00000240: 16fd 3abc 7c61 4e3b 1165 ecbb d5fe 05bc
00000250: 355c c5ba 526e 41bb 99b9 23bc 852f 61bc
00000260: 01ac 5ebb 12d7 f73c 01ad 103c 010f 7b3c
00000270: 1f6f 19bb 06a8 2a3d 4822 2abb 62f6 d6bc
00000280: 4b14 e83b 9273 a3bb 6c54 0a3d 139c 44bc
00000290: 6c75 1bbb d331 d03a 4986 c63c 7185 f1bb
000002a0: b1c6 12bc cf0e aa3c 6e2f 02bd 3531 f5bc
000002b0: b99b 10bd 98df 83bc 8a17 babc 9d98 a0bc
000002c0: aba2 f43c 4413 903a 9e88 af3a ffde c23c
000002d0: 2579 b4bb 7b59 bbbb cac9 1fbd 73ae aebc
000002e0: dd89 013b 983d e13b 4200 0b3c 782d 89bb
000002f0: 5ee1 eebc 2847 b0bc eb17 08bc db9b ec3c
00000300: 2105 b0bc c898 bcbb 5c59 6a3b 2d53 083a
00000310: 092e e3bb e2ce 9dbc 494e 143d a25d 063c
00000320: 6c1a ac3c ba61 0cbd e327 a0bc 022d 253c
00000330: 1e7b abba 0a59 c4bb 7e5a a2bc 352a 973c
00000340: 1d64 0f3b de04 05bd 2758 dabb b20b 10bd
00000350: cdbe a63c 7b42 88bc 0ddc 763c 2831 6f3c
00000360: 156c d6bb a1ad bbbc 33db bcbb a39c 533c
00000370: ed1e 86bc 9f1f cebb 9c12 17bd 8f64 ebbb
00000380: 9f94 3e3c 1cef ec3b 0e32 ca3c ad0d a33c
00000390: 4db0 9dbc 1a43 463c 1971 873c 8e02 abbc
000003a0: 1d58 d23c 27b4 033c 92bd fcbc d1c3 90bc
000003b0: c0ab 5cbc 5773 8ebb fc8c 523c 6ed2 fdbc
000003c0: 8421 d83b 7213 d9b9 34ec 273c 5425 f4bc
000003d0: da21 68bc 80fb 463c 149f b73c db98 08bd
000003e0: 6b31 97bc c3bc 5bbc c064 093d e006 76bc
000003f0: 5388 ac3c c199 823c 2a63 babb 26c2 00bb
0.02968217 0.034812216 0.040655483 0.036067553 -0.031564545 0.05122377 0.03449923 -0.016498394
-0.032480784 -0.05446649 0.022247296 -0.03282697 0.034789357 -0.014870073 -0.018898135 -0.059523106
0.034806393 -0.04628205 -0.038114533 0.012243234 0.018704737 0.0103446925 -0.04058536 0.011816155
-0.003941918 -0.022211423 -0.037776347 -0.040802732 0.041939408 0.019417342 0.04079783 0.010709663
-0.046772275 -0.037686557 0.0019491204 0.03705657 0.040675104 0.037950967 0.029744135 -0.0021392158
0.023218358 -0.035483766 -0.005132805 -0.027137501 0.016751437 0.023243558 0.048717767 0.024337437
0.011465898 0.027193483 -0.024923569 0.047066633 0.065352365 -0.020734578 0.07066016 -0.030069657
-0.054884154 -0.0026453612 0.043261632 -0.03615861 -0.0035587219 -0.045149297 -0.0007229552 -0.03143228
0.03041189 -0.0248104 -0.020757888 -0.01895673 0.026713809 0.008164249 -0.035223812 0.05322847
0.023335638 0.055240076 -0.045185175 -0.050203077 0.025691077 -0.00042213176 -0.065020844 -0.0059304675
-0.033718254 0.031241441 -0.012647249 -0.023383655 0.03310304 -0.0068664765 0.03697704 0.0040741283
-0.037603144 0.020449728 -0.03249209 0.05939864 -0.030466925 0.029229494 -0.028454576 0.025802156
-0.00026285998 -0.0015001696 -0.033296812 -0.04272982 -0.022442326 0.004787405 0.007617644 -0.021877723
0.008645598 0.014059121 -0.036521975 0.05236172 0.00988315 -0.032020442 -0.03761692 0.031747367
0.029994255 -0.026700329 0.020460188 0.059446644 0.04922177 0.030746894 -0.02625752 0.042554766
-0.0024603812 -0.025934784 -0.027128465 -0.0054141786 -0.014520945 0.011351411 -0.031493712 0.024839174
0.014864201 0.000858984 -0.03224393 0.010626798 -0.0025274018 0.0051033203 -0.0012472582 -0.010149196
-0.0016280508 -0.03360643 0.004995828 -0.0009518851 -0.003082713 0.020652719 0.039093766 -0.020099137
-0.011412879 0.003149121 -0.0072141965 -0.0081784325 -0.0015057387 -0.002951522 -0.00999298 -0.01374424
-0.0033977034 0.03025392 0.00883031 0.015323401 -0.002341218 0.041664146 -0.0025960375 -0.026240531
0.0070824972 -0.0049881423 0.033771917 -0.012000102 -0.0023721112 0.0015883989 0.024233954 -0.007370644
-0.008958505 0.020759014 -0.031783514 -0.02993069 -0.03530476 -0.016097829 -0.022716302 -0.019604022
0.029862722 0.001099207 0.0013392156 0.023787973 -0.0055076056 -0.005717454 -0.0390108 -0.021323418
0.001976601 0.0068737976 0.008483948 -0.0041863285 -0.029160198 -0.021518305 -0.008306484 0.028882911
-0.02148682 -0.0057555176 0.0035758829 0.00052003824 -0.006932978 -0.019263688 0.03620747 0.008201035
0.021008693 -0.034272887 -0.01955027 0.0100815315 -0.0013082956 -0.0059920596 -0.01981854 0.018452743
0.002187974 -0.032475345 -0.0066633406 -0.035167404 0.020354653 -0.016633263 0.015067113 0.014599122
-0.006543646 -0.022909941 -0.0057634353 0.012915763 -0.016372168 -0.0062903906 -0.03688298 -0.0071836184
0.011632114 0.0072306525 0.024682071 0.019903982 -0.019249106 0.012100959 0.016533421 -0.020875242
0.025676781 0.008038557 -0.030852113 -0.017671498 -0.013468683 -0.0043472457 0.012850996 -0.03098413
0.0065957922 -0.00041403953 0.010249186 -0.029802956 -0.014168227 0.012144923 0.022414722 -0.0333489
-0.018456182 -0.0134117035 0.03354335 -0.015016288 0.021061098 0.015942456 -0.005688091 -0.0019646971

action_model._continuous_distribution.mu.bias f4 [2]
00000000: 86d5 d73c be10 8e39
0.026346933 0.00027096824
