MLAgentDevProject/results/BreadCrumb5/BreadCrumb1.onnx (onnx, 75061 bytes, 7 tensors)

network_body._body_endoder.seq_layers.0.weight f4 [128, 6]
00000000: 695b 0abf d1ed 873b e56a 173e 9069 04be
00000010: 0e1b 743f 6c1c c03e ccb0 c13e 9b51 e83d
00000020: 7b7b f7be 3d55 583f 82fa 893b e11c 93be
00000030: 4400 71bf c65d 8bbe 4262 993d b6d4 16bf
00000040: 7558 8e3e b1bc 773e bc45 2cbd fb1e cebe
00000050: 2076 b0bd 1b8d 023f c216 29bf 3d67 32be
00000060: 2fdf f73e 64ad 77be 6a93 43be 7499 d53d
00000070: 1d62 06bf ded4 d63d ef35 343f c1db 40be
00000080: ee58 9f3d dac0 e03e b4ac dbbe 1ab5 71be
00000090: 2a66 d4be f539 6e3e e10d 99bd 241a e93e
000000a0: f9e8 303f c1d9 b7be 3f51 143f d681 4bbf
000000b0: 3ded 203f 093f 24be bfd4 1c3f a751 b0bd
000000c0: 6689 3cbe e787 5f3d 10b7 5dbd 5d9c 0f3f
000000d0: f3d6 bf3d ab70 d4be a4c9 443f cffe 8f3f
000000e0: aeb9 6cbf 8030 f8bc c08d 34bf 42f7 513e
000000f0: 6067 983e b107 383c d49a 67bf 79dd fcbd
00000100: e2cc 573f 52d9 913e be10 113d 56ad de3e
00000110: 68da 16bf 40ae 72be db5d 80be e65c ffbe
00000120: 1389 153e 9c1d 853d 417a b3be 7b1f 1bbf
00000130: 288b 39bd bd41 cbbe 0cb6 ee3d 17e6 b7be
00000140: 1a16 ffbe 8cea 43be 912a 72bf add5 693d
00000150: 3f35 8f3e 47ac a9be b20b 383e 4309 ddbe
00000160: b2aa bc3c 4c1c 803e bc30 2d3f 4669 11bd
00000170: cd19 28bf 2fce d73e db6a debd 3087 0cbf
00000180: ca28 28bf 8eca 763e 68dd f03d 5330 a43e
00000190: 98bd 9abe 13c8 99be f633 373f ec06 9dbe
000001a0: caf2 f4be 8430 2abe 4100 3c3d 76a6 a23d
000001b0: d8b0 dfbe 341f 7cbe 6e05 19bd 08a6 1a3f
000001c0: 1ad8 fc3d e232 0bbe cc5c 42bf 07ba 3b3d
000001d0: 48bb c4bd 68a8 d7be 230b db3e 75b6 43be
000001e0: 77df 13bf bf99 d1be 6c16 1c3f bc53 5f3e
000001f0: 66dc dbbd 3dab eebe a4b1 bbbe 94b7 41be
00000200: f46a 87bd e703 39bd 8f47 4a3e 03d8 52be
00000210: f3e0 933c dbe8 a4be dec9 1bbe 7399 d33e
00000220: 83f6 4bbf f424 383e e8ea f13e 7a60 afbe
00000230: a0cf 25be 2b7f a93e 317b 5c3e 609f 33be
00000240: 7043 acbc 40ac 823f 3eb4 f23e 426e dfbb
00000250: a398 83be 9aa1 f4be eb62 2d3e e6b5 c3be
00000260: bd90 30bf 463c f63d 6ce6 b2be 40b6 783d
00000270: fe11 6fbf c3bf 463c 715a c5bd 1ef9 e4bc
00000280: a7af ccbe a053 24bf 5777 0fbf a27e 98bc
00000290: 1884 9a3e 9b96 2cbf 073e d23e 0c7f cabe
000002a0: a2a9 abbe 20b4 5ebf 0676 b7be 49bb 05bf
000002b0: b774 c23e 8557 eebd 5e6c f33e efe7 f1bd
000002c0: 9a79 023e d9e8 08bf 26f5 3abe 4c3b a93d
000002d0: 418a 18bf 1823 4bbe c0f5 1dbf c0c4 893e
000002e0: 9ec3 cdbe 68db 3ebf 3fba fabd 69d4 9dbe
000002f0: 901d 65bf 96c2 903e 49c5 db3e aa2c b13c
00000300: cd8c a13d e853 333f dde5 30bf bb1e 743d
00000310: 5222 bb3e 4ed8 24be 044e 92bf 4694 1d3e
00000320: 2a20 b93d 4e63 053e 1c67 39be 38e3 f83e
00000330: 014c ba3d 3cb3 c83e 2ef8 99be af25 13bf
00000340: ff73 f3be 2b63 e2be 1e1f e43e 2b10 083d
00000350: c411 13bf 268d adbd 8882 8dbf 3108 edbe
00000360: c50d b33e a197 033f 705c 903e 87d2 afbd
00000370: 51ec d2be 101a 2bbe 55cf 543f 38de 1d3e
00000380: 98dd d93e 0037 a93e fc2e fc3e 0220 223d
00000390: f425 b33d 4070 623d 2c9f a73d 0c93 55be
000003a0: 0c80 55be 128f 0dbf 6f3f b53d e616 e0be
000003b0: 4640 88be 9159 7fbe e868 bfbe 5634 15be
000003c0: e65f 2c3f 2b57 c53e a3fc 3dbe 4af0 04bd
000003d0: 670e 2fbc 8f14 c63e 55f9 763e b2b0 14bf
000003e0: e089 45be f31f 56bd 1523 1a3f b7b6 17be
000003f0: 0e90 d4be 1810 cbbe 515d 72bf 3bc2 d73c
-0.5404573 0.004148223 0.14786871 -0.12930894 0.9535378 0.37521684 0.37830198 0.1134369
-0.48336396 0.84505063 0.004210771 -0.2873297 -0.9414103 -0.2721998 0.07489444 -0.5891832
0.27801862 0.24193074 -0.04205869 -0.4025801 -0.086162806 0.5099656 -0.6605035 -0.17422195
0.48412463 -0.24187237 -0.19099203 0.104296595 -0.5249346 0.1048982 0.70394796 -0.1883383
0.07780634 0.43897134 -0.429052 -0.23604241 -0.41484195 0.23264296 -0.0747335 0.45527756
0.6910549 -0.3590832 0.5793647 -0.7949499 0.62861997 -0.16039671 0.61262125 -0.08609324
-0.18411788 0.054572966 -0.05412966 0.56097966 0.0936717 -0.4149221 0.7687018 1.1249636
-0.92470825 -0.030296564 -0.70528793 0.20504478 0.2976637 0.0112323025 -0.90470624 -0.1234693
0.84297 0.28486115 0.035416357 0.4349162 -0.5892701 -0.23699284 -0.25071606 -0.49875563
0.14603071 0.06499788 -0.3505421 -0.6059491 -0.045298725 -0.39698592 0.116558164 -0.35917732
-0.4982155 -0.19132441 -0.945962 0.057088543 0.2797031 -0.3313925 0.17973211 -0.4317113
0.023030613 0.2502159 0.6765249 -0.035500787 -0.6566437 0.42149493 -0.10860225 -0.5489378
-0.6568724 0.24100706 0.1176098 0.32068118 -0.30222774 -0.30035457 0.7156366 -0.30669343
-0.47841483 -0.1662007 0.04589868 0.07941906 -0.4368961 -0.24621278 -0.037358694 0.60409594
0.123459056 -0.13593629 -0.75922847 0.045831706 -0.096060336 -0.4212067 0.42781934 -0.1911257
-0.57762855 -0.4093761 0.60971713 0.21809286 -0.10735397 -0.4661502 -0.36658967 -0.18917686
-0.066121966 -0.045169737 0.1975386 -0.20590214 0.0180516 -0.32208905 -0.15213725 0.4132801
-0.7967302 0.17982846 0.47249532 -0.34253293 -0.16192484 0.33104834 0.21531369 -0.17541265
-0.02102825 1.0208817 0.4740314 -0.0068185637 -0.2570239 -0.47779542 0.16932265 -0.38224715
-0.68970853 0.12023215 -0.34941423 0.060720682 -0.9338683 0.0121306805 -0.09636391 -0.02795082
-0.39977762 -0.641901 -0.56041473 -0.01861507 0.30178905 -0.67417306 0.41062948 -0.39550054
-0.33527857 -0.869936 -0.35832232 -0.522389 0.3797967 -0.11637787 0.47543615 -0.11811816
0.127417 -0.534803 -0.18257579 0.08263263 -0.5958596 -0.19837606 -0.6170311 0.2690792
-0.40188307 -0.7455354 -0.12242555 -0.3082612 -0.89498234 0.28273457 0.42923954 0.021627743
0.07888184 0.70049906 -0.69100744 0.05959962 0.36549622 -0.16098139 -1.1430058 0.15388593
0.09039338 0.13026163 -0.1810574 0.48610854 0.09096528 0.39199245 -0.3007216 -0.57479376
-0.47549435 -0.44216284 0.4455499 0.033218544 -0.57448983 -0.084741876 -1.105546 -0.46295312
0.34971443 0.5140324 0.28195524 -0.08585077 -0.4119592 -0.16709161 0.83128864 0.15416801
0.42551875 0.33049774 0.49254596 0.039581306 0.08747473 0.05528283 0.081846565 -0.20856875
-0.20849627 -0.5529643 0.088499896 -0.4376747 -0.26611537 -0.2493651 -0.37384725 -0.14570746
0.6733383 0.38543066 -0.18553405 -0.03245572 -0.010684586 0.3868756 0.2411855 -0.58082116
-0.19290876 -0.052276563 0.6020978 -0.14815794 -0.41516155 -0.39660716 -0.9467364 0.026337733

network_body._body_endoder.seq_layers.0.bias f4 [128]
00000000: 496f 39bd be6b 923c 04f5 f0bc 21f4 e7bc
00000010: c6f6 d93a 260b e13c 8e21 b2bd 3ba4 823d
00000020: f38f 153c 84c3 ebba 1c00 8bbc 3ec2 213c
00000030: fde0 99bc b675 55bd 6936 78bd e6eb ff3c
00000040: 6507 833d 6b89 9c3d 63b3 15bd 12d9 f53c
00000050: 3759 07be 0463 a73c 289e aabd d54f 813d
00000060: 980e 0b3d f269 183d 81a0 813d 252f 3fbd
00000070: e1de 983c 0d51 e4bc e9c3 b43d 0541 a63d
00000080: 2aec 243c 7810 39bd a1b3 93bb 1c75 2d3c
00000090: 74bf 07bd 1d85 acbb 4103 06be fe97 76bd
000000a0: 6fd1 b7ba 685e 123d 9d80 98bd e5b2 813d
000000b0: b81b fabd f478 38bd 1aca 24bc 8877 1b3d
000000c0: 29a0 933d f160 b4bd df85 78bd 917f 80bd
000000d0: 4b4a 1a3d 877b b33d c189 c5bb 2d4d 9abc
000000e0: d65f 8f3c b997 0cbc 2cef c63d fc27 35bd
000000f0: a530 283c ad1e c3bd cc9d 5ebd 5600 2cbd
00000100: 4b00 643d 4d8b 83bd 3f10 033c b503 073e
00000110: a237 4fbd fedd 453d 11f3 e53c 34ba b5bd
00000120: aac9 12be 5417 8abd 3570 96bd a9d9 68bd
00000130: 3fe3 193c 27b1 093e 3892 1cbd 83d4 20be
00000140: 288b 013e 5334 033c 5ccd 6fbd f058 9abd
00000150: 6325 953c 1266 5dbd 54f0 56bd b131 473c
00000160: 430f 793d d819 a53c 038e a5bc b01f 913d
00000170: 2a2a 853d 86ec 9abd d041 473d 17d6 c8bd
00000180: aa8c 103c cec1 c5bc 93c9 833d 1f24 51bc
00000190: ed58 8dbd 519b 88bd 957b 2bbd c3f8 36bc
000001a0: d72d 6f3c 2364 b7bc b430 4dbb 4159 4bbb
000001b0: b646 a9bd a254 493d 20e5 203d cf43 69bd
000001c0: 75fb 83bc 61ad 6c3d b813 813d a212 3dbd
000001d0: 953c 38bd 9840 1ebd 8a3b 863c 7c79 70bc
000001e0: 6d75 4dbc adb1 d3bc 4e59 a4bd 7945 6cbc
000001f0: 9132 fabb 2758 afbd 3d52 d7bc 2ba2 07bd
-0.045272145 0.017873641 -0.029413708 -0.028314652 0.001662933 0.027471136 -0.08697806 0.06378981
0.009128558 -0.0017987345 -0.016967826 0.009872971 -0.01878404 -0.05211421 -0.060598765 0.031240415
0.06397895 0.07643398 -0.03654803 0.030010734 -0.13217627 0.020432957 -0.08330947 0.06314055
0.033949465 0.037210412 0.06329442 -0.04667582 0.018660964 -0.02787068 0.088264294 0.0811787
0.0100660715 -0.04518172 -0.0045074974 0.010587003 -0.03314157 -0.005264892 -0.13087179 -0.060203545
-0.0014024208 0.035734564 -0.07446406 0.063329495 -0.12212318 -0.045037225 -0.01005795 0.03795579
0.072082825 -0.088075526 -0.060674544 -0.06274331 0.037668508 0.08763795 -0.0060283844 -0.018835628
0.017501753 -0.008581095 0.09713587 -0.044227585 0.010265504 -0.09527335 -0.054349706 -0.041992508
0.055664342 -0.06423054 0.007999479 0.13185008 -0.050590165 0.04830741 0.028070005 -0.08873406
-0.14334741 -0.06742731 -0.073456205 -0.056848202 0.009392559 0.13446485 -0.038225383 -0.15706067
0.1265074 0.008008081 -0.058545455 -0.07536495 0.018206304 -0.05405242 -0.05247529 0.012157843
0.06080557 0.020153925 -0.020209318 0.07086122 0.06502183 -0.075646445 0.048646748 -0.098064594
0.008822599 -0.024140265 0.064349316 -0.01276496 -0.06901727 -0.06670249 -0.041865904 -0.011167708
0.014598331 -0.022386616 -0.0031309547 -0.0031028541 -0.0826544 0.049152978 0.03928101 -0.056949433
-0.016111115 0.057782535 0.06302589 -0.046160348 -0.04497965 -0.03863582 0.016385812 -0.014677402
-0.0125402035 -0.025841558 -0.08024846 -0.01442086 -0.0076354225 -0.085617356 -0.026284331 -0.03311364

network_body._body_endoder.seq_layers.2.weight f4 [128, 128]
00000000: 7973 c4bd 5d41 2cbd 426a 503d ca23 e4bd
00000010: e877 a33d f778 3fbd 76b5 72bd 4f3a e2bd
00000020: d670 a0bc fc8e a6bd 486a 02be 127b 9a3d
00000030: 61c0 313e 310a 3cbe 3bb9 6dbb d9e1 18bb
00000040: be88 bf3c c7bf b2bd e1b8 6dbd 192d a13c
00000050: f4a0 b8bd be6d ae3d 4f8f 74bd 3bbd b8bd
00000060: aa98 c0bd c54f 3fba 03a3 1b3d 7627 793e
00000070: a0ca bf3d f9ce 3f3d ed8f 373d 159b b5bc
00000080: 14a1 343e b2a4 d9bd 0990 21be c3fc 833d
00000090: 0b88 033d 70c8 7a3d 9820 1abd 7f01 673d
000000a0: 7f63 b7bd bd3f 163e 5b7c bebd 5e45 063e
000000b0: 90d6 133e 860b e43d e127 26bd df20 b1bd
000000c0: 327a fcbd 6043 0c3d 090d b53c 6bb6 95bd
000000d0: b27d 22bd 56ad a23b 9aad 0c3d 61e0 cabc
000000e0: 064a 653c 4e3e 00be 82fa 703b 94f4 c6bc
000000f0: 8533 0fbc 81e7 d83c 6a70 7fbd 6acf 253d
00000100: 9b33 573e eff5 943c 7849 073e a1e6 333d
00000110: 9b52 13be e312 c43c fcd6 06be 1f73 cd3c
00000120: 6ce8 c9bd 53e6 7d3b 5571 10be 100c 29be
00000130: 81aa 3bbd ac88 0ebe ea50 92bd 8210 cfbd
00000140: 7e6a a13d 1166 b4ba c186 f4bd be12 49bd
00000150: 0bc9 3fbd 4de0 dc3d a30c b53d 6fd8 a13d
00000160: b33a 613d 85b3 ad3d 3952 bc3a 14b6 dc3c
00000170: e824 513c e460 4bbe 1d66 5e3d cfa8 0d3d
00000180: dc9b 98bd 3e9a b43d 7a08 d83c ad2f cb3c
00000190: 6bdc ce3c a5b4 e3bd 2668 013e 5205 833c
000001a0: 100a a4bc 60d2 2c3d fb0b 673d b6da a63d
000001b0: f40f 73bd 7a0b 033b 247d 6abd 5681 b8bd
000001c0: e92f 19be b13d 2f3d ba70 2e3e 951a 9b3d
000001d0: f390 aebd 4348 1bbe cc04 893d a3d7 993d
000001e0: 2851 773d caf7 a5bd 5eba 73bc 85aa ddbc
000001f0: 221a 913d 109d 1b3d c793 033b 14e9 81bd
00000200: 83fb cbbd a834 2dbe 87c2 33be e652 1fbd
00000210: b2a9 f3bc 6f3e d23b d62a 973d 2ae5 303e
00000220: 8935 c1bc 280e 94bb 1a53 743d 24c2 363d
00000230: e4dc ca3d e380 6b3d 9ac4 bf3c b1c9 cc3d
00000240: 4e32 0d3e d8e6 c13c cd41 223e eef8 b7bd
00000250: bc35 33be bb41 b6bd 843e 10be 3357 01bd
00000260: e538 68be 3c00 b3bb 1442 8a3d 868f 27bd
00000270: d984 c6bc 9b2f 72bd 8a7f 133e 1d71 b8bd
00000280: 1c9e a1bd c791 103d 8044 17bd 7a01 52bb
00000290: abb1 373e 727a 83be 1098 abbb 538e a13d
000002a0: 77fc 2cbd 8aa2 48ba fe3c bfbd 22fd 88bb
000002b0: a592 18be f57b bb3c 727e 3cbd a272 9f3c
000002c0: 61a6 2dbd bac9 d63d acb9 d13d 9618 943c
000002d0: 5258 1f3d 486c cc3d 197f f8ba c59b da3d
000002e0: 0c79 ef3d 043f 22bd 7bd4 b4bd fa22 323c
000002f0: 78a5 8ebc 64b5 f33d 5d37 3f3e 77af e7bc
00000300: 05a6 e83d ac1e 1c3d c9b1 093d b7bc 843c
00000310: 1f8c 5bbd d433 1ebe 20e4 5cbd 2130 3ebd
00000320: 0022 e83d d773 94bd dfa8 b7bd 9f1b fd3b
00000330: cee2 343e 090e 22bd 8520 70bd eb82 86bd
00000340: 050f bc3d a112 2f3d 34d0 90bd 96aa 1abd
00000350: bfb9 1f3e 9669 e53d 9208 7ebe 8c14 0f3a
00000360: dc89 ac3c 2836 ba3d 7f7d 6f3c 7455 513d
00000370: a779 1abd 69e7 483b cae4 3bbd e26b 9e3c
00000380: 38ff 2cbe 493f cabd 56e7 53be b1d7 d23d
00000390: d678 8bbe dc06 3abe b9a2 a0bd d685 82bc
000003a0: 2a9b f1bd 86d7 a8bd d424 a5bd 397f 11bd
000003b0: 812e 81bd 61bc ec3b 33f2 fbbc 9b10 a83d
000003c0: d610 05be a5ee 16bc 1f0c 48bd 899b 193d
000003d0: 914f b13d 618b 57bd ca69 c4bd 499e f6bd
000003e0: 5916 013d 99b4 a63c 4895 6e3c 196b a3bd
000003f0: 0b84 0e3e c9bf 613d ae2b e33d 64b4 90bc
-0.09592337 -0.042054523 0.050882585 -0.11139639 0.07981855 -0.04674622 -0.059255086 -0.11046278
-0.019585054 -0.08132741 -0.12735856 0.07543005 0.17358543 -0.18363263 -0.0036273736 -0.0023327975
0.023380633 -0.08727985 -0.058037642 0.019674825 -0.09015074 0.085170254 -0.059706982 -0.09020468
-0.09404118 -0.00072979584 0.037997257 0.2433146 0.093648195 0.046828244 0.044814993 -0.022168675
0.17639571 -0.10627116 -0.15777601 0.06444695 0.032112163 0.06122631 -0.03762874 0.05639791
-0.08954524 0.14672752 -0.09301063 0.13112399 0.14437318 0.111350104 -0.040565375 -0.08648848
-0.123279944 0.03424394 0.022100942 -0.07310184 -0.039670654 0.004964511 0.034345247 -0.024765195
0.013994699 -0.12523767 0.0036770408 -0.024286546 -0.008740311 0.026477577 -0.062363066 0.04048101
0.2101578 0.018183677 0.1321162 0.043921117 -0.1438698 0.023934787 -0.13167948 0.025079308
-0.09858784 0.003874202 -0.14105733 -0.16508508 -0.045816902 -0.13919324 -0.071443394 -0.101105705
0.0788164 -0.0013763328 -0.11939765 -0.04909014 -0.04682259 0.107849695 0.08840301 0.079026096
0.05498762 0.08481506 0.0014367766 0.02694229 0.012765147 -0.1986118 0.0542966 0.034584817
-0.07451603 0.08818482 0.02637123 0.024803007 0.025251588 -0.111184396 0.12637386 0.015993748
-0.02002433 0.042192817 0.05640791 0.081471846 -0.059341386 0.0019995854 -0.05724825 -0.09009044
-0.14959683 0.042783443 0.1703519 0.075734295 -0.085237406 -0.15164284 0.06690368 0.075118326
0.06038013 -0.08103903 -0.014875976 -0.02705885 0.070850626 0.037991583 0.0020077096 -0.06343284
-0.099600814 -0.16914618 -0.17554675 -0.038897417 -0.029744003 0.006416134 0.07381217 0.17274919
-0.023585098 -0.004518289 0.059649564 0.04461874 0.09905413 0.057495963 0.023409177 0.09999407
0.13788721 0.023669645 0.15845414 -0.089830264 -0.17500967 -0.08899256 -0.14086348 -0.0315773
-0.22677954 -0.0054626744 0.06750885 -0.04090836 -0.024233269 -0.05912743 0.14404121 -0.0900595
-0.07891485 0.035295274 -0.03693056 -0.0032044337 0.17938869 -0.25679356 -0.005236633 0.07888474
-0.042232957 -0.0007653615 -0.09337805 -0.0041805664 -0.1489969 0.022886256 -0.046019025 0.01946384
-0.042395 0.10487695 0.10240492 0.01807813 0.03890259 0.099815905 -0.0018958776 0.10674242
0.1169301 -0.039610878 -0.0882959 0.010872597 -0.017412886 0.11899832 0.18673463 -0.02828191
0.11359791 0.03811519 0.033616815 0.016203267 -0.053600427 -0.15449458 -0.053928494 -0.046432618
0.1133461 -0.07248657 -0.089677565 0.00772424 0.17664644 -0.039564166 -0.058624763 -0.06567939
0.09182552 0.042742375 -0.070709616 -0.03776034 0.155982 0.112017795 -0.24807957 0.0005458079
0.02106183 0.09092361 0.014617323 0.051106885 -0.037713673 0.003065551 -0.045872487 0.019338552
-0.16894233 -0.09875352 -0.20693716 0.10295046 -0.27240628 -0.18166679 -0.07843537 -0.015932959
-0.11797173 -0.08244233 -0.08063665 -0.03552172 -0.06307698 0.007224605 -0.030755138 0.08206292
-0.12994704 -0.009212171 -0.048839685 0.037501846 0.08657754 -0.052623156 -0.0959049 -0.12041909
0.031515453 0.020349788 0.014561959 -0.07979412 0.13917558 0.05511454 0.110923156 -0.017664142

network_body._body_endoder.seq_layers.2.bias f4 [128]
00000000: 664e f8bc 1d01 50bd 1a4d 96bc 6d0b 65bd
00000010: d9ff 4bbd ece3 acbd a636 41bd fb9e 98bc
00000020: 38e7 38bd d285 0dbd b62a babc 00a7 dfbc
00000030: 190a 07bd 605f 44bd a137 c63c da72 14bd
00000040: 106b 65bd a058 ba3b cf27 2bbc 96e2 95bd
00000050: ea76 4fbd 67db a3bd 62ba 303d a00e f8bc
00000060: e21e 7bbd ad56 85bb 6015 36bd dfd9 53bd
00000070: 6533 1bbd c74c 163c 5a41 4dbd 7193 31bc
00000080: 2e7f dfbc 3a62 a0bd fc65 a53c ea8d e0bc
00000090: 5cd7 23bc efe9 29bd 5d7e 87bb 7fb8 44bc
000000a0: 5f2d 3dbd a0b2 6ebd 4864 31bc 2f16 44bd
000000b0: df84 fbbc fe34 91bc 7194 79bd 22be a7bc
000000c0: e17d 6cbd 95ae 79ba dbd8 6ebd 323b e7bc
000000d0: 47f9 153c 2209 4bbd 8d63 3fbd 9516 4d3c
000000e0: 3694 2db9 1db3 aeba 785c 99bd 6875 24bd
000000f0: daf3 d7bb 3552 dc3b 5eae 54bd faed 69bd
00000100: ff05 133b 1ef9 afbc 522d 1eba 1dfb 67bd
00000110: 7969 86bd 6b4c 60bd 8007 19bd 89c2 3fbd
00000120: 5dec b1bd 8ce2 b53c 3d6c 43bb 2c63 88bd
00000130: da09 06bc 97eb 9239 fb04 19bd 949f 3bbd
00000140: acce 3abd 26ac 913c 6d6d 2c3c 9fec 293b
00000150: 487f c0bc a4d7 4f3c 6b35 dcbc 8ec5 813c
00000160: b4ab 203c c774 99bc 47fa f43b dcfe 2abd
00000170: f908 2ebc be53 13bc 7e3b 4dbd 799d c8bc
00000180: 2a90 26bd 59e7 95bb 4e63 34bd 5794 11bb
00000190: 7ddb 16bd 9d73 4ebd 33f5 bfbd d241 21bd
000001a0: 54b2 06bd b3d8 31bd a423 54bb cec2 09bd
000001b0: 2d06 25bd f496 5f3c a3ef 09bd 8bcc ffbc
000001c0: 7160 5ebd 9a7e ed3c 46a9 7fbd 3981 d6bb
000001d0: 0286 83bd f9dc d4bc c66c 8f3b 6526 05bd
000001e0: f1f2 50bd f7c2 26bd f5fb 10bd 23b4 c9bc
000001f0: ddef d43a 7e2f c6bc f8c8 e7bc d599 b8bd
-0.03031082 -0.05078231 -0.018347312 -0.0559191 -0.049804542 -0.0844191 -0.047171257 -0.018630495
-0.045142382 -0.03455145 -0.022725444 -0.027301311 -0.032968614 -0.04794252 0.024196448 -0.036242343
-0.056010306 0.0056868345 -0.010446503 -0.073186085 -0.050650515 -0.08000832 0.0431465 -0.030280411
-0.06130875 -0.0040691704 -0.04445398 -0.05172145 -0.03789081 0.009173579 -0.050111152 -0.010838375
-0.027282324 -0.07831235 0.020190232 -0.02741142 -0.010000076 -0.041482862 -0.0041349367 -0.012006878
-0.046185847 -0.05827582 -0.010827132 -0.04787272 -0.030703006 -0.017725464 -0.06093258 -0.020476405
-0.057737235 -0.0009524611 -0.05831228 -0.028226469 0.009153671 -0.049569257 -0.0467258 0.012517591
-0.00016553779 -0.0013328526 -0.0748834 -0.04015103 -0.0065903487 0.006723667 -0.051924102 -0.057111718
0.0022433994 -0.021481093 -0.0006033975 -0.056635965 -0.06563086 -0.054760378 -0.03736067 -0.046816383
-0.08687661 0.022202753 -0.0029819154 -0.066595405 -0.00818106 0.00028022818 -0.037358265 -0.045806482
-0.045607254 0.017782282 0.010524136 0.002592839 -0.023498192 0.01268569 -0.02688094 0.015841272
0.009806562 -0.018732442 0.0074761244 -0.04174696 -0.010622256 -0.008992134 -0.050105564 -0.024489151
-0.04066483 -0.004574698 -0.044040017 -0.0022213662 -0.036830414 -0.050403226 -0.0937294 -0.03936941
-0.03288491 -0.04341955 -0.0032369876 -0.033633046 -0.040289093 0.01364683 -0.0336758 -0.031225463
-0.054291192 0.028991032 -0.06241729 -0.0065461663 -0.06422044 -0.025984274 0.0043769805 -0.03250732
-0.051012937 -0.040713277 -0.035396535 -0.024622029 0.0016245801 -0.024192568 -0.028294072 -0.09013716

action_model._continuous_distribution.log_sigma f4 [1, 2]
00000000: 1ffe afbe b453 87be
-0.34373567 -0.26431048

action_model._continuous_distribution.mu.weight f4 [2, 128]
00000000: 6243 9b3c a4e5 b53c 9897 423d a9aa b53c
00000010: 2ad9 783c b299 e13b d208 493c e92f c1bb
00000020: 6f29 c33c 631c 4c3d 5985 533d ff32 12bc
00000030: 29df 923c 94c0 c13b 15f7 9e3d 5512 fc3c
00000040: 4ede 243b 9de2 cf3c c7d9 2b3d f6d7 b2bc
00000050: 9063 9d3c 8e6a 683c 5bc3 a0bd 830d 063c
00000060: 32ac 673c b29f 6bbc 4d4a ce3c a9bc c43c
00000070: fe17 12bb 6baa 04bd fd71 ce3c de27 043d
00000080: f1f5 a53c b8cf c13a 93e5 94bd b358 bcbb
00000090: ad46 873d 755d 58bc 6b32 febb 0ce6 0a3d
000000a0: 5720 063c c164 ca3c ccd8 f2bc c2c6 813c
000000b0: db32 223d d0b0 383d 6642 ad3c 0aa9 e43c
000000c0: b609 983c cae5 943c f47a e93b b542 b3bb
000000d0: 3e43 61bd 8731 823c f6b6 d43b 8ab5 66bd
000000e0: d755 643d 416f c13c d5e0 4b3c 0ad5 913c
000000f0: c241 b13c 5124 1b3d 5465 4c3c e2a7 e83c
00000100: 6e90 c03c 09c2 5f3d cce8 86bd c875 b93c
00000110: 6030 d23b 6609 943c af3a 45bb 9dad 673b
00000120: a61b 72bc 6cdc b13d 5746 80bc 57a5 e13c
00000130: fdd0 253d 2f7b 28bc b296 d33c 11c8 fc3c
00000140: 00e3 443c 86a6 743d fbb8 31bc c323 6c3d
00000150: dceb 243d 78db a0bd fc93 aebb 26eb 813d
00000160: 6544 913c 6f9e 41bd 9ffc acbb 2ba5 233c
00000170: 6275 273d 91c2 0cbd a3d5 153c 59bf 68bc
00000180: 2f81 b93c c046 74bc a6a9 013c 9321 6abd
00000190: 83ef 883c 6896 bc3c 0c0b c03b ed4b db3c
000001a0: 9cdc 103d b64f 633c 4d46 43bc 25cf 163d
000001b0: 52f3 aabb 1886 eabc 5718 443d 8a44 ad3c
000001c0: 0492 873c 48ec a53c e1ea 473c 2afc 0f3d
000001d0: 09ff a03c 0280 df3c 00f9 863d 48c9 303d
000001e0: 4d7c 733c 89de 873d 6238 c83c 76dc 87bb
000001f0: e681 533d 8215 143d 2863 5cba becd 9e3a
00000200: b9ea 21bd 5cb4 053c 7911 95bc f77f 8cbc
00000210: 9266 08bd 5ebe d6ba f10b 50bc d659 04bd
00000220: e685 1cbb 8be8 ac3c 79df b4bb fca6 963c
00000230: 8dd3 58bc 2abb febc 21c8 553d 16bb 73bb
00000240: 8781 3abc ad1b 6c3d a1b9 30bd 43d9 f2bc
00000250: 11b0 073c 2c19 52bc 4338 853d 828b 2fbd
00000260: 63ba 15bc 9e8e c03c 1fcf b9bc e014 683c
00000270: d268 53bc 33a2 8b3d 5e2d 80bc 02b8 1ebc
00000280: 7f8c e0bc 6d47 ecbb 5f08 17bc 9414 d43c
00000290: 1f16 5d3c af60 52bd f775 f53c 0bff 47bd
000002a0: dbb0 a9bc a8d2 00bd 8dbc dabc 9da6 973b
000002b0: 740d 1ebc 893c 683b 11e3 d3ba 2b7e 0dbd
000002c0: 8984 07bc 0264 573d afe7 31bc c2b2 1fbc
000002d0: 1c93 b03c c461 523b 42fd 40bb c77a a6bd
000002e0: c5be 0f3d 54a8 a9bc 4b2f fa3b f7dd f6bc
000002f0: 0d4c ef3c 01da a33c e8bf bdbc 81f1 b6bb
00000300: 27c6 1b3d 6023 dc3b 0271 13bd 9f08 50bc
00000310: 7901 63bc 56ad e0bb 9322 cfbb 4b63 7fbc
00000320: 6f8f 733c 363f 273d c050 84bd d144 2ebb
00000330: 7fff 133d 2591 fd3c 863f 573b b413 923c
00000340: c459 cfbc 6dc5 fd3c a9df 3f3d 0276 7d3c
00000350: ecc3 453c 18b7 89bd 128d 96bc 4b5d 283d
00000360: 4785 a2bd cf1f 99bd 6fed 2c3d 89b5 e9bc
00000370: 27ba 09bd e3d8 bd3c 54d5 ddbc 5d9f e5bc
00000380: 8b7a e8bc eb74 9cbd 8f35 863c 98b3 523c
00000390: b5b8 2dbd 6bc6 f4bb 00ec cebb e49c 0abd
000003a0: b3a8 8a3c b22a cdbc 6da8 833d e391 32bc
000003b0: 7064 2c3d 2122 c0bd 45a3 813c 5cb1 12bd
000003c0: ce68 7cbc b0b7 2cbd f0b5 a9bc 44d8 3c3c
000003d0: 2711 01bd beff 93bc fe11 333d 39a9 a53c
000003e0: 6ff1 bcbc 1390 203d 814d 82bb 652f 7a3c
000003f0: 00a9 bbbc 2688 1d3c 944c 96bc 3d11 16ba
0.018953029 0.022204228 0.047507852 0.022176104 0.015188495 0.006884777 0.012270169 -0.005895604
0.023823468 0.04983176 0.051640842 -0.008923291 0.017928677 0.0059128497 0.07761971 0.03077046
0.0025156918 0.025376612 0.041955736 -0.021831494 0.019212514 0.014185561 -0.07849761 0.008181932
0.014140176 -0.014381336 0.025181914 0.024015741 -0.0022292132 -0.032389086 0.025200838 0.032264583
0.020258876 0.0014786636 -0.0727035 -0.0057478785 0.06605277 -0.013205876 -0.007757475 0.033910796
0.008186421 0.024706246 -0.029644392 0.015841845 0.03959928 0.045090497 0.021149825 0.027912635
0.018559318 0.018175978 0.007125253 -0.0054705986 -0.054995768 0.015892757 0.006491537 -0.056325473
0.055745926 0.02361262 0.012443741 0.01780178 0.021637801 0.03787643 0.01247533 0.028400365
0.02350637 0.054628406 -0.06587371 0.02263917 0.006414458 0.018070888 -0.0030094793 0.0035351284
-0.0147771 0.0868462 -0.01565854 0.02754466 0.04048251 -0.0102832755 0.025828693 0.030857118
0.012017012 0.05972912 -0.010847325 0.057651293 0.040263996 -0.0785436 -0.0053276997 0.06343679
0.017732808 -0.047270235 -0.005279138 0.00998811 0.04088343 -0.03436524 0.009145173 -0.014205777
0.022644607 -0.014909446 0.0079139825 -0.057160925 0.01671577 0.023020938 0.005860692 0.026769603
0.03536664 0.013873985 -0.0119186165 0.036818642 -0.0052169943 -0.028628394 0.047874775 0.021150846
0.016549118 0.02025427 0.012201996 0.03515259 0.01965286 0.027282719 0.06590462 0.043160707
0.014861179 0.06634242 0.024440948 -0.004146154 0.051637553 0.036153324 -0.00084071094 0.0012115759
-0.03953049 0.008160677 -0.018196808 -0.017150862 -0.033300944 -0.0016383638 -0.01269816 -0.032312237
-0.002388352 0.021106979 -0.005519804 0.018390171 -0.013234031 -0.031095106 0.05219281 -0.003719037
-0.011383421 0.05764358 -0.04314578 -0.029644614 0.008281724 -0.012823384 0.06504872 -0.042857654
-0.009138676 0.023505505 -0.02268177 0.014165133 -0.012903409 0.068180464 -0.015646633 -0.009687426
-0.027410744 -0.007210663 -0.009218304 0.025888719 0.013494044 -0.051361736 0.029963477 -0.048827212
-0.020714214 -0.031450897 -0.026701236 0.004628016 -0.009646762 0.0035436472 -0.0016165694 -0.03454415
-0.008271345 0.05258561 -0.01085846 -0.009747209 0.021554522 0.003210173 -0.0029447828 -0.08128887
0.03509404 -0.020710148 0.0076350323 -0.030135138 0.029211069 0.020001413 -0.023162797 -0.0055829887
0.03803077 0.006718084 -0.035996445 -0.012697368 -0.013855332 -0.0068566008 -0.0063212602 -0.015587638
0.01486574 0.040831767 -0.06460714 -0.002659131 0.036132332 0.030953 0.003284426 0.01783166
-0.025311358 0.030977929 0.04684416 0.01547003 0.012070637 -0.067243755 -0.018377814 0.041104596
-0.07935577 -0.0747677 0.04221862 -0.028528946 -0.033624794 0.023174709 -0.027079262 -0.028030092
-0.028378746 -0.07639488 0.01638296 0.012860201 -0.04241248 -0.0074699423 -0.0063147545 -0.03384103
0.016926145 -0.025044773 0.06428609 -0.01089904 0.042087972 -0.093815096 0.015824923 -0.035813674
-0.015405847 -0.042167366 -0.020716637 0.011526171 -0.0315105 -0.018066283 0.04371833 0.020222293
-0.023064343 0.0391999 -0.0039765243 0.015270089 -0.022907734 0.00961498 -0.018347062 -0.00057246146

action_model._continuous_distribution.mu.bias f4 [2]
00000000: 2046 c9bc 6b5f 353d
-0.024569571 0.04428045
