MLAgentDevProject/results/ppo/MoveToGoal/MoveToGoal-1600.pt (torch, 145300 bytes, 11 tensors)

network_body._body_endoder.seq_layers.0.weight f4 [128, 1]
00000000: 2ab0 bfbf 043a 443f 0d09 90be b4a9 a13f
00000010: 4e0a cc3f 8205 19bf ebe6 8ebe 1fe3 9bbe
00000020: 0359 b93f 8cb1 8bbb eeb9 983f 48a5 663f
00000030: 8d82 ddbe 20d8 21be 8d2c fe3e 6cfc 1fbf
00000040: 3493 f43e 8b86 d23e 9b49 0dbf 2fed 2dbe
00000050: e96b b2be 86f7 133f 23a4 3a3f 81fd f53f
00000060: a8cb 4c3f 6d63 8bbe 6fb9 20bf aa50 d63e
00000070: 25ac 2ebf 2f7f 193f d93b 773f 0c50 ce3f
00000080: 007c e6be 7751 0e3e dc63 80bf d7b1 b43e
00000090: 0a98 7d3f 9715 823f 4a91 a33c 0a11 353f
000000a0: f0e9 e43f 38f2 79bf 79bd e9bf 639d d1bf
000000b0: 606c e53e 4aed 533f 9820 00bf d20e d1bd
000000c0: 4521 7ebf 4dac bb3e 0ea1 8c3f 92f8 95bf
000000d0: 1123 2ebf 8824 bc3e 55d6 5e40 b791 aabf
000000e0: 7dcf 493f 1e86 283f 68de c1bf 86ca 3c3f
000000f0: d58f e13f 0af5 703e 170e ac3f 9dc9 7dbf
00000100: 6cb6 de3e 40cd 96bf 5f4e fabe 0b51 0f3f
00000110: 3b3d e3bd ca23 3fbf 48ae 873b e636 913a
00000120: d2b7 dfbd 6678 01bf 91ef 9b3f 2800 ee3e
00000130: 5ff3 403e beac 08c0 8d28 e83f c8ed 4e3f
00000140: b74e 65bf d672 783e d9de 0f3f b426 e83e
00000150: 48c6 5dbd f3cc e9bf 0e8b 90bf a13f b43f
00000160: d3f0 babd 5db0 c93f 91f7 583e d398 c2bc
00000170: 6e21 36be a609 71bf c7bd b6be 0bbf 593f
00000180: da39 67be 0bc8 fabe 0911 213f da37 913f
00000190: 3399 19bf 05c8 883f 793e e2bf 071e 923f
000001a0: 776b 50be 4354 803e 07cf 4b3e 24c3 83bd
000001b0: f771 673f e904 67bf a891 633f 6f9c cc3e
000001c0: fc26 09c0 da81 4d3f 4d6e c33c 2af6 7f3e
000001d0: de25 bcbe 38cc 64bf 805c 64bf 4b3b d8bf
000001e0: 5d45 78bf 36fd c6bf f291 65bf 2510 9ebf
000001f0: a2b5 473d 433d 90bf 3c4d 8d3f c792 dfbf
-1.4975636 0.76651025 -0.28131905 1.2629914 1.5940645 -0.5977403 -0.2791055 -0.30446717
1.4480289 -0.0042631086 1.1931741 0.9009595 -0.43263665 -0.15805101 0.49643365 -0.6249454
0.47768557 0.41118273 -0.5519044 -0.1698501 -0.34847954 0.57799566 0.729067 1.9217988
0.79998255 -0.27224293 -0.6278295 0.41858417 -0.6823142 0.5995969 0.96575695 1.6118178
-0.4501648 0.13898264 -1.0030475 0.3529193 0.9906012 1.0162839 0.01996674 0.70729125
1.7883892 -0.9763522 -1.8260947 -1.6376156 0.44809246 0.8278395 -0.50049734 -0.10207905
-0.99269515 0.36654893 1.098665 -1.1716483 -0.6802226 0.3674662 3.4818318 -1.3325719
0.78832227 0.65829647 -1.5145998 0.73746526 1.7622019 0.23530975 1.34418 -0.9913576
0.43498552 -1.1781387 -0.48887917 0.55983037 -0.11095663 -0.74663985 0.004140649 0.0011078983
-0.10923733 -0.5057434 1.2182485 0.46484494 0.18842839 -2.1355433 1.8137375 0.80831575
-0.89573234 0.24262556 0.56199414 0.45342028 -0.054144174 -1.826567 -1.1292436 1.4081918
-0.09127965 1.5756947 0.21188189 -0.023754513 -0.1778619 -0.9415535 -0.35691664 0.85057133
-0.22580662 -0.48980746 0.6291662 1.134517 -0.5999939 1.0686041 -1.7675315 1.1415414
-0.20353495 0.25064287 0.19903193 -0.064337045 0.9040827 -0.9024187 0.8889413 0.399631
-2.1430044 0.8027626 0.023856306 0.24996248 -0.3674764 -0.89374113 -0.89203644 -1.6893095
-0.9698084 -1.5546024 -0.8967582 -1.2348677 0.048757203 -1.1268696 1.1039195 -1.7466668

network_body._body_endoder.seq_layers.0.bias f4 [128]
00000000: 0000 0000 0000 0000 0000 0000 0000 0000
00000010: 0000 0000 0000 0000 0000 0000 0000 0000
00000020: 0000 0000 0000 0000 0000 0000 0000 0000
00000030: 0000 0000 0000 0000 0000 0000 0000 0000
00000040: 0000 0000 0000 0000 0000 0000 0000 0000
00000050: 0000 0000 0000 0000 0000 0000 0000 0000
00000060: 0000 0000 0000 0000 0000 0000 0000 0000
00000070: 0000 0000 0000 0000 0000 0000 0000 0000
00000080: 0000 0000 0000 0000 0000 0000 0000 0000
00000090: 0000 0000 0000 0000 0000 0000 0000 0000
000000a0: 0000 0000 0000 0000 0000 0000 0000 0000
000000b0: 0000 0000 0000 0000 0000 0000 0000 0000
000000c0: 0000 0000 0000 0000 0000 0000 0000 0000
000000d0: 0000 0000 0000 0000 0000 0000 0000 0000
000000e0: 0000 0000 0000 0000 0000 0000 0000 0000
000000f0: 0000 0000 0000 0000 0000 0000 0000 0000
00000100: 0000 0000 0000 0000 0000 0000 0000 0000
00000110: 0000 0000 0000 0000 0000 0000 0000 0000
00000120: 0000 0000 0000 0000 0000 0000 0000 0000
00000130: 0000 0000 0000 0000 0000 0000 0000 0000
00000140: 0000 0000 0000 0000 0000 0000 0000 0000
00000150: 0000 0000 0000 0000 0000 0000 0000 0000
00000160: 0000 0000 0000 0000 0000 0000 0000 0000
00000170: 0000 0000 0000 0000 0000 0000 0000 0000
00000180: 0000 0000 0000 0000 0000 0000 0000 0000
00000190: 0000 0000 0000 0000 0000 0000 0000 0000
000001a0: 0000 0000 0000 0000 0000 0000 0000 0000
000001b0: 0000 0000 0000 0000 0000 0000 0000 0000
000001c0: 0000 0000 0000 0000 0000 0000 0000 0000
000001d0: 0000 0000 0000 0000 0000 0000 0000 0000
000001e0: 0000 0000 0000 0000 0000 0000 0000 0000
000001f0: 0000 0000 0000 0000 0000 0000 0000 0000
0.0 0.0 0.0 0.0 0.0 0.0 0.0 0.0
0.0 0.0 0.0 0.0 0.0 0.0 0.0 0.0
0.0 0.0 0.0 0.0 0.0 0.0 0.0 0.0
0.0 0.0 0.0 0.0 0.0 0.0 0.0 0.0
0.0 0.0 0.0 0.0 0.0 0.0 0.0 0.0
0.0 0.0 0.0 0.0 0.0 0.0 0.0 0.0
0.0 0.0 0.0 0.0 0.0 0.0 0.0 0.0
0.0 0.0 0.0 0.0 0.0 0.0 0.0 0.0
0.0 0.0 0.0 0.0 0.0 0.0 0.0 0.0
0.0 0.0 0.0 0.0 0.0 0.0 0.0 0.0
0.0 0.0 0.0 0.0 0.0 0.0 0.0 0.0
0.0 0.0 0.0 0.0 0.0 0.0 0.0 0.0
0.0 0.0 0.0 0.0 0.0 0.0 0.0 0.0
0.0 0.0 0.0 0.0 0.0 0.0 0.0 0.0
0.0 0.0 0.0 0.0 0.0 0.0 0.0 0.0
0.0 0.0 0.0 0.0 0.0 0.0 0.0 0.0

network_body._body_endoder.seq_layers.2.weight f4 [128, 128]
00000000: 4c70 db3c bcf1 8a3d 4eaa 953d ce7c ce3d
00000010: b313 1bbc eece d03d 9a50 323c 30e4 523c
00000020: 19fd f0bd d35d 4ebd 44b8 b4bc c25f cbbc
00000030: 6b96 e83d ec92 18be 5132 8abd 2d92 f33d
00000040: 94b3 adbc 903a cebd 3108 1bb9 84a9 a1ba
00000050: c9b7 fe3c e5d3 a73e 8adb 6bbd 155e f1bb
00000060: dea3 053e e243 88bd 8613 b03c 98d6 dabc
00000070: c937 603c 4ca2 dfbd 58bb fe3b 7b13 bb3d
00000080: b26a cfbc 1720 12bd 02c4 fd3a 8397 2abe
00000090: 1990 55be 8d0c adbd 5e59 f43d 6c7d 003e
000000a0: 005f 303d 16b6 b8bc 5598 53bc 176b 06bc
000000b0: 3fe1 343d b1c1 de3c 052c 213e 692d ccbc
000000c0: 7ee1 d8bc 6a58 d2bd 05d3 01be 0f9e 2c3b
000000d0: 0293 b83d a5d8 6c3d 7d80 0dbc 4b45 bb3c
000000e0: a206 243e 10ac 2dbe ea34 c4bd 2fd5 cf3c
000000f0: 4ce9 c13b 7620 8fbd c41a 2c3d 2056 58bc
00000100: 843c 42bd 37a7 2d3d eca8 4cbc a22e bfbd
00000110: 95e7 9fbd c4dc 743d b2be 783c ad34 62bd
00000120: 694c 043d 43ae 45bc 2d17 d5bc fd19 973c
00000130: b2a1 a1bd f23e cd3c f5b9 eabd 8564 633c
00000140: 214b 6d3d 08fa 8a3d 1e3f 89be 8c9b dd3d
00000150: 3eb6 fa3d b590 0b3e bf3d 4cbc 2c52 d73b
00000160: 9838 a0bc b49b 963d 5194 533d d156 9cbd
00000170: 6ddc 8f3d 69c7 9fbd 75f0 bd3d 6bfc 78bd
00000180: 2047 103b dfda f2bd 36d6 4bba e860 45bd
00000190: 6380 893c 0d60 1e3c f6ad 83bc 4e36 013e
000001a0: 7d6d 1c3d dca3 b63d f84b 913c edb9 a7bc
000001b0: 7bd8 0e3e 478f 9fbd 1fe7 523d 8a0b f3bd
000001c0: c460 133c 9247 9d3d 617d 3c3e d0f7 cc3d
000001d0: a6a2 aa3c 9b7d 12bc 78b1 68bd add6 b13d
000001e0: 8db2 f03c 7cf1 8c3d 0d30 633d cbc3 0bbd
000001f0: 43d5 9bbd 7874 763d 929b 10be ffd4 46bd
00000200: 97c9 efbd 1e0e b2bd e7b7 1d3e cc1f 083d
00000210: b002 83bd 6429 8fbd fbdf 07bd a35b 6ebd
00000220: 4a59 883d 45e9 1bbc 0b66 efbc a6bf 81bd
00000230: 113b 163d 7fe2 52bd 8d4e d0bb e2f6 6e3d
00000240: 09a3 8b3d 947d 163e d186 11be 9d2c b63d
00000250: e740 673e ed5e 32be ce5b 413e 27f1 ebbd
00000260: f28b 15bd 8558 9d3d e3f9 42bd b74f 47bc
00000270: 65b0 48bd d281 a2bd 5238 a9bc ad9c 0fbc
00000280: 35f5 1e3d 5baa 5bbd 32d2 8fbd 3aef 323d
00000290: a970 35bc e4da 84bd 816d 96bd 6842 f1bc
000002a0: 97fe e83d 51e0 4abc 6e3e efbc 25c0 ad3d
000002b0: 3b38 113e e6da f0bd 6d88 04bd 3e10 4bbe
000002c0: ada9 d1bd e620 f4bc 6d9e 253d 97c9 b73d
000002d0: 82fd 84bd 73e4 17be 4e33 a23d ca3a 5abd
000002e0: 6ffb 113e 3e0f 3fbe 8141 c2bc 950c 3dbd
000002f0: 1789 103e 0bbe 973d ddc0 0a3e af4a 533e
00000300: d368 6bbd e88f e23d 09fc bebd df54 b33a
00000310: 58c1 333c 6e9b 4a3d 9cf1 723d db39 5fbd
00000320: 9556 c83a 75db 1b3c e9e0 c6bd e328 2d3c
00000330: 8280 543c 3937 e43b a21e 343e ac65 3e3c
00000340: 0faa ab3d 1348 46bd e14c 983c 123f babd
00000350: fe6a dd3d aa9c 1abe 0878 d93d 7620 343e
00000360: 564f 2ebe e7ca cfbd 072a 72bd a00c 02be
00000370: d9af fe3d f0b8 04be 7302 193c 0953 c8bd
00000380: 491d c93d 18ac e1bd 2498 babc cdcf b2bd
00000390: 2ce0 6e3d bd4f b4bc 3fcd 893d 9d4d 8c3c
000003a0: 2441 143e ce63 c8bc 5a4b 73bd 5ae6 19bd
000003b0: 5b4f 19be 3de6 9fbd bb32 87bd 2a74 653d
000003c0: 92ef ec3b 137e 90bc 972a 02be 2b7c 173d
000003d0: c6d1 a7bd 506c 1b3d 2815 ab3d 2220 223e
000003e0: d4fa 4cbc 0742 0c3e a6da 163e eebf 9bbb
000003f0: ef33 ab3d a854 b2bd 914c 80bc 2ca4 573d
0.026786946 0.067843884 0.07307874 0.10082398 -0.009465146 0.10195719 0.010883475 0.012871787
-0.117670245 -0.050382446 -0.022060521 -0.024825934 0.11356815 -0.14899796 -0.06747878 0.11893115
-0.021203794 -0.10069764 -0.00014785003 -0.0012333845 0.031093495 0.3277885 -0.057582416 -0.007365952
0.13050792 -0.066535726 0.021493685 -0.026713654 0.013685175 -0.109196275 0.007773798 0.09134575
-0.025319431 -0.035675135 0.0019360783 -0.1665936 -0.2085575 -0.084496595 0.11931108 0.12547845
0.04305935 -0.022547763 -0.012914737 -0.008204243 0.044160124 0.027191969 0.15739448 -0.024923997
-0.02647471 -0.1027077 -0.12678154 0.0026339327 0.090124145 0.057823796 -0.008636591 0.02286019
0.16018155 -0.16960168 -0.09580405 0.025370209 0.0059177037 -0.06988613 0.042017713 -0.013204128
-0.047420993 0.042395797 -0.012491446 -0.093350664 -0.07807843 0.05978085 0.015182184 -0.055226017
0.032299433 -0.012065473 -0.026012028 0.01844501 -0.07892169 0.025054429 -0.1146125 0.013878946
0.057932977 0.06785971 -0.26805967 0.10820684 0.12241791 0.1362942 -0.012465893 0.006571075
-0.019558236 0.07353917 0.051655117 -0.076337464 0.07024465 -0.07801706 0.09274379 -0.0607876
0.002201505 -0.118581526 -0.00077757554 -0.04818812 0.016784852 0.009666455 -0.016074162 0.12618372
0.038190354 0.089179724 0.01773642 -0.020474399 0.13949768 -0.07791 0.051489946 -0.11867435
0.008995239 0.076796666 0.18407203 0.10008204 0.02082951 -0.0089410795 -0.056809872 0.08683524
0.029382015 0.06881997 0.055465747 -0.03412227 -0.07609036 0.060169667 -0.14121845 -0.048542973
-0.11708372 -0.08694099 0.15402184 0.03323345 -0.06396997 -0.069903165 -0.03317259 -0.05819286
0.066576555 -0.009516065 -0.029223463 -0.06335382 0.036677424 -0.051485535 -0.00635702 0.058340915
0.06818206 0.14696342 -0.14211585 0.08895228 0.22583352 -0.17419024 0.18882677 -0.115206055
-0.036510415 0.076828994 -0.04760159 -0.012165002 -0.048996348 -0.079349175 -0.020656738 -0.008765382
0.038808066 -0.05362926 -0.070225134 0.043685175 -0.011074224 -0.064870626 -0.07345105 -0.02945061
0.11376684 -0.012382583 -0.029204573 0.08483914 0.14181606 -0.117605016 -0.03235667 -0.19830415
-0.10237441 -0.029800843 0.04043429 0.08973997 -0.06493665 -0.1483324 0.07919942 -0.053278722
0.1425607 -0.18658158 -0.023712875 -0.046154577 0.14114796 0.07409295 0.13550134 0.20633958
-0.057473015 0.11062604 -0.09325416 0.001368191 0.01097139 0.049464636 0.059312448 -0.054498535
0.0015284593 0.009512772 -0.09710867 0.01056883 0.012970092 0.006964591 0.1758981 0.01162092
0.083820455 -0.04840858 0.018591346 -0.09094061 0.10811423 -0.15098825 0.10618597 0.17590508
-0.17022452 -0.101461224 -0.05912211 -0.12700129 0.12435884 -0.12961173 0.009338963 -0.09781463
0.09820039 -0.110191524 -0.022777624 -0.08731041 0.058319256 -0.022010678 0.06728601 0.017126853
0.14477974 -0.024461653 -0.059398033 -0.037573196 -0.14971678 -0.07807586 -0.06601473 0.056018986
0.0072307074 -0.017638242 -0.12711559 0.03698365 -0.08194308 0.03794509 0.083536446 0.1583257
-0.012510974 0.13697062 0.14731845 -0.0047531044 0.08359515 -0.08707553 -0.01566151 0.0526468

network_body._body_endoder.seq_layers.2.bias f4 [128]
00000000: 0000 0000 0000 0000 0000 0000 0000 0000
00000010: 0000 0000 0000 0000 0000 0000 0000 0000
00000020: 0000 0000 0000 0000 0000 0000 0000 0000
00000030: 0000 0000 0000 0000 0000 0000 0000 0000
00000040: 0000 0000 0000 0000 0000 0000 0000 0000
00000050: 0000 0000 0000 0000 0000 0000 0000 0000
00000060: 0000 0000 0000 0000 0000 0000 0000 0000
00000070: 0000 0000 0000 0000 0000 0000 0000 0000
00000080: 0000 0000 0000 0000 0000 0000 0000 0000
00000090: 0000 0000 0000 0000 0000 0000 0000 0000
000000a0: 0000 0000 0000 0000 0000 0000 0000 0000
000000b0: 0000 0000 0000 0000 0000 0000 0000 0000
000000c0: 0000 0000 0000 0000 0000 0000 0000 0000
000000d0: 0000 0000 0000 0000 0000 0000 0000 0000
000000e0: 0000 0000 0000 0000 0000 0000 0000 0000
000000f0: 0000 0000 0000 0000 0000 0000 0000 0000
00000100: 0000 0000 0000 0000 0000 0000 0000 0000
00000110: 0000 0000 0000 0000 0000 0000 0000 0000
00000120: 0000 0000 0000 0000 0000 0000 0000 0000
00000130: 0000 0000 0000 0000 0000 0000 0000 0000
00000140: 0000 0000 0000 0000 0000 0000 0000 0000
00000150: 0000 0000 0000 0000 0000 0000 0000 0000
00000160: 0000 0000 0000 0000 0000 0000 0000 0000
00000170: 0000 0000 0000 0000 0000 0000 0000 0000
00000180: 0000 0000 0000 0000 0000 0000 0000 0000
00000190: 0000 0000 0000 0000 0000 0000 0000 0000
000001a0: 0000 0000 0000 0000 0000 0000 0000 0000
000001b0: 0000 0000 0000 0000 0000 0000 0000 0000
000001c0: 0000 0000 0000 0000 0000 0000 0000 0000
000001d0: 0000 0000 0000 0000 0000 0000 0000 0000
000001e0: 0000 0000 0000 0000 0000 0000 0000 0000
000001f0: 0000 0000 0000 0000 0000 0000 0000 0000
0.0 0.0 0.0 0.0 0.0 0.0 0.0 0.0
0.0 0.0 0.0 0.0 0.0 0.0 0.0 0.0
0.0 0.0 0.0 0.0 0.0 0.0 0.0 0.0
0.0 0.0 0.0 0.0 0.0 0.0 0.0 0.0
0.0 0.0 0.0 0.0 0.0 0.0 0.0 0.0
0.0 0.0 0.0 0.0 0.0 0.0 0.0 0.0
0.0 0.0 0.0 0.0 0.0 0.0 0.0 0.0
0.0 0.0 0.0 0.0 0.0 0.0 0.0 0.0
0.0 0.0 0.0 0.0 0.0 0.0 0.0 0.0
0.0 0.0 0.0 0.0 0.0 0.0 0.0 0.0
0.0 0.0 0.0 0.0 0.0 0.0 0.0 0.0
0.0 0.0 0.0 0.0 0.0 0.0 0.0 0.0
0.0 0.0 0.0 0.0 0.0 0.0 0.0 0.0
0.0 0.0 0.0 0.0 0.0 0.0 0.0 0.0
0.0 0.0 0.0 0.0 0.0 0.0 0.0 0.0
0.0 0.0 0.0 0.0 0.0 0.0 0.0 0.0

action_model._discrete_distribution.branches.0.weight f4 [5, 128]
00000000: 2128 16bc 8772 45bb 00e6 a33c 52f5 d53b
00000010: f7d9 bb3b ebc6 2dbc 4774 babb 4b09 8d3c
00000020: 93d1 173b b8ff fabb fb76 373b f306 f6bb
00000030: 3821 9cbc a5e1 a1bb d681 a93b 3738 84bb
00000040: 6205 79bc 1731 ffbb 1eb5 b53a d7bc 18bc
00000050: 2ef0 233c 7f9c 65bb bf27 97bc d0e9 f23c
00000060: 6cd1 2cbc a08d e039 e64e 87bc 9fdd b3bb
00000070: 5814 053b 8fb5 0bbc 72ed a2bb 70ce cebb
00000080: f54d 8abb 504b dfbb 6abe cfba dbde 1f3b
00000090: 281d 29bc 3091 61bb 1577 d6bb b84a 703b
000000a0: 4a58 043b 65bf 883b ac19 ca3a 6782 4ebc
000000b0: 7377 73bc bf16 123c 0724 98bb ddbc bc3b
000000c0: 0889 2dbc a7f1 8dba 5ac9 a83b 005e cb3b
000000d0: e66d c43b 62d0 22bb 87f5 853b 4725 5bbb
000000e0: bdd4 723c 628d e53b 775d f53b d021 b93b
000000f0: f3e0 19ba e73e f33a ca3b 633b d5d2 fd3b
00000100: bda3 bd3b 28de 283c 8d76 fbb9 eb4e 8a39
00000110: 9304 3abc 8549 7d3a 531c be3a e113 03ba
00000120: 5fa3 633c 9bde 023c 58ca d2bb bbd2 02bd
00000130: f80a e73b 834d 2cbc 0723 983c 8da9 f33b
00000140: 2263 53bc 7ba8 a3bb 2a2c d1b9 50f2 4bba
00000150: 1022 8a3a 321e 563b 41c6 b83a 3c63 a9bb
00000160: ab3c 94bb aa6b 25bc fe94 15bc 901e 203c
00000170: cecd 84b9 6db0 99bb 00db 4c3c 6284 e0ba
00000180: 0ad0 8fba ade0 3ebc 8ba0 953b 33f4 48bc
00000190: b36e ef3a 8a16 98bb 35ef 6b3b fa88 6439
000001a0: 4fd9 033c 083f 92ba f75e 6bbb 9ad3 d83b
000001b0: 1cb1 90bb 5d36 6dba f748 2b3c ed69 033c
000001c0: 334b 1a3b a796 86ba e865 69ba 1b50 26bb
000001d0: b05c 3c3c 62a4 13bb 81bc 2ebb ceee 24bb
000001e0: 4bc4 0d3c 7f41 0bbc 3a9e ff3a ac46 2dbb
000001f0: 8f20 0cbc cb29 08bb f3d4 05bc 5724 6ebb
00000200: 1ff2 f5bb 4842 093c 13f9 05bb 2fa9 10bc
00000210: 8a1f 603b 91c9 2a3a 4a0e 943b 3a27 73bc
00000220: 05f0 68bc c3bd d0bb c016 6dbb 552c 5bbb
00000230: c3c6 2bbc 8266 93bb a991 1bbc b558 7fbb
00000240: 7f1d 8fbb a1fa 3b3a 6690 47ba 0548 5d3c
00000250: 87ff 973c a34f 41bb aa4e 3d3c d25e 963b
00000260: 2066 73bc 3f2a a8bb 73fb abbb 37c7 14bb
00000270: 045a 24bc 77fb 313a 6b7d 0e3b 53b4 2f3b
00000280: bd4d 063b 332b cdbc 5de1 ad3b 25a0 0cbc
00000290: 6772 8c3b 0946 ba3b b0d8 27bc 68a0 2cbc
000002a0: 5443 a3bc 5aa4 60bb fdc5 fe3b 06a0 b53b
000002b0: 4479 1fbc 6c0f 3c3b c3b0 0fbc cad4 76bb
000002c0: cf20 64bb 74e6 8eba 7081 edbb af9c 1b3c
000002d0: 54d9 92bc a704 47bc 0551 ffbb 6f47 263c
000002e0: 37f2 e53b 9774 62bc 4d83 443a 4028 6e3b
000002f0: a593 84bb c532 d1b8 c0d5 823a 338a 293a
00000300: 8b93 fcb6 e085 5e3c 79f4 283b 05f8 9dba
00000310: 2e45 92bc f877 fbbb 5355 f1bb d26c 253c
00000320: 5c51 2d3b 9ae3 7bba e022 643b fbbb 193c
00000330: 7c7a 1e3b 952f 6bbb 82d5 d1ba 317c a03b
00000340: a377 7c39 4031 81bc cfb4 d7bb 4fbf 8fba
00000350: bfa9 973b 9f00 163c 6bdd adbb a796 0e3c
00000360: 9a49 343c 7278 ce3b b0f2 02bc a12d a3bb
00000370: 704e 34bc b723 2c3b 3ab7 15bc 900e b03b
00000380: b0d0 93bc 2be2 02bc 8600 393c 1a41 da38
00000390: a78e 35bc ed7a e13b c327 cf3a 33ce 583c
000003a0: 37be 99bb 5b22 d2bb e3a6 683c 1731 843c
000003b0: 38d6 d1bb 6f42 5c3c 9465 9ebc bb6e 503b
000003c0: 2456 493b 6ee3 c339 05e1 af3b 4a03 5e3c
000003d0: f1c5 163b 07c5 3fbc 7e45 c43b 5e70 ccba
000003e0: b3ba 9cba b3ce c93b e50a 8abb 8673 23bc
000003f0: fae0 4dbc a2f6 4fba 2d4f e73b ff93 4bb7
-0.009164841 -0.0030128078 0.020007133 0.0065294886 0.0057327705 -0.010606508 -0.005690131 0.017216345
0.0023165687 -0.0076598786 0.0027994502 -0.0075081526 -0.019058809 -0.004940229 0.0051729484 -0.0040350216
-0.015199037 -0.0077878344 0.0013863181 -0.009322367 0.010005994 -0.0035035906 -0.01845157 0.029652506
-0.010547977 0.00042830128 -0.016517114 -0.005489066 0.0020306315 -0.008527174 -0.0049721533 -0.0063112304
-0.004220719 -0.006814398 -0.0015849594 0.0024394307 -0.010321893 -0.0034418814 -0.0065449574 0.003666563
0.0020194226 0.0041732066 0.0015419028 -0.0126043325 -0.014860022 0.008916556 -0.0046429667 0.005759819
-0.010591753 -0.0010829464 0.005150956 0.006206274 0.005994546 -0.0024843444 0.004088107 -0.0033438967
0.014821229 0.0070053795 0.0074879485 0.0056497827 -0.0005870007 0.0018558175 0.0034673088 0.0077460804
0.0057873414 0.010306872 -0.00047962778 0.0002638021 -0.01135363 0.00096621393 0.0014504291 -0.00050002156
0.013893931 0.007987644 -0.0064328127 -0.03193925 0.007050868 -0.010516527 0.01857139 0.0074359835
-0.012902053 -0.0049944497 -0.0003989649 -0.0007779943 0.0010538716 0.0032671806 0.001409717 -0.0051693004
-0.0045238337 -0.01009647 -0.009129761 0.009772912 -0.00025330338 -0.004690221 0.012503386 -0.0017129297
-0.0010972035 -0.011650247 0.0045662574 -0.012265253 0.0018267244 -0.0046413587 0.0036000733 0.00021794802
0.008047416 -0.0011157701 -0.0035914758 0.0066170217 -0.0044156443 -0.0009048933 0.010454408 0.00802086
0.0023543357 -0.0010268287 -0.000890343 -0.0025377336 0.011496708 -0.00225284 -0.002666265 -0.0025166753
0.008652757 -0.008499502 0.0019502111 -0.0026439829 -0.008552684 -0.0020776864 -0.008168447 -0.0036337578
-0.0075056697 0.008377619 -0.002044265 -0.008829399 0.0034198486 0.0006515021 0.004518305 -0.014840895
-0.014217381 -0.0063702776 -0.003617689 -0.0033443172 -0.0104844 -0.004498304 -0.009495177 -0.0038962786
-0.00436753 0.00071708305 -0.00076127646 0.01350594 0.018554462 -0.002949693 0.0115543995 0.00458894
-0.0148558915 -0.0051319893 -0.005248481 -0.002270175 -0.010031227 0.00067894853 0.0021742235 0.0026810362
0.0020493113 -0.025045013 0.0053064064 -0.008583103 0.0042860988 0.0056846184 -0.010244533 -0.010536291
-0.019929565 -0.0034277649 0.007775067 0.005542758 -0.009733502 0.0028695716 -0.008770171 -0.0037663453
-0.0034809595 -0.0010902421 -0.007248096 0.0094978055 -0.017925896 -0.012147105 -0.0077916407 0.010148867
0.0070173997 -0.0138217425 0.0007496372 0.003633991 -0.004045921 -9.975353e-05 0.0009981915 0.00064674317
-7.5273615e-06 0.013581723 0.0025780483 -0.0012052065 -0.017855253 -0.0076742135 -0.007364908 0.010096746
0.00264462 -0.00096088054 0.0034810826 0.009383197 0.0024181893 -0.0035886515 -0.0016009065 0.0048976173
0.00024077161 -0.015770555 -0.0065828334 -0.0010967049 0.0046283896 0.0091554215 -0.005305936 0.0087029105
0.011003876 0.0063009793 -0.0079924315 -0.0049798046 -0.011005029 0.0026266405 -0.009137923 0.0053728297
-0.018043846 -0.007988493 0.011291629 0.00010407176 -0.011081374 0.006881109 0.0015804697 0.0132327555
-0.004691865 -0.006412787 0.014199945 0.01613669 -0.0064037107 0.013443573 -0.019335546 0.0031804282
0.003072151 0.00037362747 0.0053674006 0.013550589 0.0023006166 -0.01170469 0.0059897294 -0.0015597453
-0.0011957496 0.0061586737 -0.0042127245 -0.009976273 -0.012565846 -0.00079331745 0.007058999 -1.2134201e-05

action_model._discrete_distribution.branches.0.bias f4 [5]
00000000: 0000 0000 0000 0000 0000 0000 0000 0000
00000010: 0000 0000
0.0 0.0 0.0 0.0 0.0

network_body._body_endoder.seq_layers.0.weight f4 [128, 1]
00000000: 335e 06be faae 7ebf c0bb c33f 0610 003f
00000010: a90c df3d 8e61 ddbf 24d6 1cbe 88e4 aebf
00000020: d918 3a3f 7528 403f 2399 9c3f d831 6fbf
00000030: ba64 9ebf 5b61 76bf 18bf f63d 036d f83e
00000040: e7f3 2f3f 48fa 443f 88da a9bf 9ef7 3e3f
00000050: ff0e dd3e 34a0 ce3e 5ad1 833f 312f 8ebe
00000060: 4fed 4f3f 2166 2d3e cbe7 4abe afa9 cdbf
00000070: 5bd0 273b 5dfd 993e 8483 68be cd64 97bf
00000080: 9f34 e83f 9ad2 843f 49c1 d13e 0403 293d
00000090: e652 6bbe 5a4a a2bf 7da0 9cbe 675a 583f
000000a0: 28fe 28bf b19d 6ebf 493c 073f e4db 47be
000000b0: f552 86bf 56a6 2e3c 1286 e13e 502c 9bbf
000000c0: 7bf7 83bf 7d88 3b3f de3e 7bbf daef 103f
000000d0: bc27 29be 90b3 9d3e c510 92bf f3cf bbbd
000000e0: b67f cfbf 0b11 83bb 53c6 c5be 0832 de3f
000000f0: 165a a1be ed70 49bf 1732 06be 1d03 e23f
00000100: 1efc 80bf 5d19 dd3d 8fbd 18bb fca0 b5bd
00000110: ac01 a83e e1d5 5bbf 00d6 f4be 048c c7bf
00000120: a56c 9ebf 1e32 503f 791a 633f d366 323f
00000130: 09f9 08c0 6f91 4b3f 712e 72bf 504e 61bd
00000140: 248b b23e 1474 a0bd 8342 5b3e 5453 d43f
00000150: 17c1 57bf 647b 363f 728b 9dbf 841d bfbf
00000160: 341b 23bf 4ae8 583f b478 29be 0f06 b93e
00000170: 3f36 943e 6315 0abe cf4e 7f3f 05c4 4cbe
00000180: a93f d5be 0e7b ef3e 538c bd3e f397 193f
00000190: 1f4a 29c0 64a8 02bf e709 403f d326 fabe
000001a0: 27da 853f e57c e2be 6338 e8be af69 28bf
000001b0: b470 3abf 9e1d 09bf 7dff 083f 260e b53f
000001c0: 2b70 be3e 6e55 1c3f f1a3 de3f 74aa 55bf
000001d0: c692 9abf fc91 ed3c a571 0dbf 0e33 52be
000001e0: 331e 78bf 4027 b63f 92f4 4c3e 93d3 da3f
000001f0: 71eb 7e3e 3936 853f c712 6fbe 6783 673e
-0.13121872 -0.99485743 1.5291672 0.5002445 0.108910866 -1.7295396 -0.15316063 -1.3663492
0.72694165 0.7506173 1.2234234 -0.9343543 -1.2374489 -0.962423 0.12048167 0.4852067
0.6873154 0.769444 -1.3269815 0.74596584 0.43175504 0.403566 1.0298264 -0.2777038
0.8122148 0.1693349 -0.19814985 -1.6067408 0.0025606367 0.30076113 -0.22706419 -1.1827637
1.8141059 1.037677 0.40967777 0.04126264 -0.22980842 -1.267894 -0.30591193 0.84512943
-0.6601281 -0.9320937 0.5282636 -0.19517475 -1.0494066 0.010659775 0.440476 -1.2122898
-1.03099 0.7325514 -0.981428 0.56615984 -0.16519064 0.30801058 -1.1411368 -0.091705225
-1.6210849 -0.0039998344 -0.38627872 1.7359018 -0.31514043 -0.78687936 -0.13105045 1.76572
-1.007694 0.10795853 -0.0023306345 -0.08868596 0.32813776 -0.8587323 -0.4781952 -1.5589604
-1.2376906 0.8132647 0.8871227 0.6968815 -2.1402 0.7951879 -0.94602114 -0.055006325
0.3487178 -0.0783464 0.21412091 1.658793 -0.84279007 0.7128203 -1.230818 -1.4930882
-0.63713384 0.84729445 -0.16549951 0.36137435 0.28947636 -0.13484721 0.9972963 -0.1999665
-0.4165013 0.4677357 0.3702112 0.5999748 -2.645149 -0.51038194 0.7501511 -0.48857746
1.04572 -0.44235912 -0.4535552 -0.6578626 -0.7282822 -0.5356082 0.53514844 1.4144943
0.37194952 0.61067855 1.7393781 -0.83463216 -1.2076042 0.029000275 -0.5525153 -0.20527288
-0.9692108 1.4230728 0.20015171 1.7095817 0.24894501 1.0407172 -0.23347007 0.2260872

network_body._body_endoder.seq_layers.0.bias f4 [128]
00000000: 0000 0000 0000 0000 0000 0000 0000 0000
00000010: 0000 0000 0000 0000 0000 0000 0000 0000
00000020: 0000 0000 0000 0000 0000 0000 0000 0000
00000030: 0000 0000 0000 0000 0000 0000 0000 0000
00000040: 0000 0000 0000 0000 0000 0000 0000 0000
00000050: 0000 0000 0000 0000 0000 0000 0000 0000
00000060: 0000 0000 0000 0000 0000 0000 0000 0000
00000070: 0000 0000 0000 0000 0000 0000 0000 0000
00000080: 0000 0000 0000 0000 0000 0000 0000 0000
00000090: 0000 0000 0000 0000 0000 0000 0000 0000
000000a0: 0000 0000 0000 0000 0000 0000 0000 0000
000000b0: 0000 0000 0000 0000 0000 0000 0000 0000
000000c0: 0000 0000 0000 0000 0000 0000 0000 0000
000000d0: 0000 0000 0000 0000 0000 0000 0000 0000
000000e0: 0000 0000 0000 0000 0000 0000 0000 0000
000000f0: 0000 0000 0000 0000 0000 0000 0000 0000
00000100: 0000 0000 0000 0000 0000 0000 0000 0000
00000110: 0000 0000 0000 0000 0000 0000 0000 0000
00000120: 0000 0000 0000 0000 0000 0000 0000 0000
00000130: 0000 0000 0000 0000 0000 0000 0000 0000
00000140: 0000 0000 0000 0000 0000 0000 0000 0000
00000150: 0000 0000 0000 0000 0000 0000 0000 0000
00000160: 0000 0000 0000 0000 0000 0000 0000 0000
00000170: 0000 0000 0000 0000 0000 0000 0000 0000
00000180: 0000 0000 0000 0000 0000 0000 0000 0000
00000190: 0000 0000 0000 0000 0000 0000 0000 0000
000001a0: 0000 0000 0000 0000 0000 0000 0000 0000
000001b0: 0000 0000 0000 0000 0000 0000 0000 0000
000001c0: 0000 0000 0000 0000 0000 0000 0000 0000
000001d0: 0000 0000 0000 0000 0000 0000 0000 0000
000001e0: 0000 0000 0000 0000 0000 0000 0000 0000
000001f0: 0000 0000 0000 0000 0000 0000 0000 0000
0.0 0.0 0.0 0.0 0.0 0.0 0.0 0.0
0.0 0.0 0.0 0.0 0.0 0.0 0.0 0.0
0.0 0.0 0.0 0.0 0.0 0.0 0.0 0.0
0.0 0.0 0.0 0.0 0.0 0.0 0.0 0.0
0.0 0.0 0.0 0.0 0.0 0.0 0.0 0.0
0.0 0.0 0.0 0.0 0.0 0.0 0.0 0.0
0.0 0.0 0.0 0.0 0.0 0.0 0.0 0.0
0.0 0.0 0.0 0.0 0.0 0.0 0.0 0.0
0.0 0.0 0.0 0.0 0.0 0.0 0.0 0.0
0.0 0.0 0.0 0.0 0.0 0.0 0.0 0.0
0.0 0.0 0.0 0.0 0.0 0.0 0.0 0.0
0.0 0.0 0.0 0.0 0.0 0.0 0.0 0.0
0.0 0.0 0.0 0.0 0.0 0.0 0.0 0.0
0.0 0.0 0.0 0.0 0.0 0.0 0.0 0.0
0.0 0.0 0.0 0.0 0.0 0.0 0.0 0.0
0.0 0.0 0.0 0.0 0.0 0.0 0.0 0.0

network_body._body_endoder.seq_layers.2.weight f4 [128, 128]
00000000: b980 5fbd 9083 053d ef54 00be 8320 08bd
00000010: f6c5 ccbc a4f8 19bd 848a d23d c366 943b
00000020: 41f8 84bc 9bcd c8bc 2564 e1bd 8fec 8c3c
00000030: 1b0a 82bc 9487 8dbe 9260 3abe ebc3 09be
00000040: f96f 8cbd 889e 133d f3fd 19bb c5f9 75bd
00000050: a277 d7bc 4711 d63d 82d6 bdbd a939 b4bd
00000060: c33f 3abe 124e 9cbd 377a b83d cbb3 663c
00000070: f5e7 15bd 9655 92bc ffc7 f3bd 606b 0b3d
00000080: 68dd f7bc a7e5 0b3e 665b 5bbd bab9 043e
00000090: bef2 933d dbb9 09bc fa2b 553d 751d 8cbc
000000a0: 0540 a83d aed0 523c 0dc9 db3b 04d2 21be
000000b0: 53c6 bfbd f733 ecbd 531a 7d3c c73c a2bb
000000c0: 3c20 c73d 97ec c1bc 6d0d 50be 7525 42bd
000000d0: 67d8 143e ec20 d3bd 128d 6e3d 92a3 da3c
000000e0: 14d6 1e3b 9386 9f3d 0377 083d f5bd c3bd
000000f0: 94b1 a9bd 8c57 98bc 2dc1 7dbd be3b 25bd
00000100: f478 26ba 289d 07be dec0 4a3d 1aee 18bd
00000110: a649 c03c e085 033d 1774 e63c ddf6 133e
00000120: a003 7fbc 7702 de3a f97d 84bd 6214 fd3d
00000130: f193 d7bd 69e0 433d 3c95 88bd a5d7 0fbe
00000140: def0 95bd a813 4cbd ddef 1bbe 6599 12bd
00000150: 5e89 9dbd 74a4 cdbd 962b 873d 1ba4 f7bc
00000160: fa0b 1a3d e111 d6bd e26f 64bc 9439 23bc
00000170: c0d1 81bc 5a87 cdbc 55de b4bd bea2 79bd
00000180: eefe eabc 7ee8 9fbd 0def 273c b666 7d3c
00000190: 3225 f9bd e473 283b c95d ca3d 7bd2 18bc
000001a0: ee02 9f3d 06e7 80bd 654a c23d efae 063b
000001b0: c8fb ae3c dd1a 43be 4dc3 e03b ab76 553d
000001c0: 3009 7abc 1c24 d4bc 907f 173d 93d6 113e
000001d0: fe08 88bd 9633 78bd 3b98 db3d 993b 33be
000001e0: 8594 a8bc d698 11bd 8d2e a73d 39cb fabd
000001f0: 3c26 823d 6255 273e 6b94 a93d bd96 43bd
00000200: e70e 2cbd 0539 3ebe 1eeb 0fbe a703 7d3d
00000210: e519 9f3d 943b 463e 13ca b9bd fee7 0e3e
00000220: 9169 833c 351a 523e 32af 1d3c 19a8 a938
00000230: 41c4 153e 7e6d 0f3d ea67 8d3d 1bc9 503d
00000240: 44f7 49bd 2d5e c9bd 78ee 0a3e 8c43 053d
00000250: 3d42 1e3d 1046 c93d adf7 80bd ce7f 943c
00000260: 25b7 36bc 6731 18be f0b7 c13c cf81 abbc
00000270: 705f 5eba 8ecb 2a3d 23e6 83bc 7574 273e
00000280: 4a61 55bd 72cc f03d a5bd ad3c 498e fd3d
00000290: 2a08 f03d a43e 033e ca32 0f3e 06a1 40bd
000002a0: e988 9f3d 5a1f e4bd b428 133a 4f65 1abd
000002b0: d698 7c3d c131 983d 32ab 25be fa72 6dbd
000002c0: 161a aa3c 3472 8dbc 37dc 3c3c 976f b6bc
000002d0: bbc9 7abd bc47 dfbd 1972 b1bc 6dab a13d
000002e0: 687e 5b3d bb02 90bd 7543 c93d 82c4 8c3c
000002f0: 61ae 37be ef10 87bd d614 a13d 6835 b2ba
00000300: c174 9dbc c5d8 3fbd a85c 1ebd c5eb 0a3d
00000310: 6d09 ae3d ab51 27bd ab47 c3bd 509b 8abd
00000320: 834a 853c 52de 8e3d cb0f c93d b654 423b
00000330: b453 243c b053 213d 59af 52bd b87c 6abd
00000340: 6e88 623c 4ee8 c83d 6e6e af3d c12b a3bd
00000350: 6a69 c8bb 7660 e53d 5ffb cabc 8100 50bc
00000360: 34e3 03bd 0619 24be a8d1 00be 2225 763d
00000370: 7be0 fd3d 76f6 4b3d c638 283d 97a5 bc3d
00000380: 76b6 8fbd 6410 20be ebe3 64bc cf76 0f3d
00000390: 6306 acbd 6674 a83d 7153 80bc 3a9d a43d
000003a0: 9382 a9bd 3c4a 2a3d 8688 9dbd ebe1 903c
000003b0: 3ff3 85bd 1c63 703c 180b ba3c 8bdc 6cbd
000003c0: 045f 66be 12ce 01be 52ca b9bc 5c4c 66bd
000003d0: c5cd cf3d 2a79 883c 7f43 3cbd c502 b03d
000003e0: 608e 34bd 8538 f0bd 3680 433e 0247 8ebd
000003f0: 4e6e ab3c 1e3e 7c3a 3af1 213d d15b 533d
-0.05456612 0.03259617 -0.125324 -0.03323413 -0.024996739 -0.037590638 0.10280326 0.0045288517
-0.016231658 -0.024512103 -0.11005429 0.017202644 -0.01587396 -0.276425 -0.18200901 -0.13453643
-0.068572946 0.03603986 -0.0023497313 -0.060052652 -0.026302163 0.10452514 -0.0926943 -0.0880006
-0.18188386 -0.07632078 0.09007686 0.014080952 -0.036598165 -0.017863076 -0.119033806 0.034037948
-0.030256942 0.13661824 -0.05355396 0.12961474 0.07224034 -0.008406128 0.052043892 -0.01710389
0.08215336 0.012867136 0.0067073167 -0.15802771 -0.09363999 -0.11533349 0.015448171 -0.004951093
0.09722945 -0.023672385 -0.20317622 -0.047399003 0.14535676 -0.10309014 0.058240004 0.026689325
0.0024236487 0.0778934 0.033316623 -0.09557716 -0.082858235 -0.018596433 -0.061951805 -0.040340178
-0.0006350421 -0.13243544 0.04950034 -0.037336446 0.023472618 0.032110095 0.028131528 0.1444964
-0.015564829 0.001693799 -0.0646934 0.12357403 -0.105262645 0.047821436 -0.06669089 -0.14047106
-0.073213324 -0.049823433 -0.1522822 -0.03579082 -0.07692216 -0.100411326 0.0660011 -0.030229619
0.037609078 -0.10452629 -0.013942691 -0.009962458 -0.015847087 -0.025088955 -0.08831469 -0.06094622
-0.028686013 -0.07808016 0.010249865 0.015466383 -0.121652976 0.0025703842 0.09881169 -0.009327526
0.07764231 -0.06294064 0.09486846 0.0020551046 0.021360293 -0.19053216 0.006859219 0.052115124
-0.0152609795 -0.025896125 0.036986887 0.1424201 -0.0664234 -0.06059607 0.10722395 -0.17503203
-0.020578632 -0.035546146 0.08163176 -0.12245793 0.06354949 0.16341165 0.082802616 -0.047751177
-0.0420064 -0.18576439 -0.14054534 0.06177106 0.07768611 0.19358665 -0.09071746 0.13955685
0.016041549 0.2051781 0.009624289 8.0898586e-05 0.14625646 0.03501653 0.06904586 0.05097304
-0.049308077 -0.09832416 0.13567531 0.03253512 0.03863739 0.098278165 -0.062972404 0.018127348
-0.0111520635 -0.14862595 0.023647279 -0.020935921 -0.0008482849 0.04169803 -0.016100949 0.16353019
-0.052094735 0.11757745 0.021208594 0.12380654 0.11720307 0.12816864 0.13984218 -0.047028564
0.077897854 -0.11138792 0.000561367 -0.03769427 0.061669193 0.07431365 -0.16178587 -0.05797098
0.020764392 -0.01726637 0.011527113 -0.022270007 -0.06122754 -0.10902354 -0.021660851 0.07894025
0.053587347 -0.07031771 0.098273195 0.017183546 -0.17937614 -0.06595027 0.07865302 -0.0013596239
-0.019220712 -0.046837587 -0.038662583 0.033916254 0.084978916 -0.04084937 -0.09535154 -0.06767905
0.016270882 0.06975998 0.098174654 0.0029652542 0.010029722 0.03938645 -0.051436756 -0.057247847
0.013826473 0.098099336 0.08565985 -0.0796733 -0.006116082 0.11200039 -0.024778066 -0.012695433
-0.0321991 -0.1602517 -0.12579978 0.060094006 0.12396332 0.04979559 0.04106977 0.09211271
-0.070172235 -0.15631253 -0.0139703555 0.035025414 -0.08399656 0.08225326 -0.015664788 0.08037801
-0.08276858 0.0415747 -0.076920554 0.017685851 -0.06540536 0.014672067 0.022710368 -0.057827514
-0.22497183 -0.12676266 -0.022679482 -0.056225166 0.10146669 0.016659338 -0.045962807 0.08594278
-0.044081092 -0.1172953 0.19091877 -0.069471374 0.02092662 0.00096222933 0.039536692 0.051601235

network_body._body_endoder.seq_layers.2.bias f4 [128]
00000000: 0000 0000 0000 0000 0000 0000 0000 0000
00000010: 0000 0000 0000 0000 0000 0000 0000 0000
00000020: 0000 0000 0000 0000 0000 0000 0000 0000
00000030: 0000 0000 0000 0000 0000 0000 0000 0000
00000040: 0000 0000 0000 0000 0000 0000 0000 0000
00000050: 0000 0000 0000 0000 0000 0000 0000 0000
00000060: 0000 0000 0000 0000 0000 0000 0000 0000
00000070: 0000 0000 0000 0000 0000 0000 0000 0000
00000080: 0000 0000 0000 0000 0000 0000 0000 0000
00000090: 0000 0000 0000 0000 0000 0000 0000 0000
000000a0: 0000 0000 0000 0000 0000 0000 0000 0000
000000b0: 0000 0000 0000 0000 0000 0000 0000 0000
000000c0: 0000 0000 0000 0000 0000 0000 0000 0000
000000d0: 0000 0000 0000 0000 0000 0000 0000 0000
000000e0: 0000 0000 0000 0000 0000 0000 0000 0000
000000f0: 0000 0000 0000 0000 0000 0000 0000 0000
00000100: 0000 0000 0000 0000 0000 0000 0000 0000
00000110: 0000 0000 0000 0000 0000 0000 0000 0000
00000120: 0000 0000 0000 0000 0000 0000 0000 0000
00000130: 0000 0000 0000 0000 0000 0000 0000 0000
00000140: 0000 0000 0000 0000 0000 0000 0000 0000
00000150: 0000 0000 0000 0000 0000 0000 0000 0000
00000160: 0000 0000 0000 0000 0000 0000 0000 0000
00000170: 0000 0000 0000 0000 0000 0000 0000 0000
00000180: 0000 0000 0000 0000 0000 0000 0000 0000
00000190: 0000 0000 0000 0000 0000 0000 0000 0000
000001a0: 0000 0000 0000 0000 0000 0000 0000 0000
000001b0: 0000 0000 0000 0000 0000 0000 0000 0000
000001c0: 0000 0000 0000 0000 0000 0000 0000 0000
000001d0: 0000 0000 0000 0000 0000 0000 0000 0000
000001e0: 0000 0000 0000 0000 0000 0000 0000 0000
000001f0: 0000 0000 0000 0000 0000 0000 0000 0000
0.0 0.0 0.0 0.0 0.0 0.0 0.0 0.0
0.0 0.0 0.0 0.0 0.0 0.0 0.0 0.0
0.0 0.0 0.0 0.0 0.0 0.0 0.0 0.0
0.0 0.0 0.0 0.0 0.0 0.0 0.0 0.0
0.0 0.0 0.0 0.0 0.0 0.0 0.0 0.0
0.0 0.0 0.0 0.0 0.0 0.0 0.0 0.0
0.0 0.0 0.0 0.0 0.0 0.0 0.0 0.0
0.0 0.0 0.0 0.0 0.0 0.0 0.0 0.0
0.0 0.0 0.0 0.0 0.0 0.0 0.0 0.0
0.0 0.0 0.0 0.0 0.0 0.0 0.0 0.0
0.0 0.0 0.0 0.0 0.0 0.0 0.0 0.0
0.0 0.0 0.0 0.0 0.0 0.0 0.0 0.0
0.0 0.0 0.0 0.0 0.0 0.0 0.0 0.0
0.0 0.0 0.0 0.0 0.0 0.0 0.0 0.0
0.0 0.0 0.0 0.0 0.0 0.0 0.0 0.0
0.0 0.0 0.0 0.0 0.0 0.0 0.0 0.0

value_heads.value_heads.extrinsic.weight f4 [1, 128]
00000000: c879 86bc d006 acbc 3e75 04be f491 9d3d
00000010: 2221 303e 805e 6b3d ae2b 0b3e 5850 fa3d
00000020: 64e3 21bd a44b 9f3d 7009 953d e401 d83d
00000030: d044 0c3e d2d3 413e f0d3 eabd 4635 1b3e
00000040: 2462 a03d 58bf 723d 500d b0bc d8f2 0a3e
00000050: 0061 28be 4ae6 4b3e 00aa 5fbb 9806 0abd
00000060: 2873 ccbc 90a7 773d dc5f e53d 881e 3ebd
00000070: 00b4 073d 80c1 cdbc d961 3fbe c0a7 ac3c
00000080: 3c96 b03d 1800 203d 5e45 1dbe bcc3 a4bd
00000090: 1807 7f3d c868 0f3d a4b2 38be daca 233e
000000a0: c0a0 d2bc 6cec ce3d 3a22 30be 3eb1 333e
000000b0: 9675 063e e699 ecbd b894 d93d ab70 4fbe
000000c0: ac2d 47be 6c23 e6bd efd9 47be ec16 b0bd
000000d0: cc73 093e 102d f73d ac7b 9b3d d88b ce3d
000000e0: e65e 08be f0ec c7bc bec0 9cbd 8017 12bb
000000f0: 78c1 243e be01 08be a046 ab3d 68ea 5f3d
00000100: b8c7 373e 2c71 6cbd 1ad7 47be 32e5 0f3e
00000110: 4d4c 2fbe ac5c 00be e480 37be b08e 08be
00000120: a8eb 97bc 58bf cc3c 90bd 18bd 10c8 0abe
00000130: 10e2 0ebc cc64 5cbe 3a66 1f3e 005e 78bc
00000140: 80d2 d93b 6fbb 32be a06f 2dbd ec3d 313e
00000150: a0d1 163e 7274 39be 7c5b de3d 18b7 2e3e
00000160: c8b7 013d 1a4e 5c3e bce6 3abe e0f2 1e3d
00000170: 54a7 33bd b7ed 57be 1a28 343e d821 c43c
00000180: 4006 3dbb a4b4 58be 6848 fa3c 6cdd f73d
00000190: 20d2 df3d aaf4 533e 403a 7bbc f0a0 c6bd
000001a0: 9891 89bd 82f0 363e f065 cf3d 2617 5cbe
000001b0: 7c32 5b3e 401c ae3d 70ac 5cbd 30dc a63c
000001c0: c02e 8cbd a464 cb3d 341f 4dbe a408 51be
000001d0: 4612 1fbe da9a 423e 5085 d3bc bc1f 47bd
000001e0: fac6 a3bd 3294 11be f011 653d b218 55be
000001f0: f026 c03d b832 da3c b098 8a3c 7c33 133e
-0.016415492 -0.020999342 -0.1293535 0.07693854 0.17200139 0.05746317 0.13590881 0.122223556
-0.039523497 0.07778099 0.07277191 0.105472356 0.13698125 0.1892846 -0.11466205 0.15157041
0.07831219 0.05926451 -0.021490723 0.135692 -0.16443253 0.19912067 -0.0034128428 -0.033697695
-0.024957255 0.060462534 0.11199924 -0.046415836 0.033130646 -0.025116682 -0.1868967 0.021076083
0.08622405 0.03906259 -0.15358493 -0.08045146 0.062262625 0.035012037 -0.18036896 0.1599535
-0.025711417 0.10103688 -0.17200556 0.17548081 0.13130793 -0.11552791 0.10624069 -0.20257823
-0.19451016 -0.11237225 -0.19516729 -0.08598122 0.13423079 0.12069142 0.07591948 0.10085267
-0.13317451 -0.024404973 -0.0765395 -0.002229184 0.16089427 -0.13281915 0.0836308 0.054666907
0.1794728 -0.057725117 -0.19515648 0.14052275 -0.1711895 -0.12535352 -0.17920262 -0.13335681
-0.018544987 0.024993584 -0.037290156 -0.1355288 -0.00872089 -0.21522826 0.1556634 -0.01515913
0.006647408 -0.17454313 -0.042342782 0.17308778 0.14728403 -0.18110827 0.10857293 0.17062032
0.031669408 0.21514168 -0.1825208 0.038805842 -0.04386075 -0.21086775 0.17593423 0.02394192
-0.0028842837 -0.21162659 0.030552104 0.1210278 0.1092875 0.206988 -0.015333712 -0.09698665
-0.06717223 0.17865184 0.10126865 -0.21493205 0.21405977 0.08501482 -0.053875387 0.020368665
-0.06844854 0.09931305 -0.20031434 -0.20413452 -0.15534315 0.19004384 -0.025820404 -0.04861425
-0.07996936 -0.14216688 0.05592531 -0.20810202 0.09382427 0.026635513 0.01691851 0.14375108
